module {
  aie.device(npu2) {
    func.func private @zero_kernel_bf16(memref<128x128xbf16>) attributes {link_with = "mm_128x64x128.o"}
    func.func private @matmul_vectorized_different_datatypes(memref<32x64xbf16>, memref<64x16x!aiex.bfp<"v8bfp16ebs8">>, memref<128x128xbf16>) attributes {link_with = "mm_128x64x128.o"}
    %shim_noc_tile_0_0 = aie.tile(0, 0) {controller_id = #aie.packet_info<pkt_type = 0, pkt_id = 15>}
    %shim_noc_tile_1_0 = aie.tile(1, 0) {controller_id = #aie.packet_info<pkt_type = 0, pkt_id = 15>}
    %shim_noc_tile_2_0 = aie.tile(2, 0) {controller_id = #aie.packet_info<pkt_type = 0, pkt_id = 15>}
    %shim_noc_tile_3_0 = aie.tile(3, 0) {controller_id = #aie.packet_info<pkt_type = 0, pkt_id = 15>}
    %shim_noc_tile_4_0 = aie.tile(4, 0) {controller_id = #aie.packet_info<pkt_type = 0, pkt_id = 15>}
    %shim_noc_tile_5_0 = aie.tile(5, 0) {controller_id = #aie.packet_info<pkt_type = 0, pkt_id = 15>}
    %shim_noc_tile_6_0 = aie.tile(6, 0) {controller_id = #aie.packet_info<pkt_type = 0, pkt_id = 15>}
    %shim_noc_tile_7_0 = aie.tile(7, 0) {controller_id = #aie.packet_info<pkt_type = 0, pkt_id = 15>}
    %mem_tile_0_1 = aie.tile(0, 1) {controller_id = #aie.packet_info<pkt_type = 0, pkt_id = 26>}
    %mem_tile_1_1 = aie.tile(1, 1) {controller_id = #aie.packet_info<pkt_type = 0, pkt_id = 26>}
    %mem_tile_2_1 = aie.tile(2, 1) {controller_id = #aie.packet_info<pkt_type = 0, pkt_id = 26>}
    %mem_tile_3_1 = aie.tile(3, 1) {controller_id = #aie.packet_info<pkt_type = 0, pkt_id = 26>}
    %mem_tile_4_1 = aie.tile(4, 1) {controller_id = #aie.packet_info<pkt_type = 0, pkt_id = 26>}
    %mem_tile_5_1 = aie.tile(5, 1) {controller_id = #aie.packet_info<pkt_type = 0, pkt_id = 26>}
    %mem_tile_6_1 = aie.tile(6, 1) {controller_id = #aie.packet_info<pkt_type = 0, pkt_id = 26>}
    %mem_tile_7_1 = aie.tile(7, 1) {controller_id = #aie.packet_info<pkt_type = 0, pkt_id = 26>}
    %tile_0_2 = aie.tile(0, 2) {controller_id = #aie.packet_info<pkt_type = 0, pkt_id = 27>}
    %tile_1_2 = aie.tile(1, 2) {controller_id = #aie.packet_info<pkt_type = 0, pkt_id = 27>}
    %tile_2_2 = aie.tile(2, 2) {controller_id = #aie.packet_info<pkt_type = 0, pkt_id = 27>}
    %tile_3_2 = aie.tile(3, 2) {controller_id = #aie.packet_info<pkt_type = 0, pkt_id = 27>}
    %tile_4_2 = aie.tile(4, 2) {controller_id = #aie.packet_info<pkt_type = 0, pkt_id = 27>}
    %tile_5_2 = aie.tile(5, 2) {controller_id = #aie.packet_info<pkt_type = 0, pkt_id = 27>}
    %tile_6_2 = aie.tile(6, 2) {controller_id = #aie.packet_info<pkt_type = 0, pkt_id = 27>}
    %tile_7_2 = aie.tile(7, 2) {controller_id = #aie.packet_info<pkt_type = 0, pkt_id = 27>}
    %tile_0_3 = aie.tile(0, 3) {controller_id = #aie.packet_info<pkt_type = 0, pkt_id = 29>}
    %tile_1_3 = aie.tile(1, 3) {controller_id = #aie.packet_info<pkt_type = 0, pkt_id = 29>}
    %tile_2_3 = aie.tile(2, 3) {controller_id = #aie.packet_info<pkt_type = 0, pkt_id = 29>}
    %tile_3_3 = aie.tile(3, 3) {controller_id = #aie.packet_info<pkt_type = 0, pkt_id = 29>}
    %tile_4_3 = aie.tile(4, 3) {controller_id = #aie.packet_info<pkt_type = 0, pkt_id = 29>}
    %tile_5_3 = aie.tile(5, 3) {controller_id = #aie.packet_info<pkt_type = 0, pkt_id = 29>}
    %tile_6_3 = aie.tile(6, 3) {controller_id = #aie.packet_info<pkt_type = 0, pkt_id = 29>}
    %tile_7_3 = aie.tile(7, 3) {controller_id = #aie.packet_info<pkt_type = 0, pkt_id = 29>}
    %tile_0_4 = aie.tile(0, 4) {controller_id = #aie.packet_info<pkt_type = 0, pkt_id = 30>}
    %tile_1_4 = aie.tile(1, 4) {controller_id = #aie.packet_info<pkt_type = 0, pkt_id = 30>}
    %tile_2_4 = aie.tile(2, 4) {controller_id = #aie.packet_info<pkt_type = 0, pkt_id = 30>}
    %tile_3_4 = aie.tile(3, 4) {controller_id = #aie.packet_info<pkt_type = 0, pkt_id = 30>}
    %tile_4_4 = aie.tile(4, 4) {controller_id = #aie.packet_info<pkt_type = 0, pkt_id = 30>}
    %tile_5_4 = aie.tile(5, 4) {controller_id = #aie.packet_info<pkt_type = 0, pkt_id = 30>}
    %tile_6_4 = aie.tile(6, 4) {controller_id = #aie.packet_info<pkt_type = 0, pkt_id = 30>}
    %tile_7_4 = aie.tile(7, 4) {controller_id = #aie.packet_info<pkt_type = 0, pkt_id = 30>}
    %tile_0_5 = aie.tile(0, 5) {controller_id = #aie.packet_info<pkt_type = 0, pkt_id = 31>}
    %tile_1_5 = aie.tile(1, 5) {controller_id = #aie.packet_info<pkt_type = 0, pkt_id = 31>}
    %tile_2_5 = aie.tile(2, 5) {controller_id = #aie.packet_info<pkt_type = 0, pkt_id = 31>}
    %tile_3_5 = aie.tile(3, 5) {controller_id = #aie.packet_info<pkt_type = 0, pkt_id = 31>}
    %tile_4_5 = aie.tile(4, 5) {controller_id = #aie.packet_info<pkt_type = 0, pkt_id = 31>}
    %tile_5_5 = aie.tile(5, 5) {controller_id = #aie.packet_info<pkt_type = 0, pkt_id = 31>}
    %tile_6_5 = aie.tile(6, 5) {controller_id = #aie.packet_info<pkt_type = 0, pkt_id = 31>}
    %tile_7_5 = aie.tile(7, 5) {controller_id = #aie.packet_info<pkt_type = 0, pkt_id = 31>}
    %C_L2L3_7_cons_prod_lock_0 = aie.lock(%shim_noc_tile_7_0, 2) {init = 0 : i32, sym_name = "C_L2L3_7_cons_prod_lock_0"}
    %C_L2L3_7_cons_cons_lock_0 = aie.lock(%shim_noc_tile_7_0, 3) {init = 0 : i32, sym_name = "C_L2L3_7_cons_cons_lock_0"}
    %C_L2L3_7_buff_0 = aie.buffer(%mem_tile_7_1) {address = 0 : i32, sym_name = "C_L2L3_7_buff_0"} : memref<512x128xbf16> 
    %C_L2L3_7_buff_1 = aie.buffer(%mem_tile_7_1) {address = 131072 : i32, sym_name = "C_L2L3_7_buff_1"} : memref<512x128xbf16> 
    %C_L2L3_7_prod_lock_0 = aie.lock(%mem_tile_7_1, 2) {init = 2 : i32, sym_name = "C_L2L3_7_prod_lock_0"}
    %C_L2L3_7_cons_lock_0 = aie.lock(%mem_tile_7_1, 3) {init = 0 : i32, sym_name = "C_L2L3_7_cons_lock_0"}
    %C_L2L3_7_prod_lock_1 = aie.lock(%mem_tile_7_1, 4) {init = 2 : i32, sym_name = "C_L2L3_7_prod_lock_1"}
    %C_L2L3_7_cons_lock_1 = aie.lock(%mem_tile_7_1, 5) {init = 0 : i32, sym_name = "C_L2L3_7_cons_lock_1"}
    %C_L2L3_7_prod_lock_2 = aie.lock(%mem_tile_7_1, 6) {init = 2 : i32, sym_name = "C_L2L3_7_prod_lock_2"}
    %C_L2L3_7_cons_lock_2 = aie.lock(%mem_tile_7_1, 7) {init = 0 : i32, sym_name = "C_L2L3_7_cons_lock_2"}
    %C_L2L3_7_prod_lock_3 = aie.lock(%mem_tile_7_1, 8) {init = 2 : i32, sym_name = "C_L2L3_7_prod_lock_3"}
    %C_L2L3_7_cons_lock_3 = aie.lock(%mem_tile_7_1, 9) {init = 0 : i32, sym_name = "C_L2L3_7_cons_lock_3"}
    %C_L1L2_7_3_buff_0 = aie.buffer(%tile_7_5) {address = 3328 : i32, sym_name = "C_L1L2_7_3_buff_0"} : memref<128x128xbf16> 
    %C_L1L2_7_3_prod_lock_0 = aie.lock(%tile_7_5, 4) {init = 1 : i32, sym_name = "C_L1L2_7_3_prod_lock_0"}
    %C_L1L2_7_3_cons_lock_0 = aie.lock(%tile_7_5, 5) {init = 0 : i32, sym_name = "C_L1L2_7_3_cons_lock_0"}
    %C_L1L2_7_2_buff_0 = aie.buffer(%tile_7_4) {address = 3328 : i32, sym_name = "C_L1L2_7_2_buff_0"} : memref<128x128xbf16> 
    %C_L1L2_7_2_prod_lock_0 = aie.lock(%tile_7_4, 4) {init = 1 : i32, sym_name = "C_L1L2_7_2_prod_lock_0"}
    %C_L1L2_7_2_cons_lock_0 = aie.lock(%tile_7_4, 5) {init = 0 : i32, sym_name = "C_L1L2_7_2_cons_lock_0"}
    %C_L1L2_7_1_buff_0 = aie.buffer(%tile_7_3) {address = 3328 : i32, sym_name = "C_L1L2_7_1_buff_0"} : memref<128x128xbf16> 
    %C_L1L2_7_1_prod_lock_0 = aie.lock(%tile_7_3, 4) {init = 1 : i32, sym_name = "C_L1L2_7_1_prod_lock_0"}
    %C_L1L2_7_1_cons_lock_0 = aie.lock(%tile_7_3, 5) {init = 0 : i32, sym_name = "C_L1L2_7_1_cons_lock_0"}
    %C_L1L2_7_0_buff_0 = aie.buffer(%tile_7_2) {address = 3328 : i32, sym_name = "C_L1L2_7_0_buff_0"} : memref<128x128xbf16> 
    %C_L1L2_7_0_prod_lock_0 = aie.lock(%tile_7_2, 4) {init = 1 : i32, sym_name = "C_L1L2_7_0_prod_lock_0"}
    %C_L1L2_7_0_cons_lock_0 = aie.lock(%tile_7_2, 5) {init = 0 : i32, sym_name = "C_L1L2_7_0_cons_lock_0"}
    %C_L2L3_6_cons_prod_lock_0 = aie.lock(%shim_noc_tile_6_0, 4) {init = 0 : i32, sym_name = "C_L2L3_6_cons_prod_lock_0"}
    %C_L2L3_6_cons_cons_lock_0 = aie.lock(%shim_noc_tile_6_0, 5) {init = 0 : i32, sym_name = "C_L2L3_6_cons_cons_lock_0"}
    %C_L2L3_6_buff_0 = aie.buffer(%mem_tile_6_1) {address = 0 : i32, sym_name = "C_L2L3_6_buff_0"} : memref<512x128xbf16> 
    %C_L2L3_6_buff_1 = aie.buffer(%mem_tile_7_1) {address = 262144 : i32, sym_name = "C_L2L3_6_buff_1"} : memref<512x128xbf16> 
    %C_L2L3_6_prod_lock_0 = aie.lock(%mem_tile_6_1, 4) {init = 2 : i32, sym_name = "C_L2L3_6_prod_lock_0"}
    %C_L2L3_6_cons_lock_0 = aie.lock(%mem_tile_6_1, 5) {init = 0 : i32, sym_name = "C_L2L3_6_cons_lock_0"}
    %C_L2L3_6_prod_lock_1 = aie.lock(%mem_tile_6_1, 6) {init = 2 : i32, sym_name = "C_L2L3_6_prod_lock_1"}
    %C_L2L3_6_cons_lock_1 = aie.lock(%mem_tile_6_1, 7) {init = 0 : i32, sym_name = "C_L2L3_6_cons_lock_1"}
    %C_L2L3_6_prod_lock_2 = aie.lock(%mem_tile_6_1, 8) {init = 2 : i32, sym_name = "C_L2L3_6_prod_lock_2"}
    %C_L2L3_6_cons_lock_2 = aie.lock(%mem_tile_6_1, 9) {init = 0 : i32, sym_name = "C_L2L3_6_cons_lock_2"}
    %C_L2L3_6_prod_lock_3 = aie.lock(%mem_tile_6_1, 10) {init = 2 : i32, sym_name = "C_L2L3_6_prod_lock_3"}
    %C_L2L3_6_cons_lock_3 = aie.lock(%mem_tile_6_1, 11) {init = 0 : i32, sym_name = "C_L2L3_6_cons_lock_3"}
    %C_L1L2_6_3_buff_0 = aie.buffer(%tile_6_5) {address = 3328 : i32, sym_name = "C_L1L2_6_3_buff_0"} : memref<128x128xbf16> 
    %C_L1L2_6_3_prod_lock_0 = aie.lock(%tile_6_5, 4) {init = 1 : i32, sym_name = "C_L1L2_6_3_prod_lock_0"}
    %C_L1L2_6_3_cons_lock_0 = aie.lock(%tile_6_5, 5) {init = 0 : i32, sym_name = "C_L1L2_6_3_cons_lock_0"}
    %C_L1L2_6_2_buff_0 = aie.buffer(%tile_6_4) {address = 3328 : i32, sym_name = "C_L1L2_6_2_buff_0"} : memref<128x128xbf16> 
    %C_L1L2_6_2_prod_lock_0 = aie.lock(%tile_6_4, 4) {init = 1 : i32, sym_name = "C_L1L2_6_2_prod_lock_0"}
    %C_L1L2_6_2_cons_lock_0 = aie.lock(%tile_6_4, 5) {init = 0 : i32, sym_name = "C_L1L2_6_2_cons_lock_0"}
    %C_L1L2_6_1_buff_0 = aie.buffer(%tile_6_3) {address = 3328 : i32, sym_name = "C_L1L2_6_1_buff_0"} : memref<128x128xbf16> 
    %C_L1L2_6_1_prod_lock_0 = aie.lock(%tile_6_3, 4) {init = 1 : i32, sym_name = "C_L1L2_6_1_prod_lock_0"}
    %C_L1L2_6_1_cons_lock_0 = aie.lock(%tile_6_3, 5) {init = 0 : i32, sym_name = "C_L1L2_6_1_cons_lock_0"}
    %C_L1L2_6_0_buff_0 = aie.buffer(%tile_6_2) {address = 3328 : i32, sym_name = "C_L1L2_6_0_buff_0"} : memref<128x128xbf16> 
    %C_L1L2_6_0_prod_lock_0 = aie.lock(%tile_6_2, 4) {init = 1 : i32, sym_name = "C_L1L2_6_0_prod_lock_0"}
    %C_L1L2_6_0_cons_lock_0 = aie.lock(%tile_6_2, 5) {init = 0 : i32, sym_name = "C_L1L2_6_0_cons_lock_0"}
    %C_L2L3_5_cons_prod_lock_0 = aie.lock(%shim_noc_tile_5_0, 2) {init = 0 : i32, sym_name = "C_L2L3_5_cons_prod_lock_0"}
    %C_L2L3_5_cons_cons_lock_0 = aie.lock(%shim_noc_tile_5_0, 3) {init = 0 : i32, sym_name = "C_L2L3_5_cons_cons_lock_0"}
    %C_L2L3_5_buff_0 = aie.buffer(%mem_tile_5_1) {address = 0 : i32, sym_name = "C_L2L3_5_buff_0"} : memref<512x128xbf16> 
    %C_L2L3_5_buff_1 = aie.buffer(%mem_tile_5_1) {address = 131072 : i32, sym_name = "C_L2L3_5_buff_1"} : memref<512x128xbf16> 
    %C_L2L3_5_prod_lock_0 = aie.lock(%mem_tile_5_1, 2) {init = 2 : i32, sym_name = "C_L2L3_5_prod_lock_0"}
    %C_L2L3_5_cons_lock_0 = aie.lock(%mem_tile_5_1, 3) {init = 0 : i32, sym_name = "C_L2L3_5_cons_lock_0"}
    %C_L2L3_5_prod_lock_1 = aie.lock(%mem_tile_5_1, 4) {init = 2 : i32, sym_name = "C_L2L3_5_prod_lock_1"}
    %C_L2L3_5_cons_lock_1 = aie.lock(%mem_tile_5_1, 5) {init = 0 : i32, sym_name = "C_L2L3_5_cons_lock_1"}
    %C_L2L3_5_prod_lock_2 = aie.lock(%mem_tile_5_1, 6) {init = 2 : i32, sym_name = "C_L2L3_5_prod_lock_2"}
    %C_L2L3_5_cons_lock_2 = aie.lock(%mem_tile_5_1, 7) {init = 0 : i32, sym_name = "C_L2L3_5_cons_lock_2"}
    %C_L2L3_5_prod_lock_3 = aie.lock(%mem_tile_5_1, 8) {init = 2 : i32, sym_name = "C_L2L3_5_prod_lock_3"}
    %C_L2L3_5_cons_lock_3 = aie.lock(%mem_tile_5_1, 9) {init = 0 : i32, sym_name = "C_L2L3_5_cons_lock_3"}
    %C_L1L2_5_3_buff_0 = aie.buffer(%tile_5_5) {address = 3328 : i32, sym_name = "C_L1L2_5_3_buff_0"} : memref<128x128xbf16> 
    %C_L1L2_5_3_prod_lock_0 = aie.lock(%tile_5_5, 4) {init = 1 : i32, sym_name = "C_L1L2_5_3_prod_lock_0"}
    %C_L1L2_5_3_cons_lock_0 = aie.lock(%tile_5_5, 5) {init = 0 : i32, sym_name = "C_L1L2_5_3_cons_lock_0"}
    %C_L1L2_5_2_buff_0 = aie.buffer(%tile_5_4) {address = 3328 : i32, sym_name = "C_L1L2_5_2_buff_0"} : memref<128x128xbf16> 
    %C_L1L2_5_2_prod_lock_0 = aie.lock(%tile_5_4, 4) {init = 1 : i32, sym_name = "C_L1L2_5_2_prod_lock_0"}
    %C_L1L2_5_2_cons_lock_0 = aie.lock(%tile_5_4, 5) {init = 0 : i32, sym_name = "C_L1L2_5_2_cons_lock_0"}
    %C_L1L2_5_1_buff_0 = aie.buffer(%tile_5_3) {address = 3328 : i32, sym_name = "C_L1L2_5_1_buff_0"} : memref<128x128xbf16> 
    %C_L1L2_5_1_prod_lock_0 = aie.lock(%tile_5_3, 4) {init = 1 : i32, sym_name = "C_L1L2_5_1_prod_lock_0"}
    %C_L1L2_5_1_cons_lock_0 = aie.lock(%tile_5_3, 5) {init = 0 : i32, sym_name = "C_L1L2_5_1_cons_lock_0"}
    %C_L1L2_5_0_buff_0 = aie.buffer(%tile_5_2) {address = 3328 : i32, sym_name = "C_L1L2_5_0_buff_0"} : memref<128x128xbf16> 
    %C_L1L2_5_0_prod_lock_0 = aie.lock(%tile_5_2, 4) {init = 1 : i32, sym_name = "C_L1L2_5_0_prod_lock_0"}
    %C_L1L2_5_0_cons_lock_0 = aie.lock(%tile_5_2, 5) {init = 0 : i32, sym_name = "C_L1L2_5_0_cons_lock_0"}
    %C_L2L3_4_cons_prod_lock_0 = aie.lock(%shim_noc_tile_4_0, 4) {init = 0 : i32, sym_name = "C_L2L3_4_cons_prod_lock_0"}
    %C_L2L3_4_cons_cons_lock_0 = aie.lock(%shim_noc_tile_4_0, 5) {init = 0 : i32, sym_name = "C_L2L3_4_cons_cons_lock_0"}
    %C_L2L3_4_buff_0 = aie.buffer(%mem_tile_4_1) {address = 0 : i32, sym_name = "C_L2L3_4_buff_0"} : memref<512x128xbf16> 
    %C_L2L3_4_buff_1 = aie.buffer(%mem_tile_5_1) {address = 262144 : i32, sym_name = "C_L2L3_4_buff_1"} : memref<512x128xbf16> 
    %C_L2L3_4_prod_lock_0 = aie.lock(%mem_tile_4_1, 4) {init = 2 : i32, sym_name = "C_L2L3_4_prod_lock_0"}
    %C_L2L3_4_cons_lock_0 = aie.lock(%mem_tile_4_1, 5) {init = 0 : i32, sym_name = "C_L2L3_4_cons_lock_0"}
    %C_L2L3_4_prod_lock_1 = aie.lock(%mem_tile_4_1, 6) {init = 2 : i32, sym_name = "C_L2L3_4_prod_lock_1"}
    %C_L2L3_4_cons_lock_1 = aie.lock(%mem_tile_4_1, 7) {init = 0 : i32, sym_name = "C_L2L3_4_cons_lock_1"}
    %C_L2L3_4_prod_lock_2 = aie.lock(%mem_tile_4_1, 8) {init = 2 : i32, sym_name = "C_L2L3_4_prod_lock_2"}
    %C_L2L3_4_cons_lock_2 = aie.lock(%mem_tile_4_1, 9) {init = 0 : i32, sym_name = "C_L2L3_4_cons_lock_2"}
    %C_L2L3_4_prod_lock_3 = aie.lock(%mem_tile_4_1, 10) {init = 2 : i32, sym_name = "C_L2L3_4_prod_lock_3"}
    %C_L2L3_4_cons_lock_3 = aie.lock(%mem_tile_4_1, 11) {init = 0 : i32, sym_name = "C_L2L3_4_cons_lock_3"}
    %C_L1L2_4_3_buff_0 = aie.buffer(%tile_4_5) {address = 3328 : i32, sym_name = "C_L1L2_4_3_buff_0"} : memref<128x128xbf16> 
    %C_L1L2_4_3_prod_lock_0 = aie.lock(%tile_4_5, 4) {init = 1 : i32, sym_name = "C_L1L2_4_3_prod_lock_0"}
    %C_L1L2_4_3_cons_lock_0 = aie.lock(%tile_4_5, 5) {init = 0 : i32, sym_name = "C_L1L2_4_3_cons_lock_0"}
    %C_L1L2_4_2_buff_0 = aie.buffer(%tile_4_4) {address = 3328 : i32, sym_name = "C_L1L2_4_2_buff_0"} : memref<128x128xbf16> 
    %C_L1L2_4_2_prod_lock_0 = aie.lock(%tile_4_4, 4) {init = 1 : i32, sym_name = "C_L1L2_4_2_prod_lock_0"}
    %C_L1L2_4_2_cons_lock_0 = aie.lock(%tile_4_4, 5) {init = 0 : i32, sym_name = "C_L1L2_4_2_cons_lock_0"}
    %C_L1L2_4_1_buff_0 = aie.buffer(%tile_4_3) {address = 3328 : i32, sym_name = "C_L1L2_4_1_buff_0"} : memref<128x128xbf16> 
    %C_L1L2_4_1_prod_lock_0 = aie.lock(%tile_4_3, 4) {init = 1 : i32, sym_name = "C_L1L2_4_1_prod_lock_0"}
    %C_L1L2_4_1_cons_lock_0 = aie.lock(%tile_4_3, 5) {init = 0 : i32, sym_name = "C_L1L2_4_1_cons_lock_0"}
    %C_L1L2_4_0_buff_0 = aie.buffer(%tile_4_2) {address = 3328 : i32, sym_name = "C_L1L2_4_0_buff_0"} : memref<128x128xbf16> 
    %C_L1L2_4_0_prod_lock_0 = aie.lock(%tile_4_2, 4) {init = 1 : i32, sym_name = "C_L1L2_4_0_prod_lock_0"}
    %C_L1L2_4_0_cons_lock_0 = aie.lock(%tile_4_2, 5) {init = 0 : i32, sym_name = "C_L1L2_4_0_cons_lock_0"}
    %C_L2L3_3_cons_prod_lock_0 = aie.lock(%shim_noc_tile_3_0, 2) {init = 0 : i32, sym_name = "C_L2L3_3_cons_prod_lock_0"}
    %C_L2L3_3_cons_cons_lock_0 = aie.lock(%shim_noc_tile_3_0, 3) {init = 0 : i32, sym_name = "C_L2L3_3_cons_cons_lock_0"}
    %C_L2L3_3_buff_0 = aie.buffer(%mem_tile_3_1) {address = 0 : i32, sym_name = "C_L2L3_3_buff_0"} : memref<512x128xbf16> 
    %C_L2L3_3_buff_1 = aie.buffer(%mem_tile_3_1) {address = 131072 : i32, sym_name = "C_L2L3_3_buff_1"} : memref<512x128xbf16> 
    %C_L2L3_3_prod_lock_0 = aie.lock(%mem_tile_3_1, 2) {init = 2 : i32, sym_name = "C_L2L3_3_prod_lock_0"}
    %C_L2L3_3_cons_lock_0 = aie.lock(%mem_tile_3_1, 3) {init = 0 : i32, sym_name = "C_L2L3_3_cons_lock_0"}
    %C_L2L3_3_prod_lock_1 = aie.lock(%mem_tile_3_1, 4) {init = 2 : i32, sym_name = "C_L2L3_3_prod_lock_1"}
    %C_L2L3_3_cons_lock_1 = aie.lock(%mem_tile_3_1, 5) {init = 0 : i32, sym_name = "C_L2L3_3_cons_lock_1"}
    %C_L2L3_3_prod_lock_2 = aie.lock(%mem_tile_3_1, 6) {init = 2 : i32, sym_name = "C_L2L3_3_prod_lock_2"}
    %C_L2L3_3_cons_lock_2 = aie.lock(%mem_tile_3_1, 7) {init = 0 : i32, sym_name = "C_L2L3_3_cons_lock_2"}
    %C_L2L3_3_prod_lock_3 = aie.lock(%mem_tile_3_1, 8) {init = 2 : i32, sym_name = "C_L2L3_3_prod_lock_3"}
    %C_L2L3_3_cons_lock_3 = aie.lock(%mem_tile_3_1, 9) {init = 0 : i32, sym_name = "C_L2L3_3_cons_lock_3"}
    %C_L1L2_3_3_buff_0 = aie.buffer(%tile_3_5) {address = 3328 : i32, sym_name = "C_L1L2_3_3_buff_0"} : memref<128x128xbf16> 
    %C_L1L2_3_3_prod_lock_0 = aie.lock(%tile_3_5, 4) {init = 1 : i32, sym_name = "C_L1L2_3_3_prod_lock_0"}
    %C_L1L2_3_3_cons_lock_0 = aie.lock(%tile_3_5, 5) {init = 0 : i32, sym_name = "C_L1L2_3_3_cons_lock_0"}
    %C_L1L2_3_2_buff_0 = aie.buffer(%tile_3_4) {address = 3328 : i32, sym_name = "C_L1L2_3_2_buff_0"} : memref<128x128xbf16> 
    %C_L1L2_3_2_prod_lock_0 = aie.lock(%tile_3_4, 4) {init = 1 : i32, sym_name = "C_L1L2_3_2_prod_lock_0"}
    %C_L1L2_3_2_cons_lock_0 = aie.lock(%tile_3_4, 5) {init = 0 : i32, sym_name = "C_L1L2_3_2_cons_lock_0"}
    %C_L1L2_3_1_buff_0 = aie.buffer(%tile_3_3) {address = 3328 : i32, sym_name = "C_L1L2_3_1_buff_0"} : memref<128x128xbf16> 
    %C_L1L2_3_1_prod_lock_0 = aie.lock(%tile_3_3, 4) {init = 1 : i32, sym_name = "C_L1L2_3_1_prod_lock_0"}
    %C_L1L2_3_1_cons_lock_0 = aie.lock(%tile_3_3, 5) {init = 0 : i32, sym_name = "C_L1L2_3_1_cons_lock_0"}
    %C_L1L2_3_0_buff_0 = aie.buffer(%tile_3_2) {address = 3328 : i32, sym_name = "C_L1L2_3_0_buff_0"} : memref<128x128xbf16> 
    %C_L1L2_3_0_prod_lock_0 = aie.lock(%tile_3_2, 4) {init = 1 : i32, sym_name = "C_L1L2_3_0_prod_lock_0"}
    %C_L1L2_3_0_cons_lock_0 = aie.lock(%tile_3_2, 5) {init = 0 : i32, sym_name = "C_L1L2_3_0_cons_lock_0"}
    %C_L2L3_2_cons_prod_lock_0 = aie.lock(%shim_noc_tile_2_0, 4) {init = 0 : i32, sym_name = "C_L2L3_2_cons_prod_lock_0"}
    %C_L2L3_2_cons_cons_lock_0 = aie.lock(%shim_noc_tile_2_0, 5) {init = 0 : i32, sym_name = "C_L2L3_2_cons_cons_lock_0"}
    %C_L2L3_2_buff_0 = aie.buffer(%mem_tile_2_1) {address = 0 : i32, sym_name = "C_L2L3_2_buff_0"} : memref<512x128xbf16> 
    %C_L2L3_2_buff_1 = aie.buffer(%mem_tile_3_1) {address = 262144 : i32, sym_name = "C_L2L3_2_buff_1"} : memref<512x128xbf16> 
    %C_L2L3_2_prod_lock_0 = aie.lock(%mem_tile_2_1, 4) {init = 2 : i32, sym_name = "C_L2L3_2_prod_lock_0"}
    %C_L2L3_2_cons_lock_0 = aie.lock(%mem_tile_2_1, 5) {init = 0 : i32, sym_name = "C_L2L3_2_cons_lock_0"}
    %C_L2L3_2_prod_lock_1 = aie.lock(%mem_tile_2_1, 6) {init = 2 : i32, sym_name = "C_L2L3_2_prod_lock_1"}
    %C_L2L3_2_cons_lock_1 = aie.lock(%mem_tile_2_1, 7) {init = 0 : i32, sym_name = "C_L2L3_2_cons_lock_1"}
    %C_L2L3_2_prod_lock_2 = aie.lock(%mem_tile_2_1, 8) {init = 2 : i32, sym_name = "C_L2L3_2_prod_lock_2"}
    %C_L2L3_2_cons_lock_2 = aie.lock(%mem_tile_2_1, 9) {init = 0 : i32, sym_name = "C_L2L3_2_cons_lock_2"}
    %C_L2L3_2_prod_lock_3 = aie.lock(%mem_tile_2_1, 10) {init = 2 : i32, sym_name = "C_L2L3_2_prod_lock_3"}
    %C_L2L3_2_cons_lock_3 = aie.lock(%mem_tile_2_1, 11) {init = 0 : i32, sym_name = "C_L2L3_2_cons_lock_3"}
    %C_L1L2_2_3_buff_0 = aie.buffer(%tile_2_5) {address = 3328 : i32, sym_name = "C_L1L2_2_3_buff_0"} : memref<128x128xbf16> 
    %C_L1L2_2_3_prod_lock_0 = aie.lock(%tile_2_5, 4) {init = 1 : i32, sym_name = "C_L1L2_2_3_prod_lock_0"}
    %C_L1L2_2_3_cons_lock_0 = aie.lock(%tile_2_5, 5) {init = 0 : i32, sym_name = "C_L1L2_2_3_cons_lock_0"}
    %C_L1L2_2_2_buff_0 = aie.buffer(%tile_2_4) {address = 3328 : i32, sym_name = "C_L1L2_2_2_buff_0"} : memref<128x128xbf16> 
    %C_L1L2_2_2_prod_lock_0 = aie.lock(%tile_2_4, 4) {init = 1 : i32, sym_name = "C_L1L2_2_2_prod_lock_0"}
    %C_L1L2_2_2_cons_lock_0 = aie.lock(%tile_2_4, 5) {init = 0 : i32, sym_name = "C_L1L2_2_2_cons_lock_0"}
    %C_L1L2_2_1_buff_0 = aie.buffer(%tile_2_3) {address = 3328 : i32, sym_name = "C_L1L2_2_1_buff_0"} : memref<128x128xbf16> 
    %C_L1L2_2_1_prod_lock_0 = aie.lock(%tile_2_3, 4) {init = 1 : i32, sym_name = "C_L1L2_2_1_prod_lock_0"}
    %C_L1L2_2_1_cons_lock_0 = aie.lock(%tile_2_3, 5) {init = 0 : i32, sym_name = "C_L1L2_2_1_cons_lock_0"}
    %C_L1L2_2_0_buff_0 = aie.buffer(%tile_2_2) {address = 3328 : i32, sym_name = "C_L1L2_2_0_buff_0"} : memref<128x128xbf16> 
    %C_L1L2_2_0_prod_lock_0 = aie.lock(%tile_2_2, 4) {init = 1 : i32, sym_name = "C_L1L2_2_0_prod_lock_0"}
    %C_L1L2_2_0_cons_lock_0 = aie.lock(%tile_2_2, 5) {init = 0 : i32, sym_name = "C_L1L2_2_0_cons_lock_0"}
    %C_L2L3_1_cons_prod_lock_0 = aie.lock(%shim_noc_tile_1_0, 2) {init = 0 : i32, sym_name = "C_L2L3_1_cons_prod_lock_0"}
    %C_L2L3_1_cons_cons_lock_0 = aie.lock(%shim_noc_tile_1_0, 3) {init = 0 : i32, sym_name = "C_L2L3_1_cons_cons_lock_0"}
    %C_L2L3_1_buff_0 = aie.buffer(%mem_tile_1_1) {address = 0 : i32, sym_name = "C_L2L3_1_buff_0"} : memref<512x128xbf16> 
    %C_L2L3_1_buff_1 = aie.buffer(%mem_tile_1_1) {address = 131072 : i32, sym_name = "C_L2L3_1_buff_1"} : memref<512x128xbf16> 
    %C_L2L3_1_prod_lock_0 = aie.lock(%mem_tile_1_1, 2) {init = 2 : i32, sym_name = "C_L2L3_1_prod_lock_0"}
    %C_L2L3_1_cons_lock_0 = aie.lock(%mem_tile_1_1, 3) {init = 0 : i32, sym_name = "C_L2L3_1_cons_lock_0"}
    %C_L2L3_1_prod_lock_1 = aie.lock(%mem_tile_1_1, 4) {init = 2 : i32, sym_name = "C_L2L3_1_prod_lock_1"}
    %C_L2L3_1_cons_lock_1 = aie.lock(%mem_tile_1_1, 5) {init = 0 : i32, sym_name = "C_L2L3_1_cons_lock_1"}
    %C_L2L3_1_prod_lock_2 = aie.lock(%mem_tile_1_1, 6) {init = 2 : i32, sym_name = "C_L2L3_1_prod_lock_2"}
    %C_L2L3_1_cons_lock_2 = aie.lock(%mem_tile_1_1, 7) {init = 0 : i32, sym_name = "C_L2L3_1_cons_lock_2"}
    %C_L2L3_1_prod_lock_3 = aie.lock(%mem_tile_1_1, 8) {init = 2 : i32, sym_name = "C_L2L3_1_prod_lock_3"}
    %C_L2L3_1_cons_lock_3 = aie.lock(%mem_tile_1_1, 9) {init = 0 : i32, sym_name = "C_L2L3_1_cons_lock_3"}
    %C_L1L2_1_3_buff_0 = aie.buffer(%tile_1_5) {address = 3328 : i32, sym_name = "C_L1L2_1_3_buff_0"} : memref<128x128xbf16> 
    %C_L1L2_1_3_prod_lock_0 = aie.lock(%tile_1_5, 4) {init = 1 : i32, sym_name = "C_L1L2_1_3_prod_lock_0"}
    %C_L1L2_1_3_cons_lock_0 = aie.lock(%tile_1_5, 5) {init = 0 : i32, sym_name = "C_L1L2_1_3_cons_lock_0"}
    %C_L1L2_1_2_buff_0 = aie.buffer(%tile_1_4) {address = 3328 : i32, sym_name = "C_L1L2_1_2_buff_0"} : memref<128x128xbf16> 
    %C_L1L2_1_2_prod_lock_0 = aie.lock(%tile_1_4, 4) {init = 1 : i32, sym_name = "C_L1L2_1_2_prod_lock_0"}
    %C_L1L2_1_2_cons_lock_0 = aie.lock(%tile_1_4, 5) {init = 0 : i32, sym_name = "C_L1L2_1_2_cons_lock_0"}
    %C_L1L2_1_1_buff_0 = aie.buffer(%tile_1_3) {address = 3328 : i32, sym_name = "C_L1L2_1_1_buff_0"} : memref<128x128xbf16> 
    %C_L1L2_1_1_prod_lock_0 = aie.lock(%tile_1_3, 4) {init = 1 : i32, sym_name = "C_L1L2_1_1_prod_lock_0"}
    %C_L1L2_1_1_cons_lock_0 = aie.lock(%tile_1_3, 5) {init = 0 : i32, sym_name = "C_L1L2_1_1_cons_lock_0"}
    %C_L1L2_1_0_buff_0 = aie.buffer(%tile_1_2) {address = 3328 : i32, sym_name = "C_L1L2_1_0_buff_0"} : memref<128x128xbf16> 
    %C_L1L2_1_0_prod_lock_0 = aie.lock(%tile_1_2, 4) {init = 1 : i32, sym_name = "C_L1L2_1_0_prod_lock_0"}
    %C_L1L2_1_0_cons_lock_0 = aie.lock(%tile_1_2, 5) {init = 0 : i32, sym_name = "C_L1L2_1_0_cons_lock_0"}
    %C_L2L3_0_cons_prod_lock_0 = aie.lock(%shim_noc_tile_0_0, 4) {init = 0 : i32, sym_name = "C_L2L3_0_cons_prod_lock_0"}
    %C_L2L3_0_cons_cons_lock_0 = aie.lock(%shim_noc_tile_0_0, 5) {init = 0 : i32, sym_name = "C_L2L3_0_cons_cons_lock_0"}
    %C_L2L3_0_buff_0 = aie.buffer(%mem_tile_0_1) {address = 0 : i32, sym_name = "C_L2L3_0_buff_0"} : memref<512x128xbf16> 
    %C_L2L3_0_buff_1 = aie.buffer(%mem_tile_1_1) {address = 262144 : i32, sym_name = "C_L2L3_0_buff_1"} : memref<512x128xbf16> 
    %C_L2L3_0_prod_lock_0 = aie.lock(%mem_tile_0_1, 4) {init = 2 : i32, sym_name = "C_L2L3_0_prod_lock_0"}
    %C_L2L3_0_cons_lock_0 = aie.lock(%mem_tile_0_1, 5) {init = 0 : i32, sym_name = "C_L2L3_0_cons_lock_0"}
    %C_L2L3_0_prod_lock_1 = aie.lock(%mem_tile_0_1, 6) {init = 2 : i32, sym_name = "C_L2L3_0_prod_lock_1"}
    %C_L2L3_0_cons_lock_1 = aie.lock(%mem_tile_0_1, 7) {init = 0 : i32, sym_name = "C_L2L3_0_cons_lock_1"}
    %C_L2L3_0_prod_lock_2 = aie.lock(%mem_tile_0_1, 8) {init = 2 : i32, sym_name = "C_L2L3_0_prod_lock_2"}
    %C_L2L3_0_cons_lock_2 = aie.lock(%mem_tile_0_1, 9) {init = 0 : i32, sym_name = "C_L2L3_0_cons_lock_2"}
    %C_L2L3_0_prod_lock_3 = aie.lock(%mem_tile_0_1, 10) {init = 2 : i32, sym_name = "C_L2L3_0_prod_lock_3"}
    %C_L2L3_0_cons_lock_3 = aie.lock(%mem_tile_0_1, 11) {init = 0 : i32, sym_name = "C_L2L3_0_cons_lock_3"}
    %C_L1L2_0_3_buff_0 = aie.buffer(%tile_0_5) {address = 3328 : i32, sym_name = "C_L1L2_0_3_buff_0"} : memref<128x128xbf16> 
    %C_L1L2_0_3_prod_lock_0 = aie.lock(%tile_0_5, 4) {init = 1 : i32, sym_name = "C_L1L2_0_3_prod_lock_0"}
    %C_L1L2_0_3_cons_lock_0 = aie.lock(%tile_0_5, 5) {init = 0 : i32, sym_name = "C_L1L2_0_3_cons_lock_0"}
    %C_L1L2_0_2_buff_0 = aie.buffer(%tile_0_4) {address = 3328 : i32, sym_name = "C_L1L2_0_2_buff_0"} : memref<128x128xbf16> 
    %C_L1L2_0_2_prod_lock_0 = aie.lock(%tile_0_4, 4) {init = 1 : i32, sym_name = "C_L1L2_0_2_prod_lock_0"}
    %C_L1L2_0_2_cons_lock_0 = aie.lock(%tile_0_4, 5) {init = 0 : i32, sym_name = "C_L1L2_0_2_cons_lock_0"}
    %C_L1L2_0_1_buff_0 = aie.buffer(%tile_0_3) {address = 3328 : i32, sym_name = "C_L1L2_0_1_buff_0"} : memref<128x128xbf16> 
    %C_L1L2_0_1_prod_lock_0 = aie.lock(%tile_0_3, 4) {init = 1 : i32, sym_name = "C_L1L2_0_1_prod_lock_0"}
    %C_L1L2_0_1_cons_lock_0 = aie.lock(%tile_0_3, 5) {init = 0 : i32, sym_name = "C_L1L2_0_1_cons_lock_0"}
    %C_L1L2_0_0_buff_0 = aie.buffer(%tile_0_2) {address = 3328 : i32, sym_name = "C_L1L2_0_0_buff_0"} : memref<128x128xbf16> 
    %C_L1L2_0_0_prod_lock_0 = aie.lock(%tile_0_2, 4) {init = 1 : i32, sym_name = "C_L1L2_0_0_prod_lock_0"}
    %C_L1L2_0_0_cons_lock_0 = aie.lock(%tile_0_2, 5) {init = 0 : i32, sym_name = "C_L1L2_0_0_cons_lock_0"}
    %B_L2L1_7_0_cons_buff_0 = aie.buffer(%tile_7_2) {address = 36096 : i32, sym_name = "B_L2L1_7_0_cons_buff_0"} : memref<64x16x!aiex.bfp<"v8bfp16ebs8">> 
    %B_L2L1_7_0_cons_buff_1 = aie.buffer(%tile_7_2) {address = 45312 : i32, sym_name = "B_L2L1_7_0_cons_buff_1"} : memref<64x16x!aiex.bfp<"v8bfp16ebs8">> 
    %B_L2L1_7_0_cons_prod_lock_0 = aie.lock(%tile_7_2, 2) {init = 2 : i32, sym_name = "B_L2L1_7_0_cons_prod_lock_0"}
    %B_L2L1_7_0_cons_cons_lock_0 = aie.lock(%tile_7_2, 3) {init = 0 : i32, sym_name = "B_L2L1_7_0_cons_cons_lock_0"}
    %B_L2L1_7_1_cons_buff_0 = aie.buffer(%tile_7_3) {address = 36096 : i32, sym_name = "B_L2L1_7_1_cons_buff_0"} : memref<64x16x!aiex.bfp<"v8bfp16ebs8">> 
    %B_L2L1_7_1_cons_buff_1 = aie.buffer(%tile_7_3) {address = 45312 : i32, sym_name = "B_L2L1_7_1_cons_buff_1"} : memref<64x16x!aiex.bfp<"v8bfp16ebs8">> 
    %B_L2L1_7_1_cons_prod_lock_0 = aie.lock(%tile_7_3, 2) {init = 2 : i32, sym_name = "B_L2L1_7_1_cons_prod_lock_0"}
    %B_L2L1_7_1_cons_cons_lock_0 = aie.lock(%tile_7_3, 3) {init = 0 : i32, sym_name = "B_L2L1_7_1_cons_cons_lock_0"}
    %B_L2L1_7_2_cons_buff_0 = aie.buffer(%tile_7_4) {address = 36096 : i32, sym_name = "B_L2L1_7_2_cons_buff_0"} : memref<64x16x!aiex.bfp<"v8bfp16ebs8">> 
    %B_L2L1_7_2_cons_buff_1 = aie.buffer(%tile_7_4) {address = 45312 : i32, sym_name = "B_L2L1_7_2_cons_buff_1"} : memref<64x16x!aiex.bfp<"v8bfp16ebs8">> 
    %B_L2L1_7_2_cons_prod_lock_0 = aie.lock(%tile_7_4, 2) {init = 2 : i32, sym_name = "B_L2L1_7_2_cons_prod_lock_0"}
    %B_L2L1_7_2_cons_cons_lock_0 = aie.lock(%tile_7_4, 3) {init = 0 : i32, sym_name = "B_L2L1_7_2_cons_cons_lock_0"}
    %B_L2L1_7_3_cons_buff_0 = aie.buffer(%tile_7_5) {address = 36096 : i32, sym_name = "B_L2L1_7_3_cons_buff_0"} : memref<64x16x!aiex.bfp<"v8bfp16ebs8">> 
    %B_L2L1_7_3_cons_buff_1 = aie.buffer(%tile_7_5) {address = 45312 : i32, sym_name = "B_L2L1_7_3_cons_buff_1"} : memref<64x16x!aiex.bfp<"v8bfp16ebs8">> 
    %B_L2L1_7_3_cons_prod_lock_0 = aie.lock(%tile_7_5, 2) {init = 2 : i32, sym_name = "B_L2L1_7_3_cons_prod_lock_0"}
    %B_L2L1_7_3_cons_cons_lock_0 = aie.lock(%tile_7_5, 3) {init = 0 : i32, sym_name = "B_L2L1_7_3_cons_cons_lock_0"}
    %B_L3L2_7_cons_buff_0 = aie.buffer(%mem_tile_7_1) {address = 393216 : i32, sym_name = "B_L3L2_7_cons_buff_0"} : memref<64x16x!aiex.bfp<"v8bfp16ebs8">> 
    %B_L3L2_7_cons_buff_1 = aie.buffer(%mem_tile_7_1) {address = 402432 : i32, sym_name = "B_L3L2_7_cons_buff_1"} : memref<64x16x!aiex.bfp<"v8bfp16ebs8">> 
    %B_L3L2_7_cons_prod_lock_0 = aie.lock(%mem_tile_7_1, 0) {init = 2 : i32, sym_name = "B_L3L2_7_cons_prod_lock_0"}
    %B_L3L2_7_cons_cons_lock_0 = aie.lock(%mem_tile_7_1, 1) {init = 0 : i32, sym_name = "B_L3L2_7_cons_cons_lock_0"}
    %B_L3L2_7_prod_lock_0 = aie.lock(%shim_noc_tile_7_0, 0) {init = 0 : i32, sym_name = "B_L3L2_7_prod_lock_0"}
    %B_L3L2_7_cons_lock_0 = aie.lock(%shim_noc_tile_7_0, 1) {init = 0 : i32, sym_name = "B_L3L2_7_cons_lock_0"}
    %B_L2L1_6_0_cons_buff_0 = aie.buffer(%tile_6_2) {address = 36096 : i32, sym_name = "B_L2L1_6_0_cons_buff_0"} : memref<64x16x!aiex.bfp<"v8bfp16ebs8">> 
    %B_L2L1_6_0_cons_buff_1 = aie.buffer(%tile_6_2) {address = 45312 : i32, sym_name = "B_L2L1_6_0_cons_buff_1"} : memref<64x16x!aiex.bfp<"v8bfp16ebs8">> 
    %B_L2L1_6_0_cons_prod_lock_0 = aie.lock(%tile_6_2, 2) {init = 2 : i32, sym_name = "B_L2L1_6_0_cons_prod_lock_0"}
    %B_L2L1_6_0_cons_cons_lock_0 = aie.lock(%tile_6_2, 3) {init = 0 : i32, sym_name = "B_L2L1_6_0_cons_cons_lock_0"}
    %B_L2L1_6_1_cons_buff_0 = aie.buffer(%tile_6_3) {address = 36096 : i32, sym_name = "B_L2L1_6_1_cons_buff_0"} : memref<64x16x!aiex.bfp<"v8bfp16ebs8">> 
    %B_L2L1_6_1_cons_buff_1 = aie.buffer(%tile_6_3) {address = 45312 : i32, sym_name = "B_L2L1_6_1_cons_buff_1"} : memref<64x16x!aiex.bfp<"v8bfp16ebs8">> 
    %B_L2L1_6_1_cons_prod_lock_0 = aie.lock(%tile_6_3, 2) {init = 2 : i32, sym_name = "B_L2L1_6_1_cons_prod_lock_0"}
    %B_L2L1_6_1_cons_cons_lock_0 = aie.lock(%tile_6_3, 3) {init = 0 : i32, sym_name = "B_L2L1_6_1_cons_cons_lock_0"}
    %B_L2L1_6_2_cons_buff_0 = aie.buffer(%tile_6_4) {address = 36096 : i32, sym_name = "B_L2L1_6_2_cons_buff_0"} : memref<64x16x!aiex.bfp<"v8bfp16ebs8">> 
    %B_L2L1_6_2_cons_buff_1 = aie.buffer(%tile_6_4) {address = 45312 : i32, sym_name = "B_L2L1_6_2_cons_buff_1"} : memref<64x16x!aiex.bfp<"v8bfp16ebs8">> 
    %B_L2L1_6_2_cons_prod_lock_0 = aie.lock(%tile_6_4, 2) {init = 2 : i32, sym_name = "B_L2L1_6_2_cons_prod_lock_0"}
    %B_L2L1_6_2_cons_cons_lock_0 = aie.lock(%tile_6_4, 3) {init = 0 : i32, sym_name = "B_L2L1_6_2_cons_cons_lock_0"}
    %B_L2L1_6_3_cons_buff_0 = aie.buffer(%tile_6_5) {address = 36096 : i32, sym_name = "B_L2L1_6_3_cons_buff_0"} : memref<64x16x!aiex.bfp<"v8bfp16ebs8">> 
    %B_L2L1_6_3_cons_buff_1 = aie.buffer(%tile_6_5) {address = 45312 : i32, sym_name = "B_L2L1_6_3_cons_buff_1"} : memref<64x16x!aiex.bfp<"v8bfp16ebs8">> 
    %B_L2L1_6_3_cons_prod_lock_0 = aie.lock(%tile_6_5, 2) {init = 2 : i32, sym_name = "B_L2L1_6_3_cons_prod_lock_0"}
    %B_L2L1_6_3_cons_cons_lock_0 = aie.lock(%tile_6_5, 3) {init = 0 : i32, sym_name = "B_L2L1_6_3_cons_cons_lock_0"}
    %B_L3L2_6_cons_buff_0 = aie.buffer(%mem_tile_6_1) {address = 393216 : i32, sym_name = "B_L3L2_6_cons_buff_0"} : memref<64x16x!aiex.bfp<"v8bfp16ebs8">> 
    %B_L3L2_6_cons_buff_1 = aie.buffer(%mem_tile_6_1) {address = 402432 : i32, sym_name = "B_L3L2_6_cons_buff_1"} : memref<64x16x!aiex.bfp<"v8bfp16ebs8">> 
    %B_L3L2_6_cons_prod_lock_0 = aie.lock(%mem_tile_6_1, 2) {init = 2 : i32, sym_name = "B_L3L2_6_cons_prod_lock_0"}
    %B_L3L2_6_cons_cons_lock_0 = aie.lock(%mem_tile_6_1, 3) {init = 0 : i32, sym_name = "B_L3L2_6_cons_cons_lock_0"}
    %B_L3L2_6_prod_lock_0 = aie.lock(%shim_noc_tile_6_0, 2) {init = 0 : i32, sym_name = "B_L3L2_6_prod_lock_0"}
    %B_L3L2_6_cons_lock_0 = aie.lock(%shim_noc_tile_6_0, 3) {init = 0 : i32, sym_name = "B_L3L2_6_cons_lock_0"}
    %B_L2L1_5_0_cons_buff_0 = aie.buffer(%tile_5_2) {address = 36096 : i32, sym_name = "B_L2L1_5_0_cons_buff_0"} : memref<64x16x!aiex.bfp<"v8bfp16ebs8">> 
    %B_L2L1_5_0_cons_buff_1 = aie.buffer(%tile_5_2) {address = 45312 : i32, sym_name = "B_L2L1_5_0_cons_buff_1"} : memref<64x16x!aiex.bfp<"v8bfp16ebs8">> 
    %B_L2L1_5_0_cons_prod_lock_0 = aie.lock(%tile_5_2, 2) {init = 2 : i32, sym_name = "B_L2L1_5_0_cons_prod_lock_0"}
    %B_L2L1_5_0_cons_cons_lock_0 = aie.lock(%tile_5_2, 3) {init = 0 : i32, sym_name = "B_L2L1_5_0_cons_cons_lock_0"}
    %B_L2L1_5_1_cons_buff_0 = aie.buffer(%tile_5_3) {address = 36096 : i32, sym_name = "B_L2L1_5_1_cons_buff_0"} : memref<64x16x!aiex.bfp<"v8bfp16ebs8">> 
    %B_L2L1_5_1_cons_buff_1 = aie.buffer(%tile_5_3) {address = 45312 : i32, sym_name = "B_L2L1_5_1_cons_buff_1"} : memref<64x16x!aiex.bfp<"v8bfp16ebs8">> 
    %B_L2L1_5_1_cons_prod_lock_0 = aie.lock(%tile_5_3, 2) {init = 2 : i32, sym_name = "B_L2L1_5_1_cons_prod_lock_0"}
    %B_L2L1_5_1_cons_cons_lock_0 = aie.lock(%tile_5_3, 3) {init = 0 : i32, sym_name = "B_L2L1_5_1_cons_cons_lock_0"}
    %B_L2L1_5_2_cons_buff_0 = aie.buffer(%tile_5_4) {address = 36096 : i32, sym_name = "B_L2L1_5_2_cons_buff_0"} : memref<64x16x!aiex.bfp<"v8bfp16ebs8">> 
    %B_L2L1_5_2_cons_buff_1 = aie.buffer(%tile_5_4) {address = 45312 : i32, sym_name = "B_L2L1_5_2_cons_buff_1"} : memref<64x16x!aiex.bfp<"v8bfp16ebs8">> 
    %B_L2L1_5_2_cons_prod_lock_0 = aie.lock(%tile_5_4, 2) {init = 2 : i32, sym_name = "B_L2L1_5_2_cons_prod_lock_0"}
    %B_L2L1_5_2_cons_cons_lock_0 = aie.lock(%tile_5_4, 3) {init = 0 : i32, sym_name = "B_L2L1_5_2_cons_cons_lock_0"}
    %B_L2L1_5_3_cons_buff_0 = aie.buffer(%tile_5_5) {address = 36096 : i32, sym_name = "B_L2L1_5_3_cons_buff_0"} : memref<64x16x!aiex.bfp<"v8bfp16ebs8">> 
    %B_L2L1_5_3_cons_buff_1 = aie.buffer(%tile_5_5) {address = 45312 : i32, sym_name = "B_L2L1_5_3_cons_buff_1"} : memref<64x16x!aiex.bfp<"v8bfp16ebs8">> 
    %B_L2L1_5_3_cons_prod_lock_0 = aie.lock(%tile_5_5, 2) {init = 2 : i32, sym_name = "B_L2L1_5_3_cons_prod_lock_0"}
    %B_L2L1_5_3_cons_cons_lock_0 = aie.lock(%tile_5_5, 3) {init = 0 : i32, sym_name = "B_L2L1_5_3_cons_cons_lock_0"}
    %B_L3L2_5_cons_buff_0 = aie.buffer(%mem_tile_5_1) {address = 393216 : i32, sym_name = "B_L3L2_5_cons_buff_0"} : memref<64x16x!aiex.bfp<"v8bfp16ebs8">> 
    %B_L3L2_5_cons_buff_1 = aie.buffer(%mem_tile_5_1) {address = 402432 : i32, sym_name = "B_L3L2_5_cons_buff_1"} : memref<64x16x!aiex.bfp<"v8bfp16ebs8">> 
    %B_L3L2_5_cons_prod_lock_0 = aie.lock(%mem_tile_5_1, 0) {init = 2 : i32, sym_name = "B_L3L2_5_cons_prod_lock_0"}
    %B_L3L2_5_cons_cons_lock_0 = aie.lock(%mem_tile_5_1, 1) {init = 0 : i32, sym_name = "B_L3L2_5_cons_cons_lock_0"}
    %B_L3L2_5_prod_lock_0 = aie.lock(%shim_noc_tile_5_0, 0) {init = 0 : i32, sym_name = "B_L3L2_5_prod_lock_0"}
    %B_L3L2_5_cons_lock_0 = aie.lock(%shim_noc_tile_5_0, 1) {init = 0 : i32, sym_name = "B_L3L2_5_cons_lock_0"}
    %B_L2L1_4_0_cons_buff_0 = aie.buffer(%tile_4_2) {address = 36096 : i32, sym_name = "B_L2L1_4_0_cons_buff_0"} : memref<64x16x!aiex.bfp<"v8bfp16ebs8">> 
    %B_L2L1_4_0_cons_buff_1 = aie.buffer(%tile_4_2) {address = 45312 : i32, sym_name = "B_L2L1_4_0_cons_buff_1"} : memref<64x16x!aiex.bfp<"v8bfp16ebs8">> 
    %B_L2L1_4_0_cons_prod_lock_0 = aie.lock(%tile_4_2, 2) {init = 2 : i32, sym_name = "B_L2L1_4_0_cons_prod_lock_0"}
    %B_L2L1_4_0_cons_cons_lock_0 = aie.lock(%tile_4_2, 3) {init = 0 : i32, sym_name = "B_L2L1_4_0_cons_cons_lock_0"}
    %B_L2L1_4_1_cons_buff_0 = aie.buffer(%tile_4_3) {address = 36096 : i32, sym_name = "B_L2L1_4_1_cons_buff_0"} : memref<64x16x!aiex.bfp<"v8bfp16ebs8">> 
    %B_L2L1_4_1_cons_buff_1 = aie.buffer(%tile_4_3) {address = 45312 : i32, sym_name = "B_L2L1_4_1_cons_buff_1"} : memref<64x16x!aiex.bfp<"v8bfp16ebs8">> 
    %B_L2L1_4_1_cons_prod_lock_0 = aie.lock(%tile_4_3, 2) {init = 2 : i32, sym_name = "B_L2L1_4_1_cons_prod_lock_0"}
    %B_L2L1_4_1_cons_cons_lock_0 = aie.lock(%tile_4_3, 3) {init = 0 : i32, sym_name = "B_L2L1_4_1_cons_cons_lock_0"}
    %B_L2L1_4_2_cons_buff_0 = aie.buffer(%tile_4_4) {address = 36096 : i32, sym_name = "B_L2L1_4_2_cons_buff_0"} : memref<64x16x!aiex.bfp<"v8bfp16ebs8">> 
    %B_L2L1_4_2_cons_buff_1 = aie.buffer(%tile_4_4) {address = 45312 : i32, sym_name = "B_L2L1_4_2_cons_buff_1"} : memref<64x16x!aiex.bfp<"v8bfp16ebs8">> 
    %B_L2L1_4_2_cons_prod_lock_0 = aie.lock(%tile_4_4, 2) {init = 2 : i32, sym_name = "B_L2L1_4_2_cons_prod_lock_0"}
    %B_L2L1_4_2_cons_cons_lock_0 = aie.lock(%tile_4_4, 3) {init = 0 : i32, sym_name = "B_L2L1_4_2_cons_cons_lock_0"}
    %B_L2L1_4_3_cons_buff_0 = aie.buffer(%tile_4_5) {address = 36096 : i32, sym_name = "B_L2L1_4_3_cons_buff_0"} : memref<64x16x!aiex.bfp<"v8bfp16ebs8">> 
    %B_L2L1_4_3_cons_buff_1 = aie.buffer(%tile_4_5) {address = 45312 : i32, sym_name = "B_L2L1_4_3_cons_buff_1"} : memref<64x16x!aiex.bfp<"v8bfp16ebs8">> 
    %B_L2L1_4_3_cons_prod_lock_0 = aie.lock(%tile_4_5, 2) {init = 2 : i32, sym_name = "B_L2L1_4_3_cons_prod_lock_0"}
    %B_L2L1_4_3_cons_cons_lock_0 = aie.lock(%tile_4_5, 3) {init = 0 : i32, sym_name = "B_L2L1_4_3_cons_cons_lock_0"}
    %B_L3L2_4_cons_buff_0 = aie.buffer(%mem_tile_4_1) {address = 393216 : i32, sym_name = "B_L3L2_4_cons_buff_0"} : memref<64x16x!aiex.bfp<"v8bfp16ebs8">> 
    %B_L3L2_4_cons_buff_1 = aie.buffer(%mem_tile_4_1) {address = 402432 : i32, sym_name = "B_L3L2_4_cons_buff_1"} : memref<64x16x!aiex.bfp<"v8bfp16ebs8">> 
    %B_L3L2_4_cons_prod_lock_0 = aie.lock(%mem_tile_4_1, 2) {init = 2 : i32, sym_name = "B_L3L2_4_cons_prod_lock_0"}
    %B_L3L2_4_cons_cons_lock_0 = aie.lock(%mem_tile_4_1, 3) {init = 0 : i32, sym_name = "B_L3L2_4_cons_cons_lock_0"}
    %B_L3L2_4_prod_lock_0 = aie.lock(%shim_noc_tile_4_0, 2) {init = 0 : i32, sym_name = "B_L3L2_4_prod_lock_0"}
    %B_L3L2_4_cons_lock_0 = aie.lock(%shim_noc_tile_4_0, 3) {init = 0 : i32, sym_name = "B_L3L2_4_cons_lock_0"}
    %B_L2L1_3_0_cons_buff_0 = aie.buffer(%tile_3_2) {address = 36096 : i32, sym_name = "B_L2L1_3_0_cons_buff_0"} : memref<64x16x!aiex.bfp<"v8bfp16ebs8">> 
    %B_L2L1_3_0_cons_buff_1 = aie.buffer(%tile_3_2) {address = 45312 : i32, sym_name = "B_L2L1_3_0_cons_buff_1"} : memref<64x16x!aiex.bfp<"v8bfp16ebs8">> 
    %B_L2L1_3_0_cons_prod_lock_0 = aie.lock(%tile_3_2, 2) {init = 2 : i32, sym_name = "B_L2L1_3_0_cons_prod_lock_0"}
    %B_L2L1_3_0_cons_cons_lock_0 = aie.lock(%tile_3_2, 3) {init = 0 : i32, sym_name = "B_L2L1_3_0_cons_cons_lock_0"}
    %B_L2L1_3_1_cons_buff_0 = aie.buffer(%tile_3_3) {address = 36096 : i32, sym_name = "B_L2L1_3_1_cons_buff_0"} : memref<64x16x!aiex.bfp<"v8bfp16ebs8">> 
    %B_L2L1_3_1_cons_buff_1 = aie.buffer(%tile_3_3) {address = 45312 : i32, sym_name = "B_L2L1_3_1_cons_buff_1"} : memref<64x16x!aiex.bfp<"v8bfp16ebs8">> 
    %B_L2L1_3_1_cons_prod_lock_0 = aie.lock(%tile_3_3, 2) {init = 2 : i32, sym_name = "B_L2L1_3_1_cons_prod_lock_0"}
    %B_L2L1_3_1_cons_cons_lock_0 = aie.lock(%tile_3_3, 3) {init = 0 : i32, sym_name = "B_L2L1_3_1_cons_cons_lock_0"}
    %B_L2L1_3_2_cons_buff_0 = aie.buffer(%tile_3_4) {address = 36096 : i32, sym_name = "B_L2L1_3_2_cons_buff_0"} : memref<64x16x!aiex.bfp<"v8bfp16ebs8">> 
    %B_L2L1_3_2_cons_buff_1 = aie.buffer(%tile_3_4) {address = 45312 : i32, sym_name = "B_L2L1_3_2_cons_buff_1"} : memref<64x16x!aiex.bfp<"v8bfp16ebs8">> 
    %B_L2L1_3_2_cons_prod_lock_0 = aie.lock(%tile_3_4, 2) {init = 2 : i32, sym_name = "B_L2L1_3_2_cons_prod_lock_0"}
    %B_L2L1_3_2_cons_cons_lock_0 = aie.lock(%tile_3_4, 3) {init = 0 : i32, sym_name = "B_L2L1_3_2_cons_cons_lock_0"}
    %B_L2L1_3_3_cons_buff_0 = aie.buffer(%tile_3_5) {address = 36096 : i32, sym_name = "B_L2L1_3_3_cons_buff_0"} : memref<64x16x!aiex.bfp<"v8bfp16ebs8">> 
    %B_L2L1_3_3_cons_buff_1 = aie.buffer(%tile_3_5) {address = 45312 : i32, sym_name = "B_L2L1_3_3_cons_buff_1"} : memref<64x16x!aiex.bfp<"v8bfp16ebs8">> 
    %B_L2L1_3_3_cons_prod_lock_0 = aie.lock(%tile_3_5, 2) {init = 2 : i32, sym_name = "B_L2L1_3_3_cons_prod_lock_0"}
    %B_L2L1_3_3_cons_cons_lock_0 = aie.lock(%tile_3_5, 3) {init = 0 : i32, sym_name = "B_L2L1_3_3_cons_cons_lock_0"}
    %B_L3L2_3_cons_buff_0 = aie.buffer(%mem_tile_3_1) {address = 393216 : i32, sym_name = "B_L3L2_3_cons_buff_0"} : memref<64x16x!aiex.bfp<"v8bfp16ebs8">> 
    %B_L3L2_3_cons_buff_1 = aie.buffer(%mem_tile_3_1) {address = 402432 : i32, sym_name = "B_L3L2_3_cons_buff_1"} : memref<64x16x!aiex.bfp<"v8bfp16ebs8">> 
    %B_L3L2_3_cons_prod_lock_0 = aie.lock(%mem_tile_3_1, 0) {init = 2 : i32, sym_name = "B_L3L2_3_cons_prod_lock_0"}
    %B_L3L2_3_cons_cons_lock_0 = aie.lock(%mem_tile_3_1, 1) {init = 0 : i32, sym_name = "B_L3L2_3_cons_cons_lock_0"}
    %B_L3L2_3_prod_lock_0 = aie.lock(%shim_noc_tile_3_0, 0) {init = 0 : i32, sym_name = "B_L3L2_3_prod_lock_0"}
    %B_L3L2_3_cons_lock_0 = aie.lock(%shim_noc_tile_3_0, 1) {init = 0 : i32, sym_name = "B_L3L2_3_cons_lock_0"}
    %B_L2L1_2_0_cons_buff_0 = aie.buffer(%tile_2_2) {address = 36096 : i32, sym_name = "B_L2L1_2_0_cons_buff_0"} : memref<64x16x!aiex.bfp<"v8bfp16ebs8">> 
    %B_L2L1_2_0_cons_buff_1 = aie.buffer(%tile_2_2) {address = 45312 : i32, sym_name = "B_L2L1_2_0_cons_buff_1"} : memref<64x16x!aiex.bfp<"v8bfp16ebs8">> 
    %B_L2L1_2_0_cons_prod_lock_0 = aie.lock(%tile_2_2, 2) {init = 2 : i32, sym_name = "B_L2L1_2_0_cons_prod_lock_0"}
    %B_L2L1_2_0_cons_cons_lock_0 = aie.lock(%tile_2_2, 3) {init = 0 : i32, sym_name = "B_L2L1_2_0_cons_cons_lock_0"}
    %B_L2L1_2_1_cons_buff_0 = aie.buffer(%tile_2_3) {address = 36096 : i32, sym_name = "B_L2L1_2_1_cons_buff_0"} : memref<64x16x!aiex.bfp<"v8bfp16ebs8">> 
    %B_L2L1_2_1_cons_buff_1 = aie.buffer(%tile_2_3) {address = 45312 : i32, sym_name = "B_L2L1_2_1_cons_buff_1"} : memref<64x16x!aiex.bfp<"v8bfp16ebs8">> 
    %B_L2L1_2_1_cons_prod_lock_0 = aie.lock(%tile_2_3, 2) {init = 2 : i32, sym_name = "B_L2L1_2_1_cons_prod_lock_0"}
    %B_L2L1_2_1_cons_cons_lock_0 = aie.lock(%tile_2_3, 3) {init = 0 : i32, sym_name = "B_L2L1_2_1_cons_cons_lock_0"}
    %B_L2L1_2_2_cons_buff_0 = aie.buffer(%tile_2_4) {address = 36096 : i32, sym_name = "B_L2L1_2_2_cons_buff_0"} : memref<64x16x!aiex.bfp<"v8bfp16ebs8">> 
    %B_L2L1_2_2_cons_buff_1 = aie.buffer(%tile_2_4) {address = 45312 : i32, sym_name = "B_L2L1_2_2_cons_buff_1"} : memref<64x16x!aiex.bfp<"v8bfp16ebs8">> 
    %B_L2L1_2_2_cons_prod_lock_0 = aie.lock(%tile_2_4, 2) {init = 2 : i32, sym_name = "B_L2L1_2_2_cons_prod_lock_0"}
    %B_L2L1_2_2_cons_cons_lock_0 = aie.lock(%tile_2_4, 3) {init = 0 : i32, sym_name = "B_L2L1_2_2_cons_cons_lock_0"}
    %B_L2L1_2_3_cons_buff_0 = aie.buffer(%tile_2_5) {address = 36096 : i32, sym_name = "B_L2L1_2_3_cons_buff_0"} : memref<64x16x!aiex.bfp<"v8bfp16ebs8">> 
    %B_L2L1_2_3_cons_buff_1 = aie.buffer(%tile_2_5) {address = 45312 : i32, sym_name = "B_L2L1_2_3_cons_buff_1"} : memref<64x16x!aiex.bfp<"v8bfp16ebs8">> 
    %B_L2L1_2_3_cons_prod_lock_0 = aie.lock(%tile_2_5, 2) {init = 2 : i32, sym_name = "B_L2L1_2_3_cons_prod_lock_0"}
    %B_L2L1_2_3_cons_cons_lock_0 = aie.lock(%tile_2_5, 3) {init = 0 : i32, sym_name = "B_L2L1_2_3_cons_cons_lock_0"}
    %B_L3L2_2_cons_buff_0 = aie.buffer(%mem_tile_2_1) {address = 393216 : i32, sym_name = "B_L3L2_2_cons_buff_0"} : memref<64x16x!aiex.bfp<"v8bfp16ebs8">> 
    %B_L3L2_2_cons_buff_1 = aie.buffer(%mem_tile_2_1) {address = 402432 : i32, sym_name = "B_L3L2_2_cons_buff_1"} : memref<64x16x!aiex.bfp<"v8bfp16ebs8">> 
    %B_L3L2_2_cons_prod_lock_0 = aie.lock(%mem_tile_2_1, 2) {init = 2 : i32, sym_name = "B_L3L2_2_cons_prod_lock_0"}
    %B_L3L2_2_cons_cons_lock_0 = aie.lock(%mem_tile_2_1, 3) {init = 0 : i32, sym_name = "B_L3L2_2_cons_cons_lock_0"}
    %B_L3L2_2_prod_lock_0 = aie.lock(%shim_noc_tile_2_0, 2) {init = 0 : i32, sym_name = "B_L3L2_2_prod_lock_0"}
    %B_L3L2_2_cons_lock_0 = aie.lock(%shim_noc_tile_2_0, 3) {init = 0 : i32, sym_name = "B_L3L2_2_cons_lock_0"}
    %B_L2L1_1_0_cons_buff_0 = aie.buffer(%tile_1_2) {address = 36096 : i32, sym_name = "B_L2L1_1_0_cons_buff_0"} : memref<64x16x!aiex.bfp<"v8bfp16ebs8">> 
    %B_L2L1_1_0_cons_buff_1 = aie.buffer(%tile_1_2) {address = 45312 : i32, sym_name = "B_L2L1_1_0_cons_buff_1"} : memref<64x16x!aiex.bfp<"v8bfp16ebs8">> 
    %B_L2L1_1_0_cons_prod_lock_0 = aie.lock(%tile_1_2, 2) {init = 2 : i32, sym_name = "B_L2L1_1_0_cons_prod_lock_0"}
    %B_L2L1_1_0_cons_cons_lock_0 = aie.lock(%tile_1_2, 3) {init = 0 : i32, sym_name = "B_L2L1_1_0_cons_cons_lock_0"}
    %B_L2L1_1_1_cons_buff_0 = aie.buffer(%tile_1_3) {address = 36096 : i32, sym_name = "B_L2L1_1_1_cons_buff_0"} : memref<64x16x!aiex.bfp<"v8bfp16ebs8">> 
    %B_L2L1_1_1_cons_buff_1 = aie.buffer(%tile_1_3) {address = 45312 : i32, sym_name = "B_L2L1_1_1_cons_buff_1"} : memref<64x16x!aiex.bfp<"v8bfp16ebs8">> 
    %B_L2L1_1_1_cons_prod_lock_0 = aie.lock(%tile_1_3, 2) {init = 2 : i32, sym_name = "B_L2L1_1_1_cons_prod_lock_0"}
    %B_L2L1_1_1_cons_cons_lock_0 = aie.lock(%tile_1_3, 3) {init = 0 : i32, sym_name = "B_L2L1_1_1_cons_cons_lock_0"}
    %B_L2L1_1_2_cons_buff_0 = aie.buffer(%tile_1_4) {address = 36096 : i32, sym_name = "B_L2L1_1_2_cons_buff_0"} : memref<64x16x!aiex.bfp<"v8bfp16ebs8">> 
    %B_L2L1_1_2_cons_buff_1 = aie.buffer(%tile_1_4) {address = 45312 : i32, sym_name = "B_L2L1_1_2_cons_buff_1"} : memref<64x16x!aiex.bfp<"v8bfp16ebs8">> 
    %B_L2L1_1_2_cons_prod_lock_0 = aie.lock(%tile_1_4, 2) {init = 2 : i32, sym_name = "B_L2L1_1_2_cons_prod_lock_0"}
    %B_L2L1_1_2_cons_cons_lock_0 = aie.lock(%tile_1_4, 3) {init = 0 : i32, sym_name = "B_L2L1_1_2_cons_cons_lock_0"}
    %B_L2L1_1_3_cons_buff_0 = aie.buffer(%tile_1_5) {address = 36096 : i32, sym_name = "B_L2L1_1_3_cons_buff_0"} : memref<64x16x!aiex.bfp<"v8bfp16ebs8">> 
    %B_L2L1_1_3_cons_buff_1 = aie.buffer(%tile_1_5) {address = 45312 : i32, sym_name = "B_L2L1_1_3_cons_buff_1"} : memref<64x16x!aiex.bfp<"v8bfp16ebs8">> 
    %B_L2L1_1_3_cons_prod_lock_0 = aie.lock(%tile_1_5, 2) {init = 2 : i32, sym_name = "B_L2L1_1_3_cons_prod_lock_0"}
    %B_L2L1_1_3_cons_cons_lock_0 = aie.lock(%tile_1_5, 3) {init = 0 : i32, sym_name = "B_L2L1_1_3_cons_cons_lock_0"}
    %B_L3L2_1_cons_buff_0 = aie.buffer(%mem_tile_1_1) {address = 393216 : i32, sym_name = "B_L3L2_1_cons_buff_0"} : memref<64x16x!aiex.bfp<"v8bfp16ebs8">> 
    %B_L3L2_1_cons_buff_1 = aie.buffer(%mem_tile_1_1) {address = 402432 : i32, sym_name = "B_L3L2_1_cons_buff_1"} : memref<64x16x!aiex.bfp<"v8bfp16ebs8">> 
    %B_L3L2_1_cons_prod_lock_0 = aie.lock(%mem_tile_1_1, 0) {init = 2 : i32, sym_name = "B_L3L2_1_cons_prod_lock_0"}
    %B_L3L2_1_cons_cons_lock_0 = aie.lock(%mem_tile_1_1, 1) {init = 0 : i32, sym_name = "B_L3L2_1_cons_cons_lock_0"}
    %B_L3L2_1_prod_lock_0 = aie.lock(%shim_noc_tile_1_0, 0) {init = 0 : i32, sym_name = "B_L3L2_1_prod_lock_0"}
    %B_L3L2_1_cons_lock_0 = aie.lock(%shim_noc_tile_1_0, 1) {init = 0 : i32, sym_name = "B_L3L2_1_cons_lock_0"}
    %B_L2L1_0_0_cons_buff_0 = aie.buffer(%tile_0_2) {address = 36096 : i32, sym_name = "B_L2L1_0_0_cons_buff_0"} : memref<64x16x!aiex.bfp<"v8bfp16ebs8">> 
    %B_L2L1_0_0_cons_buff_1 = aie.buffer(%tile_0_2) {address = 45312 : i32, sym_name = "B_L2L1_0_0_cons_buff_1"} : memref<64x16x!aiex.bfp<"v8bfp16ebs8">> 
    %B_L2L1_0_0_cons_prod_lock_0 = aie.lock(%tile_0_2, 2) {init = 2 : i32, sym_name = "B_L2L1_0_0_cons_prod_lock_0"}
    %B_L2L1_0_0_cons_cons_lock_0 = aie.lock(%tile_0_2, 3) {init = 0 : i32, sym_name = "B_L2L1_0_0_cons_cons_lock_0"}
    %B_L2L1_0_1_cons_buff_0 = aie.buffer(%tile_0_3) {address = 36096 : i32, sym_name = "B_L2L1_0_1_cons_buff_0"} : memref<64x16x!aiex.bfp<"v8bfp16ebs8">> 
    %B_L2L1_0_1_cons_buff_1 = aie.buffer(%tile_0_3) {address = 45312 : i32, sym_name = "B_L2L1_0_1_cons_buff_1"} : memref<64x16x!aiex.bfp<"v8bfp16ebs8">> 
    %B_L2L1_0_1_cons_prod_lock_0 = aie.lock(%tile_0_3, 2) {init = 2 : i32, sym_name = "B_L2L1_0_1_cons_prod_lock_0"}
    %B_L2L1_0_1_cons_cons_lock_0 = aie.lock(%tile_0_3, 3) {init = 0 : i32, sym_name = "B_L2L1_0_1_cons_cons_lock_0"}
    %B_L2L1_0_2_cons_buff_0 = aie.buffer(%tile_0_4) {address = 36096 : i32, sym_name = "B_L2L1_0_2_cons_buff_0"} : memref<64x16x!aiex.bfp<"v8bfp16ebs8">> 
    %B_L2L1_0_2_cons_buff_1 = aie.buffer(%tile_0_4) {address = 45312 : i32, sym_name = "B_L2L1_0_2_cons_buff_1"} : memref<64x16x!aiex.bfp<"v8bfp16ebs8">> 
    %B_L2L1_0_2_cons_prod_lock_0 = aie.lock(%tile_0_4, 2) {init = 2 : i32, sym_name = "B_L2L1_0_2_cons_prod_lock_0"}
    %B_L2L1_0_2_cons_cons_lock_0 = aie.lock(%tile_0_4, 3) {init = 0 : i32, sym_name = "B_L2L1_0_2_cons_cons_lock_0"}
    %B_L2L1_0_3_cons_buff_0 = aie.buffer(%tile_0_5) {address = 36096 : i32, sym_name = "B_L2L1_0_3_cons_buff_0"} : memref<64x16x!aiex.bfp<"v8bfp16ebs8">> 
    %B_L2L1_0_3_cons_buff_1 = aie.buffer(%tile_0_5) {address = 45312 : i32, sym_name = "B_L2L1_0_3_cons_buff_1"} : memref<64x16x!aiex.bfp<"v8bfp16ebs8">> 
    %B_L2L1_0_3_cons_prod_lock_0 = aie.lock(%tile_0_5, 2) {init = 2 : i32, sym_name = "B_L2L1_0_3_cons_prod_lock_0"}
    %B_L2L1_0_3_cons_cons_lock_0 = aie.lock(%tile_0_5, 3) {init = 0 : i32, sym_name = "B_L2L1_0_3_cons_cons_lock_0"}
    %B_L3L2_0_cons_buff_0 = aie.buffer(%mem_tile_0_1) {address = 393216 : i32, sym_name = "B_L3L2_0_cons_buff_0"} : memref<64x16x!aiex.bfp<"v8bfp16ebs8">> 
    %B_L3L2_0_cons_buff_1 = aie.buffer(%mem_tile_0_1) {address = 402432 : i32, sym_name = "B_L3L2_0_cons_buff_1"} : memref<64x16x!aiex.bfp<"v8bfp16ebs8">> 
    %B_L3L2_0_cons_prod_lock_0 = aie.lock(%mem_tile_0_1, 2) {init = 2 : i32, sym_name = "B_L3L2_0_cons_prod_lock_0"}
    %B_L3L2_0_cons_cons_lock_0 = aie.lock(%mem_tile_0_1, 3) {init = 0 : i32, sym_name = "B_L3L2_0_cons_cons_lock_0"}
    %B_L3L2_0_prod_lock_0 = aie.lock(%shim_noc_tile_0_0, 2) {init = 0 : i32, sym_name = "B_L3L2_0_prod_lock_0"}
    %B_L3L2_0_cons_lock_0 = aie.lock(%shim_noc_tile_0_0, 3) {init = 0 : i32, sym_name = "B_L3L2_0_cons_lock_0"}
    %A_L2L1_3_0_cons_buff_0 = aie.buffer(%tile_0_5) {address = 54528 : i32, sym_name = "A_L2L1_3_0_cons_buff_0"} : memref<32x64xbf16> 
    %A_L2L1_3_0_cons_buff_1 = aie.buffer(%tile_0_5) {address = 58624 : i32, sym_name = "A_L2L1_3_0_cons_buff_1"} : memref<32x64xbf16> 
    %A_L2L1_3_0_cons_prod_lock_0 = aie.lock(%tile_0_5, 0) {init = 2 : i32, sym_name = "A_L2L1_3_0_cons_prod_lock_0"}
    %A_L2L1_3_0_cons_cons_lock_0 = aie.lock(%tile_0_5, 1) {init = 0 : i32, sym_name = "A_L2L1_3_0_cons_cons_lock_0"}
    %A_L2L1_3_1_cons_buff_0 = aie.buffer(%tile_1_5) {address = 54528 : i32, sym_name = "A_L2L1_3_1_cons_buff_0"} : memref<32x64xbf16> 
    %A_L2L1_3_1_cons_buff_1 = aie.buffer(%tile_1_5) {address = 58624 : i32, sym_name = "A_L2L1_3_1_cons_buff_1"} : memref<32x64xbf16> 
    %A_L2L1_3_1_cons_prod_lock_0 = aie.lock(%tile_1_5, 0) {init = 2 : i32, sym_name = "A_L2L1_3_1_cons_prod_lock_0"}
    %A_L2L1_3_1_cons_cons_lock_0 = aie.lock(%tile_1_5, 1) {init = 0 : i32, sym_name = "A_L2L1_3_1_cons_cons_lock_0"}
    %A_L2L1_3_2_cons_buff_0 = aie.buffer(%tile_2_5) {address = 54528 : i32, sym_name = "A_L2L1_3_2_cons_buff_0"} : memref<32x64xbf16> 
    %A_L2L1_3_2_cons_buff_1 = aie.buffer(%tile_2_5) {address = 58624 : i32, sym_name = "A_L2L1_3_2_cons_buff_1"} : memref<32x64xbf16> 
    %A_L2L1_3_2_cons_prod_lock_0 = aie.lock(%tile_2_5, 0) {init = 2 : i32, sym_name = "A_L2L1_3_2_cons_prod_lock_0"}
    %A_L2L1_3_2_cons_cons_lock_0 = aie.lock(%tile_2_5, 1) {init = 0 : i32, sym_name = "A_L2L1_3_2_cons_cons_lock_0"}
    %A_L2L1_3_3_cons_buff_0 = aie.buffer(%tile_3_5) {address = 54528 : i32, sym_name = "A_L2L1_3_3_cons_buff_0"} : memref<32x64xbf16> 
    %A_L2L1_3_3_cons_buff_1 = aie.buffer(%tile_3_5) {address = 58624 : i32, sym_name = "A_L2L1_3_3_cons_buff_1"} : memref<32x64xbf16> 
    %A_L2L1_3_3_cons_prod_lock_0 = aie.lock(%tile_3_5, 0) {init = 2 : i32, sym_name = "A_L2L1_3_3_cons_prod_lock_0"}
    %A_L2L1_3_3_cons_cons_lock_0 = aie.lock(%tile_3_5, 1) {init = 0 : i32, sym_name = "A_L2L1_3_3_cons_cons_lock_0"}
    %A_L2L1_3_4_cons_buff_0 = aie.buffer(%tile_4_5) {address = 54528 : i32, sym_name = "A_L2L1_3_4_cons_buff_0"} : memref<32x64xbf16> 
    %A_L2L1_3_4_cons_buff_1 = aie.buffer(%tile_4_5) {address = 58624 : i32, sym_name = "A_L2L1_3_4_cons_buff_1"} : memref<32x64xbf16> 
    %A_L2L1_3_4_cons_prod_lock_0 = aie.lock(%tile_4_5, 0) {init = 2 : i32, sym_name = "A_L2L1_3_4_cons_prod_lock_0"}
    %A_L2L1_3_4_cons_cons_lock_0 = aie.lock(%tile_4_5, 1) {init = 0 : i32, sym_name = "A_L2L1_3_4_cons_cons_lock_0"}
    %A_L2L1_3_5_cons_buff_0 = aie.buffer(%tile_5_5) {address = 54528 : i32, sym_name = "A_L2L1_3_5_cons_buff_0"} : memref<32x64xbf16> 
    %A_L2L1_3_5_cons_buff_1 = aie.buffer(%tile_5_5) {address = 58624 : i32, sym_name = "A_L2L1_3_5_cons_buff_1"} : memref<32x64xbf16> 
    %A_L2L1_3_5_cons_prod_lock_0 = aie.lock(%tile_5_5, 0) {init = 2 : i32, sym_name = "A_L2L1_3_5_cons_prod_lock_0"}
    %A_L2L1_3_5_cons_cons_lock_0 = aie.lock(%tile_5_5, 1) {init = 0 : i32, sym_name = "A_L2L1_3_5_cons_cons_lock_0"}
    %A_L2L1_3_6_cons_buff_0 = aie.buffer(%tile_6_5) {address = 54528 : i32, sym_name = "A_L2L1_3_6_cons_buff_0"} : memref<32x64xbf16> 
    %A_L2L1_3_6_cons_buff_1 = aie.buffer(%tile_6_5) {address = 58624 : i32, sym_name = "A_L2L1_3_6_cons_buff_1"} : memref<32x64xbf16> 
    %A_L2L1_3_6_cons_prod_lock_0 = aie.lock(%tile_6_5, 0) {init = 2 : i32, sym_name = "A_L2L1_3_6_cons_prod_lock_0"}
    %A_L2L1_3_6_cons_cons_lock_0 = aie.lock(%tile_6_5, 1) {init = 0 : i32, sym_name = "A_L2L1_3_6_cons_cons_lock_0"}
    %A_L2L1_3_7_cons_buff_0 = aie.buffer(%tile_7_5) {address = 54528 : i32, sym_name = "A_L2L1_3_7_cons_buff_0"} : memref<32x64xbf16> 
    %A_L2L1_3_7_cons_buff_1 = aie.buffer(%tile_7_5) {address = 58624 : i32, sym_name = "A_L2L1_3_7_cons_buff_1"} : memref<32x64xbf16> 
    %A_L2L1_3_7_cons_prod_lock_0 = aie.lock(%tile_7_5, 0) {init = 2 : i32, sym_name = "A_L2L1_3_7_cons_prod_lock_0"}
    %A_L2L1_3_7_cons_cons_lock_0 = aie.lock(%tile_7_5, 1) {init = 0 : i32, sym_name = "A_L2L1_3_7_cons_cons_lock_0"}
    %A_L3L2_3_cons_buff_0 = aie.buffer(%mem_tile_6_1) {address = 131072 : i32, sym_name = "A_L3L2_3_cons_buff_0"} : memref<128x512xbf16> 
    %A_L3L2_3_cons_buff_1 = aie.buffer(%mem_tile_6_1) {address = 262144 : i32, sym_name = "A_L3L2_3_cons_buff_1"} : memref<128x512xbf16> 
    %A_L3L2_3_cons_prod_lock_0 = aie.lock(%mem_tile_6_1, 0) {init = 2 : i32, sym_name = "A_L3L2_3_cons_prod_lock_0"}
    %A_L3L2_3_cons_cons_lock_0 = aie.lock(%mem_tile_6_1, 1) {init = 0 : i32, sym_name = "A_L3L2_3_cons_cons_lock_0"}
    %A_L3L2_3_prod_lock_0 = aie.lock(%shim_noc_tile_6_0, 0) {init = 0 : i32, sym_name = "A_L3L2_3_prod_lock_0"}
    %A_L3L2_3_cons_lock_0 = aie.lock(%shim_noc_tile_6_0, 1) {init = 0 : i32, sym_name = "A_L3L2_3_cons_lock_0"}
    %A_L2L1_2_0_cons_buff_0 = aie.buffer(%tile_0_4) {address = 54528 : i32, sym_name = "A_L2L1_2_0_cons_buff_0"} : memref<32x64xbf16> 
    %A_L2L1_2_0_cons_buff_1 = aie.buffer(%tile_0_4) {address = 58624 : i32, sym_name = "A_L2L1_2_0_cons_buff_1"} : memref<32x64xbf16> 
    %A_L2L1_2_0_cons_prod_lock_0 = aie.lock(%tile_0_4, 0) {init = 2 : i32, sym_name = "A_L2L1_2_0_cons_prod_lock_0"}
    %A_L2L1_2_0_cons_cons_lock_0 = aie.lock(%tile_0_4, 1) {init = 0 : i32, sym_name = "A_L2L1_2_0_cons_cons_lock_0"}
    %A_L2L1_2_1_cons_buff_0 = aie.buffer(%tile_1_4) {address = 54528 : i32, sym_name = "A_L2L1_2_1_cons_buff_0"} : memref<32x64xbf16> 
    %A_L2L1_2_1_cons_buff_1 = aie.buffer(%tile_1_4) {address = 58624 : i32, sym_name = "A_L2L1_2_1_cons_buff_1"} : memref<32x64xbf16> 
    %A_L2L1_2_1_cons_prod_lock_0 = aie.lock(%tile_1_4, 0) {init = 2 : i32, sym_name = "A_L2L1_2_1_cons_prod_lock_0"}
    %A_L2L1_2_1_cons_cons_lock_0 = aie.lock(%tile_1_4, 1) {init = 0 : i32, sym_name = "A_L2L1_2_1_cons_cons_lock_0"}
    %A_L2L1_2_2_cons_buff_0 = aie.buffer(%tile_2_4) {address = 54528 : i32, sym_name = "A_L2L1_2_2_cons_buff_0"} : memref<32x64xbf16> 
    %A_L2L1_2_2_cons_buff_1 = aie.buffer(%tile_2_4) {address = 58624 : i32, sym_name = "A_L2L1_2_2_cons_buff_1"} : memref<32x64xbf16> 
    %A_L2L1_2_2_cons_prod_lock_0 = aie.lock(%tile_2_4, 0) {init = 2 : i32, sym_name = "A_L2L1_2_2_cons_prod_lock_0"}
    %A_L2L1_2_2_cons_cons_lock_0 = aie.lock(%tile_2_4, 1) {init = 0 : i32, sym_name = "A_L2L1_2_2_cons_cons_lock_0"}
    %A_L2L1_2_3_cons_buff_0 = aie.buffer(%tile_3_4) {address = 54528 : i32, sym_name = "A_L2L1_2_3_cons_buff_0"} : memref<32x64xbf16> 
    %A_L2L1_2_3_cons_buff_1 = aie.buffer(%tile_3_4) {address = 58624 : i32, sym_name = "A_L2L1_2_3_cons_buff_1"} : memref<32x64xbf16> 
    %A_L2L1_2_3_cons_prod_lock_0 = aie.lock(%tile_3_4, 0) {init = 2 : i32, sym_name = "A_L2L1_2_3_cons_prod_lock_0"}
    %A_L2L1_2_3_cons_cons_lock_0 = aie.lock(%tile_3_4, 1) {init = 0 : i32, sym_name = "A_L2L1_2_3_cons_cons_lock_0"}
    %A_L2L1_2_4_cons_buff_0 = aie.buffer(%tile_4_4) {address = 54528 : i32, sym_name = "A_L2L1_2_4_cons_buff_0"} : memref<32x64xbf16> 
    %A_L2L1_2_4_cons_buff_1 = aie.buffer(%tile_4_4) {address = 58624 : i32, sym_name = "A_L2L1_2_4_cons_buff_1"} : memref<32x64xbf16> 
    %A_L2L1_2_4_cons_prod_lock_0 = aie.lock(%tile_4_4, 0) {init = 2 : i32, sym_name = "A_L2L1_2_4_cons_prod_lock_0"}
    %A_L2L1_2_4_cons_cons_lock_0 = aie.lock(%tile_4_4, 1) {init = 0 : i32, sym_name = "A_L2L1_2_4_cons_cons_lock_0"}
    %A_L2L1_2_5_cons_buff_0 = aie.buffer(%tile_5_4) {address = 54528 : i32, sym_name = "A_L2L1_2_5_cons_buff_0"} : memref<32x64xbf16> 
    %A_L2L1_2_5_cons_buff_1 = aie.buffer(%tile_5_4) {address = 58624 : i32, sym_name = "A_L2L1_2_5_cons_buff_1"} : memref<32x64xbf16> 
    %A_L2L1_2_5_cons_prod_lock_0 = aie.lock(%tile_5_4, 0) {init = 2 : i32, sym_name = "A_L2L1_2_5_cons_prod_lock_0"}
    %A_L2L1_2_5_cons_cons_lock_0 = aie.lock(%tile_5_4, 1) {init = 0 : i32, sym_name = "A_L2L1_2_5_cons_cons_lock_0"}
    %A_L2L1_2_6_cons_buff_0 = aie.buffer(%tile_6_4) {address = 54528 : i32, sym_name = "A_L2L1_2_6_cons_buff_0"} : memref<32x64xbf16> 
    %A_L2L1_2_6_cons_buff_1 = aie.buffer(%tile_6_4) {address = 58624 : i32, sym_name = "A_L2L1_2_6_cons_buff_1"} : memref<32x64xbf16> 
    %A_L2L1_2_6_cons_prod_lock_0 = aie.lock(%tile_6_4, 0) {init = 2 : i32, sym_name = "A_L2L1_2_6_cons_prod_lock_0"}
    %A_L2L1_2_6_cons_cons_lock_0 = aie.lock(%tile_6_4, 1) {init = 0 : i32, sym_name = "A_L2L1_2_6_cons_cons_lock_0"}
    %A_L2L1_2_7_cons_buff_0 = aie.buffer(%tile_7_4) {address = 54528 : i32, sym_name = "A_L2L1_2_7_cons_buff_0"} : memref<32x64xbf16> 
    %A_L2L1_2_7_cons_buff_1 = aie.buffer(%tile_7_4) {address = 58624 : i32, sym_name = "A_L2L1_2_7_cons_buff_1"} : memref<32x64xbf16> 
    %A_L2L1_2_7_cons_prod_lock_0 = aie.lock(%tile_7_4, 0) {init = 2 : i32, sym_name = "A_L2L1_2_7_cons_prod_lock_0"}
    %A_L2L1_2_7_cons_cons_lock_0 = aie.lock(%tile_7_4, 1) {init = 0 : i32, sym_name = "A_L2L1_2_7_cons_cons_lock_0"}
    %A_L3L2_2_cons_buff_0 = aie.buffer(%mem_tile_4_1) {address = 131072 : i32, sym_name = "A_L3L2_2_cons_buff_0"} : memref<128x512xbf16> 
    %A_L3L2_2_cons_buff_1 = aie.buffer(%mem_tile_4_1) {address = 262144 : i32, sym_name = "A_L3L2_2_cons_buff_1"} : memref<128x512xbf16> 
    %A_L3L2_2_cons_prod_lock_0 = aie.lock(%mem_tile_4_1, 0) {init = 2 : i32, sym_name = "A_L3L2_2_cons_prod_lock_0"}
    %A_L3L2_2_cons_cons_lock_0 = aie.lock(%mem_tile_4_1, 1) {init = 0 : i32, sym_name = "A_L3L2_2_cons_cons_lock_0"}
    %A_L3L2_2_prod_lock_0 = aie.lock(%shim_noc_tile_4_0, 0) {init = 0 : i32, sym_name = "A_L3L2_2_prod_lock_0"}
    %A_L3L2_2_cons_lock_0 = aie.lock(%shim_noc_tile_4_0, 1) {init = 0 : i32, sym_name = "A_L3L2_2_cons_lock_0"}
    %A_L2L1_1_0_cons_buff_0 = aie.buffer(%tile_0_3) {address = 54528 : i32, sym_name = "A_L2L1_1_0_cons_buff_0"} : memref<32x64xbf16> 
    %A_L2L1_1_0_cons_buff_1 = aie.buffer(%tile_0_3) {address = 58624 : i32, sym_name = "A_L2L1_1_0_cons_buff_1"} : memref<32x64xbf16> 
    %A_L2L1_1_0_cons_prod_lock_0 = aie.lock(%tile_0_3, 0) {init = 2 : i32, sym_name = "A_L2L1_1_0_cons_prod_lock_0"}
    %A_L2L1_1_0_cons_cons_lock_0 = aie.lock(%tile_0_3, 1) {init = 0 : i32, sym_name = "A_L2L1_1_0_cons_cons_lock_0"}
    %A_L2L1_1_1_cons_buff_0 = aie.buffer(%tile_1_3) {address = 54528 : i32, sym_name = "A_L2L1_1_1_cons_buff_0"} : memref<32x64xbf16> 
    %A_L2L1_1_1_cons_buff_1 = aie.buffer(%tile_1_3) {address = 58624 : i32, sym_name = "A_L2L1_1_1_cons_buff_1"} : memref<32x64xbf16> 
    %A_L2L1_1_1_cons_prod_lock_0 = aie.lock(%tile_1_3, 0) {init = 2 : i32, sym_name = "A_L2L1_1_1_cons_prod_lock_0"}
    %A_L2L1_1_1_cons_cons_lock_0 = aie.lock(%tile_1_3, 1) {init = 0 : i32, sym_name = "A_L2L1_1_1_cons_cons_lock_0"}
    %A_L2L1_1_2_cons_buff_0 = aie.buffer(%tile_2_3) {address = 54528 : i32, sym_name = "A_L2L1_1_2_cons_buff_0"} : memref<32x64xbf16> 
    %A_L2L1_1_2_cons_buff_1 = aie.buffer(%tile_2_3) {address = 58624 : i32, sym_name = "A_L2L1_1_2_cons_buff_1"} : memref<32x64xbf16> 
    %A_L2L1_1_2_cons_prod_lock_0 = aie.lock(%tile_2_3, 0) {init = 2 : i32, sym_name = "A_L2L1_1_2_cons_prod_lock_0"}
    %A_L2L1_1_2_cons_cons_lock_0 = aie.lock(%tile_2_3, 1) {init = 0 : i32, sym_name = "A_L2L1_1_2_cons_cons_lock_0"}
    %A_L2L1_1_3_cons_buff_0 = aie.buffer(%tile_3_3) {address = 54528 : i32, sym_name = "A_L2L1_1_3_cons_buff_0"} : memref<32x64xbf16> 
    %A_L2L1_1_3_cons_buff_1 = aie.buffer(%tile_3_3) {address = 58624 : i32, sym_name = "A_L2L1_1_3_cons_buff_1"} : memref<32x64xbf16> 
    %A_L2L1_1_3_cons_prod_lock_0 = aie.lock(%tile_3_3, 0) {init = 2 : i32, sym_name = "A_L2L1_1_3_cons_prod_lock_0"}
    %A_L2L1_1_3_cons_cons_lock_0 = aie.lock(%tile_3_3, 1) {init = 0 : i32, sym_name = "A_L2L1_1_3_cons_cons_lock_0"}
    %A_L2L1_1_4_cons_buff_0 = aie.buffer(%tile_4_3) {address = 54528 : i32, sym_name = "A_L2L1_1_4_cons_buff_0"} : memref<32x64xbf16> 
    %A_L2L1_1_4_cons_buff_1 = aie.buffer(%tile_4_3) {address = 58624 : i32, sym_name = "A_L2L1_1_4_cons_buff_1"} : memref<32x64xbf16> 
    %A_L2L1_1_4_cons_prod_lock_0 = aie.lock(%tile_4_3, 0) {init = 2 : i32, sym_name = "A_L2L1_1_4_cons_prod_lock_0"}
    %A_L2L1_1_4_cons_cons_lock_0 = aie.lock(%tile_4_3, 1) {init = 0 : i32, sym_name = "A_L2L1_1_4_cons_cons_lock_0"}
    %A_L2L1_1_5_cons_buff_0 = aie.buffer(%tile_5_3) {address = 54528 : i32, sym_name = "A_L2L1_1_5_cons_buff_0"} : memref<32x64xbf16> 
    %A_L2L1_1_5_cons_buff_1 = aie.buffer(%tile_5_3) {address = 58624 : i32, sym_name = "A_L2L1_1_5_cons_buff_1"} : memref<32x64xbf16> 
    %A_L2L1_1_5_cons_prod_lock_0 = aie.lock(%tile_5_3, 0) {init = 2 : i32, sym_name = "A_L2L1_1_5_cons_prod_lock_0"}
    %A_L2L1_1_5_cons_cons_lock_0 = aie.lock(%tile_5_3, 1) {init = 0 : i32, sym_name = "A_L2L1_1_5_cons_cons_lock_0"}
    %A_L2L1_1_6_cons_buff_0 = aie.buffer(%tile_6_3) {address = 54528 : i32, sym_name = "A_L2L1_1_6_cons_buff_0"} : memref<32x64xbf16> 
    %A_L2L1_1_6_cons_buff_1 = aie.buffer(%tile_6_3) {address = 58624 : i32, sym_name = "A_L2L1_1_6_cons_buff_1"} : memref<32x64xbf16> 
    %A_L2L1_1_6_cons_prod_lock_0 = aie.lock(%tile_6_3, 0) {init = 2 : i32, sym_name = "A_L2L1_1_6_cons_prod_lock_0"}
    %A_L2L1_1_6_cons_cons_lock_0 = aie.lock(%tile_6_3, 1) {init = 0 : i32, sym_name = "A_L2L1_1_6_cons_cons_lock_0"}
    %A_L2L1_1_7_cons_buff_0 = aie.buffer(%tile_7_3) {address = 54528 : i32, sym_name = "A_L2L1_1_7_cons_buff_0"} : memref<32x64xbf16> 
    %A_L2L1_1_7_cons_buff_1 = aie.buffer(%tile_7_3) {address = 58624 : i32, sym_name = "A_L2L1_1_7_cons_buff_1"} : memref<32x64xbf16> 
    %A_L2L1_1_7_cons_prod_lock_0 = aie.lock(%tile_7_3, 0) {init = 2 : i32, sym_name = "A_L2L1_1_7_cons_prod_lock_0"}
    %A_L2L1_1_7_cons_cons_lock_0 = aie.lock(%tile_7_3, 1) {init = 0 : i32, sym_name = "A_L2L1_1_7_cons_cons_lock_0"}
    %A_L3L2_1_cons_buff_0 = aie.buffer(%mem_tile_2_1) {address = 131072 : i32, sym_name = "A_L3L2_1_cons_buff_0"} : memref<128x512xbf16> 
    %A_L3L2_1_cons_buff_1 = aie.buffer(%mem_tile_2_1) {address = 262144 : i32, sym_name = "A_L3L2_1_cons_buff_1"} : memref<128x512xbf16> 
    %A_L3L2_1_cons_prod_lock_0 = aie.lock(%mem_tile_2_1, 0) {init = 2 : i32, sym_name = "A_L3L2_1_cons_prod_lock_0"}
    %A_L3L2_1_cons_cons_lock_0 = aie.lock(%mem_tile_2_1, 1) {init = 0 : i32, sym_name = "A_L3L2_1_cons_cons_lock_0"}
    %A_L3L2_1_prod_lock_0 = aie.lock(%shim_noc_tile_2_0, 0) {init = 0 : i32, sym_name = "A_L3L2_1_prod_lock_0"}
    %A_L3L2_1_cons_lock_0 = aie.lock(%shim_noc_tile_2_0, 1) {init = 0 : i32, sym_name = "A_L3L2_1_cons_lock_0"}
    %A_L2L1_0_0_cons_buff_0 = aie.buffer(%tile_0_2) {address = 54528 : i32, sym_name = "A_L2L1_0_0_cons_buff_0"} : memref<32x64xbf16> 
    %A_L2L1_0_0_cons_buff_1 = aie.buffer(%tile_0_2) {address = 58624 : i32, sym_name = "A_L2L1_0_0_cons_buff_1"} : memref<32x64xbf16> 
    %A_L2L1_0_0_cons_prod_lock_0 = aie.lock(%tile_0_2, 0) {init = 2 : i32, sym_name = "A_L2L1_0_0_cons_prod_lock_0"}
    %A_L2L1_0_0_cons_cons_lock_0 = aie.lock(%tile_0_2, 1) {init = 0 : i32, sym_name = "A_L2L1_0_0_cons_cons_lock_0"}
    %A_L2L1_0_1_cons_buff_0 = aie.buffer(%tile_1_2) {address = 54528 : i32, sym_name = "A_L2L1_0_1_cons_buff_0"} : memref<32x64xbf16> 
    %A_L2L1_0_1_cons_buff_1 = aie.buffer(%tile_1_2) {address = 58624 : i32, sym_name = "A_L2L1_0_1_cons_buff_1"} : memref<32x64xbf16> 
    %A_L2L1_0_1_cons_prod_lock_0 = aie.lock(%tile_1_2, 0) {init = 2 : i32, sym_name = "A_L2L1_0_1_cons_prod_lock_0"}
    %A_L2L1_0_1_cons_cons_lock_0 = aie.lock(%tile_1_2, 1) {init = 0 : i32, sym_name = "A_L2L1_0_1_cons_cons_lock_0"}
    %A_L2L1_0_2_cons_buff_0 = aie.buffer(%tile_2_2) {address = 54528 : i32, sym_name = "A_L2L1_0_2_cons_buff_0"} : memref<32x64xbf16> 
    %A_L2L1_0_2_cons_buff_1 = aie.buffer(%tile_2_2) {address = 58624 : i32, sym_name = "A_L2L1_0_2_cons_buff_1"} : memref<32x64xbf16> 
    %A_L2L1_0_2_cons_prod_lock_0 = aie.lock(%tile_2_2, 0) {init = 2 : i32, sym_name = "A_L2L1_0_2_cons_prod_lock_0"}
    %A_L2L1_0_2_cons_cons_lock_0 = aie.lock(%tile_2_2, 1) {init = 0 : i32, sym_name = "A_L2L1_0_2_cons_cons_lock_0"}
    %A_L2L1_0_3_cons_buff_0 = aie.buffer(%tile_3_2) {address = 54528 : i32, sym_name = "A_L2L1_0_3_cons_buff_0"} : memref<32x64xbf16> 
    %A_L2L1_0_3_cons_buff_1 = aie.buffer(%tile_3_2) {address = 58624 : i32, sym_name = "A_L2L1_0_3_cons_buff_1"} : memref<32x64xbf16> 
    %A_L2L1_0_3_cons_prod_lock_0 = aie.lock(%tile_3_2, 0) {init = 2 : i32, sym_name = "A_L2L1_0_3_cons_prod_lock_0"}
    %A_L2L1_0_3_cons_cons_lock_0 = aie.lock(%tile_3_2, 1) {init = 0 : i32, sym_name = "A_L2L1_0_3_cons_cons_lock_0"}
    %A_L2L1_0_4_cons_buff_0 = aie.buffer(%tile_4_2) {address = 54528 : i32, sym_name = "A_L2L1_0_4_cons_buff_0"} : memref<32x64xbf16> 
    %A_L2L1_0_4_cons_buff_1 = aie.buffer(%tile_4_2) {address = 58624 : i32, sym_name = "A_L2L1_0_4_cons_buff_1"} : memref<32x64xbf16> 
    %A_L2L1_0_4_cons_prod_lock_0 = aie.lock(%tile_4_2, 0) {init = 2 : i32, sym_name = "A_L2L1_0_4_cons_prod_lock_0"}
    %A_L2L1_0_4_cons_cons_lock_0 = aie.lock(%tile_4_2, 1) {init = 0 : i32, sym_name = "A_L2L1_0_4_cons_cons_lock_0"}
    %A_L2L1_0_5_cons_buff_0 = aie.buffer(%tile_5_2) {address = 54528 : i32, sym_name = "A_L2L1_0_5_cons_buff_0"} : memref<32x64xbf16> 
    %A_L2L1_0_5_cons_buff_1 = aie.buffer(%tile_5_2) {address = 58624 : i32, sym_name = "A_L2L1_0_5_cons_buff_1"} : memref<32x64xbf16> 
    %A_L2L1_0_5_cons_prod_lock_0 = aie.lock(%tile_5_2, 0) {init = 2 : i32, sym_name = "A_L2L1_0_5_cons_prod_lock_0"}
    %A_L2L1_0_5_cons_cons_lock_0 = aie.lock(%tile_5_2, 1) {init = 0 : i32, sym_name = "A_L2L1_0_5_cons_cons_lock_0"}
    %A_L2L1_0_6_cons_buff_0 = aie.buffer(%tile_6_2) {address = 54528 : i32, sym_name = "A_L2L1_0_6_cons_buff_0"} : memref<32x64xbf16> 
    %A_L2L1_0_6_cons_buff_1 = aie.buffer(%tile_6_2) {address = 58624 : i32, sym_name = "A_L2L1_0_6_cons_buff_1"} : memref<32x64xbf16> 
    %A_L2L1_0_6_cons_prod_lock_0 = aie.lock(%tile_6_2, 0) {init = 2 : i32, sym_name = "A_L2L1_0_6_cons_prod_lock_0"}
    %A_L2L1_0_6_cons_cons_lock_0 = aie.lock(%tile_6_2, 1) {init = 0 : i32, sym_name = "A_L2L1_0_6_cons_cons_lock_0"}
    %A_L2L1_0_7_cons_buff_0 = aie.buffer(%tile_7_2) {address = 54528 : i32, sym_name = "A_L2L1_0_7_cons_buff_0"} : memref<32x64xbf16> 
    %A_L2L1_0_7_cons_buff_1 = aie.buffer(%tile_7_2) {address = 58624 : i32, sym_name = "A_L2L1_0_7_cons_buff_1"} : memref<32x64xbf16> 
    %A_L2L1_0_7_cons_prod_lock_0 = aie.lock(%tile_7_2, 0) {init = 2 : i32, sym_name = "A_L2L1_0_7_cons_prod_lock_0"}
    %A_L2L1_0_7_cons_cons_lock_0 = aie.lock(%tile_7_2, 1) {init = 0 : i32, sym_name = "A_L2L1_0_7_cons_cons_lock_0"}
    %A_L3L2_0_cons_buff_0 = aie.buffer(%mem_tile_0_1) {address = 131072 : i32, sym_name = "A_L3L2_0_cons_buff_0"} : memref<128x512xbf16> 
    %A_L3L2_0_cons_buff_1 = aie.buffer(%mem_tile_0_1) {address = 262144 : i32, sym_name = "A_L3L2_0_cons_buff_1"} : memref<128x512xbf16> 
    %A_L3L2_0_cons_prod_lock_0 = aie.lock(%mem_tile_0_1, 0) {init = 2 : i32, sym_name = "A_L3L2_0_cons_prod_lock_0"}
    %A_L3L2_0_cons_cons_lock_0 = aie.lock(%mem_tile_0_1, 1) {init = 0 : i32, sym_name = "A_L3L2_0_cons_cons_lock_0"}
    %A_L3L2_0_prod_lock_0 = aie.lock(%shim_noc_tile_0_0, 0) {init = 0 : i32, sym_name = "A_L3L2_0_prod_lock_0"}
    %A_L3L2_0_cons_lock_0 = aie.lock(%shim_noc_tile_0_0, 1) {init = 0 : i32, sym_name = "A_L3L2_0_cons_lock_0"}
    aie.flow(%shim_noc_tile_0_0, DMA : 0, %mem_tile_0_1, DMA : 4)
    aie.flow(%mem_tile_0_1, DMA : 1, %tile_7_2, DMA : 0)
    aie.flow(%mem_tile_0_1, DMA : 1, %tile_6_2, DMA : 0)
    aie.flow(%mem_tile_0_1, DMA : 1, %tile_5_2, DMA : 0)
    aie.flow(%mem_tile_0_1, DMA : 1, %tile_4_2, DMA : 0)
    aie.flow(%mem_tile_0_1, DMA : 1, %tile_3_2, DMA : 0)
    aie.flow(%mem_tile_0_1, DMA : 1, %tile_2_2, DMA : 0)
    aie.flow(%mem_tile_0_1, DMA : 1, %tile_1_2, DMA : 0)
    aie.flow(%mem_tile_0_1, DMA : 1, %tile_0_2, DMA : 0)
    aie.flow(%shim_noc_tile_2_0, DMA : 0, %mem_tile_2_1, DMA : 4)
    aie.flow(%mem_tile_2_1, DMA : 1, %tile_7_3, DMA : 0)
    aie.flow(%mem_tile_2_1, DMA : 1, %tile_6_3, DMA : 0)
    aie.flow(%mem_tile_2_1, DMA : 1, %tile_5_3, DMA : 0)
    aie.flow(%mem_tile_2_1, DMA : 1, %tile_4_3, DMA : 0)
    aie.flow(%mem_tile_2_1, DMA : 1, %tile_3_3, DMA : 0)
    aie.flow(%mem_tile_2_1, DMA : 1, %tile_2_3, DMA : 0)
    aie.flow(%mem_tile_2_1, DMA : 1, %tile_1_3, DMA : 0)
    aie.flow(%mem_tile_2_1, DMA : 1, %tile_0_3, DMA : 0)
    aie.flow(%shim_noc_tile_4_0, DMA : 0, %mem_tile_4_1, DMA : 4)
    aie.flow(%mem_tile_4_1, DMA : 1, %tile_7_4, DMA : 0)
    aie.flow(%mem_tile_4_1, DMA : 1, %tile_6_4, DMA : 0)
    aie.flow(%mem_tile_4_1, DMA : 1, %tile_5_4, DMA : 0)
    aie.flow(%mem_tile_4_1, DMA : 1, %tile_4_4, DMA : 0)
    aie.flow(%mem_tile_4_1, DMA : 1, %tile_3_4, DMA : 0)
    aie.flow(%mem_tile_4_1, DMA : 1, %tile_2_4, DMA : 0)
    aie.flow(%mem_tile_4_1, DMA : 1, %tile_1_4, DMA : 0)
    aie.flow(%mem_tile_4_1, DMA : 1, %tile_0_4, DMA : 0)
    aie.flow(%shim_noc_tile_6_0, DMA : 0, %mem_tile_6_1, DMA : 4)
    aie.flow(%mem_tile_6_1, DMA : 1, %tile_7_5, DMA : 0)
    aie.flow(%mem_tile_6_1, DMA : 1, %tile_6_5, DMA : 0)
    aie.flow(%mem_tile_6_1, DMA : 1, %tile_5_5, DMA : 0)
    aie.flow(%mem_tile_6_1, DMA : 1, %tile_4_5, DMA : 0)
    aie.flow(%mem_tile_6_1, DMA : 1, %tile_3_5, DMA : 0)
    aie.flow(%mem_tile_6_1, DMA : 1, %tile_2_5, DMA : 0)
    aie.flow(%mem_tile_6_1, DMA : 1, %tile_1_5, DMA : 0)
    aie.flow(%mem_tile_6_1, DMA : 1, %tile_0_5, DMA : 0)
    aie.flow(%shim_noc_tile_0_0, DMA : 1, %mem_tile_0_1, DMA : 5)
    aie.flow(%mem_tile_0_1, DMA : 2, %tile_0_5, DMA : 1)
    aie.flow(%mem_tile_0_1, DMA : 2, %tile_0_4, DMA : 1)
    aie.flow(%mem_tile_0_1, DMA : 2, %tile_0_3, DMA : 1)
    aie.flow(%mem_tile_0_1, DMA : 2, %tile_0_2, DMA : 1)
    aie.flow(%shim_noc_tile_1_0, DMA : 0, %mem_tile_1_1, DMA : 0)
    aie.flow(%mem_tile_1_1, DMA : 0, %tile_1_5, DMA : 1)
    aie.flow(%mem_tile_1_1, DMA : 0, %tile_1_4, DMA : 1)
    aie.flow(%mem_tile_1_1, DMA : 0, %tile_1_3, DMA : 1)
    aie.flow(%mem_tile_1_1, DMA : 0, %tile_1_2, DMA : 1)
    aie.flow(%shim_noc_tile_2_0, DMA : 1, %mem_tile_2_1, DMA : 5)
    aie.flow(%mem_tile_2_1, DMA : 2, %tile_2_5, DMA : 1)
    aie.flow(%mem_tile_2_1, DMA : 2, %tile_2_4, DMA : 1)
    aie.flow(%mem_tile_2_1, DMA : 2, %tile_2_3, DMA : 1)
    aie.flow(%mem_tile_2_1, DMA : 2, %tile_2_2, DMA : 1)
    aie.flow(%shim_noc_tile_3_0, DMA : 0, %mem_tile_3_1, DMA : 0)
    aie.flow(%mem_tile_3_1, DMA : 0, %tile_3_5, DMA : 1)
    aie.flow(%mem_tile_3_1, DMA : 0, %tile_3_4, DMA : 1)
    aie.flow(%mem_tile_3_1, DMA : 0, %tile_3_3, DMA : 1)
    aie.flow(%mem_tile_3_1, DMA : 0, %tile_3_2, DMA : 1)
    aie.flow(%shim_noc_tile_4_0, DMA : 1, %mem_tile_4_1, DMA : 5)
    aie.flow(%mem_tile_4_1, DMA : 2, %tile_4_5, DMA : 1)
    aie.flow(%mem_tile_4_1, DMA : 2, %tile_4_4, DMA : 1)
    aie.flow(%mem_tile_4_1, DMA : 2, %tile_4_3, DMA : 1)
    aie.flow(%mem_tile_4_1, DMA : 2, %tile_4_2, DMA : 1)
    aie.flow(%shim_noc_tile_5_0, DMA : 0, %mem_tile_5_1, DMA : 0)
    aie.flow(%mem_tile_5_1, DMA : 0, %tile_5_5, DMA : 1)
    aie.flow(%mem_tile_5_1, DMA : 0, %tile_5_4, DMA : 1)
    aie.flow(%mem_tile_5_1, DMA : 0, %tile_5_3, DMA : 1)
    aie.flow(%mem_tile_5_1, DMA : 0, %tile_5_2, DMA : 1)
    aie.flow(%shim_noc_tile_6_0, DMA : 1, %mem_tile_6_1, DMA : 5)
    aie.flow(%mem_tile_6_1, DMA : 2, %tile_6_5, DMA : 1)
    aie.flow(%mem_tile_6_1, DMA : 2, %tile_6_4, DMA : 1)
    aie.flow(%mem_tile_6_1, DMA : 2, %tile_6_3, DMA : 1)
    aie.flow(%mem_tile_6_1, DMA : 2, %tile_6_2, DMA : 1)
    aie.flow(%shim_noc_tile_7_0, DMA : 0, %mem_tile_7_1, DMA : 0)
    aie.flow(%mem_tile_7_1, DMA : 0, %tile_7_5, DMA : 1)
    aie.flow(%mem_tile_7_1, DMA : 0, %tile_7_4, DMA : 1)
    aie.flow(%mem_tile_7_1, DMA : 0, %tile_7_3, DMA : 1)
    aie.flow(%mem_tile_7_1, DMA : 0, %tile_7_2, DMA : 1)
    aie.flow(%tile_0_2, DMA : 0, %mem_tile_0_1, DMA : 0)
    aie.flow(%tile_0_3, DMA : 0, %mem_tile_0_1, DMA : 1)
    aie.flow(%tile_0_4, DMA : 0, %mem_tile_0_1, DMA : 2)
    aie.flow(%tile_0_5, DMA : 0, %mem_tile_0_1, DMA : 3)
    aie.flow(%mem_tile_0_1, DMA : 0, %shim_noc_tile_0_0, DMA : 0)
    aie.flow(%tile_1_2, DMA : 0, %mem_tile_1_1, DMA : 1)
    aie.flow(%tile_1_3, DMA : 0, %mem_tile_1_1, DMA : 2)
    aie.flow(%tile_1_4, DMA : 0, %mem_tile_1_1, DMA : 3)
    aie.flow(%tile_1_5, DMA : 0, %mem_tile_1_1, DMA : 4)
    aie.flow(%mem_tile_1_1, DMA : 1, %shim_noc_tile_1_0, DMA : 0)
    aie.flow(%tile_2_2, DMA : 0, %mem_tile_2_1, DMA : 0)
    aie.flow(%tile_2_3, DMA : 0, %mem_tile_2_1, DMA : 1)
    aie.flow(%tile_2_4, DMA : 0, %mem_tile_2_1, DMA : 2)
    aie.flow(%tile_2_5, DMA : 0, %mem_tile_2_1, DMA : 3)
    aie.flow(%mem_tile_2_1, DMA : 0, %shim_noc_tile_2_0, DMA : 0)
    aie.flow(%tile_3_2, DMA : 0, %mem_tile_3_1, DMA : 1)
    aie.flow(%tile_3_3, DMA : 0, %mem_tile_3_1, DMA : 2)
    aie.flow(%tile_3_4, DMA : 0, %mem_tile_3_1, DMA : 3)
    aie.flow(%tile_3_5, DMA : 0, %mem_tile_3_1, DMA : 4)
    aie.flow(%mem_tile_3_1, DMA : 1, %shim_noc_tile_3_0, DMA : 0)
    aie.flow(%tile_4_2, DMA : 0, %mem_tile_4_1, DMA : 0)
    aie.flow(%tile_4_3, DMA : 0, %mem_tile_4_1, DMA : 1)
    aie.flow(%tile_4_4, DMA : 0, %mem_tile_4_1, DMA : 2)
    aie.flow(%tile_4_5, DMA : 0, %mem_tile_4_1, DMA : 3)
    aie.flow(%mem_tile_4_1, DMA : 0, %shim_noc_tile_4_0, DMA : 0)
    aie.flow(%tile_5_2, DMA : 0, %mem_tile_5_1, DMA : 1)
    aie.flow(%tile_5_3, DMA : 0, %mem_tile_5_1, DMA : 2)
    aie.flow(%tile_5_4, DMA : 0, %mem_tile_5_1, DMA : 3)
    aie.flow(%tile_5_5, DMA : 0, %mem_tile_5_1, DMA : 4)
    aie.flow(%mem_tile_5_1, DMA : 1, %shim_noc_tile_5_0, DMA : 0)
    aie.flow(%tile_6_2, DMA : 0, %mem_tile_6_1, DMA : 0)
    aie.flow(%tile_6_3, DMA : 0, %mem_tile_6_1, DMA : 1)
    aie.flow(%tile_6_4, DMA : 0, %mem_tile_6_1, DMA : 2)
    aie.flow(%tile_6_5, DMA : 0, %mem_tile_6_1, DMA : 3)
    aie.flow(%mem_tile_6_1, DMA : 0, %shim_noc_tile_6_0, DMA : 0)
    aie.flow(%tile_7_2, DMA : 0, %mem_tile_7_1, DMA : 1)
    aie.flow(%tile_7_3, DMA : 0, %mem_tile_7_1, DMA : 2)
    aie.flow(%tile_7_4, DMA : 0, %mem_tile_7_1, DMA : 3)
    aie.flow(%tile_7_5, DMA : 0, %mem_tile_7_1, DMA : 4)
    aie.flow(%mem_tile_7_1, DMA : 1, %shim_noc_tile_7_0, DMA : 0)
    %_anonymous0 = aie.buffer(%tile_0_2) {address = 62720 : i32, sym_name = "_anonymous0"} : memref<3xi32> 
    %core_0_2 = aie.core(%tile_0_2) {
      %c4294967295 = arith.constant 4294967295 : index
      %c16 = arith.constant 16 : index
      %c2 = arith.constant 2 : index
      %c2_i32 = arith.constant 2 : i32
      %c1 = arith.constant 1 : index
      %c0_i32 = arith.constant 0 : i32
      %c0 = arith.constant 0 : index
      %c1_i32 = arith.constant 1 : i32
      memref.store %c0_i32, %_anonymous0[%c0] : memref<3xi32>
      memref.store %c0_i32, %_anonymous0[%c1] : memref<3xi32>
      memref.store %c0_i32, %_anonymous0[%c2] : memref<3xi32>
      cf.br ^bb1(%c0 : index)
    ^bb1(%0: index):  // 2 preds: ^bb0, ^bb186
      %1 = arith.cmpi slt, %0, %c4294967295 : index
      cf.cond_br %1, ^bb2, ^bb187
    ^bb2:  // pred: ^bb1
      aie.use_lock(%C_L1L2_0_0_prod_lock_0, AcquireGreaterEqual, 1)
      func.call @zero_kernel_bf16(%C_L1L2_0_0_buff_0) : (memref<128x128xbf16>) -> ()
      cf.br ^bb3(%c0 : index)
    ^bb3(%2: index):  // 2 preds: ^bb2, ^bb24
      %3 = arith.cmpi slt, %2, %c16 : index
      cf.cond_br %3, ^bb4, ^bb25
    ^bb4:  // pred: ^bb3
      aie.use_lock(%B_L2L1_0_0_cons_cons_lock_0, AcquireGreaterEqual, 1)
      %4 = memref.load %_anonymous0[%c1] : memref<3xi32>
      %5 = arith.index_cast %4 : i32 to index
      %6 = arith.index_cast %5 : index to i32
      cf.switch %6 : i32, [
        default: ^bb7,
        0: ^bb5,
        1: ^bb6
      ]
    ^bb5:  // pred: ^bb4
      cf.br ^bb8(%B_L2L1_0_0_cons_buff_0 : memref<64x16x!aiex.bfp<"v8bfp16ebs8">>)
    ^bb6:  // pred: ^bb4
      cf.br ^bb8(%B_L2L1_0_0_cons_buff_1 : memref<64x16x!aiex.bfp<"v8bfp16ebs8">>)
    ^bb7:  // pred: ^bb4
      cf.br ^bb8(%B_L2L1_0_0_cons_buff_0 : memref<64x16x!aiex.bfp<"v8bfp16ebs8">>)
    ^bb8(%7: memref<64x16x!aiex.bfp<"v8bfp16ebs8">>):  // 3 preds: ^bb5, ^bb6, ^bb7
      aie.use_lock(%A_L2L1_0_0_cons_cons_lock_0, AcquireGreaterEqual, 1)
      %8 = memref.load %_anonymous0[%c2] : memref<3xi32>
      %9 = arith.index_cast %8 : i32 to index
      %10 = arith.index_cast %9 : index to i32
      cf.switch %10 : i32, [
        default: ^bb11,
        0: ^bb9,
        1: ^bb10
      ]
    ^bb9:  // pred: ^bb8
      cf.br ^bb12(%A_L2L1_0_0_cons_buff_0 : memref<32x64xbf16>)
    ^bb10:  // pred: ^bb8
      cf.br ^bb12(%A_L2L1_0_0_cons_buff_1 : memref<32x64xbf16>)
    ^bb11:  // pred: ^bb8
      cf.br ^bb12(%A_L2L1_0_0_cons_buff_0 : memref<32x64xbf16>)
    ^bb12(%11: memref<32x64xbf16>):  // 3 preds: ^bb9, ^bb10, ^bb11
      func.call @matmul_vectorized_different_datatypes(%11, %7, %C_L1L2_0_0_buff_0) : (memref<32x64xbf16>, memref<64x16x!aiex.bfp<"v8bfp16ebs8">>, memref<128x128xbf16>) -> ()
      aie.use_lock(%A_L2L1_0_0_cons_prod_lock_0, Release, 1)
      %12 = memref.load %_anonymous0[%c2] : memref<3xi32>
      %13 = arith.addi %12, %c1_i32 : i32
      %14 = arith.cmpi sge, %13, %c2_i32 : i32
      %15 = arith.subi %13, %c2_i32 : i32
      %16 = arith.select %14, %15, %13 : i32
      memref.store %16, %_anonymous0[%c2] : memref<3xi32>
      aie.use_lock(%A_L2L1_0_0_cons_cons_lock_0, AcquireGreaterEqual, 1)
      %17 = memref.load %_anonymous0[%c2] : memref<3xi32>
      %18 = arith.index_cast %17 : i32 to index
      %19 = arith.index_cast %18 : index to i32
      cf.switch %19 : i32, [
        default: ^bb15,
        0: ^bb13,
        1: ^bb14
      ]
    ^bb13:  // pred: ^bb12
      cf.br ^bb16(%A_L2L1_0_0_cons_buff_0 : memref<32x64xbf16>)
    ^bb14:  // pred: ^bb12
      cf.br ^bb16(%A_L2L1_0_0_cons_buff_1 : memref<32x64xbf16>)
    ^bb15:  // pred: ^bb12
      cf.br ^bb16(%A_L2L1_0_0_cons_buff_0 : memref<32x64xbf16>)
    ^bb16(%20: memref<32x64xbf16>):  // 3 preds: ^bb13, ^bb14, ^bb15
      func.call @matmul_vectorized_different_datatypes(%20, %7, %C_L1L2_0_0_buff_0) : (memref<32x64xbf16>, memref<64x16x!aiex.bfp<"v8bfp16ebs8">>, memref<128x128xbf16>) -> ()
      aie.use_lock(%A_L2L1_0_0_cons_prod_lock_0, Release, 1)
      %21 = memref.load %_anonymous0[%c2] : memref<3xi32>
      %22 = arith.addi %21, %c1_i32 : i32
      %23 = arith.cmpi sge, %22, %c2_i32 : i32
      %24 = arith.subi %22, %c2_i32 : i32
      %25 = arith.select %23, %24, %22 : i32
      memref.store %25, %_anonymous0[%c2] : memref<3xi32>
      aie.use_lock(%A_L2L1_0_0_cons_cons_lock_0, AcquireGreaterEqual, 1)
      %26 = memref.load %_anonymous0[%c2] : memref<3xi32>
      %27 = arith.index_cast %26 : i32 to index
      %28 = arith.index_cast %27 : index to i32
      cf.switch %28 : i32, [
        default: ^bb19,
        0: ^bb17,
        1: ^bb18
      ]
    ^bb17:  // pred: ^bb16
      cf.br ^bb20(%A_L2L1_0_0_cons_buff_0 : memref<32x64xbf16>)
    ^bb18:  // pred: ^bb16
      cf.br ^bb20(%A_L2L1_0_0_cons_buff_1 : memref<32x64xbf16>)
    ^bb19:  // pred: ^bb16
      cf.br ^bb20(%A_L2L1_0_0_cons_buff_0 : memref<32x64xbf16>)
    ^bb20(%29: memref<32x64xbf16>):  // 3 preds: ^bb17, ^bb18, ^bb19
      func.call @matmul_vectorized_different_datatypes(%29, %7, %C_L1L2_0_0_buff_0) : (memref<32x64xbf16>, memref<64x16x!aiex.bfp<"v8bfp16ebs8">>, memref<128x128xbf16>) -> ()
      aie.use_lock(%A_L2L1_0_0_cons_prod_lock_0, Release, 1)
      %30 = memref.load %_anonymous0[%c2] : memref<3xi32>
      %31 = arith.addi %30, %c1_i32 : i32
      %32 = arith.cmpi sge, %31, %c2_i32 : i32
      %33 = arith.subi %31, %c2_i32 : i32
      %34 = arith.select %32, %33, %31 : i32
      memref.store %34, %_anonymous0[%c2] : memref<3xi32>
      aie.use_lock(%A_L2L1_0_0_cons_cons_lock_0, AcquireGreaterEqual, 1)
      %35 = memref.load %_anonymous0[%c2] : memref<3xi32>
      %36 = arith.index_cast %35 : i32 to index
      %37 = arith.index_cast %36 : index to i32
      cf.switch %37 : i32, [
        default: ^bb23,
        0: ^bb21,
        1: ^bb22
      ]
    ^bb21:  // pred: ^bb20
      cf.br ^bb24(%A_L2L1_0_0_cons_buff_0 : memref<32x64xbf16>)
    ^bb22:  // pred: ^bb20
      cf.br ^bb24(%A_L2L1_0_0_cons_buff_1 : memref<32x64xbf16>)
    ^bb23:  // pred: ^bb20
      cf.br ^bb24(%A_L2L1_0_0_cons_buff_0 : memref<32x64xbf16>)
    ^bb24(%38: memref<32x64xbf16>):  // 3 preds: ^bb21, ^bb22, ^bb23
      func.call @matmul_vectorized_different_datatypes(%38, %7, %C_L1L2_0_0_buff_0) : (memref<32x64xbf16>, memref<64x16x!aiex.bfp<"v8bfp16ebs8">>, memref<128x128xbf16>) -> ()
      aie.use_lock(%A_L2L1_0_0_cons_prod_lock_0, Release, 1)
      %39 = memref.load %_anonymous0[%c2] : memref<3xi32>
      %40 = arith.addi %39, %c1_i32 : i32
      %41 = arith.cmpi sge, %40, %c2_i32 : i32
      %42 = arith.subi %40, %c2_i32 : i32
      %43 = arith.select %41, %42, %40 : i32
      memref.store %43, %_anonymous0[%c2] : memref<3xi32>
      aie.use_lock(%B_L2L1_0_0_cons_prod_lock_0, Release, 1)
      %44 = memref.load %_anonymous0[%c1] : memref<3xi32>
      %45 = arith.addi %44, %c1_i32 : i32
      %46 = arith.cmpi sge, %45, %c2_i32 : i32
      %47 = arith.subi %45, %c2_i32 : i32
      %48 = arith.select %46, %47, %45 : i32
      memref.store %48, %_anonymous0[%c1] : memref<3xi32>
      %49 = arith.addi %2, %c1 : index
      cf.br ^bb3(%49 : index)
    ^bb25:  // pred: ^bb3
      aie.use_lock(%C_L1L2_0_0_cons_lock_0, Release, 1)
      %50 = memref.load %_anonymous0[%c0] : memref<3xi32>
      %51 = arith.addi %50, %c1_i32 : i32
      %52 = arith.cmpi sge, %51, %c1_i32 : i32
      %53 = arith.select %52, %50, %51 : i32
      memref.store %53, %_anonymous0[%c0] : memref<3xi32>
      aie.use_lock(%C_L1L2_0_0_prod_lock_0, AcquireGreaterEqual, 1)
      func.call @zero_kernel_bf16(%C_L1L2_0_0_buff_0) : (memref<128x128xbf16>) -> ()
      cf.br ^bb26(%c0 : index)
    ^bb26(%54: index):  // 2 preds: ^bb25, ^bb47
      %55 = arith.cmpi slt, %54, %c16 : index
      cf.cond_br %55, ^bb27, ^bb48
    ^bb27:  // pred: ^bb26
      aie.use_lock(%B_L2L1_0_0_cons_cons_lock_0, AcquireGreaterEqual, 1)
      %56 = memref.load %_anonymous0[%c1] : memref<3xi32>
      %57 = arith.index_cast %56 : i32 to index
      %58 = arith.index_cast %57 : index to i32
      cf.switch %58 : i32, [
        default: ^bb30,
        0: ^bb28,
        1: ^bb29
      ]
    ^bb28:  // pred: ^bb27
      cf.br ^bb31(%B_L2L1_0_0_cons_buff_0 : memref<64x16x!aiex.bfp<"v8bfp16ebs8">>)
    ^bb29:  // pred: ^bb27
      cf.br ^bb31(%B_L2L1_0_0_cons_buff_1 : memref<64x16x!aiex.bfp<"v8bfp16ebs8">>)
    ^bb30:  // pred: ^bb27
      cf.br ^bb31(%B_L2L1_0_0_cons_buff_0 : memref<64x16x!aiex.bfp<"v8bfp16ebs8">>)
    ^bb31(%59: memref<64x16x!aiex.bfp<"v8bfp16ebs8">>):  // 3 preds: ^bb28, ^bb29, ^bb30
      aie.use_lock(%A_L2L1_0_0_cons_cons_lock_0, AcquireGreaterEqual, 1)
      %60 = memref.load %_anonymous0[%c2] : memref<3xi32>
      %61 = arith.index_cast %60 : i32 to index
      %62 = arith.index_cast %61 : index to i32
      cf.switch %62 : i32, [
        default: ^bb34,
        0: ^bb32,
        1: ^bb33
      ]
    ^bb32:  // pred: ^bb31
      cf.br ^bb35(%A_L2L1_0_0_cons_buff_0 : memref<32x64xbf16>)
    ^bb33:  // pred: ^bb31
      cf.br ^bb35(%A_L2L1_0_0_cons_buff_1 : memref<32x64xbf16>)
    ^bb34:  // pred: ^bb31
      cf.br ^bb35(%A_L2L1_0_0_cons_buff_0 : memref<32x64xbf16>)
    ^bb35(%63: memref<32x64xbf16>):  // 3 preds: ^bb32, ^bb33, ^bb34
      func.call @matmul_vectorized_different_datatypes(%63, %59, %C_L1L2_0_0_buff_0) : (memref<32x64xbf16>, memref<64x16x!aiex.bfp<"v8bfp16ebs8">>, memref<128x128xbf16>) -> ()
      aie.use_lock(%A_L2L1_0_0_cons_prod_lock_0, Release, 1)
      %64 = memref.load %_anonymous0[%c2] : memref<3xi32>
      %65 = arith.addi %64, %c1_i32 : i32
      %66 = arith.cmpi sge, %65, %c2_i32 : i32
      %67 = arith.subi %65, %c2_i32 : i32
      %68 = arith.select %66, %67, %65 : i32
      memref.store %68, %_anonymous0[%c2] : memref<3xi32>
      aie.use_lock(%A_L2L1_0_0_cons_cons_lock_0, AcquireGreaterEqual, 1)
      %69 = memref.load %_anonymous0[%c2] : memref<3xi32>
      %70 = arith.index_cast %69 : i32 to index
      %71 = arith.index_cast %70 : index to i32
      cf.switch %71 : i32, [
        default: ^bb38,
        0: ^bb36,
        1: ^bb37
      ]
    ^bb36:  // pred: ^bb35
      cf.br ^bb39(%A_L2L1_0_0_cons_buff_0 : memref<32x64xbf16>)
    ^bb37:  // pred: ^bb35
      cf.br ^bb39(%A_L2L1_0_0_cons_buff_1 : memref<32x64xbf16>)
    ^bb38:  // pred: ^bb35
      cf.br ^bb39(%A_L2L1_0_0_cons_buff_0 : memref<32x64xbf16>)
    ^bb39(%72: memref<32x64xbf16>):  // 3 preds: ^bb36, ^bb37, ^bb38
      func.call @matmul_vectorized_different_datatypes(%72, %59, %C_L1L2_0_0_buff_0) : (memref<32x64xbf16>, memref<64x16x!aiex.bfp<"v8bfp16ebs8">>, memref<128x128xbf16>) -> ()
      aie.use_lock(%A_L2L1_0_0_cons_prod_lock_0, Release, 1)
      %73 = memref.load %_anonymous0[%c2] : memref<3xi32>
      %74 = arith.addi %73, %c1_i32 : i32
      %75 = arith.cmpi sge, %74, %c2_i32 : i32
      %76 = arith.subi %74, %c2_i32 : i32
      %77 = arith.select %75, %76, %74 : i32
      memref.store %77, %_anonymous0[%c2] : memref<3xi32>
      aie.use_lock(%A_L2L1_0_0_cons_cons_lock_0, AcquireGreaterEqual, 1)
      %78 = memref.load %_anonymous0[%c2] : memref<3xi32>
      %79 = arith.index_cast %78 : i32 to index
      %80 = arith.index_cast %79 : index to i32
      cf.switch %80 : i32, [
        default: ^bb42,
        0: ^bb40,
        1: ^bb41
      ]
    ^bb40:  // pred: ^bb39
      cf.br ^bb43(%A_L2L1_0_0_cons_buff_0 : memref<32x64xbf16>)
    ^bb41:  // pred: ^bb39
      cf.br ^bb43(%A_L2L1_0_0_cons_buff_1 : memref<32x64xbf16>)
    ^bb42:  // pred: ^bb39
      cf.br ^bb43(%A_L2L1_0_0_cons_buff_0 : memref<32x64xbf16>)
    ^bb43(%81: memref<32x64xbf16>):  // 3 preds: ^bb40, ^bb41, ^bb42
      func.call @matmul_vectorized_different_datatypes(%81, %59, %C_L1L2_0_0_buff_0) : (memref<32x64xbf16>, memref<64x16x!aiex.bfp<"v8bfp16ebs8">>, memref<128x128xbf16>) -> ()
      aie.use_lock(%A_L2L1_0_0_cons_prod_lock_0, Release, 1)
      %82 = memref.load %_anonymous0[%c2] : memref<3xi32>
      %83 = arith.addi %82, %c1_i32 : i32
      %84 = arith.cmpi sge, %83, %c2_i32 : i32
      %85 = arith.subi %83, %c2_i32 : i32
      %86 = arith.select %84, %85, %83 : i32
      memref.store %86, %_anonymous0[%c2] : memref<3xi32>
      aie.use_lock(%A_L2L1_0_0_cons_cons_lock_0, AcquireGreaterEqual, 1)
      %87 = memref.load %_anonymous0[%c2] : memref<3xi32>
      %88 = arith.index_cast %87 : i32 to index
      %89 = arith.index_cast %88 : index to i32
      cf.switch %89 : i32, [
        default: ^bb46,
        0: ^bb44,
        1: ^bb45
      ]
    ^bb44:  // pred: ^bb43
      cf.br ^bb47(%A_L2L1_0_0_cons_buff_0 : memref<32x64xbf16>)
    ^bb45:  // pred: ^bb43
      cf.br ^bb47(%A_L2L1_0_0_cons_buff_1 : memref<32x64xbf16>)
    ^bb46:  // pred: ^bb43
      cf.br ^bb47(%A_L2L1_0_0_cons_buff_0 : memref<32x64xbf16>)
    ^bb47(%90: memref<32x64xbf16>):  // 3 preds: ^bb44, ^bb45, ^bb46
      func.call @matmul_vectorized_different_datatypes(%90, %59, %C_L1L2_0_0_buff_0) : (memref<32x64xbf16>, memref<64x16x!aiex.bfp<"v8bfp16ebs8">>, memref<128x128xbf16>) -> ()
      aie.use_lock(%A_L2L1_0_0_cons_prod_lock_0, Release, 1)
      %91 = memref.load %_anonymous0[%c2] : memref<3xi32>
      %92 = arith.addi %91, %c1_i32 : i32
      %93 = arith.cmpi sge, %92, %c2_i32 : i32
      %94 = arith.subi %92, %c2_i32 : i32
      %95 = arith.select %93, %94, %92 : i32
      memref.store %95, %_anonymous0[%c2] : memref<3xi32>
      aie.use_lock(%B_L2L1_0_0_cons_prod_lock_0, Release, 1)
      %96 = memref.load %_anonymous0[%c1] : memref<3xi32>
      %97 = arith.addi %96, %c1_i32 : i32
      %98 = arith.cmpi sge, %97, %c2_i32 : i32
      %99 = arith.subi %97, %c2_i32 : i32
      %100 = arith.select %98, %99, %97 : i32
      memref.store %100, %_anonymous0[%c1] : memref<3xi32>
      %101 = arith.addi %54, %c1 : index
      cf.br ^bb26(%101 : index)
    ^bb48:  // pred: ^bb26
      aie.use_lock(%C_L1L2_0_0_cons_lock_0, Release, 1)
      %102 = memref.load %_anonymous0[%c0] : memref<3xi32>
      %103 = arith.addi %102, %c1_i32 : i32
      %104 = arith.cmpi sge, %103, %c1_i32 : i32
      %105 = arith.select %104, %102, %103 : i32
      memref.store %105, %_anonymous0[%c0] : memref<3xi32>
      aie.use_lock(%C_L1L2_0_0_prod_lock_0, AcquireGreaterEqual, 1)
      func.call @zero_kernel_bf16(%C_L1L2_0_0_buff_0) : (memref<128x128xbf16>) -> ()
      cf.br ^bb49(%c0 : index)
    ^bb49(%106: index):  // 2 preds: ^bb48, ^bb70
      %107 = arith.cmpi slt, %106, %c16 : index
      cf.cond_br %107, ^bb50, ^bb71
    ^bb50:  // pred: ^bb49
      aie.use_lock(%B_L2L1_0_0_cons_cons_lock_0, AcquireGreaterEqual, 1)
      %108 = memref.load %_anonymous0[%c1] : memref<3xi32>
      %109 = arith.index_cast %108 : i32 to index
      %110 = arith.index_cast %109 : index to i32
      cf.switch %110 : i32, [
        default: ^bb53,
        0: ^bb51,
        1: ^bb52
      ]
    ^bb51:  // pred: ^bb50
      cf.br ^bb54(%B_L2L1_0_0_cons_buff_0 : memref<64x16x!aiex.bfp<"v8bfp16ebs8">>)
    ^bb52:  // pred: ^bb50
      cf.br ^bb54(%B_L2L1_0_0_cons_buff_1 : memref<64x16x!aiex.bfp<"v8bfp16ebs8">>)
    ^bb53:  // pred: ^bb50
      cf.br ^bb54(%B_L2L1_0_0_cons_buff_0 : memref<64x16x!aiex.bfp<"v8bfp16ebs8">>)
    ^bb54(%111: memref<64x16x!aiex.bfp<"v8bfp16ebs8">>):  // 3 preds: ^bb51, ^bb52, ^bb53
      aie.use_lock(%A_L2L1_0_0_cons_cons_lock_0, AcquireGreaterEqual, 1)
      %112 = memref.load %_anonymous0[%c2] : memref<3xi32>
      %113 = arith.index_cast %112 : i32 to index
      %114 = arith.index_cast %113 : index to i32
      cf.switch %114 : i32, [
        default: ^bb57,
        0: ^bb55,
        1: ^bb56
      ]
    ^bb55:  // pred: ^bb54
      cf.br ^bb58(%A_L2L1_0_0_cons_buff_0 : memref<32x64xbf16>)
    ^bb56:  // pred: ^bb54
      cf.br ^bb58(%A_L2L1_0_0_cons_buff_1 : memref<32x64xbf16>)
    ^bb57:  // pred: ^bb54
      cf.br ^bb58(%A_L2L1_0_0_cons_buff_0 : memref<32x64xbf16>)
    ^bb58(%115: memref<32x64xbf16>):  // 3 preds: ^bb55, ^bb56, ^bb57
      func.call @matmul_vectorized_different_datatypes(%115, %111, %C_L1L2_0_0_buff_0) : (memref<32x64xbf16>, memref<64x16x!aiex.bfp<"v8bfp16ebs8">>, memref<128x128xbf16>) -> ()
      aie.use_lock(%A_L2L1_0_0_cons_prod_lock_0, Release, 1)
      %116 = memref.load %_anonymous0[%c2] : memref<3xi32>
      %117 = arith.addi %116, %c1_i32 : i32
      %118 = arith.cmpi sge, %117, %c2_i32 : i32
      %119 = arith.subi %117, %c2_i32 : i32
      %120 = arith.select %118, %119, %117 : i32
      memref.store %120, %_anonymous0[%c2] : memref<3xi32>
      aie.use_lock(%A_L2L1_0_0_cons_cons_lock_0, AcquireGreaterEqual, 1)
      %121 = memref.load %_anonymous0[%c2] : memref<3xi32>
      %122 = arith.index_cast %121 : i32 to index
      %123 = arith.index_cast %122 : index to i32
      cf.switch %123 : i32, [
        default: ^bb61,
        0: ^bb59,
        1: ^bb60
      ]
    ^bb59:  // pred: ^bb58
      cf.br ^bb62(%A_L2L1_0_0_cons_buff_0 : memref<32x64xbf16>)
    ^bb60:  // pred: ^bb58
      cf.br ^bb62(%A_L2L1_0_0_cons_buff_1 : memref<32x64xbf16>)
    ^bb61:  // pred: ^bb58
      cf.br ^bb62(%A_L2L1_0_0_cons_buff_0 : memref<32x64xbf16>)
    ^bb62(%124: memref<32x64xbf16>):  // 3 preds: ^bb59, ^bb60, ^bb61
      func.call @matmul_vectorized_different_datatypes(%124, %111, %C_L1L2_0_0_buff_0) : (memref<32x64xbf16>, memref<64x16x!aiex.bfp<"v8bfp16ebs8">>, memref<128x128xbf16>) -> ()
      aie.use_lock(%A_L2L1_0_0_cons_prod_lock_0, Release, 1)
      %125 = memref.load %_anonymous0[%c2] : memref<3xi32>
      %126 = arith.addi %125, %c1_i32 : i32
      %127 = arith.cmpi sge, %126, %c2_i32 : i32
      %128 = arith.subi %126, %c2_i32 : i32
      %129 = arith.select %127, %128, %126 : i32
      memref.store %129, %_anonymous0[%c2] : memref<3xi32>
      aie.use_lock(%A_L2L1_0_0_cons_cons_lock_0, AcquireGreaterEqual, 1)
      %130 = memref.load %_anonymous0[%c2] : memref<3xi32>
      %131 = arith.index_cast %130 : i32 to index
      %132 = arith.index_cast %131 : index to i32
      cf.switch %132 : i32, [
        default: ^bb65,
        0: ^bb63,
        1: ^bb64
      ]
    ^bb63:  // pred: ^bb62
      cf.br ^bb66(%A_L2L1_0_0_cons_buff_0 : memref<32x64xbf16>)
    ^bb64:  // pred: ^bb62
      cf.br ^bb66(%A_L2L1_0_0_cons_buff_1 : memref<32x64xbf16>)
    ^bb65:  // pred: ^bb62
      cf.br ^bb66(%A_L2L1_0_0_cons_buff_0 : memref<32x64xbf16>)
    ^bb66(%133: memref<32x64xbf16>):  // 3 preds: ^bb63, ^bb64, ^bb65
      func.call @matmul_vectorized_different_datatypes(%133, %111, %C_L1L2_0_0_buff_0) : (memref<32x64xbf16>, memref<64x16x!aiex.bfp<"v8bfp16ebs8">>, memref<128x128xbf16>) -> ()
      aie.use_lock(%A_L2L1_0_0_cons_prod_lock_0, Release, 1)
      %134 = memref.load %_anonymous0[%c2] : memref<3xi32>
      %135 = arith.addi %134, %c1_i32 : i32
      %136 = arith.cmpi sge, %135, %c2_i32 : i32
      %137 = arith.subi %135, %c2_i32 : i32
      %138 = arith.select %136, %137, %135 : i32
      memref.store %138, %_anonymous0[%c2] : memref<3xi32>
      aie.use_lock(%A_L2L1_0_0_cons_cons_lock_0, AcquireGreaterEqual, 1)
      %139 = memref.load %_anonymous0[%c2] : memref<3xi32>
      %140 = arith.index_cast %139 : i32 to index
      %141 = arith.index_cast %140 : index to i32
      cf.switch %141 : i32, [
        default: ^bb69,
        0: ^bb67,
        1: ^bb68
      ]
    ^bb67:  // pred: ^bb66
      cf.br ^bb70(%A_L2L1_0_0_cons_buff_0 : memref<32x64xbf16>)
    ^bb68:  // pred: ^bb66
      cf.br ^bb70(%A_L2L1_0_0_cons_buff_1 : memref<32x64xbf16>)
    ^bb69:  // pred: ^bb66
      cf.br ^bb70(%A_L2L1_0_0_cons_buff_0 : memref<32x64xbf16>)
    ^bb70(%142: memref<32x64xbf16>):  // 3 preds: ^bb67, ^bb68, ^bb69
      func.call @matmul_vectorized_different_datatypes(%142, %111, %C_L1L2_0_0_buff_0) : (memref<32x64xbf16>, memref<64x16x!aiex.bfp<"v8bfp16ebs8">>, memref<128x128xbf16>) -> ()
      aie.use_lock(%A_L2L1_0_0_cons_prod_lock_0, Release, 1)
      %143 = memref.load %_anonymous0[%c2] : memref<3xi32>
      %144 = arith.addi %143, %c1_i32 : i32
      %145 = arith.cmpi sge, %144, %c2_i32 : i32
      %146 = arith.subi %144, %c2_i32 : i32
      %147 = arith.select %145, %146, %144 : i32
      memref.store %147, %_anonymous0[%c2] : memref<3xi32>
      aie.use_lock(%B_L2L1_0_0_cons_prod_lock_0, Release, 1)
      %148 = memref.load %_anonymous0[%c1] : memref<3xi32>
      %149 = arith.addi %148, %c1_i32 : i32
      %150 = arith.cmpi sge, %149, %c2_i32 : i32
      %151 = arith.subi %149, %c2_i32 : i32
      %152 = arith.select %150, %151, %149 : i32
      memref.store %152, %_anonymous0[%c1] : memref<3xi32>
      %153 = arith.addi %106, %c1 : index
      cf.br ^bb49(%153 : index)
    ^bb71:  // pred: ^bb49
      aie.use_lock(%C_L1L2_0_0_cons_lock_0, Release, 1)
      %154 = memref.load %_anonymous0[%c0] : memref<3xi32>
      %155 = arith.addi %154, %c1_i32 : i32
      %156 = arith.cmpi sge, %155, %c1_i32 : i32
      %157 = arith.select %156, %154, %155 : i32
      memref.store %157, %_anonymous0[%c0] : memref<3xi32>
      aie.use_lock(%C_L1L2_0_0_prod_lock_0, AcquireGreaterEqual, 1)
      func.call @zero_kernel_bf16(%C_L1L2_0_0_buff_0) : (memref<128x128xbf16>) -> ()
      cf.br ^bb72(%c0 : index)
    ^bb72(%158: index):  // 2 preds: ^bb71, ^bb93
      %159 = arith.cmpi slt, %158, %c16 : index
      cf.cond_br %159, ^bb73, ^bb94
    ^bb73:  // pred: ^bb72
      aie.use_lock(%B_L2L1_0_0_cons_cons_lock_0, AcquireGreaterEqual, 1)
      %160 = memref.load %_anonymous0[%c1] : memref<3xi32>
      %161 = arith.index_cast %160 : i32 to index
      %162 = arith.index_cast %161 : index to i32
      cf.switch %162 : i32, [
        default: ^bb76,
        0: ^bb74,
        1: ^bb75
      ]
    ^bb74:  // pred: ^bb73
      cf.br ^bb77(%B_L2L1_0_0_cons_buff_0 : memref<64x16x!aiex.bfp<"v8bfp16ebs8">>)
    ^bb75:  // pred: ^bb73
      cf.br ^bb77(%B_L2L1_0_0_cons_buff_1 : memref<64x16x!aiex.bfp<"v8bfp16ebs8">>)
    ^bb76:  // pred: ^bb73
      cf.br ^bb77(%B_L2L1_0_0_cons_buff_0 : memref<64x16x!aiex.bfp<"v8bfp16ebs8">>)
    ^bb77(%163: memref<64x16x!aiex.bfp<"v8bfp16ebs8">>):  // 3 preds: ^bb74, ^bb75, ^bb76
      aie.use_lock(%A_L2L1_0_0_cons_cons_lock_0, AcquireGreaterEqual, 1)
      %164 = memref.load %_anonymous0[%c2] : memref<3xi32>
      %165 = arith.index_cast %164 : i32 to index
      %166 = arith.index_cast %165 : index to i32
      cf.switch %166 : i32, [
        default: ^bb80,
        0: ^bb78,
        1: ^bb79
      ]
    ^bb78:  // pred: ^bb77
      cf.br ^bb81(%A_L2L1_0_0_cons_buff_0 : memref<32x64xbf16>)
    ^bb79:  // pred: ^bb77
      cf.br ^bb81(%A_L2L1_0_0_cons_buff_1 : memref<32x64xbf16>)
    ^bb80:  // pred: ^bb77
      cf.br ^bb81(%A_L2L1_0_0_cons_buff_0 : memref<32x64xbf16>)
    ^bb81(%167: memref<32x64xbf16>):  // 3 preds: ^bb78, ^bb79, ^bb80
      func.call @matmul_vectorized_different_datatypes(%167, %163, %C_L1L2_0_0_buff_0) : (memref<32x64xbf16>, memref<64x16x!aiex.bfp<"v8bfp16ebs8">>, memref<128x128xbf16>) -> ()
      aie.use_lock(%A_L2L1_0_0_cons_prod_lock_0, Release, 1)
      %168 = memref.load %_anonymous0[%c2] : memref<3xi32>
      %169 = arith.addi %168, %c1_i32 : i32
      %170 = arith.cmpi sge, %169, %c2_i32 : i32
      %171 = arith.subi %169, %c2_i32 : i32
      %172 = arith.select %170, %171, %169 : i32
      memref.store %172, %_anonymous0[%c2] : memref<3xi32>
      aie.use_lock(%A_L2L1_0_0_cons_cons_lock_0, AcquireGreaterEqual, 1)
      %173 = memref.load %_anonymous0[%c2] : memref<3xi32>
      %174 = arith.index_cast %173 : i32 to index
      %175 = arith.index_cast %174 : index to i32
      cf.switch %175 : i32, [
        default: ^bb84,
        0: ^bb82,
        1: ^bb83
      ]
    ^bb82:  // pred: ^bb81
      cf.br ^bb85(%A_L2L1_0_0_cons_buff_0 : memref<32x64xbf16>)
    ^bb83:  // pred: ^bb81
      cf.br ^bb85(%A_L2L1_0_0_cons_buff_1 : memref<32x64xbf16>)
    ^bb84:  // pred: ^bb81
      cf.br ^bb85(%A_L2L1_0_0_cons_buff_0 : memref<32x64xbf16>)
    ^bb85(%176: memref<32x64xbf16>):  // 3 preds: ^bb82, ^bb83, ^bb84
      func.call @matmul_vectorized_different_datatypes(%176, %163, %C_L1L2_0_0_buff_0) : (memref<32x64xbf16>, memref<64x16x!aiex.bfp<"v8bfp16ebs8">>, memref<128x128xbf16>) -> ()
      aie.use_lock(%A_L2L1_0_0_cons_prod_lock_0, Release, 1)
      %177 = memref.load %_anonymous0[%c2] : memref<3xi32>
      %178 = arith.addi %177, %c1_i32 : i32
      %179 = arith.cmpi sge, %178, %c2_i32 : i32
      %180 = arith.subi %178, %c2_i32 : i32
      %181 = arith.select %179, %180, %178 : i32
      memref.store %181, %_anonymous0[%c2] : memref<3xi32>
      aie.use_lock(%A_L2L1_0_0_cons_cons_lock_0, AcquireGreaterEqual, 1)
      %182 = memref.load %_anonymous0[%c2] : memref<3xi32>
      %183 = arith.index_cast %182 : i32 to index
      %184 = arith.index_cast %183 : index to i32
      cf.switch %184 : i32, [
        default: ^bb88,
        0: ^bb86,
        1: ^bb87
      ]
    ^bb86:  // pred: ^bb85
      cf.br ^bb89(%A_L2L1_0_0_cons_buff_0 : memref<32x64xbf16>)
    ^bb87:  // pred: ^bb85
      cf.br ^bb89(%A_L2L1_0_0_cons_buff_1 : memref<32x64xbf16>)
    ^bb88:  // pred: ^bb85
      cf.br ^bb89(%A_L2L1_0_0_cons_buff_0 : memref<32x64xbf16>)
    ^bb89(%185: memref<32x64xbf16>):  // 3 preds: ^bb86, ^bb87, ^bb88
      func.call @matmul_vectorized_different_datatypes(%185, %163, %C_L1L2_0_0_buff_0) : (memref<32x64xbf16>, memref<64x16x!aiex.bfp<"v8bfp16ebs8">>, memref<128x128xbf16>) -> ()
      aie.use_lock(%A_L2L1_0_0_cons_prod_lock_0, Release, 1)
      %186 = memref.load %_anonymous0[%c2] : memref<3xi32>
      %187 = arith.addi %186, %c1_i32 : i32
      %188 = arith.cmpi sge, %187, %c2_i32 : i32
      %189 = arith.subi %187, %c2_i32 : i32
      %190 = arith.select %188, %189, %187 : i32
      memref.store %190, %_anonymous0[%c2] : memref<3xi32>
      aie.use_lock(%A_L2L1_0_0_cons_cons_lock_0, AcquireGreaterEqual, 1)
      %191 = memref.load %_anonymous0[%c2] : memref<3xi32>
      %192 = arith.index_cast %191 : i32 to index
      %193 = arith.index_cast %192 : index to i32
      cf.switch %193 : i32, [
        default: ^bb92,
        0: ^bb90,
        1: ^bb91
      ]
    ^bb90:  // pred: ^bb89
      cf.br ^bb93(%A_L2L1_0_0_cons_buff_0 : memref<32x64xbf16>)
    ^bb91:  // pred: ^bb89
      cf.br ^bb93(%A_L2L1_0_0_cons_buff_1 : memref<32x64xbf16>)
    ^bb92:  // pred: ^bb89
      cf.br ^bb93(%A_L2L1_0_0_cons_buff_0 : memref<32x64xbf16>)
    ^bb93(%194: memref<32x64xbf16>):  // 3 preds: ^bb90, ^bb91, ^bb92
      func.call @matmul_vectorized_different_datatypes(%194, %163, %C_L1L2_0_0_buff_0) : (memref<32x64xbf16>, memref<64x16x!aiex.bfp<"v8bfp16ebs8">>, memref<128x128xbf16>) -> ()
      aie.use_lock(%A_L2L1_0_0_cons_prod_lock_0, Release, 1)
      %195 = memref.load %_anonymous0[%c2] : memref<3xi32>
      %196 = arith.addi %195, %c1_i32 : i32
      %197 = arith.cmpi sge, %196, %c2_i32 : i32
      %198 = arith.subi %196, %c2_i32 : i32
      %199 = arith.select %197, %198, %196 : i32
      memref.store %199, %_anonymous0[%c2] : memref<3xi32>
      aie.use_lock(%B_L2L1_0_0_cons_prod_lock_0, Release, 1)
      %200 = memref.load %_anonymous0[%c1] : memref<3xi32>
      %201 = arith.addi %200, %c1_i32 : i32
      %202 = arith.cmpi sge, %201, %c2_i32 : i32
      %203 = arith.subi %201, %c2_i32 : i32
      %204 = arith.select %202, %203, %201 : i32
      memref.store %204, %_anonymous0[%c1] : memref<3xi32>
      %205 = arith.addi %158, %c1 : index
      cf.br ^bb72(%205 : index)
    ^bb94:  // pred: ^bb72
      aie.use_lock(%C_L1L2_0_0_cons_lock_0, Release, 1)
      %206 = memref.load %_anonymous0[%c0] : memref<3xi32>
      %207 = arith.addi %206, %c1_i32 : i32
      %208 = arith.cmpi sge, %207, %c1_i32 : i32
      %209 = arith.select %208, %206, %207 : i32
      memref.store %209, %_anonymous0[%c0] : memref<3xi32>
      aie.use_lock(%C_L1L2_0_0_prod_lock_0, AcquireGreaterEqual, 1)
      func.call @zero_kernel_bf16(%C_L1L2_0_0_buff_0) : (memref<128x128xbf16>) -> ()
      cf.br ^bb95(%c0 : index)
    ^bb95(%210: index):  // 2 preds: ^bb94, ^bb116
      %211 = arith.cmpi slt, %210, %c16 : index
      cf.cond_br %211, ^bb96, ^bb117
    ^bb96:  // pred: ^bb95
      aie.use_lock(%B_L2L1_0_0_cons_cons_lock_0, AcquireGreaterEqual, 1)
      %212 = memref.load %_anonymous0[%c1] : memref<3xi32>
      %213 = arith.index_cast %212 : i32 to index
      %214 = arith.index_cast %213 : index to i32
      cf.switch %214 : i32, [
        default: ^bb99,
        0: ^bb97,
        1: ^bb98
      ]
    ^bb97:  // pred: ^bb96
      cf.br ^bb100(%B_L2L1_0_0_cons_buff_0 : memref<64x16x!aiex.bfp<"v8bfp16ebs8">>)
    ^bb98:  // pred: ^bb96
      cf.br ^bb100(%B_L2L1_0_0_cons_buff_1 : memref<64x16x!aiex.bfp<"v8bfp16ebs8">>)
    ^bb99:  // pred: ^bb96
      cf.br ^bb100(%B_L2L1_0_0_cons_buff_0 : memref<64x16x!aiex.bfp<"v8bfp16ebs8">>)
    ^bb100(%215: memref<64x16x!aiex.bfp<"v8bfp16ebs8">>):  // 3 preds: ^bb97, ^bb98, ^bb99
      aie.use_lock(%A_L2L1_0_0_cons_cons_lock_0, AcquireGreaterEqual, 1)
      %216 = memref.load %_anonymous0[%c2] : memref<3xi32>
      %217 = arith.index_cast %216 : i32 to index
      %218 = arith.index_cast %217 : index to i32
      cf.switch %218 : i32, [
        default: ^bb103,
        0: ^bb101,
        1: ^bb102
      ]
    ^bb101:  // pred: ^bb100
      cf.br ^bb104(%A_L2L1_0_0_cons_buff_0 : memref<32x64xbf16>)
    ^bb102:  // pred: ^bb100
      cf.br ^bb104(%A_L2L1_0_0_cons_buff_1 : memref<32x64xbf16>)
    ^bb103:  // pred: ^bb100
      cf.br ^bb104(%A_L2L1_0_0_cons_buff_0 : memref<32x64xbf16>)
    ^bb104(%219: memref<32x64xbf16>):  // 3 preds: ^bb101, ^bb102, ^bb103
      func.call @matmul_vectorized_different_datatypes(%219, %215, %C_L1L2_0_0_buff_0) : (memref<32x64xbf16>, memref<64x16x!aiex.bfp<"v8bfp16ebs8">>, memref<128x128xbf16>) -> ()
      aie.use_lock(%A_L2L1_0_0_cons_prod_lock_0, Release, 1)
      %220 = memref.load %_anonymous0[%c2] : memref<3xi32>
      %221 = arith.addi %220, %c1_i32 : i32
      %222 = arith.cmpi sge, %221, %c2_i32 : i32
      %223 = arith.subi %221, %c2_i32 : i32
      %224 = arith.select %222, %223, %221 : i32
      memref.store %224, %_anonymous0[%c2] : memref<3xi32>
      aie.use_lock(%A_L2L1_0_0_cons_cons_lock_0, AcquireGreaterEqual, 1)
      %225 = memref.load %_anonymous0[%c2] : memref<3xi32>
      %226 = arith.index_cast %225 : i32 to index
      %227 = arith.index_cast %226 : index to i32
      cf.switch %227 : i32, [
        default: ^bb107,
        0: ^bb105,
        1: ^bb106
      ]
    ^bb105:  // pred: ^bb104
      cf.br ^bb108(%A_L2L1_0_0_cons_buff_0 : memref<32x64xbf16>)
    ^bb106:  // pred: ^bb104
      cf.br ^bb108(%A_L2L1_0_0_cons_buff_1 : memref<32x64xbf16>)
    ^bb107:  // pred: ^bb104
      cf.br ^bb108(%A_L2L1_0_0_cons_buff_0 : memref<32x64xbf16>)
    ^bb108(%228: memref<32x64xbf16>):  // 3 preds: ^bb105, ^bb106, ^bb107
      func.call @matmul_vectorized_different_datatypes(%228, %215, %C_L1L2_0_0_buff_0) : (memref<32x64xbf16>, memref<64x16x!aiex.bfp<"v8bfp16ebs8">>, memref<128x128xbf16>) -> ()
      aie.use_lock(%A_L2L1_0_0_cons_prod_lock_0, Release, 1)
      %229 = memref.load %_anonymous0[%c2] : memref<3xi32>
      %230 = arith.addi %229, %c1_i32 : i32
      %231 = arith.cmpi sge, %230, %c2_i32 : i32
      %232 = arith.subi %230, %c2_i32 : i32
      %233 = arith.select %231, %232, %230 : i32
      memref.store %233, %_anonymous0[%c2] : memref<3xi32>
      aie.use_lock(%A_L2L1_0_0_cons_cons_lock_0, AcquireGreaterEqual, 1)
      %234 = memref.load %_anonymous0[%c2] : memref<3xi32>
      %235 = arith.index_cast %234 : i32 to index
      %236 = arith.index_cast %235 : index to i32
      cf.switch %236 : i32, [
        default: ^bb111,
        0: ^bb109,
        1: ^bb110
      ]
    ^bb109:  // pred: ^bb108
      cf.br ^bb112(%A_L2L1_0_0_cons_buff_0 : memref<32x64xbf16>)
    ^bb110:  // pred: ^bb108
      cf.br ^bb112(%A_L2L1_0_0_cons_buff_1 : memref<32x64xbf16>)
    ^bb111:  // pred: ^bb108
      cf.br ^bb112(%A_L2L1_0_0_cons_buff_0 : memref<32x64xbf16>)
    ^bb112(%237: memref<32x64xbf16>):  // 3 preds: ^bb109, ^bb110, ^bb111
      func.call @matmul_vectorized_different_datatypes(%237, %215, %C_L1L2_0_0_buff_0) : (memref<32x64xbf16>, memref<64x16x!aiex.bfp<"v8bfp16ebs8">>, memref<128x128xbf16>) -> ()
      aie.use_lock(%A_L2L1_0_0_cons_prod_lock_0, Release, 1)
      %238 = memref.load %_anonymous0[%c2] : memref<3xi32>
      %239 = arith.addi %238, %c1_i32 : i32
      %240 = arith.cmpi sge, %239, %c2_i32 : i32
      %241 = arith.subi %239, %c2_i32 : i32
      %242 = arith.select %240, %241, %239 : i32
      memref.store %242, %_anonymous0[%c2] : memref<3xi32>
      aie.use_lock(%A_L2L1_0_0_cons_cons_lock_0, AcquireGreaterEqual, 1)
      %243 = memref.load %_anonymous0[%c2] : memref<3xi32>
      %244 = arith.index_cast %243 : i32 to index
      %245 = arith.index_cast %244 : index to i32
      cf.switch %245 : i32, [
        default: ^bb115,
        0: ^bb113,
        1: ^bb114
      ]
    ^bb113:  // pred: ^bb112
      cf.br ^bb116(%A_L2L1_0_0_cons_buff_0 : memref<32x64xbf16>)
    ^bb114:  // pred: ^bb112
      cf.br ^bb116(%A_L2L1_0_0_cons_buff_1 : memref<32x64xbf16>)
    ^bb115:  // pred: ^bb112
      cf.br ^bb116(%A_L2L1_0_0_cons_buff_0 : memref<32x64xbf16>)
    ^bb116(%246: memref<32x64xbf16>):  // 3 preds: ^bb113, ^bb114, ^bb115
      func.call @matmul_vectorized_different_datatypes(%246, %215, %C_L1L2_0_0_buff_0) : (memref<32x64xbf16>, memref<64x16x!aiex.bfp<"v8bfp16ebs8">>, memref<128x128xbf16>) -> ()
      aie.use_lock(%A_L2L1_0_0_cons_prod_lock_0, Release, 1)
      %247 = memref.load %_anonymous0[%c2] : memref<3xi32>
      %248 = arith.addi %247, %c1_i32 : i32
      %249 = arith.cmpi sge, %248, %c2_i32 : i32
      %250 = arith.subi %248, %c2_i32 : i32
      %251 = arith.select %249, %250, %248 : i32
      memref.store %251, %_anonymous0[%c2] : memref<3xi32>
      aie.use_lock(%B_L2L1_0_0_cons_prod_lock_0, Release, 1)
      %252 = memref.load %_anonymous0[%c1] : memref<3xi32>
      %253 = arith.addi %252, %c1_i32 : i32
      %254 = arith.cmpi sge, %253, %c2_i32 : i32
      %255 = arith.subi %253, %c2_i32 : i32
      %256 = arith.select %254, %255, %253 : i32
      memref.store %256, %_anonymous0[%c1] : memref<3xi32>
      %257 = arith.addi %210, %c1 : index
      cf.br ^bb95(%257 : index)
    ^bb117:  // pred: ^bb95
      aie.use_lock(%C_L1L2_0_0_cons_lock_0, Release, 1)
      %258 = memref.load %_anonymous0[%c0] : memref<3xi32>
      %259 = arith.addi %258, %c1_i32 : i32
      %260 = arith.cmpi sge, %259, %c1_i32 : i32
      %261 = arith.select %260, %258, %259 : i32
      memref.store %261, %_anonymous0[%c0] : memref<3xi32>
      aie.use_lock(%C_L1L2_0_0_prod_lock_0, AcquireGreaterEqual, 1)
      func.call @zero_kernel_bf16(%C_L1L2_0_0_buff_0) : (memref<128x128xbf16>) -> ()
      cf.br ^bb118(%c0 : index)
    ^bb118(%262: index):  // 2 preds: ^bb117, ^bb139
      %263 = arith.cmpi slt, %262, %c16 : index
      cf.cond_br %263, ^bb119, ^bb140
    ^bb119:  // pred: ^bb118
      aie.use_lock(%B_L2L1_0_0_cons_cons_lock_0, AcquireGreaterEqual, 1)
      %264 = memref.load %_anonymous0[%c1] : memref<3xi32>
      %265 = arith.index_cast %264 : i32 to index
      %266 = arith.index_cast %265 : index to i32
      cf.switch %266 : i32, [
        default: ^bb122,
        0: ^bb120,
        1: ^bb121
      ]
    ^bb120:  // pred: ^bb119
      cf.br ^bb123(%B_L2L1_0_0_cons_buff_0 : memref<64x16x!aiex.bfp<"v8bfp16ebs8">>)
    ^bb121:  // pred: ^bb119
      cf.br ^bb123(%B_L2L1_0_0_cons_buff_1 : memref<64x16x!aiex.bfp<"v8bfp16ebs8">>)
    ^bb122:  // pred: ^bb119
      cf.br ^bb123(%B_L2L1_0_0_cons_buff_0 : memref<64x16x!aiex.bfp<"v8bfp16ebs8">>)
    ^bb123(%267: memref<64x16x!aiex.bfp<"v8bfp16ebs8">>):  // 3 preds: ^bb120, ^bb121, ^bb122
      aie.use_lock(%A_L2L1_0_0_cons_cons_lock_0, AcquireGreaterEqual, 1)
      %268 = memref.load %_anonymous0[%c2] : memref<3xi32>
      %269 = arith.index_cast %268 : i32 to index
      %270 = arith.index_cast %269 : index to i32
      cf.switch %270 : i32, [
        default: ^bb126,
        0: ^bb124,
        1: ^bb125
      ]
    ^bb124:  // pred: ^bb123
      cf.br ^bb127(%A_L2L1_0_0_cons_buff_0 : memref<32x64xbf16>)
    ^bb125:  // pred: ^bb123
      cf.br ^bb127(%A_L2L1_0_0_cons_buff_1 : memref<32x64xbf16>)
    ^bb126:  // pred: ^bb123
      cf.br ^bb127(%A_L2L1_0_0_cons_buff_0 : memref<32x64xbf16>)
    ^bb127(%271: memref<32x64xbf16>):  // 3 preds: ^bb124, ^bb125, ^bb126
      func.call @matmul_vectorized_different_datatypes(%271, %267, %C_L1L2_0_0_buff_0) : (memref<32x64xbf16>, memref<64x16x!aiex.bfp<"v8bfp16ebs8">>, memref<128x128xbf16>) -> ()
      aie.use_lock(%A_L2L1_0_0_cons_prod_lock_0, Release, 1)
      %272 = memref.load %_anonymous0[%c2] : memref<3xi32>
      %273 = arith.addi %272, %c1_i32 : i32
      %274 = arith.cmpi sge, %273, %c2_i32 : i32
      %275 = arith.subi %273, %c2_i32 : i32
      %276 = arith.select %274, %275, %273 : i32
      memref.store %276, %_anonymous0[%c2] : memref<3xi32>
      aie.use_lock(%A_L2L1_0_0_cons_cons_lock_0, AcquireGreaterEqual, 1)
      %277 = memref.load %_anonymous0[%c2] : memref<3xi32>
      %278 = arith.index_cast %277 : i32 to index
      %279 = arith.index_cast %278 : index to i32
      cf.switch %279 : i32, [
        default: ^bb130,
        0: ^bb128,
        1: ^bb129
      ]
    ^bb128:  // pred: ^bb127
      cf.br ^bb131(%A_L2L1_0_0_cons_buff_0 : memref<32x64xbf16>)
    ^bb129:  // pred: ^bb127
      cf.br ^bb131(%A_L2L1_0_0_cons_buff_1 : memref<32x64xbf16>)
    ^bb130:  // pred: ^bb127
      cf.br ^bb131(%A_L2L1_0_0_cons_buff_0 : memref<32x64xbf16>)
    ^bb131(%280: memref<32x64xbf16>):  // 3 preds: ^bb128, ^bb129, ^bb130
      func.call @matmul_vectorized_different_datatypes(%280, %267, %C_L1L2_0_0_buff_0) : (memref<32x64xbf16>, memref<64x16x!aiex.bfp<"v8bfp16ebs8">>, memref<128x128xbf16>) -> ()
      aie.use_lock(%A_L2L1_0_0_cons_prod_lock_0, Release, 1)
      %281 = memref.load %_anonymous0[%c2] : memref<3xi32>
      %282 = arith.addi %281, %c1_i32 : i32
      %283 = arith.cmpi sge, %282, %c2_i32 : i32
      %284 = arith.subi %282, %c2_i32 : i32
      %285 = arith.select %283, %284, %282 : i32
      memref.store %285, %_anonymous0[%c2] : memref<3xi32>
      aie.use_lock(%A_L2L1_0_0_cons_cons_lock_0, AcquireGreaterEqual, 1)
      %286 = memref.load %_anonymous0[%c2] : memref<3xi32>
      %287 = arith.index_cast %286 : i32 to index
      %288 = arith.index_cast %287 : index to i32
      cf.switch %288 : i32, [
        default: ^bb134,
        0: ^bb132,
        1: ^bb133
      ]
    ^bb132:  // pred: ^bb131
      cf.br ^bb135(%A_L2L1_0_0_cons_buff_0 : memref<32x64xbf16>)
    ^bb133:  // pred: ^bb131
      cf.br ^bb135(%A_L2L1_0_0_cons_buff_1 : memref<32x64xbf16>)
    ^bb134:  // pred: ^bb131
      cf.br ^bb135(%A_L2L1_0_0_cons_buff_0 : memref<32x64xbf16>)
    ^bb135(%289: memref<32x64xbf16>):  // 3 preds: ^bb132, ^bb133, ^bb134
      func.call @matmul_vectorized_different_datatypes(%289, %267, %C_L1L2_0_0_buff_0) : (memref<32x64xbf16>, memref<64x16x!aiex.bfp<"v8bfp16ebs8">>, memref<128x128xbf16>) -> ()
      aie.use_lock(%A_L2L1_0_0_cons_prod_lock_0, Release, 1)
      %290 = memref.load %_anonymous0[%c2] : memref<3xi32>
      %291 = arith.addi %290, %c1_i32 : i32
      %292 = arith.cmpi sge, %291, %c2_i32 : i32
      %293 = arith.subi %291, %c2_i32 : i32
      %294 = arith.select %292, %293, %291 : i32
      memref.store %294, %_anonymous0[%c2] : memref<3xi32>
      aie.use_lock(%A_L2L1_0_0_cons_cons_lock_0, AcquireGreaterEqual, 1)
      %295 = memref.load %_anonymous0[%c2] : memref<3xi32>
      %296 = arith.index_cast %295 : i32 to index
      %297 = arith.index_cast %296 : index to i32
      cf.switch %297 : i32, [
        default: ^bb138,
        0: ^bb136,
        1: ^bb137
      ]
    ^bb136:  // pred: ^bb135
      cf.br ^bb139(%A_L2L1_0_0_cons_buff_0 : memref<32x64xbf16>)
    ^bb137:  // pred: ^bb135
      cf.br ^bb139(%A_L2L1_0_0_cons_buff_1 : memref<32x64xbf16>)
    ^bb138:  // pred: ^bb135
      cf.br ^bb139(%A_L2L1_0_0_cons_buff_0 : memref<32x64xbf16>)
    ^bb139(%298: memref<32x64xbf16>):  // 3 preds: ^bb136, ^bb137, ^bb138
      func.call @matmul_vectorized_different_datatypes(%298, %267, %C_L1L2_0_0_buff_0) : (memref<32x64xbf16>, memref<64x16x!aiex.bfp<"v8bfp16ebs8">>, memref<128x128xbf16>) -> ()
      aie.use_lock(%A_L2L1_0_0_cons_prod_lock_0, Release, 1)
      %299 = memref.load %_anonymous0[%c2] : memref<3xi32>
      %300 = arith.addi %299, %c1_i32 : i32
      %301 = arith.cmpi sge, %300, %c2_i32 : i32
      %302 = arith.subi %300, %c2_i32 : i32
      %303 = arith.select %301, %302, %300 : i32
      memref.store %303, %_anonymous0[%c2] : memref<3xi32>
      aie.use_lock(%B_L2L1_0_0_cons_prod_lock_0, Release, 1)
      %304 = memref.load %_anonymous0[%c1] : memref<3xi32>
      %305 = arith.addi %304, %c1_i32 : i32
      %306 = arith.cmpi sge, %305, %c2_i32 : i32
      %307 = arith.subi %305, %c2_i32 : i32
      %308 = arith.select %306, %307, %305 : i32
      memref.store %308, %_anonymous0[%c1] : memref<3xi32>
      %309 = arith.addi %262, %c1 : index
      cf.br ^bb118(%309 : index)
    ^bb140:  // pred: ^bb118
      aie.use_lock(%C_L1L2_0_0_cons_lock_0, Release, 1)
      %310 = memref.load %_anonymous0[%c0] : memref<3xi32>
      %311 = arith.addi %310, %c1_i32 : i32
      %312 = arith.cmpi sge, %311, %c1_i32 : i32
      %313 = arith.select %312, %310, %311 : i32
      memref.store %313, %_anonymous0[%c0] : memref<3xi32>
      aie.use_lock(%C_L1L2_0_0_prod_lock_0, AcquireGreaterEqual, 1)
      func.call @zero_kernel_bf16(%C_L1L2_0_0_buff_0) : (memref<128x128xbf16>) -> ()
      cf.br ^bb141(%c0 : index)
    ^bb141(%314: index):  // 2 preds: ^bb140, ^bb162
      %315 = arith.cmpi slt, %314, %c16 : index
      cf.cond_br %315, ^bb142, ^bb163
    ^bb142:  // pred: ^bb141
      aie.use_lock(%B_L2L1_0_0_cons_cons_lock_0, AcquireGreaterEqual, 1)
      %316 = memref.load %_anonymous0[%c1] : memref<3xi32>
      %317 = arith.index_cast %316 : i32 to index
      %318 = arith.index_cast %317 : index to i32
      cf.switch %318 : i32, [
        default: ^bb145,
        0: ^bb143,
        1: ^bb144
      ]
    ^bb143:  // pred: ^bb142
      cf.br ^bb146(%B_L2L1_0_0_cons_buff_0 : memref<64x16x!aiex.bfp<"v8bfp16ebs8">>)
    ^bb144:  // pred: ^bb142
      cf.br ^bb146(%B_L2L1_0_0_cons_buff_1 : memref<64x16x!aiex.bfp<"v8bfp16ebs8">>)
    ^bb145:  // pred: ^bb142
      cf.br ^bb146(%B_L2L1_0_0_cons_buff_0 : memref<64x16x!aiex.bfp<"v8bfp16ebs8">>)
    ^bb146(%319: memref<64x16x!aiex.bfp<"v8bfp16ebs8">>):  // 3 preds: ^bb143, ^bb144, ^bb145
      aie.use_lock(%A_L2L1_0_0_cons_cons_lock_0, AcquireGreaterEqual, 1)
      %320 = memref.load %_anonymous0[%c2] : memref<3xi32>
      %321 = arith.index_cast %320 : i32 to index
      %322 = arith.index_cast %321 : index to i32
      cf.switch %322 : i32, [
        default: ^bb149,
        0: ^bb147,
        1: ^bb148
      ]
    ^bb147:  // pred: ^bb146
      cf.br ^bb150(%A_L2L1_0_0_cons_buff_0 : memref<32x64xbf16>)
    ^bb148:  // pred: ^bb146
      cf.br ^bb150(%A_L2L1_0_0_cons_buff_1 : memref<32x64xbf16>)
    ^bb149:  // pred: ^bb146
      cf.br ^bb150(%A_L2L1_0_0_cons_buff_0 : memref<32x64xbf16>)
    ^bb150(%323: memref<32x64xbf16>):  // 3 preds: ^bb147, ^bb148, ^bb149
      func.call @matmul_vectorized_different_datatypes(%323, %319, %C_L1L2_0_0_buff_0) : (memref<32x64xbf16>, memref<64x16x!aiex.bfp<"v8bfp16ebs8">>, memref<128x128xbf16>) -> ()
      aie.use_lock(%A_L2L1_0_0_cons_prod_lock_0, Release, 1)
      %324 = memref.load %_anonymous0[%c2] : memref<3xi32>
      %325 = arith.addi %324, %c1_i32 : i32
      %326 = arith.cmpi sge, %325, %c2_i32 : i32
      %327 = arith.subi %325, %c2_i32 : i32
      %328 = arith.select %326, %327, %325 : i32
      memref.store %328, %_anonymous0[%c2] : memref<3xi32>
      aie.use_lock(%A_L2L1_0_0_cons_cons_lock_0, AcquireGreaterEqual, 1)
      %329 = memref.load %_anonymous0[%c2] : memref<3xi32>
      %330 = arith.index_cast %329 : i32 to index
      %331 = arith.index_cast %330 : index to i32
      cf.switch %331 : i32, [
        default: ^bb153,
        0: ^bb151,
        1: ^bb152
      ]
    ^bb151:  // pred: ^bb150
      cf.br ^bb154(%A_L2L1_0_0_cons_buff_0 : memref<32x64xbf16>)
    ^bb152:  // pred: ^bb150
      cf.br ^bb154(%A_L2L1_0_0_cons_buff_1 : memref<32x64xbf16>)
    ^bb153:  // pred: ^bb150
      cf.br ^bb154(%A_L2L1_0_0_cons_buff_0 : memref<32x64xbf16>)
    ^bb154(%332: memref<32x64xbf16>):  // 3 preds: ^bb151, ^bb152, ^bb153
      func.call @matmul_vectorized_different_datatypes(%332, %319, %C_L1L2_0_0_buff_0) : (memref<32x64xbf16>, memref<64x16x!aiex.bfp<"v8bfp16ebs8">>, memref<128x128xbf16>) -> ()
      aie.use_lock(%A_L2L1_0_0_cons_prod_lock_0, Release, 1)
      %333 = memref.load %_anonymous0[%c2] : memref<3xi32>
      %334 = arith.addi %333, %c1_i32 : i32
      %335 = arith.cmpi sge, %334, %c2_i32 : i32
      %336 = arith.subi %334, %c2_i32 : i32
      %337 = arith.select %335, %336, %334 : i32
      memref.store %337, %_anonymous0[%c2] : memref<3xi32>
      aie.use_lock(%A_L2L1_0_0_cons_cons_lock_0, AcquireGreaterEqual, 1)
      %338 = memref.load %_anonymous0[%c2] : memref<3xi32>
      %339 = arith.index_cast %338 : i32 to index
      %340 = arith.index_cast %339 : index to i32
      cf.switch %340 : i32, [
        default: ^bb157,
        0: ^bb155,
        1: ^bb156
      ]
    ^bb155:  // pred: ^bb154
      cf.br ^bb158(%A_L2L1_0_0_cons_buff_0 : memref<32x64xbf16>)
    ^bb156:  // pred: ^bb154
      cf.br ^bb158(%A_L2L1_0_0_cons_buff_1 : memref<32x64xbf16>)
    ^bb157:  // pred: ^bb154
      cf.br ^bb158(%A_L2L1_0_0_cons_buff_0 : memref<32x64xbf16>)
    ^bb158(%341: memref<32x64xbf16>):  // 3 preds: ^bb155, ^bb156, ^bb157
      func.call @matmul_vectorized_different_datatypes(%341, %319, %C_L1L2_0_0_buff_0) : (memref<32x64xbf16>, memref<64x16x!aiex.bfp<"v8bfp16ebs8">>, memref<128x128xbf16>) -> ()
      aie.use_lock(%A_L2L1_0_0_cons_prod_lock_0, Release, 1)
      %342 = memref.load %_anonymous0[%c2] : memref<3xi32>
      %343 = arith.addi %342, %c1_i32 : i32
      %344 = arith.cmpi sge, %343, %c2_i32 : i32
      %345 = arith.subi %343, %c2_i32 : i32
      %346 = arith.select %344, %345, %343 : i32
      memref.store %346, %_anonymous0[%c2] : memref<3xi32>
      aie.use_lock(%A_L2L1_0_0_cons_cons_lock_0, AcquireGreaterEqual, 1)
      %347 = memref.load %_anonymous0[%c2] : memref<3xi32>
      %348 = arith.index_cast %347 : i32 to index
      %349 = arith.index_cast %348 : index to i32
      cf.switch %349 : i32, [
        default: ^bb161,
        0: ^bb159,
        1: ^bb160
      ]
    ^bb159:  // pred: ^bb158
      cf.br ^bb162(%A_L2L1_0_0_cons_buff_0 : memref<32x64xbf16>)
    ^bb160:  // pred: ^bb158
      cf.br ^bb162(%A_L2L1_0_0_cons_buff_1 : memref<32x64xbf16>)
    ^bb161:  // pred: ^bb158
      cf.br ^bb162(%A_L2L1_0_0_cons_buff_0 : memref<32x64xbf16>)
    ^bb162(%350: memref<32x64xbf16>):  // 3 preds: ^bb159, ^bb160, ^bb161
      func.call @matmul_vectorized_different_datatypes(%350, %319, %C_L1L2_0_0_buff_0) : (memref<32x64xbf16>, memref<64x16x!aiex.bfp<"v8bfp16ebs8">>, memref<128x128xbf16>) -> ()
      aie.use_lock(%A_L2L1_0_0_cons_prod_lock_0, Release, 1)
      %351 = memref.load %_anonymous0[%c2] : memref<3xi32>
      %352 = arith.addi %351, %c1_i32 : i32
      %353 = arith.cmpi sge, %352, %c2_i32 : i32
      %354 = arith.subi %352, %c2_i32 : i32
      %355 = arith.select %353, %354, %352 : i32
      memref.store %355, %_anonymous0[%c2] : memref<3xi32>
      aie.use_lock(%B_L2L1_0_0_cons_prod_lock_0, Release, 1)
      %356 = memref.load %_anonymous0[%c1] : memref<3xi32>
      %357 = arith.addi %356, %c1_i32 : i32
      %358 = arith.cmpi sge, %357, %c2_i32 : i32
      %359 = arith.subi %357, %c2_i32 : i32
      %360 = arith.select %358, %359, %357 : i32
      memref.store %360, %_anonymous0[%c1] : memref<3xi32>
      %361 = arith.addi %314, %c1 : index
      cf.br ^bb141(%361 : index)
    ^bb163:  // pred: ^bb141
      aie.use_lock(%C_L1L2_0_0_cons_lock_0, Release, 1)
      %362 = memref.load %_anonymous0[%c0] : memref<3xi32>
      %363 = arith.addi %362, %c1_i32 : i32
      %364 = arith.cmpi sge, %363, %c1_i32 : i32
      %365 = arith.select %364, %362, %363 : i32
      memref.store %365, %_anonymous0[%c0] : memref<3xi32>
      aie.use_lock(%C_L1L2_0_0_prod_lock_0, AcquireGreaterEqual, 1)
      func.call @zero_kernel_bf16(%C_L1L2_0_0_buff_0) : (memref<128x128xbf16>) -> ()
      cf.br ^bb164(%c0 : index)
    ^bb164(%366: index):  // 2 preds: ^bb163, ^bb185
      %367 = arith.cmpi slt, %366, %c16 : index
      cf.cond_br %367, ^bb165, ^bb186
    ^bb165:  // pred: ^bb164
      aie.use_lock(%B_L2L1_0_0_cons_cons_lock_0, AcquireGreaterEqual, 1)
      %368 = memref.load %_anonymous0[%c1] : memref<3xi32>
      %369 = arith.index_cast %368 : i32 to index
      %370 = arith.index_cast %369 : index to i32
      cf.switch %370 : i32, [
        default: ^bb168,
        0: ^bb166,
        1: ^bb167
      ]
    ^bb166:  // pred: ^bb165
      cf.br ^bb169(%B_L2L1_0_0_cons_buff_0 : memref<64x16x!aiex.bfp<"v8bfp16ebs8">>)
    ^bb167:  // pred: ^bb165
      cf.br ^bb169(%B_L2L1_0_0_cons_buff_1 : memref<64x16x!aiex.bfp<"v8bfp16ebs8">>)
    ^bb168:  // pred: ^bb165
      cf.br ^bb169(%B_L2L1_0_0_cons_buff_0 : memref<64x16x!aiex.bfp<"v8bfp16ebs8">>)
    ^bb169(%371: memref<64x16x!aiex.bfp<"v8bfp16ebs8">>):  // 3 preds: ^bb166, ^bb167, ^bb168
      aie.use_lock(%A_L2L1_0_0_cons_cons_lock_0, AcquireGreaterEqual, 1)
      %372 = memref.load %_anonymous0[%c2] : memref<3xi32>
      %373 = arith.index_cast %372 : i32 to index
      %374 = arith.index_cast %373 : index to i32
      cf.switch %374 : i32, [
        default: ^bb172,
        0: ^bb170,
        1: ^bb171
      ]
    ^bb170:  // pred: ^bb169
      cf.br ^bb173(%A_L2L1_0_0_cons_buff_0 : memref<32x64xbf16>)
    ^bb171:  // pred: ^bb169
      cf.br ^bb173(%A_L2L1_0_0_cons_buff_1 : memref<32x64xbf16>)
    ^bb172:  // pred: ^bb169
      cf.br ^bb173(%A_L2L1_0_0_cons_buff_0 : memref<32x64xbf16>)
    ^bb173(%375: memref<32x64xbf16>):  // 3 preds: ^bb170, ^bb171, ^bb172
      func.call @matmul_vectorized_different_datatypes(%375, %371, %C_L1L2_0_0_buff_0) : (memref<32x64xbf16>, memref<64x16x!aiex.bfp<"v8bfp16ebs8">>, memref<128x128xbf16>) -> ()
      aie.use_lock(%A_L2L1_0_0_cons_prod_lock_0, Release, 1)
      %376 = memref.load %_anonymous0[%c2] : memref<3xi32>
      %377 = arith.addi %376, %c1_i32 : i32
      %378 = arith.cmpi sge, %377, %c2_i32 : i32
      %379 = arith.subi %377, %c2_i32 : i32
      %380 = arith.select %378, %379, %377 : i32
      memref.store %380, %_anonymous0[%c2] : memref<3xi32>
      aie.use_lock(%A_L2L1_0_0_cons_cons_lock_0, AcquireGreaterEqual, 1)
      %381 = memref.load %_anonymous0[%c2] : memref<3xi32>
      %382 = arith.index_cast %381 : i32 to index
      %383 = arith.index_cast %382 : index to i32
      cf.switch %383 : i32, [
        default: ^bb176,
        0: ^bb174,
        1: ^bb175
      ]
    ^bb174:  // pred: ^bb173
      cf.br ^bb177(%A_L2L1_0_0_cons_buff_0 : memref<32x64xbf16>)
    ^bb175:  // pred: ^bb173
      cf.br ^bb177(%A_L2L1_0_0_cons_buff_1 : memref<32x64xbf16>)
    ^bb176:  // pred: ^bb173
      cf.br ^bb177(%A_L2L1_0_0_cons_buff_0 : memref<32x64xbf16>)
    ^bb177(%384: memref<32x64xbf16>):  // 3 preds: ^bb174, ^bb175, ^bb176
      func.call @matmul_vectorized_different_datatypes(%384, %371, %C_L1L2_0_0_buff_0) : (memref<32x64xbf16>, memref<64x16x!aiex.bfp<"v8bfp16ebs8">>, memref<128x128xbf16>) -> ()
      aie.use_lock(%A_L2L1_0_0_cons_prod_lock_0, Release, 1)
      %385 = memref.load %_anonymous0[%c2] : memref<3xi32>
      %386 = arith.addi %385, %c1_i32 : i32
      %387 = arith.cmpi sge, %386, %c2_i32 : i32
      %388 = arith.subi %386, %c2_i32 : i32
      %389 = arith.select %387, %388, %386 : i32
      memref.store %389, %_anonymous0[%c2] : memref<3xi32>
      aie.use_lock(%A_L2L1_0_0_cons_cons_lock_0, AcquireGreaterEqual, 1)
      %390 = memref.load %_anonymous0[%c2] : memref<3xi32>
      %391 = arith.index_cast %390 : i32 to index
      %392 = arith.index_cast %391 : index to i32
      cf.switch %392 : i32, [
        default: ^bb180,
        0: ^bb178,
        1: ^bb179
      ]
    ^bb178:  // pred: ^bb177
      cf.br ^bb181(%A_L2L1_0_0_cons_buff_0 : memref<32x64xbf16>)
    ^bb179:  // pred: ^bb177
      cf.br ^bb181(%A_L2L1_0_0_cons_buff_1 : memref<32x64xbf16>)
    ^bb180:  // pred: ^bb177
      cf.br ^bb181(%A_L2L1_0_0_cons_buff_0 : memref<32x64xbf16>)
    ^bb181(%393: memref<32x64xbf16>):  // 3 preds: ^bb178, ^bb179, ^bb180
      func.call @matmul_vectorized_different_datatypes(%393, %371, %C_L1L2_0_0_buff_0) : (memref<32x64xbf16>, memref<64x16x!aiex.bfp<"v8bfp16ebs8">>, memref<128x128xbf16>) -> ()
      aie.use_lock(%A_L2L1_0_0_cons_prod_lock_0, Release, 1)
      %394 = memref.load %_anonymous0[%c2] : memref<3xi32>
      %395 = arith.addi %394, %c1_i32 : i32
      %396 = arith.cmpi sge, %395, %c2_i32 : i32
      %397 = arith.subi %395, %c2_i32 : i32
      %398 = arith.select %396, %397, %395 : i32
      memref.store %398, %_anonymous0[%c2] : memref<3xi32>
      aie.use_lock(%A_L2L1_0_0_cons_cons_lock_0, AcquireGreaterEqual, 1)
      %399 = memref.load %_anonymous0[%c2] : memref<3xi32>
      %400 = arith.index_cast %399 : i32 to index
      %401 = arith.index_cast %400 : index to i32
      cf.switch %401 : i32, [
        default: ^bb184,
        0: ^bb182,
        1: ^bb183
      ]
    ^bb182:  // pred: ^bb181
      cf.br ^bb185(%A_L2L1_0_0_cons_buff_0 : memref<32x64xbf16>)
    ^bb183:  // pred: ^bb181
      cf.br ^bb185(%A_L2L1_0_0_cons_buff_1 : memref<32x64xbf16>)
    ^bb184:  // pred: ^bb181
      cf.br ^bb185(%A_L2L1_0_0_cons_buff_0 : memref<32x64xbf16>)
    ^bb185(%402: memref<32x64xbf16>):  // 3 preds: ^bb182, ^bb183, ^bb184
      func.call @matmul_vectorized_different_datatypes(%402, %371, %C_L1L2_0_0_buff_0) : (memref<32x64xbf16>, memref<64x16x!aiex.bfp<"v8bfp16ebs8">>, memref<128x128xbf16>) -> ()
      aie.use_lock(%A_L2L1_0_0_cons_prod_lock_0, Release, 1)
      %403 = memref.load %_anonymous0[%c2] : memref<3xi32>
      %404 = arith.addi %403, %c1_i32 : i32
      %405 = arith.cmpi sge, %404, %c2_i32 : i32
      %406 = arith.subi %404, %c2_i32 : i32
      %407 = arith.select %405, %406, %404 : i32
      memref.store %407, %_anonymous0[%c2] : memref<3xi32>
      aie.use_lock(%B_L2L1_0_0_cons_prod_lock_0, Release, 1)
      %408 = memref.load %_anonymous0[%c1] : memref<3xi32>
      %409 = arith.addi %408, %c1_i32 : i32
      %410 = arith.cmpi sge, %409, %c2_i32 : i32
      %411 = arith.subi %409, %c2_i32 : i32
      %412 = arith.select %410, %411, %409 : i32
      memref.store %412, %_anonymous0[%c1] : memref<3xi32>
      %413 = arith.addi %366, %c1 : index
      cf.br ^bb164(%413 : index)
    ^bb186:  // pred: ^bb164
      aie.use_lock(%C_L1L2_0_0_cons_lock_0, Release, 1)
      %414 = memref.load %_anonymous0[%c0] : memref<3xi32>
      %415 = arith.addi %414, %c1_i32 : i32
      %416 = arith.cmpi sge, %415, %c1_i32 : i32
      %417 = arith.select %416, %414, %415 : i32
      memref.store %417, %_anonymous0[%c0] : memref<3xi32>
      %418 = arith.addi %0, %c1 : index
      cf.br ^bb1(%418 : index)
    ^bb187:  // pred: ^bb1
      aie.end
    } {link_files = ["mm_128x64x128.o"], stack_size = 3328 : i32}
    %_anonymous1 = aie.buffer(%tile_1_2) {address = 62720 : i32, sym_name = "_anonymous1"} : memref<3xi32> 
    %core_1_2 = aie.core(%tile_1_2) {
      %c4294967295 = arith.constant 4294967295 : index
      %c16 = arith.constant 16 : index
      %c2 = arith.constant 2 : index
      %c2_i32 = arith.constant 2 : i32
      %c1 = arith.constant 1 : index
      %c0_i32 = arith.constant 0 : i32
      %c0 = arith.constant 0 : index
      %c1_i32 = arith.constant 1 : i32
      memref.store %c0_i32, %_anonymous1[%c0] : memref<3xi32>
      memref.store %c0_i32, %_anonymous1[%c1] : memref<3xi32>
      memref.store %c0_i32, %_anonymous1[%c2] : memref<3xi32>
      cf.br ^bb1(%c0 : index)
    ^bb1(%0: index):  // 2 preds: ^bb0, ^bb186
      %1 = arith.cmpi slt, %0, %c4294967295 : index
      cf.cond_br %1, ^bb2, ^bb187
    ^bb2:  // pred: ^bb1
      aie.use_lock(%C_L1L2_1_0_prod_lock_0, AcquireGreaterEqual, 1)
      func.call @zero_kernel_bf16(%C_L1L2_1_0_buff_0) : (memref<128x128xbf16>) -> ()
      cf.br ^bb3(%c0 : index)
    ^bb3(%2: index):  // 2 preds: ^bb2, ^bb24
      %3 = arith.cmpi slt, %2, %c16 : index
      cf.cond_br %3, ^bb4, ^bb25
    ^bb4:  // pred: ^bb3
      aie.use_lock(%B_L2L1_1_0_cons_cons_lock_0, AcquireGreaterEqual, 1)
      %4 = memref.load %_anonymous1[%c1] : memref<3xi32>
      %5 = arith.index_cast %4 : i32 to index
      %6 = arith.index_cast %5 : index to i32
      cf.switch %6 : i32, [
        default: ^bb7,
        0: ^bb5,
        1: ^bb6
      ]
    ^bb5:  // pred: ^bb4
      cf.br ^bb8(%B_L2L1_1_0_cons_buff_0 : memref<64x16x!aiex.bfp<"v8bfp16ebs8">>)
    ^bb6:  // pred: ^bb4
      cf.br ^bb8(%B_L2L1_1_0_cons_buff_1 : memref<64x16x!aiex.bfp<"v8bfp16ebs8">>)
    ^bb7:  // pred: ^bb4
      cf.br ^bb8(%B_L2L1_1_0_cons_buff_0 : memref<64x16x!aiex.bfp<"v8bfp16ebs8">>)
    ^bb8(%7: memref<64x16x!aiex.bfp<"v8bfp16ebs8">>):  // 3 preds: ^bb5, ^bb6, ^bb7
      aie.use_lock(%A_L2L1_0_1_cons_cons_lock_0, AcquireGreaterEqual, 1)
      %8 = memref.load %_anonymous1[%c2] : memref<3xi32>
      %9 = arith.index_cast %8 : i32 to index
      %10 = arith.index_cast %9 : index to i32
      cf.switch %10 : i32, [
        default: ^bb11,
        0: ^bb9,
        1: ^bb10
      ]
    ^bb9:  // pred: ^bb8
      cf.br ^bb12(%A_L2L1_0_1_cons_buff_0 : memref<32x64xbf16>)
    ^bb10:  // pred: ^bb8
      cf.br ^bb12(%A_L2L1_0_1_cons_buff_1 : memref<32x64xbf16>)
    ^bb11:  // pred: ^bb8
      cf.br ^bb12(%A_L2L1_0_1_cons_buff_0 : memref<32x64xbf16>)
    ^bb12(%11: memref<32x64xbf16>):  // 3 preds: ^bb9, ^bb10, ^bb11
      func.call @matmul_vectorized_different_datatypes(%11, %7, %C_L1L2_1_0_buff_0) : (memref<32x64xbf16>, memref<64x16x!aiex.bfp<"v8bfp16ebs8">>, memref<128x128xbf16>) -> ()
      aie.use_lock(%A_L2L1_0_1_cons_prod_lock_0, Release, 1)
      %12 = memref.load %_anonymous1[%c2] : memref<3xi32>
      %13 = arith.addi %12, %c1_i32 : i32
      %14 = arith.cmpi sge, %13, %c2_i32 : i32
      %15 = arith.subi %13, %c2_i32 : i32
      %16 = arith.select %14, %15, %13 : i32
      memref.store %16, %_anonymous1[%c2] : memref<3xi32>
      aie.use_lock(%A_L2L1_0_1_cons_cons_lock_0, AcquireGreaterEqual, 1)
      %17 = memref.load %_anonymous1[%c2] : memref<3xi32>
      %18 = arith.index_cast %17 : i32 to index
      %19 = arith.index_cast %18 : index to i32
      cf.switch %19 : i32, [
        default: ^bb15,
        0: ^bb13,
        1: ^bb14
      ]
    ^bb13:  // pred: ^bb12
      cf.br ^bb16(%A_L2L1_0_1_cons_buff_0 : memref<32x64xbf16>)
    ^bb14:  // pred: ^bb12
      cf.br ^bb16(%A_L2L1_0_1_cons_buff_1 : memref<32x64xbf16>)
    ^bb15:  // pred: ^bb12
      cf.br ^bb16(%A_L2L1_0_1_cons_buff_0 : memref<32x64xbf16>)
    ^bb16(%20: memref<32x64xbf16>):  // 3 preds: ^bb13, ^bb14, ^bb15
      func.call @matmul_vectorized_different_datatypes(%20, %7, %C_L1L2_1_0_buff_0) : (memref<32x64xbf16>, memref<64x16x!aiex.bfp<"v8bfp16ebs8">>, memref<128x128xbf16>) -> ()
      aie.use_lock(%A_L2L1_0_1_cons_prod_lock_0, Release, 1)
      %21 = memref.load %_anonymous1[%c2] : memref<3xi32>
      %22 = arith.addi %21, %c1_i32 : i32
      %23 = arith.cmpi sge, %22, %c2_i32 : i32
      %24 = arith.subi %22, %c2_i32 : i32
      %25 = arith.select %23, %24, %22 : i32
      memref.store %25, %_anonymous1[%c2] : memref<3xi32>
      aie.use_lock(%A_L2L1_0_1_cons_cons_lock_0, AcquireGreaterEqual, 1)
      %26 = memref.load %_anonymous1[%c2] : memref<3xi32>
      %27 = arith.index_cast %26 : i32 to index
      %28 = arith.index_cast %27 : index to i32
      cf.switch %28 : i32, [
        default: ^bb19,
        0: ^bb17,
        1: ^bb18
      ]
    ^bb17:  // pred: ^bb16
      cf.br ^bb20(%A_L2L1_0_1_cons_buff_0 : memref<32x64xbf16>)
    ^bb18:  // pred: ^bb16
      cf.br ^bb20(%A_L2L1_0_1_cons_buff_1 : memref<32x64xbf16>)
    ^bb19:  // pred: ^bb16
      cf.br ^bb20(%A_L2L1_0_1_cons_buff_0 : memref<32x64xbf16>)
    ^bb20(%29: memref<32x64xbf16>):  // 3 preds: ^bb17, ^bb18, ^bb19
      func.call @matmul_vectorized_different_datatypes(%29, %7, %C_L1L2_1_0_buff_0) : (memref<32x64xbf16>, memref<64x16x!aiex.bfp<"v8bfp16ebs8">>, memref<128x128xbf16>) -> ()
      aie.use_lock(%A_L2L1_0_1_cons_prod_lock_0, Release, 1)
      %30 = memref.load %_anonymous1[%c2] : memref<3xi32>
      %31 = arith.addi %30, %c1_i32 : i32
      %32 = arith.cmpi sge, %31, %c2_i32 : i32
      %33 = arith.subi %31, %c2_i32 : i32
      %34 = arith.select %32, %33, %31 : i32
      memref.store %34, %_anonymous1[%c2] : memref<3xi32>
      aie.use_lock(%A_L2L1_0_1_cons_cons_lock_0, AcquireGreaterEqual, 1)
      %35 = memref.load %_anonymous1[%c2] : memref<3xi32>
      %36 = arith.index_cast %35 : i32 to index
      %37 = arith.index_cast %36 : index to i32
      cf.switch %37 : i32, [
        default: ^bb23,
        0: ^bb21,
        1: ^bb22
      ]
    ^bb21:  // pred: ^bb20
      cf.br ^bb24(%A_L2L1_0_1_cons_buff_0 : memref<32x64xbf16>)
    ^bb22:  // pred: ^bb20
      cf.br ^bb24(%A_L2L1_0_1_cons_buff_1 : memref<32x64xbf16>)
    ^bb23:  // pred: ^bb20
      cf.br ^bb24(%A_L2L1_0_1_cons_buff_0 : memref<32x64xbf16>)
    ^bb24(%38: memref<32x64xbf16>):  // 3 preds: ^bb21, ^bb22, ^bb23
      func.call @matmul_vectorized_different_datatypes(%38, %7, %C_L1L2_1_0_buff_0) : (memref<32x64xbf16>, memref<64x16x!aiex.bfp<"v8bfp16ebs8">>, memref<128x128xbf16>) -> ()
      aie.use_lock(%A_L2L1_0_1_cons_prod_lock_0, Release, 1)
      %39 = memref.load %_anonymous1[%c2] : memref<3xi32>
      %40 = arith.addi %39, %c1_i32 : i32
      %41 = arith.cmpi sge, %40, %c2_i32 : i32
      %42 = arith.subi %40, %c2_i32 : i32
      %43 = arith.select %41, %42, %40 : i32
      memref.store %43, %_anonymous1[%c2] : memref<3xi32>
      aie.use_lock(%B_L2L1_1_0_cons_prod_lock_0, Release, 1)
      %44 = memref.load %_anonymous1[%c1] : memref<3xi32>
      %45 = arith.addi %44, %c1_i32 : i32
      %46 = arith.cmpi sge, %45, %c2_i32 : i32
      %47 = arith.subi %45, %c2_i32 : i32
      %48 = arith.select %46, %47, %45 : i32
      memref.store %48, %_anonymous1[%c1] : memref<3xi32>
      %49 = arith.addi %2, %c1 : index
      cf.br ^bb3(%49 : index)
    ^bb25:  // pred: ^bb3
      aie.use_lock(%C_L1L2_1_0_cons_lock_0, Release, 1)
      %50 = memref.load %_anonymous1[%c0] : memref<3xi32>
      %51 = arith.addi %50, %c1_i32 : i32
      %52 = arith.cmpi sge, %51, %c1_i32 : i32
      %53 = arith.select %52, %50, %51 : i32
      memref.store %53, %_anonymous1[%c0] : memref<3xi32>
      aie.use_lock(%C_L1L2_1_0_prod_lock_0, AcquireGreaterEqual, 1)
      func.call @zero_kernel_bf16(%C_L1L2_1_0_buff_0) : (memref<128x128xbf16>) -> ()
      cf.br ^bb26(%c0 : index)
    ^bb26(%54: index):  // 2 preds: ^bb25, ^bb47
      %55 = arith.cmpi slt, %54, %c16 : index
      cf.cond_br %55, ^bb27, ^bb48
    ^bb27:  // pred: ^bb26
      aie.use_lock(%B_L2L1_1_0_cons_cons_lock_0, AcquireGreaterEqual, 1)
      %56 = memref.load %_anonymous1[%c1] : memref<3xi32>
      %57 = arith.index_cast %56 : i32 to index
      %58 = arith.index_cast %57 : index to i32
      cf.switch %58 : i32, [
        default: ^bb30,
        0: ^bb28,
        1: ^bb29
      ]
    ^bb28:  // pred: ^bb27
      cf.br ^bb31(%B_L2L1_1_0_cons_buff_0 : memref<64x16x!aiex.bfp<"v8bfp16ebs8">>)
    ^bb29:  // pred: ^bb27
      cf.br ^bb31(%B_L2L1_1_0_cons_buff_1 : memref<64x16x!aiex.bfp<"v8bfp16ebs8">>)
    ^bb30:  // pred: ^bb27
      cf.br ^bb31(%B_L2L1_1_0_cons_buff_0 : memref<64x16x!aiex.bfp<"v8bfp16ebs8">>)
    ^bb31(%59: memref<64x16x!aiex.bfp<"v8bfp16ebs8">>):  // 3 preds: ^bb28, ^bb29, ^bb30
      aie.use_lock(%A_L2L1_0_1_cons_cons_lock_0, AcquireGreaterEqual, 1)
      %60 = memref.load %_anonymous1[%c2] : memref<3xi32>
      %61 = arith.index_cast %60 : i32 to index
      %62 = arith.index_cast %61 : index to i32
      cf.switch %62 : i32, [
        default: ^bb34,
        0: ^bb32,
        1: ^bb33
      ]
    ^bb32:  // pred: ^bb31
      cf.br ^bb35(%A_L2L1_0_1_cons_buff_0 : memref<32x64xbf16>)
    ^bb33:  // pred: ^bb31
      cf.br ^bb35(%A_L2L1_0_1_cons_buff_1 : memref<32x64xbf16>)
    ^bb34:  // pred: ^bb31
      cf.br ^bb35(%A_L2L1_0_1_cons_buff_0 : memref<32x64xbf16>)
    ^bb35(%63: memref<32x64xbf16>):  // 3 preds: ^bb32, ^bb33, ^bb34
      func.call @matmul_vectorized_different_datatypes(%63, %59, %C_L1L2_1_0_buff_0) : (memref<32x64xbf16>, memref<64x16x!aiex.bfp<"v8bfp16ebs8">>, memref<128x128xbf16>) -> ()
      aie.use_lock(%A_L2L1_0_1_cons_prod_lock_0, Release, 1)
      %64 = memref.load %_anonymous1[%c2] : memref<3xi32>
      %65 = arith.addi %64, %c1_i32 : i32
      %66 = arith.cmpi sge, %65, %c2_i32 : i32
      %67 = arith.subi %65, %c2_i32 : i32
      %68 = arith.select %66, %67, %65 : i32
      memref.store %68, %_anonymous1[%c2] : memref<3xi32>
      aie.use_lock(%A_L2L1_0_1_cons_cons_lock_0, AcquireGreaterEqual, 1)
      %69 = memref.load %_anonymous1[%c2] : memref<3xi32>
      %70 = arith.index_cast %69 : i32 to index
      %71 = arith.index_cast %70 : index to i32
      cf.switch %71 : i32, [
        default: ^bb38,
        0: ^bb36,
        1: ^bb37
      ]
    ^bb36:  // pred: ^bb35
      cf.br ^bb39(%A_L2L1_0_1_cons_buff_0 : memref<32x64xbf16>)
    ^bb37:  // pred: ^bb35
      cf.br ^bb39(%A_L2L1_0_1_cons_buff_1 : memref<32x64xbf16>)
    ^bb38:  // pred: ^bb35
      cf.br ^bb39(%A_L2L1_0_1_cons_buff_0 : memref<32x64xbf16>)
    ^bb39(%72: memref<32x64xbf16>):  // 3 preds: ^bb36, ^bb37, ^bb38
      func.call @matmul_vectorized_different_datatypes(%72, %59, %C_L1L2_1_0_buff_0) : (memref<32x64xbf16>, memref<64x16x!aiex.bfp<"v8bfp16ebs8">>, memref<128x128xbf16>) -> ()
      aie.use_lock(%A_L2L1_0_1_cons_prod_lock_0, Release, 1)
      %73 = memref.load %_anonymous1[%c2] : memref<3xi32>
      %74 = arith.addi %73, %c1_i32 : i32
      %75 = arith.cmpi sge, %74, %c2_i32 : i32
      %76 = arith.subi %74, %c2_i32 : i32
      %77 = arith.select %75, %76, %74 : i32
      memref.store %77, %_anonymous1[%c2] : memref<3xi32>
      aie.use_lock(%A_L2L1_0_1_cons_cons_lock_0, AcquireGreaterEqual, 1)
      %78 = memref.load %_anonymous1[%c2] : memref<3xi32>
      %79 = arith.index_cast %78 : i32 to index
      %80 = arith.index_cast %79 : index to i32
      cf.switch %80 : i32, [
        default: ^bb42,
        0: ^bb40,
        1: ^bb41
      ]
    ^bb40:  // pred: ^bb39
      cf.br ^bb43(%A_L2L1_0_1_cons_buff_0 : memref<32x64xbf16>)
    ^bb41:  // pred: ^bb39
      cf.br ^bb43(%A_L2L1_0_1_cons_buff_1 : memref<32x64xbf16>)
    ^bb42:  // pred: ^bb39
      cf.br ^bb43(%A_L2L1_0_1_cons_buff_0 : memref<32x64xbf16>)
    ^bb43(%81: memref<32x64xbf16>):  // 3 preds: ^bb40, ^bb41, ^bb42
      func.call @matmul_vectorized_different_datatypes(%81, %59, %C_L1L2_1_0_buff_0) : (memref<32x64xbf16>, memref<64x16x!aiex.bfp<"v8bfp16ebs8">>, memref<128x128xbf16>) -> ()
      aie.use_lock(%A_L2L1_0_1_cons_prod_lock_0, Release, 1)
      %82 = memref.load %_anonymous1[%c2] : memref<3xi32>
      %83 = arith.addi %82, %c1_i32 : i32
      %84 = arith.cmpi sge, %83, %c2_i32 : i32
      %85 = arith.subi %83, %c2_i32 : i32
      %86 = arith.select %84, %85, %83 : i32
      memref.store %86, %_anonymous1[%c2] : memref<3xi32>
      aie.use_lock(%A_L2L1_0_1_cons_cons_lock_0, AcquireGreaterEqual, 1)
      %87 = memref.load %_anonymous1[%c2] : memref<3xi32>
      %88 = arith.index_cast %87 : i32 to index
      %89 = arith.index_cast %88 : index to i32
      cf.switch %89 : i32, [
        default: ^bb46,
        0: ^bb44,
        1: ^bb45
      ]
    ^bb44:  // pred: ^bb43
      cf.br ^bb47(%A_L2L1_0_1_cons_buff_0 : memref<32x64xbf16>)
    ^bb45:  // pred: ^bb43
      cf.br ^bb47(%A_L2L1_0_1_cons_buff_1 : memref<32x64xbf16>)
    ^bb46:  // pred: ^bb43
      cf.br ^bb47(%A_L2L1_0_1_cons_buff_0 : memref<32x64xbf16>)
    ^bb47(%90: memref<32x64xbf16>):  // 3 preds: ^bb44, ^bb45, ^bb46
      func.call @matmul_vectorized_different_datatypes(%90, %59, %C_L1L2_1_0_buff_0) : (memref<32x64xbf16>, memref<64x16x!aiex.bfp<"v8bfp16ebs8">>, memref<128x128xbf16>) -> ()
      aie.use_lock(%A_L2L1_0_1_cons_prod_lock_0, Release, 1)
      %91 = memref.load %_anonymous1[%c2] : memref<3xi32>
      %92 = arith.addi %91, %c1_i32 : i32
      %93 = arith.cmpi sge, %92, %c2_i32 : i32
      %94 = arith.subi %92, %c2_i32 : i32
      %95 = arith.select %93, %94, %92 : i32
      memref.store %95, %_anonymous1[%c2] : memref<3xi32>
      aie.use_lock(%B_L2L1_1_0_cons_prod_lock_0, Release, 1)
      %96 = memref.load %_anonymous1[%c1] : memref<3xi32>
      %97 = arith.addi %96, %c1_i32 : i32
      %98 = arith.cmpi sge, %97, %c2_i32 : i32
      %99 = arith.subi %97, %c2_i32 : i32
      %100 = arith.select %98, %99, %97 : i32
      memref.store %100, %_anonymous1[%c1] : memref<3xi32>
      %101 = arith.addi %54, %c1 : index
      cf.br ^bb26(%101 : index)
    ^bb48:  // pred: ^bb26
      aie.use_lock(%C_L1L2_1_0_cons_lock_0, Release, 1)
      %102 = memref.load %_anonymous1[%c0] : memref<3xi32>
      %103 = arith.addi %102, %c1_i32 : i32
      %104 = arith.cmpi sge, %103, %c1_i32 : i32
      %105 = arith.select %104, %102, %103 : i32
      memref.store %105, %_anonymous1[%c0] : memref<3xi32>
      aie.use_lock(%C_L1L2_1_0_prod_lock_0, AcquireGreaterEqual, 1)
      func.call @zero_kernel_bf16(%C_L1L2_1_0_buff_0) : (memref<128x128xbf16>) -> ()
      cf.br ^bb49(%c0 : index)
    ^bb49(%106: index):  // 2 preds: ^bb48, ^bb70
      %107 = arith.cmpi slt, %106, %c16 : index
      cf.cond_br %107, ^bb50, ^bb71
    ^bb50:  // pred: ^bb49
      aie.use_lock(%B_L2L1_1_0_cons_cons_lock_0, AcquireGreaterEqual, 1)
      %108 = memref.load %_anonymous1[%c1] : memref<3xi32>
      %109 = arith.index_cast %108 : i32 to index
      %110 = arith.index_cast %109 : index to i32
      cf.switch %110 : i32, [
        default: ^bb53,
        0: ^bb51,
        1: ^bb52
      ]
    ^bb51:  // pred: ^bb50
      cf.br ^bb54(%B_L2L1_1_0_cons_buff_0 : memref<64x16x!aiex.bfp<"v8bfp16ebs8">>)
    ^bb52:  // pred: ^bb50
      cf.br ^bb54(%B_L2L1_1_0_cons_buff_1 : memref<64x16x!aiex.bfp<"v8bfp16ebs8">>)
    ^bb53:  // pred: ^bb50
      cf.br ^bb54(%B_L2L1_1_0_cons_buff_0 : memref<64x16x!aiex.bfp<"v8bfp16ebs8">>)
    ^bb54(%111: memref<64x16x!aiex.bfp<"v8bfp16ebs8">>):  // 3 preds: ^bb51, ^bb52, ^bb53
      aie.use_lock(%A_L2L1_0_1_cons_cons_lock_0, AcquireGreaterEqual, 1)
      %112 = memref.load %_anonymous1[%c2] : memref<3xi32>
      %113 = arith.index_cast %112 : i32 to index
      %114 = arith.index_cast %113 : index to i32
      cf.switch %114 : i32, [
        default: ^bb57,
        0: ^bb55,
        1: ^bb56
      ]
    ^bb55:  // pred: ^bb54
      cf.br ^bb58(%A_L2L1_0_1_cons_buff_0 : memref<32x64xbf16>)
    ^bb56:  // pred: ^bb54
      cf.br ^bb58(%A_L2L1_0_1_cons_buff_1 : memref<32x64xbf16>)
    ^bb57:  // pred: ^bb54
      cf.br ^bb58(%A_L2L1_0_1_cons_buff_0 : memref<32x64xbf16>)
    ^bb58(%115: memref<32x64xbf16>):  // 3 preds: ^bb55, ^bb56, ^bb57
      func.call @matmul_vectorized_different_datatypes(%115, %111, %C_L1L2_1_0_buff_0) : (memref<32x64xbf16>, memref<64x16x!aiex.bfp<"v8bfp16ebs8">>, memref<128x128xbf16>) -> ()
      aie.use_lock(%A_L2L1_0_1_cons_prod_lock_0, Release, 1)
      %116 = memref.load %_anonymous1[%c2] : memref<3xi32>
      %117 = arith.addi %116, %c1_i32 : i32
      %118 = arith.cmpi sge, %117, %c2_i32 : i32
      %119 = arith.subi %117, %c2_i32 : i32
      %120 = arith.select %118, %119, %117 : i32
      memref.store %120, %_anonymous1[%c2] : memref<3xi32>
      aie.use_lock(%A_L2L1_0_1_cons_cons_lock_0, AcquireGreaterEqual, 1)
      %121 = memref.load %_anonymous1[%c2] : memref<3xi32>
      %122 = arith.index_cast %121 : i32 to index
      %123 = arith.index_cast %122 : index to i32
      cf.switch %123 : i32, [
        default: ^bb61,
        0: ^bb59,
        1: ^bb60
      ]
    ^bb59:  // pred: ^bb58
      cf.br ^bb62(%A_L2L1_0_1_cons_buff_0 : memref<32x64xbf16>)
    ^bb60:  // pred: ^bb58
      cf.br ^bb62(%A_L2L1_0_1_cons_buff_1 : memref<32x64xbf16>)
    ^bb61:  // pred: ^bb58
      cf.br ^bb62(%A_L2L1_0_1_cons_buff_0 : memref<32x64xbf16>)
    ^bb62(%124: memref<32x64xbf16>):  // 3 preds: ^bb59, ^bb60, ^bb61
      func.call @matmul_vectorized_different_datatypes(%124, %111, %C_L1L2_1_0_buff_0) : (memref<32x64xbf16>, memref<64x16x!aiex.bfp<"v8bfp16ebs8">>, memref<128x128xbf16>) -> ()
      aie.use_lock(%A_L2L1_0_1_cons_prod_lock_0, Release, 1)
      %125 = memref.load %_anonymous1[%c2] : memref<3xi32>
      %126 = arith.addi %125, %c1_i32 : i32
      %127 = arith.cmpi sge, %126, %c2_i32 : i32
      %128 = arith.subi %126, %c2_i32 : i32
      %129 = arith.select %127, %128, %126 : i32
      memref.store %129, %_anonymous1[%c2] : memref<3xi32>
      aie.use_lock(%A_L2L1_0_1_cons_cons_lock_0, AcquireGreaterEqual, 1)
      %130 = memref.load %_anonymous1[%c2] : memref<3xi32>
      %131 = arith.index_cast %130 : i32 to index
      %132 = arith.index_cast %131 : index to i32
      cf.switch %132 : i32, [
        default: ^bb65,
        0: ^bb63,
        1: ^bb64
      ]
    ^bb63:  // pred: ^bb62
      cf.br ^bb66(%A_L2L1_0_1_cons_buff_0 : memref<32x64xbf16>)
    ^bb64:  // pred: ^bb62
      cf.br ^bb66(%A_L2L1_0_1_cons_buff_1 : memref<32x64xbf16>)
    ^bb65:  // pred: ^bb62
      cf.br ^bb66(%A_L2L1_0_1_cons_buff_0 : memref<32x64xbf16>)
    ^bb66(%133: memref<32x64xbf16>):  // 3 preds: ^bb63, ^bb64, ^bb65
      func.call @matmul_vectorized_different_datatypes(%133, %111, %C_L1L2_1_0_buff_0) : (memref<32x64xbf16>, memref<64x16x!aiex.bfp<"v8bfp16ebs8">>, memref<128x128xbf16>) -> ()
      aie.use_lock(%A_L2L1_0_1_cons_prod_lock_0, Release, 1)
      %134 = memref.load %_anonymous1[%c2] : memref<3xi32>
      %135 = arith.addi %134, %c1_i32 : i32
      %136 = arith.cmpi sge, %135, %c2_i32 : i32
      %137 = arith.subi %135, %c2_i32 : i32
      %138 = arith.select %136, %137, %135 : i32
      memref.store %138, %_anonymous1[%c2] : memref<3xi32>
      aie.use_lock(%A_L2L1_0_1_cons_cons_lock_0, AcquireGreaterEqual, 1)
      %139 = memref.load %_anonymous1[%c2] : memref<3xi32>
      %140 = arith.index_cast %139 : i32 to index
…
      aie.dma_bd(%C_L2L3_6_buff_0 : memref<512x128xbf16>, 16384, 16384, [<size = 16, stride = 1024>, <size = 8, stride = 8>, <size = 16, stride = 64>, <size = 8, stride = 1>]) {bd_id = 9 : i32, next_bd_id = 10 : i32}
      aie.use_lock(%C_L2L3_6_prod_lock_1, Release, 1)
      aie.next_bd ^bb27
    ^bb27:  // pred: ^bb26
      aie.use_lock(%C_L2L3_6_cons_lock_2, AcquireGreaterEqual, 1)
      aie.dma_bd(%C_L2L3_6_buff_0 : memref<512x128xbf16>, 32768, 16384, [<size = 16, stride = 1024>, <size = 8, stride = 8>, <size = 16, stride = 64>, <size = 8, stride = 1>]) {bd_id = 10 : i32, next_bd_id = 11 : i32}
      aie.use_lock(%C_L2L3_6_prod_lock_2, Release, 1)
      aie.next_bd ^bb28
    ^bb28:  // pred: ^bb27
      aie.use_lock(%C_L2L3_6_cons_lock_3, AcquireGreaterEqual, 1)
      aie.dma_bd(%C_L2L3_6_buff_0 : memref<512x128xbf16>, 49152, 16384, [<size = 16, stride = 1024>, <size = 8, stride = 8>, <size = 16, stride = 64>, <size = 8, stride = 1>]) {bd_id = 11 : i32, next_bd_id = 12 : i32}
      aie.use_lock(%C_L2L3_6_prod_lock_3, Release, 1)
      aie.next_bd ^bb29
    ^bb29:  // pred: ^bb28
      aie.use_lock(%C_L2L3_6_cons_lock_0, AcquireGreaterEqual, 1)
      aie.dma_bd(%C_L2L3_6_buff_1 : memref<512x128xbf16>, 0, 16384, [<size = 16, stride = 1024>, <size = 8, stride = 8>, <size = 16, stride = 64>, <size = 8, stride = 1>]) {bd_id = 12 : i32, next_bd_id = 13 : i32}
      aie.use_lock(%C_L2L3_6_prod_lock_0, Release, 1)
      aie.next_bd ^bb30
    ^bb30:  // pred: ^bb29
      aie.use_lock(%C_L2L3_6_cons_lock_1, AcquireGreaterEqual, 1)
      aie.dma_bd(%C_L2L3_6_buff_1 : memref<512x128xbf16>, 16384, 16384, [<size = 16, stride = 1024>, <size = 8, stride = 8>, <size = 16, stride = 64>, <size = 8, stride = 1>]) {bd_id = 13 : i32, next_bd_id = 14 : i32}
      aie.use_lock(%C_L2L3_6_prod_lock_1, Release, 1)
      aie.next_bd ^bb31
    ^bb31:  // pred: ^bb30
      aie.use_lock(%C_L2L3_6_cons_lock_2, AcquireGreaterEqual, 1)
      aie.dma_bd(%C_L2L3_6_buff_1 : memref<512x128xbf16>, 32768, 16384, [<size = 16, stride = 1024>, <size = 8, stride = 8>, <size = 16, stride = 64>, <size = 8, stride = 1>]) {bd_id = 14 : i32, next_bd_id = 15 : i32}
      aie.use_lock(%C_L2L3_6_prod_lock_2, Release, 1)
      aie.next_bd ^bb32
    ^bb32:  // pred: ^bb31
      aie.use_lock(%C_L2L3_6_cons_lock_3, AcquireGreaterEqual, 1)
      aie.dma_bd(%C_L2L3_6_buff_1 : memref<512x128xbf16>, 49152, 16384, [<size = 16, stride = 1024>, <size = 8, stride = 8>, <size = 16, stride = 64>, <size = 8, stride = 1>]) {bd_id = 15 : i32, next_bd_id = 8 : i32}
      aie.use_lock(%C_L2L3_6_prod_lock_3, Release, 1)
      aie.next_bd ^bb25
    ^bb33:  // pred: ^bb24
      aie.end
    }
    %mem_0_5 = aie.mem(%tile_0_5) {
      %0 = aie.dma_start(S2MM, 0, ^bb1, ^bb3)
    ^bb1:  // 2 preds: ^bb0, ^bb2
      aie.use_lock(%A_L2L1_3_0_cons_prod_lock_0, AcquireGreaterEqual, 1)
      aie.dma_bd(%A_L2L1_3_0_cons_buff_0 : memref<32x64xbf16>, 0, 2048, [<size = 8, stride = 64>, <size = 4, stride = 512>, <size = 64, stride = 1>]) {bd_id = 0 : i32, next_bd_id = 1 : i32}
      aie.use_lock(%A_L2L1_3_0_cons_cons_lock_0, Release, 1)
      aie.next_bd ^bb2
    ^bb2:  // pred: ^bb1
      aie.use_lock(%A_L2L1_3_0_cons_prod_lock_0, AcquireGreaterEqual, 1)
      aie.dma_bd(%A_L2L1_3_0_cons_buff_1 : memref<32x64xbf16>, 0, 2048, [<size = 8, stride = 64>, <size = 4, stride = 512>, <size = 64, stride = 1>]) {bd_id = 1 : i32, next_bd_id = 0 : i32}
      aie.use_lock(%A_L2L1_3_0_cons_cons_lock_0, Release, 1)
      aie.next_bd ^bb1
    ^bb3:  // pred: ^bb0
      %1 = aie.dma_start(S2MM, 1, ^bb4, ^bb6)
    ^bb4:  // 2 preds: ^bb3, ^bb5
      aie.use_lock(%B_L2L1_0_3_cons_prod_lock_0, AcquireGreaterEqual, 1)
      aie.dma_bd(%B_L2L1_0_3_cons_buff_0 : memref<64x16x!aiex.bfp<"v8bfp16ebs8">>, 0, 1024) {bd_id = 2 : i32, next_bd_id = 3 : i32}
      aie.use_lock(%B_L2L1_0_3_cons_cons_lock_0, Release, 1)
      aie.next_bd ^bb5
    ^bb5:  // pred: ^bb4
      aie.use_lock(%B_L2L1_0_3_cons_prod_lock_0, AcquireGreaterEqual, 1)
      aie.dma_bd(%B_L2L1_0_3_cons_buff_1 : memref<64x16x!aiex.bfp<"v8bfp16ebs8">>, 0, 1024) {bd_id = 3 : i32, next_bd_id = 2 : i32}
      aie.use_lock(%B_L2L1_0_3_cons_cons_lock_0, Release, 1)
      aie.next_bd ^bb4
    ^bb6:  // pred: ^bb3
      %2 = aie.dma_start(MM2S, 0, ^bb7, ^bb8)
    ^bb7:  // 2 preds: ^bb6, ^bb7
      aie.use_lock(%C_L1L2_0_3_cons_lock_0, AcquireGreaterEqual, 1)
      aie.dma_bd(%C_L1L2_0_3_buff_0 : memref<128x128xbf16>, 0, 16384) {bd_id = 4 : i32, next_bd_id = 4 : i32}
      aie.use_lock(%C_L1L2_0_3_prod_lock_0, Release, 1)
      aie.next_bd ^bb7
    ^bb8:  // pred: ^bb6
      aie.end
    }
    %mem_1_5 = aie.mem(%tile_1_5) {
      %0 = aie.dma_start(S2MM, 0, ^bb1, ^bb3)
    ^bb1:  // 2 preds: ^bb0, ^bb2
      aie.use_lock(%A_L2L1_3_1_cons_prod_lock_0, AcquireGreaterEqual, 1)
      aie.dma_bd(%A_L2L1_3_1_cons_buff_0 : memref<32x64xbf16>, 0, 2048, [<size = 8, stride = 64>, <size = 4, stride = 512>, <size = 64, stride = 1>]) {bd_id = 0 : i32, next_bd_id = 1 : i32}
      aie.use_lock(%A_L2L1_3_1_cons_cons_lock_0, Release, 1)
      aie.next_bd ^bb2
    ^bb2:  // pred: ^bb1
      aie.use_lock(%A_L2L1_3_1_cons_prod_lock_0, AcquireGreaterEqual, 1)
      aie.dma_bd(%A_L2L1_3_1_cons_buff_1 : memref<32x64xbf16>, 0, 2048, [<size = 8, stride = 64>, <size = 4, stride = 512>, <size = 64, stride = 1>]) {bd_id = 1 : i32, next_bd_id = 0 : i32}
      aie.use_lock(%A_L2L1_3_1_cons_cons_lock_0, Release, 1)
      aie.next_bd ^bb1
    ^bb3:  // pred: ^bb0
      %1 = aie.dma_start(S2MM, 1, ^bb4, ^bb6)
    ^bb4:  // 2 preds: ^bb3, ^bb5
      aie.use_lock(%B_L2L1_1_3_cons_prod_lock_0, AcquireGreaterEqual, 1)
      aie.dma_bd(%B_L2L1_1_3_cons_buff_0 : memref<64x16x!aiex.bfp<"v8bfp16ebs8">>, 0, 1024) {bd_id = 2 : i32, next_bd_id = 3 : i32}
      aie.use_lock(%B_L2L1_1_3_cons_cons_lock_0, Release, 1)
      aie.next_bd ^bb5
    ^bb5:  // pred: ^bb4
      aie.use_lock(%B_L2L1_1_3_cons_prod_lock_0, AcquireGreaterEqual, 1)
      aie.dma_bd(%B_L2L1_1_3_cons_buff_1 : memref<64x16x!aiex.bfp<"v8bfp16ebs8">>, 0, 1024) {bd_id = 3 : i32, next_bd_id = 2 : i32}
      aie.use_lock(%B_L2L1_1_3_cons_cons_lock_0, Release, 1)
      aie.next_bd ^bb4
    ^bb6:  // pred: ^bb3
      %2 = aie.dma_start(MM2S, 0, ^bb7, ^bb8)
    ^bb7:  // 2 preds: ^bb6, ^bb7
      aie.use_lock(%C_L1L2_1_3_cons_lock_0, AcquireGreaterEqual, 1)
      aie.dma_bd(%C_L1L2_1_3_buff_0 : memref<128x128xbf16>, 0, 16384) {bd_id = 4 : i32, next_bd_id = 4 : i32}
      aie.use_lock(%C_L1L2_1_3_prod_lock_0, Release, 1)
      aie.next_bd ^bb7
    ^bb8:  // pred: ^bb6
      aie.end
    }
    %mem_2_5 = aie.mem(%tile_2_5) {
      %0 = aie.dma_start(S2MM, 0, ^bb1, ^bb3)
    ^bb1:  // 2 preds: ^bb0, ^bb2
      aie.use_lock(%A_L2L1_3_2_cons_prod_lock_0, AcquireGreaterEqual, 1)
      aie.dma_bd(%A_L2L1_3_2_cons_buff_0 : memref<32x64xbf16>, 0, 2048, [<size = 8, stride = 64>, <size = 4, stride = 512>, <size = 64, stride = 1>]) {bd_id = 0 : i32, next_bd_id = 1 : i32}
      aie.use_lock(%A_L2L1_3_2_cons_cons_lock_0, Release, 1)
      aie.next_bd ^bb2
    ^bb2:  // pred: ^bb1
      aie.use_lock(%A_L2L1_3_2_cons_prod_lock_0, AcquireGreaterEqual, 1)
      aie.dma_bd(%A_L2L1_3_2_cons_buff_1 : memref<32x64xbf16>, 0, 2048, [<size = 8, stride = 64>, <size = 4, stride = 512>, <size = 64, stride = 1>]) {bd_id = 1 : i32, next_bd_id = 0 : i32}
      aie.use_lock(%A_L2L1_3_2_cons_cons_lock_0, Release, 1)
      aie.next_bd ^bb1
    ^bb3:  // pred: ^bb0
      %1 = aie.dma_start(S2MM, 1, ^bb4, ^bb6)
    ^bb4:  // 2 preds: ^bb3, ^bb5
      aie.use_lock(%B_L2L1_2_3_cons_prod_lock_0, AcquireGreaterEqual, 1)
      aie.dma_bd(%B_L2L1_2_3_cons_buff_0 : memref<64x16x!aiex.bfp<"v8bfp16ebs8">>, 0, 1024) {bd_id = 2 : i32, next_bd_id = 3 : i32}
      aie.use_lock(%B_L2L1_2_3_cons_cons_lock_0, Release, 1)
      aie.next_bd ^bb5
    ^bb5:  // pred: ^bb4
      aie.use_lock(%B_L2L1_2_3_cons_prod_lock_0, AcquireGreaterEqual, 1)
      aie.dma_bd(%B_L2L1_2_3_cons_buff_1 : memref<64x16x!aiex.bfp<"v8bfp16ebs8">>, 0, 1024) {bd_id = 3 : i32, next_bd_id = 2 : i32}
      aie.use_lock(%B_L2L1_2_3_cons_cons_lock_0, Release, 1)
      aie.next_bd ^bb4
    ^bb6:  // pred: ^bb3
      %2 = aie.dma_start(MM2S, 0, ^bb7, ^bb8)
    ^bb7:  // 2 preds: ^bb6, ^bb7
      aie.use_lock(%C_L1L2_2_3_cons_lock_0, AcquireGreaterEqual, 1)
      aie.dma_bd(%C_L1L2_2_3_buff_0 : memref<128x128xbf16>, 0, 16384) {bd_id = 4 : i32, next_bd_id = 4 : i32}
      aie.use_lock(%C_L1L2_2_3_prod_lock_0, Release, 1)
      aie.next_bd ^bb7
    ^bb8:  // pred: ^bb6
      aie.end
    }
    %mem_3_5 = aie.mem(%tile_3_5) {
      %0 = aie.dma_start(S2MM, 0, ^bb1, ^bb3)
    ^bb1:  // 2 preds: ^bb0, ^bb2
      aie.use_lock(%A_L2L1_3_3_cons_prod_lock_0, AcquireGreaterEqual, 1)
      aie.dma_bd(%A_L2L1_3_3_cons_buff_0 : memref<32x64xbf16>, 0, 2048, [<size = 8, stride = 64>, <size = 4, stride = 512>, <size = 64, stride = 1>]) {bd_id = 0 : i32, next_bd_id = 1 : i32}
      aie.use_lock(%A_L2L1_3_3_cons_cons_lock_0, Release, 1)
      aie.next_bd ^bb2
    ^bb2:  // pred: ^bb1
      aie.use_lock(%A_L2L1_3_3_cons_prod_lock_0, AcquireGreaterEqual, 1)
      aie.dma_bd(%A_L2L1_3_3_cons_buff_1 : memref<32x64xbf16>, 0, 2048, [<size = 8, stride = 64>, <size = 4, stride = 512>, <size = 64, stride = 1>]) {bd_id = 1 : i32, next_bd_id = 0 : i32}
      aie.use_lock(%A_L2L1_3_3_cons_cons_lock_0, Release, 1)
      aie.next_bd ^bb1
    ^bb3:  // pred: ^bb0
      %1 = aie.dma_start(S2MM, 1, ^bb4, ^bb6)
    ^bb4:  // 2 preds: ^bb3, ^bb5
      aie.use_lock(%B_L2L1_3_3_cons_prod_lock_0, AcquireGreaterEqual, 1)
      aie.dma_bd(%B_L2L1_3_3_cons_buff_0 : memref<64x16x!aiex.bfp<"v8bfp16ebs8">>, 0, 1024) {bd_id = 2 : i32, next_bd_id = 3 : i32}
      aie.use_lock(%B_L2L1_3_3_cons_cons_lock_0, Release, 1)
      aie.next_bd ^bb5
    ^bb5:  // pred: ^bb4
      aie.use_lock(%B_L2L1_3_3_cons_prod_lock_0, AcquireGreaterEqual, 1)
      aie.dma_bd(%B_L2L1_3_3_cons_buff_1 : memref<64x16x!aiex.bfp<"v8bfp16ebs8">>, 0, 1024) {bd_id = 3 : i32, next_bd_id = 2 : i32}
      aie.use_lock(%B_L2L1_3_3_cons_cons_lock_0, Release, 1)
      aie.next_bd ^bb4
    ^bb6:  // pred: ^bb3
      %2 = aie.dma_start(MM2S, 0, ^bb7, ^bb8)
    ^bb7:  // 2 preds: ^bb6, ^bb7
      aie.use_lock(%C_L1L2_3_3_cons_lock_0, AcquireGreaterEqual, 1)
      aie.dma_bd(%C_L1L2_3_3_buff_0 : memref<128x128xbf16>, 0, 16384) {bd_id = 4 : i32, next_bd_id = 4 : i32}
      aie.use_lock(%C_L1L2_3_3_prod_lock_0, Release, 1)
      aie.next_bd ^bb7
    ^bb8:  // pred: ^bb6
      aie.end
    }
    %mem_4_5 = aie.mem(%tile_4_5) {
      %0 = aie.dma_start(S2MM, 0, ^bb1, ^bb3)
    ^bb1:  // 2 preds: ^bb0, ^bb2
      aie.use_lock(%A_L2L1_3_4_cons_prod_lock_0, AcquireGreaterEqual, 1)
      aie.dma_bd(%A_L2L1_3_4_cons_buff_0 : memref<32x64xbf16>, 0, 2048, [<size = 8, stride = 64>, <size = 4, stride = 512>, <size = 64, stride = 1>]) {bd_id = 0 : i32, next_bd_id = 1 : i32}
      aie.use_lock(%A_L2L1_3_4_cons_cons_lock_0, Release, 1)
      aie.next_bd ^bb2
    ^bb2:  // pred: ^bb1
      aie.use_lock(%A_L2L1_3_4_cons_prod_lock_0, AcquireGreaterEqual, 1)
      aie.dma_bd(%A_L2L1_3_4_cons_buff_1 : memref<32x64xbf16>, 0, 2048, [<size = 8, stride = 64>, <size = 4, stride = 512>, <size = 64, stride = 1>]) {bd_id = 1 : i32, next_bd_id = 0 : i32}
      aie.use_lock(%A_L2L1_3_4_cons_cons_lock_0, Release, 1)
      aie.next_bd ^bb1
    ^bb3:  // pred: ^bb0
      %1 = aie.dma_start(S2MM, 1, ^bb4, ^bb6)
    ^bb4:  // 2 preds: ^bb3, ^bb5
      aie.use_lock(%B_L2L1_4_3_cons_prod_lock_0, AcquireGreaterEqual, 1)
      aie.dma_bd(%B_L2L1_4_3_cons_buff_0 : memref<64x16x!aiex.bfp<"v8bfp16ebs8">>, 0, 1024) {bd_id = 2 : i32, next_bd_id = 3 : i32}
      aie.use_lock(%B_L2L1_4_3_cons_cons_lock_0, Release, 1)
      aie.next_bd ^bb5
    ^bb5:  // pred: ^bb4
      aie.use_lock(%B_L2L1_4_3_cons_prod_lock_0, AcquireGreaterEqual, 1)
      aie.dma_bd(%B_L2L1_4_3_cons_buff_1 : memref<64x16x!aiex.bfp<"v8bfp16ebs8">>, 0, 1024) {bd_id = 3 : i32, next_bd_id = 2 : i32}
      aie.use_lock(%B_L2L1_4_3_cons_cons_lock_0, Release, 1)
      aie.next_bd ^bb4
    ^bb6:  // pred: ^bb3
      %2 = aie.dma_start(MM2S, 0, ^bb7, ^bb8)
    ^bb7:  // 2 preds: ^bb6, ^bb7
      aie.use_lock(%C_L1L2_4_3_cons_lock_0, AcquireGreaterEqual, 1)
      aie.dma_bd(%C_L1L2_4_3_buff_0 : memref<128x128xbf16>, 0, 16384) {bd_id = 4 : i32, next_bd_id = 4 : i32}
      aie.use_lock(%C_L1L2_4_3_prod_lock_0, Release, 1)
      aie.next_bd ^bb7
    ^bb8:  // pred: ^bb6
      aie.end
    }
    %mem_5_5 = aie.mem(%tile_5_5) {
      %0 = aie.dma_start(S2MM, 0, ^bb1, ^bb3)
    ^bb1:  // 2 preds: ^bb0, ^bb2
      aie.use_lock(%A_L2L1_3_5_cons_prod_lock_0, AcquireGreaterEqual, 1)
      aie.dma_bd(%A_L2L1_3_5_cons_buff_0 : memref<32x64xbf16>, 0, 2048, [<size = 8, stride = 64>, <size = 4, stride = 512>, <size = 64, stride = 1>]) {bd_id = 0 : i32, next_bd_id = 1 : i32}
      aie.use_lock(%A_L2L1_3_5_cons_cons_lock_0, Release, 1)
      aie.next_bd ^bb2
    ^bb2:  // pred: ^bb1
      aie.use_lock(%A_L2L1_3_5_cons_prod_lock_0, AcquireGreaterEqual, 1)
      aie.dma_bd(%A_L2L1_3_5_cons_buff_1 : memref<32x64xbf16>, 0, 2048, [<size = 8, stride = 64>, <size = 4, stride = 512>, <size = 64, stride = 1>]) {bd_id = 1 : i32, next_bd_id = 0 : i32}
      aie.use_lock(%A_L2L1_3_5_cons_cons_lock_0, Release, 1)
      aie.next_bd ^bb1
    ^bb3:  // pred: ^bb0
      %1 = aie.dma_start(S2MM, 1, ^bb4, ^bb6)
    ^bb4:  // 2 preds: ^bb3, ^bb5
      aie.use_lock(%B_L2L1_5_3_cons_prod_lock_0, AcquireGreaterEqual, 1)
      aie.dma_bd(%B_L2L1_5_3_cons_buff_0 : memref<64x16x!aiex.bfp<"v8bfp16ebs8">>, 0, 1024) {bd_id = 2 : i32, next_bd_id = 3 : i32}
      aie.use_lock(%B_L2L1_5_3_cons_cons_lock_0, Release, 1)
      aie.next_bd ^bb5
    ^bb5:  // pred: ^bb4
      aie.use_lock(%B_L2L1_5_3_cons_prod_lock_0, AcquireGreaterEqual, 1)
      aie.dma_bd(%B_L2L1_5_3_cons_buff_1 : memref<64x16x!aiex.bfp<"v8bfp16ebs8">>, 0, 1024) {bd_id = 3 : i32, next_bd_id = 2 : i32}
      aie.use_lock(%B_L2L1_5_3_cons_cons_lock_0, Release, 1)
      aie.next_bd ^bb4
    ^bb6:  // pred: ^bb3
      %2 = aie.dma_start(MM2S, 0, ^bb7, ^bb8)
    ^bb7:  // 2 preds: ^bb6, ^bb7
      aie.use_lock(%C_L1L2_5_3_cons_lock_0, AcquireGreaterEqual, 1)
      aie.dma_bd(%C_L1L2_5_3_buff_0 : memref<128x128xbf16>, 0, 16384) {bd_id = 4 : i32, next_bd_id = 4 : i32}
      aie.use_lock(%C_L1L2_5_3_prod_lock_0, Release, 1)
      aie.next_bd ^bb7
    ^bb8:  // pred: ^bb6
      aie.end
    }
    %mem_6_5 = aie.mem(%tile_6_5) {
      %0 = aie.dma_start(S2MM, 0, ^bb1, ^bb3)
    ^bb1:  // 2 preds: ^bb0, ^bb2
      aie.use_lock(%A_L2L1_3_6_cons_prod_lock_0, AcquireGreaterEqual, 1)
      aie.dma_bd(%A_L2L1_3_6_cons_buff_0 : memref<32x64xbf16>, 0, 2048, [<size = 8, stride = 64>, <size = 4, stride = 512>, <size = 64, stride = 1>]) {bd_id = 0 : i32, next_bd_id = 1 : i32}
      aie.use_lock(%A_L2L1_3_6_cons_cons_lock_0, Release, 1)
      aie.next_bd ^bb2
    ^bb2:  // pred: ^bb1
      aie.use_lock(%A_L2L1_3_6_cons_prod_lock_0, AcquireGreaterEqual, 1)
      aie.dma_bd(%A_L2L1_3_6_cons_buff_1 : memref<32x64xbf16>, 0, 2048, [<size = 8, stride = 64>, <size = 4, stride = 512>, <size = 64, stride = 1>]) {bd_id = 1 : i32, next_bd_id = 0 : i32}
      aie.use_lock(%A_L2L1_3_6_cons_cons_lock_0, Release, 1)
      aie.next_bd ^bb1
    ^bb3:  // pred: ^bb0
      %1 = aie.dma_start(S2MM, 1, ^bb4, ^bb6)
    ^bb4:  // 2 preds: ^bb3, ^bb5
      aie.use_lock(%B_L2L1_6_3_cons_prod_lock_0, AcquireGreaterEqual, 1)
      aie.dma_bd(%B_L2L1_6_3_cons_buff_0 : memref<64x16x!aiex.bfp<"v8bfp16ebs8">>, 0, 1024) {bd_id = 2 : i32, next_bd_id = 3 : i32}
      aie.use_lock(%B_L2L1_6_3_cons_cons_lock_0, Release, 1)
      aie.next_bd ^bb5
    ^bb5:  // pred: ^bb4
      aie.use_lock(%B_L2L1_6_3_cons_prod_lock_0, AcquireGreaterEqual, 1)
      aie.dma_bd(%B_L2L1_6_3_cons_buff_1 : memref<64x16x!aiex.bfp<"v8bfp16ebs8">>, 0, 1024) {bd_id = 3 : i32, next_bd_id = 2 : i32}
      aie.use_lock(%B_L2L1_6_3_cons_cons_lock_0, Release, 1)
      aie.next_bd ^bb4
    ^bb6:  // pred: ^bb3
      %2 = aie.dma_start(MM2S, 0, ^bb7, ^bb8)
    ^bb7:  // 2 preds: ^bb6, ^bb7
      aie.use_lock(%C_L1L2_6_3_cons_lock_0, AcquireGreaterEqual, 1)
      aie.dma_bd(%C_L1L2_6_3_buff_0 : memref<128x128xbf16>, 0, 16384) {bd_id = 4 : i32, next_bd_id = 4 : i32}
      aie.use_lock(%C_L1L2_6_3_prod_lock_0, Release, 1)
      aie.next_bd ^bb7
    ^bb8:  // pred: ^bb6
      aie.end
    }
    %mem_7_5 = aie.mem(%tile_7_5) {
      %0 = aie.dma_start(S2MM, 0, ^bb1, ^bb3)
    ^bb1:  // 2 preds: ^bb0, ^bb2
      aie.use_lock(%A_L2L1_3_7_cons_prod_lock_0, AcquireGreaterEqual, 1)
      aie.dma_bd(%A_L2L1_3_7_cons_buff_0 : memref<32x64xbf16>, 0, 2048, [<size = 8, stride = 64>, <size = 4, stride = 512>, <size = 64, stride = 1>]) {bd_id = 0 : i32, next_bd_id = 1 : i32}
      aie.use_lock(%A_L2L1_3_7_cons_cons_lock_0, Release, 1)
      aie.next_bd ^bb2
    ^bb2:  // pred: ^bb1
      aie.use_lock(%A_L2L1_3_7_cons_prod_lock_0, AcquireGreaterEqual, 1)
      aie.dma_bd(%A_L2L1_3_7_cons_buff_1 : memref<32x64xbf16>, 0, 2048, [<size = 8, stride = 64>, <size = 4, stride = 512>, <size = 64, stride = 1>]) {bd_id = 1 : i32, next_bd_id = 0 : i32}
      aie.use_lock(%A_L2L1_3_7_cons_cons_lock_0, Release, 1)
      aie.next_bd ^bb1
    ^bb3:  // pred: ^bb0
      %1 = aie.dma_start(S2MM, 1, ^bb4, ^bb6)
    ^bb4:  // 2 preds: ^bb3, ^bb5
      aie.use_lock(%B_L2L1_7_3_cons_prod_lock_0, AcquireGreaterEqual, 1)
      aie.dma_bd(%B_L2L1_7_3_cons_buff_0 : memref<64x16x!aiex.bfp<"v8bfp16ebs8">>, 0, 1024) {bd_id = 2 : i32, next_bd_id = 3 : i32}
      aie.use_lock(%B_L2L1_7_3_cons_cons_lock_0, Release, 1)
      aie.next_bd ^bb5
    ^bb5:  // pred: ^bb4
      aie.use_lock(%B_L2L1_7_3_cons_prod_lock_0, AcquireGreaterEqual, 1)
      aie.dma_bd(%B_L2L1_7_3_cons_buff_1 : memref<64x16x!aiex.bfp<"v8bfp16ebs8">>, 0, 1024) {bd_id = 3 : i32, next_bd_id = 2 : i32}
      aie.use_lock(%B_L2L1_7_3_cons_cons_lock_0, Release, 1)
      aie.next_bd ^bb4
    ^bb6:  // pred: ^bb3
      %2 = aie.dma_start(MM2S, 0, ^bb7, ^bb8)
    ^bb7:  // 2 preds: ^bb6, ^bb7
      aie.use_lock(%C_L1L2_7_3_cons_lock_0, AcquireGreaterEqual, 1)
      aie.dma_bd(%C_L1L2_7_3_buff_0 : memref<128x128xbf16>, 0, 16384) {bd_id = 4 : i32, next_bd_id = 4 : i32}
      aie.use_lock(%C_L1L2_7_3_prod_lock_0, Release, 1)
      aie.next_bd ^bb7
    ^bb8:  // pred: ^bb6
      aie.end
    }
    aie.shim_dma_allocation @B_L3L2_0_shim_alloc(%shim_noc_tile_0_0, MM2S, 1)
    aie.shim_dma_allocation @B_L3L2_1_shim_alloc(%shim_noc_tile_1_0, MM2S, 0)
    %memtile_dma_1_1 = aie.memtile_dma(%mem_tile_1_1) {
      %0 = aie.dma_start(S2MM, 0, ^bb1, ^bb3)
    ^bb1:  // 2 preds: ^bb0, ^bb2
      aie.use_lock(%B_L3L2_1_cons_prod_lock_0, AcquireGreaterEqual, 1)
      aie.dma_bd(%B_L3L2_1_cons_buff_0 : memref<64x16x!aiex.bfp<"v8bfp16ebs8">>, 0, 1024) {bd_id = 0 : i32, next_bd_id = 1 : i32}
      aie.use_lock(%B_L3L2_1_cons_cons_lock_0, Release, 1)
      aie.next_bd ^bb2
    ^bb2:  // pred: ^bb1
      aie.use_lock(%B_L3L2_1_cons_prod_lock_0, AcquireGreaterEqual, 1)
      aie.dma_bd(%B_L3L2_1_cons_buff_1 : memref<64x16x!aiex.bfp<"v8bfp16ebs8">>, 0, 1024) {bd_id = 1 : i32, next_bd_id = 0 : i32}
      aie.use_lock(%B_L3L2_1_cons_cons_lock_0, Release, 1)
      aie.next_bd ^bb1
    ^bb3:  // pred: ^bb0
      %1 = aie.dma_start(MM2S, 0, ^bb4, ^bb6)
    ^bb4:  // 2 preds: ^bb3, ^bb5
      aie.use_lock(%B_L3L2_1_cons_cons_lock_0, AcquireGreaterEqual, 1)
      aie.dma_bd(%B_L3L2_1_cons_buff_0 : memref<64x16x!aiex.bfp<"v8bfp16ebs8">>, 0, 1024) {bd_id = 2 : i32, next_bd_id = 3 : i32}
      aie.use_lock(%B_L3L2_1_cons_prod_lock_0, Release, 1)
      aie.next_bd ^bb5
    ^bb5:  // pred: ^bb4
      aie.use_lock(%B_L3L2_1_cons_cons_lock_0, AcquireGreaterEqual, 1)
      aie.dma_bd(%B_L3L2_1_cons_buff_1 : memref<64x16x!aiex.bfp<"v8bfp16ebs8">>, 0, 1024) {bd_id = 3 : i32, next_bd_id = 2 : i32}
      aie.use_lock(%B_L3L2_1_cons_prod_lock_0, Release, 1)
      aie.next_bd ^bb4
    ^bb6:  // pred: ^bb3
      %2 = aie.dma_start(S2MM, 1, ^bb7, ^bb9)
    ^bb7:  // 2 preds: ^bb6, ^bb8
      aie.use_lock(%C_L2L3_1_prod_lock_0, AcquireGreaterEqual, 1)
      aie.dma_bd(%C_L2L3_1_buff_0 : memref<512x128xbf16>, 0, 16384) {bd_id = 24 : i32, next_bd_id = 25 : i32}
      aie.use_lock(%C_L2L3_1_cons_lock_0, Release, 1)
      aie.next_bd ^bb8
    ^bb8:  // pred: ^bb7
      aie.use_lock(%C_L2L3_1_prod_lock_0, AcquireGreaterEqual, 1)
      aie.dma_bd(%C_L2L3_1_buff_1 : memref<512x128xbf16>, 0, 16384) {bd_id = 25 : i32, next_bd_id = 24 : i32}
      aie.use_lock(%C_L2L3_1_cons_lock_0, Release, 1)
      aie.next_bd ^bb7
    ^bb9:  // pred: ^bb6
      %3 = aie.dma_start(S2MM, 2, ^bb10, ^bb12)
    ^bb10:  // 2 preds: ^bb9, ^bb11
      aie.use_lock(%C_L2L3_1_prod_lock_1, AcquireGreaterEqual, 1)
      aie.dma_bd(%C_L2L3_1_buff_0 : memref<512x128xbf16>, 16384, 16384) {bd_id = 4 : i32, next_bd_id = 5 : i32}
      aie.use_lock(%C_L2L3_1_cons_lock_1, Release, 1)
      aie.next_bd ^bb11
    ^bb11:  // pred: ^bb10
      aie.use_lock(%C_L2L3_1_prod_lock_1, AcquireGreaterEqual, 1)
      aie.dma_bd(%C_L2L3_1_buff_1 : memref<512x128xbf16>, 16384, 16384) {bd_id = 5 : i32, next_bd_id = 4 : i32}
      aie.use_lock(%C_L2L3_1_cons_lock_1, Release, 1)
      aie.next_bd ^bb10
    ^bb12:  // pred: ^bb9
      %4 = aie.dma_start(S2MM, 3, ^bb13, ^bb15)
    ^bb13:  // 2 preds: ^bb12, ^bb14
      aie.use_lock(%C_L2L3_1_prod_lock_2, AcquireGreaterEqual, 1)
      aie.dma_bd(%C_L2L3_1_buff_0 : memref<512x128xbf16>, 32768, 16384) {bd_id = 26 : i32, next_bd_id = 27 : i32}
      aie.use_lock(%C_L2L3_1_cons_lock_2, Release, 1)
      aie.next_bd ^bb14
    ^bb14:  // pred: ^bb13
      aie.use_lock(%C_L2L3_1_prod_lock_2, AcquireGreaterEqual, 1)
      aie.dma_bd(%C_L2L3_1_buff_1 : memref<512x128xbf16>, 32768, 16384) {bd_id = 27 : i32, next_bd_id = 26 : i32}
      aie.use_lock(%C_L2L3_1_cons_lock_2, Release, 1)
      aie.next_bd ^bb13
    ^bb15:  // pred: ^bb12
      %5 = aie.dma_start(S2MM, 4, ^bb16, ^bb18)
    ^bb16:  // 2 preds: ^bb15, ^bb17
      aie.use_lock(%C_L2L3_1_prod_lock_3, AcquireGreaterEqual, 1)
      aie.dma_bd(%C_L2L3_1_buff_0 : memref<512x128xbf16>, 49152, 16384) {bd_id = 6 : i32, next_bd_id = 7 : i32}
      aie.use_lock(%C_L2L3_1_cons_lock_3, Release, 1)
      aie.next_bd ^bb17
    ^bb17:  // pred: ^bb16
      aie.use_lock(%C_L2L3_1_prod_lock_3, AcquireGreaterEqual, 1)
      aie.dma_bd(%C_L2L3_1_buff_1 : memref<512x128xbf16>, 49152, 16384) {bd_id = 7 : i32, next_bd_id = 6 : i32}
      aie.use_lock(%C_L2L3_1_cons_lock_3, Release, 1)
      aie.next_bd ^bb16
    ^bb18:  // pred: ^bb15
      %6 = aie.dma_start(MM2S, 1, ^bb19, ^bb27)
    ^bb19:  // 2 preds: ^bb18, ^bb26
      aie.use_lock(%C_L2L3_1_cons_lock_0, AcquireGreaterEqual, 1)
      aie.dma_bd(%C_L2L3_1_buff_0 : memref<512x128xbf16>, 0, 16384, [<size = 16, stride = 1024>, <size = 8, stride = 8>, <size = 16, stride = 64>, <size = 8, stride = 1>]) {bd_id = 28 : i32, next_bd_id = 29 : i32}
      aie.use_lock(%C_L2L3_1_prod_lock_0, Release, 1)
      aie.next_bd ^bb20
    ^bb20:  // pred: ^bb19
      aie.use_lock(%C_L2L3_1_cons_lock_1, AcquireGreaterEqual, 1)
      aie.dma_bd(%C_L2L3_1_buff_0 : memref<512x128xbf16>, 16384, 16384, [<size = 16, stride = 1024>, <size = 8, stride = 8>, <size = 16, stride = 64>, <size = 8, stride = 1>]) {bd_id = 29 : i32, next_bd_id = 30 : i32}
      aie.use_lock(%C_L2L3_1_prod_lock_1, Release, 1)
      aie.next_bd ^bb21
    ^bb21:  // pred: ^bb20
      aie.use_lock(%C_L2L3_1_cons_lock_2, AcquireGreaterEqual, 1)
      aie.dma_bd(%C_L2L3_1_buff_0 : memref<512x128xbf16>, 32768, 16384, [<size = 16, stride = 1024>, <size = 8, stride = 8>, <size = 16, stride = 64>, <size = 8, stride = 1>]) {bd_id = 30 : i32, next_bd_id = 31 : i32}
      aie.use_lock(%C_L2L3_1_prod_lock_2, Release, 1)
      aie.next_bd ^bb22
    ^bb22:  // pred: ^bb21
      aie.use_lock(%C_L2L3_1_cons_lock_3, AcquireGreaterEqual, 1)
      aie.dma_bd(%C_L2L3_1_buff_0 : memref<512x128xbf16>, 49152, 16384, [<size = 16, stride = 1024>, <size = 8, stride = 8>, <size = 16, stride = 64>, <size = 8, stride = 1>]) {bd_id = 31 : i32, next_bd_id = 32 : i32}
      aie.use_lock(%C_L2L3_1_prod_lock_3, Release, 1)
      aie.next_bd ^bb23
    ^bb23:  // pred: ^bb22
      aie.use_lock(%C_L2L3_1_cons_lock_0, AcquireGreaterEqual, 1)
      aie.dma_bd(%C_L2L3_1_buff_1 : memref<512x128xbf16>, 0, 16384, [<size = 16, stride = 1024>, <size = 8, stride = 8>, <size = 16, stride = 64>, <size = 8, stride = 1>]) {bd_id = 32 : i32, next_bd_id = 33 : i32}
      aie.use_lock(%C_L2L3_1_prod_lock_0, Release, 1)
      aie.next_bd ^bb24
    ^bb24:  // pred: ^bb23
      aie.use_lock(%C_L2L3_1_cons_lock_1, AcquireGreaterEqual, 1)
      aie.dma_bd(%C_L2L3_1_buff_1 : memref<512x128xbf16>, 16384, 16384, [<size = 16, stride = 1024>, <size = 8, stride = 8>, <size = 16, stride = 64>, <size = 8, stride = 1>]) {bd_id = 33 : i32, next_bd_id = 34 : i32}
      aie.use_lock(%C_L2L3_1_prod_lock_1, Release, 1)
      aie.next_bd ^bb25
    ^bb25:  // pred: ^bb24
      aie.use_lock(%C_L2L3_1_cons_lock_2, AcquireGreaterEqual, 1)
      aie.dma_bd(%C_L2L3_1_buff_1 : memref<512x128xbf16>, 32768, 16384, [<size = 16, stride = 1024>, <size = 8, stride = 8>, <size = 16, stride = 64>, <size = 8, stride = 1>]) {bd_id = 34 : i32, next_bd_id = 35 : i32}
      aie.use_lock(%C_L2L3_1_prod_lock_2, Release, 1)
      aie.next_bd ^bb26
    ^bb26:  // pred: ^bb25
      aie.use_lock(%C_L2L3_1_cons_lock_3, AcquireGreaterEqual, 1)
      aie.dma_bd(%C_L2L3_1_buff_1 : memref<512x128xbf16>, 49152, 16384, [<size = 16, stride = 1024>, <size = 8, stride = 8>, <size = 16, stride = 64>, <size = 8, stride = 1>]) {bd_id = 35 : i32, next_bd_id = 28 : i32}
      aie.use_lock(%C_L2L3_1_prod_lock_3, Release, 1)
      aie.next_bd ^bb19
    ^bb27:  // pred: ^bb18
      aie.end
    }
    aie.shim_dma_allocation @B_L3L2_2_shim_alloc(%shim_noc_tile_2_0, MM2S, 1)
    aie.shim_dma_allocation @B_L3L2_3_shim_alloc(%shim_noc_tile_3_0, MM2S, 0)
    %memtile_dma_3_1 = aie.memtile_dma(%mem_tile_3_1) {
      %0 = aie.dma_start(S2MM, 0, ^bb1, ^bb3)
    ^bb1:  // 2 preds: ^bb0, ^bb2
      aie.use_lock(%B_L3L2_3_cons_prod_lock_0, AcquireGreaterEqual, 1)
      aie.dma_bd(%B_L3L2_3_cons_buff_0 : memref<64x16x!aiex.bfp<"v8bfp16ebs8">>, 0, 1024) {bd_id = 0 : i32, next_bd_id = 1 : i32}
      aie.use_lock(%B_L3L2_3_cons_cons_lock_0, Release, 1)
      aie.next_bd ^bb2
    ^bb2:  // pred: ^bb1
      aie.use_lock(%B_L3L2_3_cons_prod_lock_0, AcquireGreaterEqual, 1)
      aie.dma_bd(%B_L3L2_3_cons_buff_1 : memref<64x16x!aiex.bfp<"v8bfp16ebs8">>, 0, 1024) {bd_id = 1 : i32, next_bd_id = 0 : i32}
      aie.use_lock(%B_L3L2_3_cons_cons_lock_0, Release, 1)
      aie.next_bd ^bb1
    ^bb3:  // pred: ^bb0
      %1 = aie.dma_start(MM2S, 0, ^bb4, ^bb6)
    ^bb4:  // 2 preds: ^bb3, ^bb5
      aie.use_lock(%B_L3L2_3_cons_cons_lock_0, AcquireGreaterEqual, 1)
      aie.dma_bd(%B_L3L2_3_cons_buff_0 : memref<64x16x!aiex.bfp<"v8bfp16ebs8">>, 0, 1024) {bd_id = 2 : i32, next_bd_id = 3 : i32}
      aie.use_lock(%B_L3L2_3_cons_prod_lock_0, Release, 1)
      aie.next_bd ^bb5
    ^bb5:  // pred: ^bb4
      aie.use_lock(%B_L3L2_3_cons_cons_lock_0, AcquireGreaterEqual, 1)
      aie.dma_bd(%B_L3L2_3_cons_buff_1 : memref<64x16x!aiex.bfp<"v8bfp16ebs8">>, 0, 1024) {bd_id = 3 : i32, next_bd_id = 2 : i32}
      aie.use_lock(%B_L3L2_3_cons_prod_lock_0, Release, 1)
      aie.next_bd ^bb4
    ^bb6:  // pred: ^bb3
      %2 = aie.dma_start(S2MM, 1, ^bb7, ^bb9)
    ^bb7:  // 2 preds: ^bb6, ^bb8
      aie.use_lock(%C_L2L3_3_prod_lock_0, AcquireGreaterEqual, 1)
      aie.dma_bd(%C_L2L3_3_buff_0 : memref<512x128xbf16>, 0, 16384) {bd_id = 24 : i32, next_bd_id = 25 : i32}
      aie.use_lock(%C_L2L3_3_cons_lock_0, Release, 1)
      aie.next_bd ^bb8
    ^bb8:  // pred: ^bb7
      aie.use_lock(%C_L2L3_3_prod_lock_0, AcquireGreaterEqual, 1)
      aie.dma_bd(%C_L2L3_3_buff_1 : memref<512x128xbf16>, 0, 16384) {bd_id = 25 : i32, next_bd_id = 24 : i32}
      aie.use_lock(%C_L2L3_3_cons_lock_0, Release, 1)
      aie.next_bd ^bb7
    ^bb9:  // pred: ^bb6
      %3 = aie.dma_start(S2MM, 2, ^bb10, ^bb12)
    ^bb10:  // 2 preds: ^bb9, ^bb11
      aie.use_lock(%C_L2L3_3_prod_lock_1, AcquireGreaterEqual, 1)
      aie.dma_bd(%C_L2L3_3_buff_0 : memref<512x128xbf16>, 16384, 16384) {bd_id = 4 : i32, next_bd_id = 5 : i32}
      aie.use_lock(%C_L2L3_3_cons_lock_1, Release, 1)
      aie.next_bd ^bb11
    ^bb11:  // pred: ^bb10
      aie.use_lock(%C_L2L3_3_prod_lock_1, AcquireGreaterEqual, 1)
      aie.dma_bd(%C_L2L3_3_buff_1 : memref<512x128xbf16>, 16384, 16384) {bd_id = 5 : i32, next_bd_id = 4 : i32}
      aie.use_lock(%C_L2L3_3_cons_lock_1, Release, 1)
      aie.next_bd ^bb10
    ^bb12:  // pred: ^bb9
      %4 = aie.dma_start(S2MM, 3, ^bb13, ^bb15)
    ^bb13:  // 2 preds: ^bb12, ^bb14
      aie.use_lock(%C_L2L3_3_prod_lock_2, AcquireGreaterEqual, 1)
      aie.dma_bd(%C_L2L3_3_buff_0 : memref<512x128xbf16>, 32768, 16384) {bd_id = 26 : i32, next_bd_id = 27 : i32}
      aie.use_lock(%C_L2L3_3_cons_lock_2, Release, 1)
      aie.next_bd ^bb14
    ^bb14:  // pred: ^bb13
      aie.use_lock(%C_L2L3_3_prod_lock_2, AcquireGreaterEqual, 1)
      aie.dma_bd(%C_L2L3_3_buff_1 : memref<512x128xbf16>, 32768, 16384) {bd_id = 27 : i32, next_bd_id = 26 : i32}
      aie.use_lock(%C_L2L3_3_cons_lock_2, Release, 1)
      aie.next_bd ^bb13
    ^bb15:  // pred: ^bb12
      %5 = aie.dma_start(S2MM, 4, ^bb16, ^bb18)
    ^bb16:  // 2 preds: ^bb15, ^bb17
      aie.use_lock(%C_L2L3_3_prod_lock_3, AcquireGreaterEqual, 1)
      aie.dma_bd(%C_L2L3_3_buff_0 : memref<512x128xbf16>, 49152, 16384) {bd_id = 6 : i32, next_bd_id = 7 : i32}
      aie.use_lock(%C_L2L3_3_cons_lock_3, Release, 1)
      aie.next_bd ^bb17
    ^bb17:  // pred: ^bb16
      aie.use_lock(%C_L2L3_3_prod_lock_3, AcquireGreaterEqual, 1)
      aie.dma_bd(%C_L2L3_3_buff_1 : memref<512x128xbf16>, 49152, 16384) {bd_id = 7 : i32, next_bd_id = 6 : i32}
      aie.use_lock(%C_L2L3_3_cons_lock_3, Release, 1)
      aie.next_bd ^bb16
    ^bb18:  // pred: ^bb15
      %6 = aie.dma_start(MM2S, 1, ^bb19, ^bb27)
    ^bb19:  // 2 preds: ^bb18, ^bb26
      aie.use_lock(%C_L2L3_3_cons_lock_0, AcquireGreaterEqual, 1)
      aie.dma_bd(%C_L2L3_3_buff_0 : memref<512x128xbf16>, 0, 16384, [<size = 16, stride = 1024>, <size = 8, stride = 8>, <size = 16, stride = 64>, <size = 8, stride = 1>]) {bd_id = 28 : i32, next_bd_id = 29 : i32}
      aie.use_lock(%C_L2L3_3_prod_lock_0, Release, 1)
      aie.next_bd ^bb20
    ^bb20:  // pred: ^bb19
      aie.use_lock(%C_L2L3_3_cons_lock_1, AcquireGreaterEqual, 1)
      aie.dma_bd(%C_L2L3_3_buff_0 : memref<512x128xbf16>, 16384, 16384, [<size = 16, stride = 1024>, <size = 8, stride = 8>, <size = 16, stride = 64>, <size = 8, stride = 1>]) {bd_id = 29 : i32, next_bd_id = 30 : i32}
      aie.use_lock(%C_L2L3_3_prod_lock_1, Release, 1)
      aie.next_bd ^bb21
    ^bb21:  // pred: ^bb20
      aie.use_lock(%C_L2L3_3_cons_lock_2, AcquireGreaterEqual, 1)
      aie.dma_bd(%C_L2L3_3_buff_0 : memref<512x128xbf16>, 32768, 16384, [<size = 16, stride = 1024>, <size = 8, stride = 8>, <size = 16, stride = 64>, <size = 8, stride = 1>]) {bd_id = 30 : i32, next_bd_id = 31 : i32}
      aie.use_lock(%C_L2L3_3_prod_lock_2, Release, 1)
      aie.next_bd ^bb22
    ^bb22:  // pred: ^bb21
      aie.use_lock(%C_L2L3_3_cons_lock_3, AcquireGreaterEqual, 1)
      aie.dma_bd(%C_L2L3_3_buff_0 : memref<512x128xbf16>, 49152, 16384, [<size = 16, stride = 1024>, <size = 8, stride = 8>, <size = 16, stride = 64>, <size = 8, stride = 1>]) {bd_id = 31 : i32, next_bd_id = 32 : i32}
      aie.use_lock(%C_L2L3_3_prod_lock_3, Release, 1)
      aie.next_bd ^bb23
    ^bb23:  // pred: ^bb22
      aie.use_lock(%C_L2L3_3_cons_lock_0, AcquireGreaterEqual, 1)
      aie.dma_bd(%C_L2L3_3_buff_1 : memref<512x128xbf16>, 0, 16384, [<size = 16, stride = 1024>, <size = 8, stride = 8>, <size = 16, stride = 64>, <size = 8, stride = 1>]) {bd_id = 32 : i32, next_bd_id = 33 : i32}
      aie.use_lock(%C_L2L3_3_prod_lock_0, Release, 1)
      aie.next_bd ^bb24
    ^bb24:  // pred: ^bb23
      aie.use_lock(%C_L2L3_3_cons_lock_1, AcquireGreaterEqual, 1)
      aie.dma_bd(%C_L2L3_3_buff_1 : memref<512x128xbf16>, 16384, 16384, [<size = 16, stride = 1024>, <size = 8, stride = 8>, <size = 16, stride = 64>, <size = 8, stride = 1>]) {bd_id = 33 : i32, next_bd_id = 34 : i32}
      aie.use_lock(%C_L2L3_3_prod_lock_1, Release, 1)
      aie.next_bd ^bb25
    ^bb25:  // pred: ^bb24
      aie.use_lock(%C_L2L3_3_cons_lock_2, AcquireGreaterEqual, 1)
      aie.dma_bd(%C_L2L3_3_buff_1 : memref<512x128xbf16>, 32768, 16384, [<size = 16, stride = 1024>, <size = 8, stride = 8>, <size = 16, stride = 64>, <size = 8, stride = 1>]) {bd_id = 34 : i32, next_bd_id = 35 : i32}
      aie.use_lock(%C_L2L3_3_prod_lock_2, Release, 1)
      aie.next_bd ^bb26
    ^bb26:  // pred: ^bb25
      aie.use_lock(%C_L2L3_3_cons_lock_3, AcquireGreaterEqual, 1)
      aie.dma_bd(%C_L2L3_3_buff_1 : memref<512x128xbf16>, 49152, 16384, [<size = 16, stride = 1024>, <size = 8, stride = 8>, <size = 16, stride = 64>, <size = 8, stride = 1>]) {bd_id = 35 : i32, next_bd_id = 28 : i32}
      aie.use_lock(%C_L2L3_3_prod_lock_3, Release, 1)
      aie.next_bd ^bb19
    ^bb27:  // pred: ^bb18
      aie.end
    }
    aie.shim_dma_allocation @B_L3L2_4_shim_alloc(%shim_noc_tile_4_0, MM2S, 1)
    aie.shim_dma_allocation @B_L3L2_5_shim_alloc(%shim_noc_tile_5_0, MM2S, 0)
    %memtile_dma_5_1 = aie.memtile_dma(%mem_tile_5_1) {
      %0 = aie.dma_start(S2MM, 0, ^bb1, ^bb3)
    ^bb1:  // 2 preds: ^bb0, ^bb2
      aie.use_lock(%B_L3L2_5_cons_prod_lock_0, AcquireGreaterEqual, 1)
      aie.dma_bd(%B_L3L2_5_cons_buff_0 : memref<64x16x!aiex.bfp<"v8bfp16ebs8">>, 0, 1024) {bd_id = 0 : i32, next_bd_id = 1 : i32}
      aie.use_lock(%B_L3L2_5_cons_cons_lock_0, Release, 1)
      aie.next_bd ^bb2
    ^bb2:  // pred: ^bb1
      aie.use_lock(%B_L3L2_5_cons_prod_lock_0, AcquireGreaterEqual, 1)
      aie.dma_bd(%B_L3L2_5_cons_buff_1 : memref<64x16x!aiex.bfp<"v8bfp16ebs8">>, 0, 1024) {bd_id = 1 : i32, next_bd_id = 0 : i32}
      aie.use_lock(%B_L3L2_5_cons_cons_lock_0, Release, 1)
      aie.next_bd ^bb1
    ^bb3:  // pred: ^bb0
      %1 = aie.dma_start(MM2S, 0, ^bb4, ^bb6)
    ^bb4:  // 2 preds: ^bb3, ^bb5
      aie.use_lock(%B_L3L2_5_cons_cons_lock_0, AcquireGreaterEqual, 1)
      aie.dma_bd(%B_L3L2_5_cons_buff_0 : memref<64x16x!aiex.bfp<"v8bfp16ebs8">>, 0, 1024) {bd_id = 2 : i32, next_bd_id = 3 : i32}
      aie.use_lock(%B_L3L2_5_cons_prod_lock_0, Release, 1)
      aie.next_bd ^bb5
    ^bb5:  // pred: ^bb4
      aie.use_lock(%B_L3L2_5_cons_cons_lock_0, AcquireGreaterEqual, 1)
      aie.dma_bd(%B_L3L2_5_cons_buff_1 : memref<64x16x!aiex.bfp<"v8bfp16ebs8">>, 0, 1024) {bd_id = 3 : i32, next_bd_id = 2 : i32}
      aie.use_lock(%B_L3L2_5_cons_prod_lock_0, Release, 1)
      aie.next_bd ^bb4
    ^bb6:  // pred: ^bb3
      %2 = aie.dma_start(S2MM, 1, ^bb7, ^bb9)
    ^bb7:  // 2 preds: ^bb6, ^bb8
      aie.use_lock(%C_L2L3_5_prod_lock_0, AcquireGreaterEqual, 1)
      aie.dma_bd(%C_L2L3_5_buff_0 : memref<512x128xbf16>, 0, 16384) {bd_id = 24 : i32, next_bd_id = 25 : i32}
      aie.use_lock(%C_L2L3_5_cons_lock_0, Release, 1)
      aie.next_bd ^bb8
    ^bb8:  // pred: ^bb7
      aie.use_lock(%C_L2L3_5_prod_lock_0, AcquireGreaterEqual, 1)
      aie.dma_bd(%C_L2L3_5_buff_1 : memref<512x128xbf16>, 0, 16384) {bd_id = 25 : i32, next_bd_id = 24 : i32}
      aie.use_lock(%C_L2L3_5_cons_lock_0, Release, 1)
      aie.next_bd ^bb7
    ^bb9:  // pred: ^bb6
      %3 = aie.dma_start(S2MM, 2, ^bb10, ^bb12)
    ^bb10:  // 2 preds: ^bb9, ^bb11
      aie.use_lock(%C_L2L3_5_prod_lock_1, AcquireGreaterEqual, 1)
      aie.dma_bd(%C_L2L3_5_buff_0 : memref<512x128xbf16>, 16384, 16384) {bd_id = 4 : i32, next_bd_id = 5 : i32}
      aie.use_lock(%C_L2L3_5_cons_lock_1, Release, 1)
      aie.next_bd ^bb11
    ^bb11:  // pred: ^bb10
      aie.use_lock(%C_L2L3_5_prod_lock_1, AcquireGreaterEqual, 1)
      aie.dma_bd(%C_L2L3_5_buff_1 : memref<512x128xbf16>, 16384, 16384) {bd_id = 5 : i32, next_bd_id = 4 : i32}
      aie.use_lock(%C_L2L3_5_cons_lock_1, Release, 1)
      aie.next_bd ^bb10
    ^bb12:  // pred: ^bb9
      %4 = aie.dma_start(S2MM, 3, ^bb13, ^bb15)
    ^bb13:  // 2 preds: ^bb12, ^bb14
      aie.use_lock(%C_L2L3_5_prod_lock_2, AcquireGreaterEqual, 1)
      aie.dma_bd(%C_L2L3_5_buff_0 : memref<512x128xbf16>, 32768, 16384) {bd_id = 26 : i32, next_bd_id = 27 : i32}
      aie.use_lock(%C_L2L3_5_cons_lock_2, Release, 1)
      aie.next_bd ^bb14
    ^bb14:  // pred: ^bb13
      aie.use_lock(%C_L2L3_5_prod_lock_2, AcquireGreaterEqual, 1)
      aie.dma_bd(%C_L2L3_5_buff_1 : memref<512x128xbf16>, 32768, 16384) {bd_id = 27 : i32, next_bd_id = 26 : i32}
      aie.use_lock(%C_L2L3_5_cons_lock_2, Release, 1)
      aie.next_bd ^bb13
    ^bb15:  // pred: ^bb12
      %5 = aie.dma_start(S2MM, 4, ^bb16, ^bb18)
    ^bb16:  // 2 preds: ^bb15, ^bb17
      aie.use_lock(%C_L2L3_5_prod_lock_3, AcquireGreaterEqual, 1)
      aie.dma_bd(%C_L2L3_5_buff_0 : memref<512x128xbf16>, 49152, 16384) {bd_id = 6 : i32, next_bd_id = 7 : i32}
      aie.use_lock(%C_L2L3_5_cons_lock_3, Release, 1)
      aie.next_bd ^bb17
    ^bb17:  // pred: ^bb16
      aie.use_lock(%C_L2L3_5_prod_lock_3, AcquireGreaterEqual, 1)
      aie.dma_bd(%C_L2L3_5_buff_1 : memref<512x128xbf16>, 49152, 16384) {bd_id = 7 : i32, next_bd_id = 6 : i32}
      aie.use_lock(%C_L2L3_5_cons_lock_3, Release, 1)
      aie.next_bd ^bb16
    ^bb18:  // pred: ^bb15
      %6 = aie.dma_start(MM2S, 1, ^bb19, ^bb27)
    ^bb19:  // 2 preds: ^bb18, ^bb26
      aie.use_lock(%C_L2L3_5_cons_lock_0, AcquireGreaterEqual, 1)
      aie.dma_bd(%C_L2L3_5_buff_0 : memref<512x128xbf16>, 0, 16384, [<size = 16, stride = 1024>, <size = 8, stride = 8>, <size = 16, stride = 64>, <size = 8, stride = 1>]) {bd_id = 28 : i32, next_bd_id = 29 : i32}
      aie.use_lock(%C_L2L3_5_prod_lock_0, Release, 1)
      aie.next_bd ^bb20
    ^bb20:  // pred: ^bb19
      aie.use_lock(%C_L2L3_5_cons_lock_1, AcquireGreaterEqual, 1)
      aie.dma_bd(%C_L2L3_5_buff_0 : memref<512x128xbf16>, 16384, 16384, [<size = 16, stride = 1024>, <size = 8, stride = 8>, <size = 16, stride = 64>, <size = 8, stride = 1>]) {bd_id = 29 : i32, next_bd_id = 30 : i32}
      aie.use_lock(%C_L2L3_5_prod_lock_1, Release, 1)
      aie.next_bd ^bb21
    ^bb21:  // pred: ^bb20
      aie.use_lock(%C_L2L3_5_cons_lock_2, AcquireGreaterEqual, 1)
      aie.dma_bd(%C_L2L3_5_buff_0 : memref<512x128xbf16>, 32768, 16384, [<size = 16, stride = 1024>, <size = 8, stride = 8>, <size = 16, stride = 64>, <size = 8, stride = 1>]) {bd_id = 30 : i32, next_bd_id = 31 : i32}
      aie.use_lock(%C_L2L3_5_prod_lock_2, Release, 1)
      aie.next_bd ^bb22
    ^bb22:  // pred: ^bb21
      aie.use_lock(%C_L2L3_5_cons_lock_3, AcquireGreaterEqual, 1)
      aie.dma_bd(%C_L2L3_5_buff_0 : memref<512x128xbf16>, 49152, 16384, [<size = 16, stride = 1024>, <size = 8, stride = 8>, <size = 16, stride = 64>, <size = 8, stride = 1>]) {bd_id = 31 : i32, next_bd_id = 32 : i32}
      aie.use_lock(%C_L2L3_5_prod_lock_3, Release, 1)
      aie.next_bd ^bb23
    ^bb23:  // pred: ^bb22
      aie.use_lock(%C_L2L3_5_cons_lock_0, AcquireGreaterEqual, 1)
      aie.dma_bd(%C_L2L3_5_buff_1 : memref<512x128xbf16>, 0, 16384, [<size = 16, stride = 1024>, <size = 8, stride = 8>, <size = 16, stride = 64>, <size = 8, stride = 1>]) {bd_id = 32 : i32, next_bd_id = 33 : i32}
      aie.use_lock(%C_L2L3_5_prod_lock_0, Release, 1)
      aie.next_bd ^bb24
    ^bb24:  // pred: ^bb23
      aie.use_lock(%C_L2L3_5_cons_lock_1, AcquireGreaterEqual, 1)
      aie.dma_bd(%C_L2L3_5_buff_1 : memref<512x128xbf16>, 16384, 16384, [<size = 16, stride = 1024>, <size = 8, stride = 8>, <size = 16, stride = 64>, <size = 8, stride = 1>]) {bd_id = 33 : i32, next_bd_id = 34 : i32}
      aie.use_lock(%C_L2L3_5_prod_lock_1, Release, 1)
      aie.next_bd ^bb25
    ^bb25:  // pred: ^bb24
      aie.use_lock(%C_L2L3_5_cons_lock_2, AcquireGreaterEqual, 1)
      aie.dma_bd(%C_L2L3_5_buff_1 : memref<512x128xbf16>, 32768, 16384, [<size = 16, stride = 1024>, <size = 8, stride = 8>, <size = 16, stride = 64>, <size = 8, stride = 1>]) {bd_id = 34 : i32, next_bd_id = 35 : i32}
      aie.use_lock(%C_L2L3_5_prod_lock_2, Release, 1)
      aie.next_bd ^bb26
    ^bb26:  // pred: ^bb25
      aie.use_lock(%C_L2L3_5_cons_lock_3, AcquireGreaterEqual, 1)
      aie.dma_bd(%C_L2L3_5_buff_1 : memref<512x128xbf16>, 49152, 16384, [<size = 16, stride = 1024>, <size = 8, stride = 8>, <size = 16, stride = 64>, <size = 8, stride = 1>]) {bd_id = 35 : i32, next_bd_id = 28 : i32}
      aie.use_lock(%C_L2L3_5_prod_lock_3, Release, 1)
      aie.next_bd ^bb19
    ^bb27:  // pred: ^bb18
      aie.end
    }
    aie.shim_dma_allocation @B_L3L2_6_shim_alloc(%shim_noc_tile_6_0, MM2S, 1)
    aie.shim_dma_allocation @B_L3L2_7_shim_alloc(%shim_noc_tile_7_0, MM2S, 0)
    %memtile_dma_7_1 = aie.memtile_dma(%mem_tile_7_1) {
      %0 = aie.dma_start(S2MM, 0, ^bb1, ^bb3)
    ^bb1:  // 2 preds: ^bb0, ^bb2
      aie.use_lock(%B_L3L2_7_cons_prod_lock_0, AcquireGreaterEqual, 1)
      aie.dma_bd(%B_L3L2_7_cons_buff_0 : memref<64x16x!aiex.bfp<"v8bfp16ebs8">>, 0, 1024) {bd_id = 0 : i32, next_bd_id = 1 : i32}
      aie.use_lock(%B_L3L2_7_cons_cons_lock_0, Release, 1)
      aie.next_bd ^bb2
    ^bb2:  // pred: ^bb1
      aie.use_lock(%B_L3L2_7_cons_prod_lock_0, AcquireGreaterEqual, 1)
      aie.dma_bd(%B_L3L2_7_cons_buff_1 : memref<64x16x!aiex.bfp<"v8bfp16ebs8">>, 0, 1024) {bd_id = 1 : i32, next_bd_id = 0 : i32}
      aie.use_lock(%B_L3L2_7_cons_cons_lock_0, Release, 1)
      aie.next_bd ^bb1
    ^bb3:  // pred: ^bb0
      %1 = aie.dma_start(MM2S, 0, ^bb4, ^bb6)
    ^bb4:  // 2 preds: ^bb3, ^bb5
      aie.use_lock(%B_L3L2_7_cons_cons_lock_0, AcquireGreaterEqual, 1)
      aie.dma_bd(%B_L3L2_7_cons_buff_0 : memref<64x16x!aiex.bfp<"v8bfp16ebs8">>, 0, 1024) {bd_id = 2 : i32, next_bd_id = 3 : i32}
      aie.use_lock(%B_L3L2_7_cons_prod_lock_0, Release, 1)
      aie.next_bd ^bb5
    ^bb5:  // pred: ^bb4
      aie.use_lock(%B_L3L2_7_cons_cons_lock_0, AcquireGreaterEqual, 1)
      aie.dma_bd(%B_L3L2_7_cons_buff_1 : memref<64x16x!aiex.bfp<"v8bfp16ebs8">>, 0, 1024) {bd_id = 3 : i32, next_bd_id = 2 : i32}
      aie.use_lock(%B_L3L2_7_cons_prod_lock_0, Release, 1)
      aie.next_bd ^bb4
    ^bb6:  // pred: ^bb3
      %2 = aie.dma_start(S2MM, 1, ^bb7, ^bb9)
    ^bb7:  // 2 preds: ^bb6, ^bb8
      aie.use_lock(%C_L2L3_7_prod_lock_0, AcquireGreaterEqual, 1)
      aie.dma_bd(%C_L2L3_7_buff_0 : memref<512x128xbf16>, 0, 16384) {bd_id = 24 : i32, next_bd_id = 25 : i32}
      aie.use_lock(%C_L2L3_7_cons_lock_0, Release, 1)
      aie.next_bd ^bb8
    ^bb8:  // pred: ^bb7
      aie.use_lock(%C_L2L3_7_prod_lock_0, AcquireGreaterEqual, 1)
      aie.dma_bd(%C_L2L3_7_buff_1 : memref<512x128xbf16>, 0, 16384) {bd_id = 25 : i32, next_bd_id = 24 : i32}
      aie.use_lock(%C_L2L3_7_cons_lock_0, Release, 1)
      aie.next_bd ^bb7
    ^bb9:  // pred: ^bb6
      %3 = aie.dma_start(S2MM, 2, ^bb10, ^bb12)
    ^bb10:  // 2 preds: ^bb9, ^bb11
      aie.use_lock(%C_L2L3_7_prod_lock_1, AcquireGreaterEqual, 1)
      aie.dma_bd(%C_L2L3_7_buff_0 : memref<512x128xbf16>, 16384, 16384) {bd_id = 4 : i32, next_bd_id = 5 : i32}
      aie.use_lock(%C_L2L3_7_cons_lock_1, Release, 1)
      aie.next_bd ^bb11
    ^bb11:  // pred: ^bb10
      aie.use_lock(%C_L2L3_7_prod_lock_1, AcquireGreaterEqual, 1)
      aie.dma_bd(%C_L2L3_7_buff_1 : memref<512x128xbf16>, 16384, 16384) {bd_id = 5 : i32, next_bd_id = 4 : i32}
      aie.use_lock(%C_L2L3_7_cons_lock_1, Release, 1)
      aie.next_bd ^bb10
    ^bb12:  // pred: ^bb9
      %4 = aie.dma_start(S2MM, 3, ^bb13, ^bb15)
    ^bb13:  // 2 preds: ^bb12, ^bb14
      aie.use_lock(%C_L2L3_7_prod_lock_2, AcquireGreaterEqual, 1)
      aie.dma_bd(%C_L2L3_7_buff_0 : memref<512x128xbf16>, 32768, 16384) {bd_id = 26 : i32, next_bd_id = 27 : i32}
      aie.use_lock(%C_L2L3_7_cons_lock_2, Release, 1)
      aie.next_bd ^bb14
    ^bb14:  // pred: ^bb13
      aie.use_lock(%C_L2L3_7_prod_lock_2, AcquireGreaterEqual, 1)
      aie.dma_bd(%C_L2L3_7_buff_1 : memref<512x128xbf16>, 32768, 16384) {bd_id = 27 : i32, next_bd_id = 26 : i32}
      aie.use_lock(%C_L2L3_7_cons_lock_2, Release, 1)
      aie.next_bd ^bb13
    ^bb15:  // pred: ^bb12
      %5 = aie.dma_start(S2MM, 4, ^bb16, ^bb18)
    ^bb16:  // 2 preds: ^bb15, ^bb17
      aie.use_lock(%C_L2L3_7_prod_lock_3, AcquireGreaterEqual, 1)
      aie.dma_bd(%C_L2L3_7_buff_0 : memref<512x128xbf16>, 49152, 16384) {bd_id = 6 : i32, next_bd_id = 7 : i32}
      aie.use_lock(%C_L2L3_7_cons_lock_3, Release, 1)
      aie.next_bd ^bb17
    ^bb17:  // pred: ^bb16
      aie.use_lock(%C_L2L3_7_prod_lock_3, AcquireGreaterEqual, 1)
      aie.dma_bd(%C_L2L3_7_buff_1 : memref<512x128xbf16>, 49152, 16384) {bd_id = 7 : i32, next_bd_id = 6 : i32}
      aie.use_lock(%C_L2L3_7_cons_lock_3, Release, 1)
      aie.next_bd ^bb16
    ^bb18:  // pred: ^bb15
      %6 = aie.dma_start(MM2S, 1, ^bb19, ^bb27)
    ^bb19:  // 2 preds: ^bb18, ^bb26
      aie.use_lock(%C_L2L3_7_cons_lock_0, AcquireGreaterEqual, 1)
      aie.dma_bd(%C_L2L3_7_buff_0 : memref<512x128xbf16>, 0, 16384, [<size = 16, stride = 1024>, <size = 8, stride = 8>, <size = 16, stride = 64>, <size = 8, stride = 1>]) {bd_id = 28 : i32, next_bd_id = 29 : i32}
      aie.use_lock(%C_L2L3_7_prod_lock_0, Release, 1)
      aie.next_bd ^bb20
    ^bb20:  // pred: ^bb19
      aie.use_lock(%C_L2L3_7_cons_lock_1, AcquireGreaterEqual, 1)
      aie.dma_bd(%C_L2L3_7_buff_0 : memref<512x128xbf16>, 16384, 16384, [<size = 16, stride = 1024>, <size = 8, stride = 8>, <size = 16, stride = 64>, <size = 8, stride = 1>]) {bd_id = 29 : i32, next_bd_id = 30 : i32}
      aie.use_lock(%C_L2L3_7_prod_lock_1, Release, 1)
      aie.next_bd ^bb21
    ^bb21:  // pred: ^bb20
      aie.use_lock(%C_L2L3_7_cons_lock_2, AcquireGreaterEqual, 1)
      aie.dma_bd(%C_L2L3_7_buff_0 : memref<512x128xbf16>, 32768, 16384, [<size = 16, stride = 1024>, <size = 8, stride = 8>, <size = 16, stride = 64>, <size = 8, stride = 1>]) {bd_id = 30 : i32, next_bd_id = 31 : i32}
      aie.use_lock(%C_L2L3_7_prod_lock_2, Release, 1)
      aie.next_bd ^bb22
    ^bb22:  // pred: ^bb21
      aie.use_lock(%C_L2L3_7_cons_lock_3, AcquireGreaterEqual, 1)
      aie.dma_bd(%C_L2L3_7_buff_0 : memref<512x128xbf16>, 49152, 16384, [<size = 16, stride = 1024>, <size = 8, stride = 8>, <size = 16, stride = 64>, <size = 8, stride = 1>]) {bd_id = 31 : i32, next_bd_id = 32 : i32}
      aie.use_lock(%C_L2L3_7_prod_lock_3, Release, 1)
      aie.next_bd ^bb23
    ^bb23:  // pred: ^bb22
      aie.use_lock(%C_L2L3_7_cons_lock_0, AcquireGreaterEqual, 1)
      aie.dma_bd(%C_L2L3_7_buff_1 : memref<512x128xbf16>, 0, 16384, [<size = 16, stride = 1024>, <size = 8, stride = 8>, <size = 16, stride = 64>, <size = 8, stride = 1>]) {bd_id = 32 : i32, next_bd_id = 33 : i32}
      aie.use_lock(%C_L2L3_7_prod_lock_0, Release, 1)
      aie.next_bd ^bb24
    ^bb24:  // pred: ^bb23
      aie.use_lock(%C_L2L3_7_cons_lock_1, AcquireGreaterEqual, 1)
      aie.dma_bd(%C_L2L3_7_buff_1 : memref<512x128xbf16>, 16384, 16384, [<size = 16, stride = 1024>, <size = 8, stride = 8>, <size = 16, stride = 64>, <size = 8, stride = 1>]) {bd_id = 33 : i32, next_bd_id = 34 : i32}
      aie.use_lock(%C_L2L3_7_prod_lock_1, Release, 1)
      aie.next_bd ^bb25
    ^bb25:  // pred: ^bb24
      aie.use_lock(%C_L2L3_7_cons_lock_2, AcquireGreaterEqual, 1)
      aie.dma_bd(%C_L2L3_7_buff_1 : memref<512x128xbf16>, 32768, 16384, [<size = 16, stride = 1024>, <size = 8, stride = 8>, <size = 16, stride = 64>, <size = 8, stride = 1>]) {bd_id = 34 : i32, next_bd_id = 35 : i32}
      aie.use_lock(%C_L2L3_7_prod_lock_2, Release, 1)
      aie.next_bd ^bb26
    ^bb26:  // pred: ^bb25
      aie.use_lock(%C_L2L3_7_cons_lock_3, AcquireGreaterEqual, 1)
      aie.dma_bd(%C_L2L3_7_buff_1 : memref<512x128xbf16>, 49152, 16384, [<size = 16, stride = 1024>, <size = 8, stride = 8>, <size = 16, stride = 64>, <size = 8, stride = 1>]) {bd_id = 35 : i32, next_bd_id = 28 : i32}
      aie.use_lock(%C_L2L3_7_prod_lock_3, Release, 1)
      aie.next_bd ^bb19
    ^bb27:  // pred: ^bb18
      aie.end
    }
    aie.shim_dma_allocation @C_L2L3_0_shim_alloc(%shim_noc_tile_0_0, S2MM, 0)
    aie.shim_dma_allocation @C_L2L3_1_shim_alloc(%shim_noc_tile_1_0, S2MM, 0)
    aie.shim_dma_allocation @C_L2L3_2_shim_alloc(%shim_noc_tile_2_0, S2MM, 0)
    aie.shim_dma_allocation @C_L2L3_3_shim_alloc(%shim_noc_tile_3_0, S2MM, 0)
    aie.shim_dma_allocation @C_L2L3_4_shim_alloc(%shim_noc_tile_4_0, S2MM, 0)
    aie.shim_dma_allocation @C_L2L3_5_shim_alloc(%shim_noc_tile_5_0, S2MM, 0)
    aie.shim_dma_allocation @C_L2L3_6_shim_alloc(%shim_noc_tile_6_0, S2MM, 0)
    aie.shim_dma_allocation @C_L2L3_7_shim_alloc(%shim_noc_tile_7_0, S2MM, 0)
    aie.packet_flow(15) {
      aie.packet_source<%shim_noc_tile_0_0, TileControl : 0>
      aie.packet_dest<%shim_noc_tile_0_0, South : 0>
    } {keep_pkt_header = true, priority_route = true}
    aie.packet_flow(15) {
      aie.packet_source<%shim_noc_tile_1_0, TileControl : 0>
      aie.packet_dest<%shim_noc_tile_1_0, South : 0>
    } {keep_pkt_header = true, priority_route = true}
    aie.packet_flow(15) {
      aie.packet_source<%shim_noc_tile_2_0, TileControl : 0>
      aie.packet_dest<%shim_noc_tile_2_0, South : 0>
    } {keep_pkt_header = true, priority_route = true}
    aie.packet_flow(15) {
      aie.packet_source<%shim_noc_tile_3_0, TileControl : 0>
      aie.packet_dest<%shim_noc_tile_3_0, South : 0>
    } {keep_pkt_header = true, priority_route = true}
    aie.packet_flow(15) {
      aie.packet_source<%shim_noc_tile_4_0, TileControl : 0>
      aie.packet_dest<%shim_noc_tile_4_0, South : 0>
    } {keep_pkt_header = true, priority_route = true}
    aie.packet_flow(15) {
      aie.packet_source<%shim_noc_tile_5_0, TileControl : 0>
      aie.packet_dest<%shim_noc_tile_5_0, South : 0>
    } {keep_pkt_header = true, priority_route = true}
    aie.packet_flow(15) {
      aie.packet_source<%shim_noc_tile_6_0, TileControl : 0>
      aie.packet_dest<%shim_noc_tile_6_0, South : 0>
    } {keep_pkt_header = true, priority_route = true}
    aie.packet_flow(15) {
      aie.packet_source<%shim_noc_tile_7_0, TileControl : 0>
      aie.packet_dest<%shim_noc_tile_7_0, South : 0>
    } {keep_pkt_header = true, priority_route = true}
  }
}
