module {
  aie.device(npu2) {
    func.func private @zero_i16(memref<128x128xi16>) attributes {link_with = "mm_128x64x128.o"}
    func.func private @matmul_i8_i16(memref<32x64xi8>, memref<64x128xi8>, memref<128x128xi16>) attributes {link_with = "mm_128x64x128.o"}
    %shim_noc_tile_0_0 = aie.tile(0, 0)
    %shim_noc_tile_1_0 = aie.tile(1, 0)
    %shim_noc_tile_2_0 = aie.tile(2, 0)
    %shim_noc_tile_3_0 = aie.tile(3, 0)
    %shim_noc_tile_4_0 = aie.tile(4, 0)
    %shim_noc_tile_5_0 = aie.tile(5, 0)
    %shim_noc_tile_6_0 = aie.tile(6, 0)
    %shim_noc_tile_7_0 = aie.tile(7, 0)
    %mem_tile_0_1 = aie.tile(0, 1)
    %mem_tile_1_1 = aie.tile(1, 1)
    %mem_tile_2_1 = aie.tile(2, 1)
    %mem_tile_3_1 = aie.tile(3, 1)
    %mem_tile_4_1 = aie.tile(4, 1)
    %mem_tile_5_1 = aie.tile(5, 1)
    %mem_tile_6_1 = aie.tile(6, 1)
    %mem_tile_7_1 = aie.tile(7, 1)
    %tile_0_2 = aie.tile(0, 2)
    %tile_1_2 = aie.tile(1, 2)
    %tile_2_2 = aie.tile(2, 2)
    %tile_3_2 = aie.tile(3, 2)
    %tile_4_2 = aie.tile(4, 2)
    %tile_5_2 = aie.tile(5, 2)
    %tile_6_2 = aie.tile(6, 2)
    %tile_7_2 = aie.tile(7, 2)
    aie.objectfifo @A_L3L2_0(%shim_noc_tile_0_0, {%mem_tile_0_1 dimensionsFromStream [<size = 128, stride = 64>, <size = 8, stride = 8192>, <size = 64, stride = 1>]}, 2 : i32) : !aie.objectfifo<memref<128x512xi8>> 
    aie.objectfifo @A_L2L1_0(%mem_tile_0_1 dimensionsToStream [<size = 32, stride = 2048>, <size = 8, stride = 8>, <size = 32, stride = 64>, <size = 8, stride = 1>], {%tile_0_2 dimensionsFromStream [<size = 8, stride = 64>, <size = 4, stride = 512>, <size = 64, stride = 1>], %tile_1_2 dimensionsFromStream [<size = 8, stride = 64>, <size = 4, stride = 512>, <size = 64, stride = 1>], %tile_2_2 dimensionsFromStream [<size = 8, stride = 64>, <size = 4, stride = 512>, <size = 64, stride = 1>], %tile_3_2 dimensionsFromStream [<size = 8, stride = 64>, <size = 4, stride = 512>, <size = 64, stride = 1>], %tile_4_2 dimensionsFromStream [<size = 8, stride = 64>, <size = 4, stride = 512>, <size = 64, stride = 1>], %tile_5_2 dimensionsFromStream [<size = 8, stride = 64>, <size = 4, stride = 512>, <size = 64, stride = 1>], %tile_6_2 dimensionsFromStream [<size = 8, stride = 64>, <size = 4, stride = 512>, <size = 64, stride = 1>], %tile_7_2 dimensionsFromStream [<size = 8, stride = 64>, <size = 4, stride = 512>, <size = 64, stride = 1>]}, 2 : i32) : !aie.objectfifo<memref<32x64xi8>> 
    aie.objectfifo.link [@A_L3L2_0] -> [@A_L2L1_0]([] [])
    aie.objectfifo @B_L3L2_0(%shim_noc_tile_0_0, {%mem_tile_0_1}, 2 : i32) : !aie.objectfifo<memref<64x128xi8>> 
    aie.objectfifo @B_L2L1_0(%mem_tile_0_1, {%tile_0_2}, 2 : i32) : !aie.objectfifo<memref<64x128xi8>> 
    aie.objectfifo.link [@B_L3L2_0] -> [@B_L2L1_0]([] [])
    aie.objectfifo @B_L3L2_1(%shim_noc_tile_1_0, {%mem_tile_1_1}, 2 : i32) : !aie.objectfifo<memref<64x128xi8>> 
    aie.objectfifo @B_L2L1_1(%mem_tile_1_1, {%tile_1_2}, 2 : i32) : !aie.objectfifo<memref<64x128xi8>> 
    aie.objectfifo.link [@B_L3L2_1] -> [@B_L2L1_1]([] [])
    aie.objectfifo @B_L3L2_2(%shim_noc_tile_2_0, {%mem_tile_2_1}, 2 : i32) : !aie.objectfifo<memref<64x128xi8>> 
    aie.objectfifo @B_L2L1_2(%mem_tile_2_1, {%tile_2_2}, 2 : i32) : !aie.objectfifo<memref<64x128xi8>> 
    aie.objectfifo.link [@B_L3L2_2] -> [@B_L2L1_2]([] [])
    aie.objectfifo @B_L3L2_3(%shim_noc_tile_3_0, {%mem_tile_3_1}, 2 : i32) : !aie.objectfifo<memref<64x128xi8>> 
    aie.objectfifo @B_L2L1_3(%mem_tile_3_1, {%tile_3_2}, 2 : i32) : !aie.objectfifo<memref<64x128xi8>> 
    aie.objectfifo.link [@B_L3L2_3] -> [@B_L2L1_3]([] [])
    aie.objectfifo @B_L3L2_4(%shim_noc_tile_4_0, {%mem_tile_4_1}, 2 : i32) : !aie.objectfifo<memref<64x128xi8>> 
    aie.objectfifo @B_L2L1_4(%mem_tile_4_1, {%tile_4_2}, 2 : i32) : !aie.objectfifo<memref<64x128xi8>> 
    aie.objectfifo.link [@B_L3L2_4] -> [@B_L2L1_4]([] [])
    aie.objectfifo @B_L3L2_5(%shim_noc_tile_5_0, {%mem_tile_5_1}, 2 : i32) : !aie.objectfifo<memref<64x128xi8>> 
    aie.objectfifo @B_L2L1_5(%mem_tile_5_1, {%tile_5_2}, 2 : i32) : !aie.objectfifo<memref<64x128xi8>> 
    aie.objectfifo.link [@B_L3L2_5] -> [@B_L2L1_5]([] [])
    aie.objectfifo @B_L3L2_6(%shim_noc_tile_6_0, {%mem_tile_6_1}, 2 : i32) : !aie.objectfifo<memref<64x128xi8>> 
    aie.objectfifo @B_L2L1_6(%mem_tile_6_1, {%tile_6_2}, 2 : i32) : !aie.objectfifo<memref<64x128xi8>> 
    aie.objectfifo.link [@B_L3L2_6] -> [@B_L2L1_6]([] [])
    aie.objectfifo @B_L3L2_7(%shim_noc_tile_7_0, {%mem_tile_7_1}, 2 : i32) : !aie.objectfifo<memref<64x128xi8>> 
    aie.objectfifo @B_L2L1_7(%mem_tile_7_1, {%tile_7_2}, 2 : i32) : !aie.objectfifo<memref<64x128xi8>> 
    aie.objectfifo.link [@B_L3L2_7] -> [@B_L2L1_7]([] [])
    aie.objectfifo @C_L1L2_0_0(%tile_0_2, {%mem_tile_0_1}, 1 : i32) : !aie.objectfifo<memref<128x128xi16>> 
    aie.objectfifo @C_L2L3_0(%mem_tile_0_1 dimensionsToStream [<size = 16, stride = 1024>, <size = 8, stride = 8>, <size = 16, stride = 64>, <size = 8, stride = 1>], {%shim_noc_tile_0_0}, 2 : i32) : !aie.objectfifo<memref<128x128xi16>> 
    aie.objectfifo.link [@C_L1L2_0_0] -> [@C_L2L3_0]([0] [])
    aie.objectfifo @C_L1L2_1_0(%tile_1_2, {%mem_tile_1_1}, 1 : i32) : !aie.objectfifo<memref<128x128xi16>> 
    aie.objectfifo @C_L2L3_1(%mem_tile_1_1 dimensionsToStream [<size = 16, stride = 1024>, <size = 8, stride = 8>, <size = 16, stride = 64>, <size = 8, stride = 1>], {%shim_noc_tile_1_0}, 2 : i32) : !aie.objectfifo<memref<128x128xi16>> 
    aie.objectfifo.link [@C_L1L2_1_0] -> [@C_L2L3_1]([0] [])
    aie.objectfifo @C_L1L2_2_0(%tile_2_2, {%mem_tile_2_1}, 1 : i32) : !aie.objectfifo<memref<128x128xi16>> 
    aie.objectfifo @C_L2L3_2(%mem_tile_2_1 dimensionsToStream [<size = 16, stride = 1024>, <size = 8, stride = 8>, <size = 16, stride = 64>, <size = 8, stride = 1>], {%shim_noc_tile_2_0}, 2 : i32) : !aie.objectfifo<memref<128x128xi16>> 
    aie.objectfifo.link [@C_L1L2_2_0] -> [@C_L2L3_2]([0] [])
    aie.objectfifo @C_L1L2_3_0(%tile_3_2, {%mem_tile_3_1}, 1 : i32) : !aie.objectfifo<memref<128x128xi16>> 
    aie.objectfifo @C_L2L3_3(%mem_tile_3_1 dimensionsToStream [<size = 16, stride = 1024>, <size = 8, stride = 8>, <size = 16, stride = 64>, <size = 8, stride = 1>], {%shim_noc_tile_3_0}, 2 : i32) : !aie.objectfifo<memref<128x128xi16>> 
    aie.objectfifo.link [@C_L1L2_3_0] -> [@C_L2L3_3]([0] [])
    aie.objectfifo @C_L1L2_4_0(%tile_4_2, {%mem_tile_4_1}, 1 : i32) : !aie.objectfifo<memref<128x128xi16>> 
    aie.objectfifo @C_L2L3_4(%mem_tile_4_1 dimensionsToStream [<size = 16, stride = 1024>, <size = 8, stride = 8>, <size = 16, stride = 64>, <size = 8, stride = 1>], {%shim_noc_tile_4_0}, 2 : i32) : !aie.objectfifo<memref<128x128xi16>> 
    aie.objectfifo.link [@C_L1L2_4_0] -> [@C_L2L3_4]([0] [])
    aie.objectfifo @C_L1L2_5_0(%tile_5_2, {%mem_tile_5_1}, 1 : i32) : !aie.objectfifo<memref<128x128xi16>> 
    aie.objectfifo @C_L2L3_5(%mem_tile_5_1 dimensionsToStream [<size = 16, stride = 1024>, <size = 8, stride = 8>, <size = 16, stride = 64>, <size = 8, stride = 1>], {%shim_noc_tile_5_0}, 2 : i32) : !aie.objectfifo<memref<128x128xi16>> 
    aie.objectfifo.link [@C_L1L2_5_0] -> [@C_L2L3_5]([0] [])
    aie.objectfifo @C_L1L2_6_0(%tile_6_2, {%mem_tile_6_1}, 1 : i32) : !aie.objectfifo<memref<128x128xi16>> 
    aie.objectfifo @C_L2L3_6(%mem_tile_6_1 dimensionsToStream [<size = 16, stride = 1024>, <size = 8, stride = 8>, <size = 16, stride = 64>, <size = 8, stride = 1>], {%shim_noc_tile_6_0}, 2 : i32) : !aie.objectfifo<memref<128x128xi16>> 
    aie.objectfifo.link [@C_L1L2_6_0] -> [@C_L2L3_6]([0] [])
    aie.objectfifo @C_L1L2_7_0(%tile_7_2, {%mem_tile_7_1}, 1 : i32) : !aie.objectfifo<memref<128x128xi16>> 
    aie.objectfifo @C_L2L3_7(%mem_tile_7_1 dimensionsToStream [<size = 16, stride = 1024>, <size = 8, stride = 8>, <size = 16, stride = 64>, <size = 8, stride = 1>], {%shim_noc_tile_7_0}, 2 : i32) : !aie.objectfifo<memref<128x128xi16>> 
    aie.objectfifo.link [@C_L1L2_7_0] -> [@C_L2L3_7]([0] [])
    %core_0_2 = aie.core(%tile_0_2) {
      %c0 = arith.constant 0 : index
      %c4294967295 = arith.constant 4294967295 : index
      %c1 = arith.constant 1 : index
      scf.for %arg0 = %c0 to %c4294967295 step %c1 {
        %0 = aie.objectfifo.acquire @C_L1L2_0_0(Produce, 1) : !aie.objectfifosubview<memref<128x128xi16>>
        %1 = aie.objectfifo.subview.access %0[0] : !aie.objectfifosubview<memref<128x128xi16>> -> memref<128x128xi16>
        func.call @zero_i16(%1) : (memref<128x128xi16>) -> ()
        %c0_0 = arith.constant 0 : index
        %c16 = arith.constant 16 : index
        %c1_1 = arith.constant 1 : index
        scf.for %arg1 = %c0_0 to %c16 step %c1_1 {
          %296 = aie.objectfifo.acquire @B_L2L1_0(Consume, 1) : !aie.objectfifosubview<memref<64x128xi8>>
          %297 = aie.objectfifo.subview.access %296[0] : !aie.objectfifosubview<memref<64x128xi8>> -> memref<64x128xi8>
          %298 = aie.objectfifo.acquire @A_L2L1_0(Consume, 1) : !aie.objectfifosubview<memref<32x64xi8>>
          %299 = aie.objectfifo.subview.access %298[0] : !aie.objectfifosubview<memref<32x64xi8>> -> memref<32x64xi8>
          func.call @matmul_i8_i16(%299, %297, %1) : (memref<32x64xi8>, memref<64x128xi8>, memref<128x128xi16>) -> ()
          aie.objectfifo.release @A_L2L1_0(Consume, 1)
          %300 = aie.objectfifo.acquire @A_L2L1_0(Consume, 1) : !aie.objectfifosubview<memref<32x64xi8>>
          %301 = aie.objectfifo.subview.access %300[0] : !aie.objectfifosubview<memref<32x64xi8>> -> memref<32x64xi8>
          func.call @matmul_i8_i16(%301, %297, %1) : (memref<32x64xi8>, memref<64x128xi8>, memref<128x128xi16>) -> ()
          aie.objectfifo.release @A_L2L1_0(Consume, 1)
          %302 = aie.objectfifo.acquire @A_L2L1_0(Consume, 1) : !aie.objectfifosubview<memref<32x64xi8>>
          %303 = aie.objectfifo.subview.access %302[0] : !aie.objectfifosubview<memref<32x64xi8>> -> memref<32x64xi8>
          func.call @matmul_i8_i16(%303, %297, %1) : (memref<32x64xi8>, memref<64x128xi8>, memref<128x128xi16>) -> ()
          aie.objectfifo.release @A_L2L1_0(Consume, 1)
          %304 = aie.objectfifo.acquire @A_L2L1_0(Consume, 1) : !aie.objectfifosubview<memref<32x64xi8>>
          %305 = aie.objectfifo.subview.access %304[0] : !aie.objectfifosubview<memref<32x64xi8>> -> memref<32x64xi8>
          func.call @matmul_i8_i16(%305, %297, %1) : (memref<32x64xi8>, memref<64x128xi8>, memref<128x128xi16>) -> ()
          aie.objectfifo.release @A_L2L1_0(Consume, 1)
          aie.objectfifo.release @B_L2L1_0(Consume, 1)
        }
        aie.objectfifo.release @C_L1L2_0_0(Produce, 1)
        %2 = aie.objectfifo.acquire @C_L1L2_0_0(Produce, 1) : !aie.objectfifosubview<memref<128x128xi16>>
        %3 = aie.objectfifo.subview.access %2[0] : !aie.objectfifosubview<memref<128x128xi16>> -> memref<128x128xi16>
        func.call @zero_i16(%3) : (memref<128x128xi16>) -> ()
        %c0_2 = arith.constant 0 : index
        %c16_3 = arith.constant 16 : index
        %c1_4 = arith.constant 1 : index
        scf.for %arg1 = %c0_2 to %c16_3 step %c1_4 {
          %296 = aie.objectfifo.acquire @B_L2L1_0(Consume, 1) : !aie.objectfifosubview<memref<64x128xi8>>
          %297 = aie.objectfifo.subview.access %296[0] : !aie.objectfifosubview<memref<64x128xi8>> -> memref<64x128xi8>
          %298 = aie.objectfifo.acquire @A_L2L1_0(Consume, 1) : !aie.objectfifosubview<memref<32x64xi8>>
          %299 = aie.objectfifo.subview.access %298[0] : !aie.objectfifosubview<memref<32x64xi8>> -> memref<32x64xi8>
          func.call @matmul_i8_i16(%299, %297, %3) : (memref<32x64xi8>, memref<64x128xi8>, memref<128x128xi16>) -> ()
          aie.objectfifo.release @A_L2L1_0(Consume, 1)
          %300 = aie.objectfifo.acquire @A_L2L1_0(Consume, 1) : !aie.objectfifosubview<memref<32x64xi8>>
          %301 = aie.objectfifo.subview.access %300[0] : !aie.objectfifosubview<memref<32x64xi8>> -> memref<32x64xi8>
          func.call @matmul_i8_i16(%301, %297, %3) : (memref<32x64xi8>, memref<64x128xi8>, memref<128x128xi16>) -> ()
          aie.objectfifo.release @A_L2L1_0(Consume, 1)
          %302 = aie.objectfifo.acquire @A_L2L1_0(Consume, 1) : !aie.objectfifosubview<memref<32x64xi8>>
          %303 = aie.objectfifo.subview.access %302[0] : !aie.objectfifosubview<memref<32x64xi8>> -> memref<32x64xi8>
          func.call @matmul_i8_i16(%303, %297, %3) : (memref<32x64xi8>, memref<64x128xi8>, memref<128x128xi16>) -> ()
          aie.objectfifo.release @A_L2L1_0(Consume, 1)
          %304 = aie.objectfifo.acquire @A_L2L1_0(Consume, 1) : !aie.objectfifosubview<memref<32x64xi8>>
          %305 = aie.objectfifo.subview.access %304[0] : !aie.objectfifosubview<memref<32x64xi8>> -> memref<32x64xi8>
          func.call @matmul_i8_i16(%305, %297, %3) : (memref<32x64xi8>, memref<64x128xi8>, memref<128x128xi16>) -> ()
          aie.objectfifo.release @A_L2L1_0(Consume, 1)
          aie.objectfifo.release @B_L2L1_0(Consume, 1)
        }
        aie.objectfifo.release @C_L1L2_0_0(Produce, 1)
        %4 = aie.objectfifo.acquire @C_L1L2_0_0(Produce, 1) : !aie.objectfifosubview<memref<128x128xi16>>
        %5 = aie.objectfifo.subview.access %4[0] : !aie.objectfifosubview<memref<128x128xi16>> -> memref<128x128xi16>
        func.call @zero_i16(%5) : (memref<128x128xi16>) -> ()
        %c0_5 = arith.constant 0 : index
        %c16_6 = arith.constant 16 : index
        %c1_7 = arith.constant 1 : index
        scf.for %arg1 = %c0_5 to %c16_6 step %c1_7 {
          %296 = aie.objectfifo.acquire @B_L2L1_0(Consume, 1) : !aie.objectfifosubview<memref<64x128xi8>>
          %297 = aie.objectfifo.subview.access %296[0] : !aie.objectfifosubview<memref<64x128xi8>> -> memref<64x128xi8>
          %298 = aie.objectfifo.acquire @A_L2L1_0(Consume, 1) : !aie.objectfifosubview<memref<32x64xi8>>
          %299 = aie.objectfifo.subview.access %298[0] : !aie.objectfifosubview<memref<32x64xi8>> -> memref<32x64xi8>
          func.call @matmul_i8_i16(%299, %297, %5) : (memref<32x64xi8>, memref<64x128xi8>, memref<128x128xi16>) -> ()
          aie.objectfifo.release @A_L2L1_0(Consume, 1)
          %300 = aie.objectfifo.acquire @A_L2L1_0(Consume, 1) : !aie.objectfifosubview<memref<32x64xi8>>
          %301 = aie.objectfifo.subview.access %300[0] : !aie.objectfifosubview<memref<32x64xi8>> -> memref<32x64xi8>
          func.call @matmul_i8_i16(%301, %297, %5) : (memref<32x64xi8>, memref<64x128xi8>, memref<128x128xi16>) -> ()
          aie.objectfifo.release @A_L2L1_0(Consume, 1)
          %302 = aie.objectfifo.acquire @A_L2L1_0(Consume, 1) : !aie.objectfifosubview<memref<32x64xi8>>
          %303 = aie.objectfifo.subview.access %302[0] : !aie.objectfifosubview<memref<32x64xi8>> -> memref<32x64xi8>
          func.call @matmul_i8_i16(%303, %297, %5) : (memref<32x64xi8>, memref<64x128xi8>, memref<128x128xi16>) -> ()
          aie.objectfifo.release @A_L2L1_0(Consume, 1)
          %304 = aie.objectfifo.acquire @A_L2L1_0(Consume, 1) : !aie.objectfifosubview<memref<32x64xi8>>
          %305 = aie.objectfifo.subview.access %304[0] : !aie.objectfifosubview<memref<32x64xi8>> -> memref<32x64xi8>
          func.call @matmul_i8_i16(%305, %297, %5) : (memref<32x64xi8>, memref<64x128xi8>, memref<128x128xi16>) -> ()
          aie.objectfifo.release @A_L2L1_0(Consume, 1)
          aie.objectfifo.release @B_L2L1_0(Consume, 1)
        }
        aie.objectfifo.release @C_L1L2_0_0(Produce, 1)
        %6 = aie.objectfifo.acquire @C_L1L2_0_0(Produce, 1) : !aie.objectfifosubview<memref<128x128xi16>>
        %7 = aie.objectfifo.subview.access %6[0] : !aie.objectfifosubview<memref<128x128xi16>> -> memref<128x128xi16>
        func.call @zero_i16(%7) : (memref<128x128xi16>) -> ()
        %c0_8 = arith.constant 0 : index
        %c16_9 = arith.constant 16 : index
        %c1_10 = arith.constant 1 : index
        scf.for %arg1 = %c0_8 to %c16_9 step %c1_10 {
          %296 = aie.objectfifo.acquire @B_L2L1_0(Consume, 1) : !aie.objectfifosubview<memref<64x128xi8>>
          %297 = aie.objectfifo.subview.access %296[0] : !aie.objectfifosubview<memref<64x128xi8>> -> memref<64x128xi8>
          %298 = aie.objectfifo.acquire @A_L2L1_0(Consume, 1) : !aie.objectfifosubview<memref<32x64xi8>>
          %299 = aie.objectfifo.subview.access %298[0] : !aie.objectfifosubview<memref<32x64xi8>> -> memref<32x64xi8>
          func.call @matmul_i8_i16(%299, %297, %7) : (memref<32x64xi8>, memref<64x128xi8>, memref<128x128xi16>) -> ()
          aie.objectfifo.release @A_L2L1_0(Consume, 1)
          %300 = aie.objectfifo.acquire @A_L2L1_0(Consume, 1) : !aie.objectfifosubview<memref<32x64xi8>>
          %301 = aie.objectfifo.subview.access %300[0] : !aie.objectfifosubview<memref<32x64xi8>> -> memref<32x64xi8>
          func.call @matmul_i8_i16(%301, %297, %7) : (memref<32x64xi8>, memref<64x128xi8>, memref<128x128xi16>) -> ()
          aie.objectfifo.release @A_L2L1_0(Consume, 1)
          %302 = aie.objectfifo.acquire @A_L2L1_0(Consume, 1) : !aie.objectfifosubview<memref<32x64xi8>>
          %303 = aie.objectfifo.subview.access %302[0] : !aie.objectfifosubview<memref<32x64xi8>> -> memref<32x64xi8>
          func.call @matmul_i8_i16(%303, %297, %7) : (memref<32x64xi8>, memref<64x128xi8>, memref<128x128xi16>) -> ()
          aie.objectfifo.release @A_L2L1_0(Consume, 1)
          %304 = aie.objectfifo.acquire @A_L2L1_0(Consume, 1) : !aie.objectfifosubview<memref<32x64xi8>>
          %305 = aie.objectfifo.subview.access %304[0] : !aie.objectfifosubview<memref<32x64xi8>> -> memref<32x64xi8>
          func.call @matmul_i8_i16(%305, %297, %7) : (memref<32x64xi8>, memref<64x128xi8>, memref<128x128xi16>) -> ()
          aie.objectfifo.release @A_L2L1_0(Consume, 1)
          aie.objectfifo.release @B_L2L1_0(Consume, 1)
        }
        aie.objectfifo.release @C_L1L2_0_0(Produce, 1)
        %8 = aie.objectfifo.acquire @C_L1L2_0_0(Produce, 1) : !aie.objectfifosubview<memref<128x128xi16>>
        %9 = aie.objectfifo.subview.access %8[0] : !aie.objectfifosubview<memref<128x128xi16>> -> memref<128x128xi16>
        func.call @zero_i16(%9) : (memref<128x128xi16>) -> ()
        %c0_11 = arith.constant 0 : index
        %c16_12 = arith.constant 16 : index
        %c1_13 = arith.constant 1 : index
        scf.for %arg1 = %c0_11 to %c16_12 step %c1_13 {
          %296 = aie.objectfifo.acquire @B_L2L1_0(Consume, 1) : !aie.objectfifosubview<memref<64x128xi8>>
          %297 = aie.objectfifo.subview.access %296[0] : !aie.objectfifosubview<memref<64x128xi8>> -> memref<64x128xi8>
          %298 = aie.objectfifo.acquire @A_L2L1_0(Consume, 1) : !aie.objectfifosubview<memref<32x64xi8>>
          %299 = aie.objectfifo.subview.access %298[0] : !aie.objectfifosubview<memref<32x64xi8>> -> memref<32x64xi8>
          func.call @matmul_i8_i16(%299, %297, %9) : (memref<32x64xi8>, memref<64x128xi8>, memref<128x128xi16>) -> ()
          aie.objectfifo.release @A_L2L1_0(Consume, 1)
          %300 = aie.objectfifo.acquire @A_L2L1_0(Consume, 1) : !aie.objectfifosubview<memref<32x64xi8>>
          %301 = aie.objectfifo.subview.access %300[0] : !aie.objectfifosubview<memref<32x64xi8>> -> memref<32x64xi8>
          func.call @matmul_i8_i16(%301, %297, %9) : (memref<32x64xi8>, memref<64x128xi8>, memref<128x128xi16>) -> ()
          aie.objectfifo.release @A_L2L1_0(Consume, 1)
          %302 = aie.objectfifo.acquire @A_L2L1_0(Consume, 1) : !aie.objectfifosubview<memref<32x64xi8>>
          %303 = aie.objectfifo.subview.access %302[0] : !aie.objectfifosubview<memref<32x64xi8>> -> memref<32x64xi8>
          func.call @matmul_i8_i16(%303, %297, %9) : (memref<32x64xi8>, memref<64x128xi8>, memref<128x128xi16>) -> ()
          aie.objectfifo.release @A_L2L1_0(Consume, 1)
          %304 = aie.objectfifo.acquire @A_L2L1_0(Consume, 1) : !aie.objectfifosubview<memref<32x64xi8>>
          %305 = aie.objectfifo.subview.access %304[0] : !aie.objectfifosubview<memref<32x64xi8>> -> memref<32x64xi8>
          func.call @matmul_i8_i16(%305, %297, %9) : (memref<32x64xi8>, memref<64x128xi8>, memref<128x128xi16>) -> ()
          aie.objectfifo.release @A_L2L1_0(Consume, 1)
          aie.objectfifo.release @B_L2L1_0(Consume, 1)
        }
        aie.objectfifo.release @C_L1L2_0_0(Produce, 1)
        %10 = aie.objectfifo.acquire @C_L1L2_0_0(Produce, 1) : !aie.objectfifosubview<memref<128x128xi16>>
        %11 = aie.objectfifo.subview.access %10[0] : !aie.objectfifosubview<memref<128x128xi16>> -> memref<128x128xi16>
        func.call @zero_i16(%11) : (memref<128x128xi16>) -> ()
        %c0_14 = arith.constant 0 : index
        %c16_15 = arith.constant 16 : index
        %c1_16 = arith.constant 1 : index
        scf.for %arg1 = %c0_14 to %c16_15 step %c1_16 {
          %296 = aie.objectfifo.acquire @B_L2L1_0(Consume, 1) : !aie.objectfifosubview<memref<64x128xi8>>
          %297 = aie.objectfifo.subview.access %296[0] : !aie.objectfifosubview<memref<64x128xi8>> -> memref<64x128xi8>
          %298 = aie.objectfifo.acquire @A_L2L1_0(Consume, 1) : !aie.objectfifosubview<memref<32x64xi8>>
          %299 = aie.objectfifo.subview.access %298[0] : !aie.objectfifosubview<memref<32x64xi8>> -> memref<32x64xi8>
          func.call @matmul_i8_i16(%299, %297, %11) : (memref<32x64xi8>, memref<64x128xi8>, memref<128x128xi16>) -> ()
          aie.objectfifo.release @A_L2L1_0(Consume, 1)
          %300 = aie.objectfifo.acquire @A_L2L1_0(Consume, 1) : !aie.objectfifosubview<memref<32x64xi8>>
          %301 = aie.objectfifo.subview.access %300[0] : !aie.objectfifosubview<memref<32x64xi8>> -> memref<32x64xi8>
          func.call @matmul_i8_i16(%301, %297, %11) : (memref<32x64xi8>, memref<64x128xi8>, memref<128x128xi16>) -> ()
          aie.objectfifo.release @A_L2L1_0(Consume, 1)
          %302 = aie.objectfifo.acquire @A_L2L1_0(Consume, 1) : !aie.objectfifosubview<memref<32x64xi8>>
          %303 = aie.objectfifo.subview.access %302[0] : !aie.objectfifosubview<memref<32x64xi8>> -> memref<32x64xi8>
          func.call @matmul_i8_i16(%303, %297, %11) : (memref<32x64xi8>, memref<64x128xi8>, memref<128x128xi16>) -> ()
          aie.objectfifo.release @A_L2L1_0(Consume, 1)
          %304 = aie.objectfifo.acquire @A_L2L1_0(Consume, 1) : !aie.objectfifosubview<memref<32x64xi8>>
          %305 = aie.objectfifo.subview.access %304[0] : !aie.objectfifosubview<memref<32x64xi8>> -> memref<32x64xi8>
          func.call @matmul_i8_i16(%305, %297, %11) : (memref<32x64xi8>, memref<64x128xi8>, memref<128x128xi16>) -> ()
          aie.objectfifo.release @A_L2L1_0(Consume, 1)
          aie.objectfifo.release @B_L2L1_0(Consume, 1)
        }
        aie.objectfifo.release @C_L1L2_0_0(Produce, 1)
        %12 = aie.objectfifo.acquire @C_L1L2_0_0(Produce, 1) : !aie.objectfifosubview<memref<128x128xi16>>
        %13 = aie.objectfifo.subview.access %12[0] : !aie.objectfifosubview<memref<128x128xi16>> -> memref<128x128xi16>
        func.call @zero_i16(%13) : (memref<128x128xi16>) -> ()
        %c0_17 = arith.constant 0 : index
        %c16_18 = arith.constant 16 : index
        %c1_19 = arith.constant 1 : index
        scf.for %arg1 = %c0_17 to %c16_18 step %c1_19 {
          %296 = aie.objectfifo.acquire @B_L2L1_0(Consume, 1) : !aie.objectfifosubview<memref<64x128xi8>>
          %297 = aie.objectfifo.subview.access %296[0] : !aie.objectfifosubview<memref<64x128xi8>> -> memref<64x128xi8>
          %298 = aie.objectfifo.acquire @A_L2L1_0(Consume, 1) : !aie.objectfifosubview<memref<32x64xi8>>
          %299 = aie.objectfifo.subview.access %298[0] : !aie.objectfifosubview<memref<32x64xi8>> -> memref<32x64xi8>
          func.call @matmul_i8_i16(%299, %297, %13) : (memref<32x64xi8>, memref<64x128xi8>, memref<128x128xi16>) -> ()
          aie.objectfifo.release @A_L2L1_0(Consume, 1)
          %300 = aie.objectfifo.acquire @A_L2L1_0(Consume, 1) : !aie.objectfifosubview<memref<32x64xi8>>
          %301 = aie.objectfifo.subview.access %300[0] : !aie.objectfifosubview<memref<32x64xi8>> -> memref<32x64xi8>
          func.call @matmul_i8_i16(%301, %297, %13) : (memref<32x64xi8>, memref<64x128xi8>, memref<128x128xi16>) -> ()
          aie.objectfifo.release @A_L2L1_0(Consume, 1)
          %302 = aie.objectfifo.acquire @A_L2L1_0(Consume, 1) : !aie.objectfifosubview<memref<32x64xi8>>
          %303 = aie.objectfifo.subview.access %302[0] : !aie.objectfifosubview<memref<32x64xi8>> -> memref<32x64xi8>
          func.call @matmul_i8_i16(%303, %297, %13) : (memref<32x64xi8>, memref<64x128xi8>, memref<128x128xi16>) -> ()
          aie.objectfifo.release @A_L2L1_0(Consume, 1)
          %304 = aie.objectfifo.acquire @A_L2L1_0(Consume, 1) : !aie.objectfifosubview<memref<32x64xi8>>
          %305 = aie.objectfifo.subview.access %304[0] : !aie.objectfifosubview<memref<32x64xi8>> -> memref<32x64xi8>
          func.call @matmul_i8_i16(%305, %297, %13) : (memref<32x64xi8>, memref<64x128xi8>, memref<128x128xi16>) -> ()
          aie.objectfifo.release @A_L2L1_0(Consume, 1)
          aie.objectfifo.release @B_L2L1_0(Consume, 1)
        }
        aie.objectfifo.release @C_L1L2_0_0(Produce, 1)
        %14 = aie.objectfifo.acquire @C_L1L2_0_0(Produce, 1) : !aie.objectfifosubview<memref<128x128xi16>>
        %15 = aie.objectfifo.subview.access %14[0] : !aie.objectfifosubview<memref<128x128xi16>> -> memref<128x128xi16>
        func.call @zero_i16(%15) : (memref<128x128xi16>) -> ()
        %c0_20 = arith.constant 0 : index
        %c16_21 = arith.constant 16 : index
        %c1_22 = arith.constant 1 : index
        scf.for %arg1 = %c0_20 to %c16_21 step %c1_22 {
          %296 = aie.objectfifo.acquire @B_L2L1_0(Consume, 1) : !aie.objectfifosubview<memref<64x128xi8>>
          %297 = aie.objectfifo.subview.access %296[0] : !aie.objectfifosubview<memref<64x128xi8>> -> memref<64x128xi8>
          %298 = aie.objectfifo.acquire @A_L2L1_0(Consume, 1) : !aie.objectfifosubview<memref<32x64xi8>>
          %299 = aie.objectfifo.subview.access %298[0] : !aie.objectfifosubview<memref<32x64xi8>> -> memref<32x64xi8>
          func.call @matmul_i8_i16(%299, %297, %15) : (memref<32x64xi8>, memref<64x128xi8>, memref<128x128xi16>) -> ()
          aie.objectfifo.release @A_L2L1_0(Consume, 1)
          %300 = aie.objectfifo.acquire @A_L2L1_0(Consume, 1) : !aie.objectfifosubview<memref<32x64xi8>>
          %301 = aie.objectfifo.subview.access %300[0] : !aie.objectfifosubview<memref<32x64xi8>> -> memref<32x64xi8>
          func.call @matmul_i8_i16(%301, %297, %15) : (memref<32x64xi8>, memref<64x128xi8>, memref<128x128xi16>) -> ()
          aie.objectfifo.release @A_L2L1_0(Consume, 1)
          %302 = aie.objectfifo.acquire @A_L2L1_0(Consume, 1) : !aie.objectfifosubview<memref<32x64xi8>>
          %303 = aie.objectfifo.subview.access %302[0] : !aie.objectfifosubview<memref<32x64xi8>> -> memref<32x64xi8>
          func.call @matmul_i8_i16(%303, %297, %15) : (memref<32x64xi8>, memref<64x128xi8>, memref<128x128xi16>) -> ()
          aie.objectfifo.release @A_L2L1_0(Consume, 1)
          %304 = aie.objectfifo.acquire @A_L2L1_0(Consume, 1) : !aie.objectfifosubview<memref<32x64xi8>>
          %305 = aie.objectfifo.subview.access %304[0] : !aie.objectfifosubview<memref<32x64xi8>> -> memref<32x64xi8>
          func.call @matmul_i8_i16(%305, %297, %15) : (memref<32x64xi8>, memref<64x128xi8>, memref<128x128xi16>) -> ()
          aie.objectfifo.release @A_L2L1_0(Consume, 1)
          aie.objectfifo.release @B_L2L1_0(Consume, 1)
        }
        aie.objectfifo.release @C_L1L2_0_0(Produce, 1)
        %16 = aie.objectfifo.acquire @C_L1L2_0_0(Produce, 1) : !aie.objectfifosubview<memref<128x128xi16>>
        %17 = aie.objectfifo.subview.access %16[0] : !aie.objectfifosubview<memref<128x128xi16>> -> memref<128x128xi16>
        func.call @zero_i16(%17) : (memref<128x128xi16>) -> ()
        %c0_23 = arith.constant 0 : index
        %c16_24 = arith.constant 16 : index
        %c1_25 = arith.constant 1 : index
        scf.for %arg1 = %c0_23 to %c16_24 step %c1_25 {
          %296 = aie.objectfifo.acquire @B_L2L1_0(Consume, 1) : !aie.objectfifosubview<memref<64x128xi8>>
          %297 = aie.objectfifo.subview.access %296[0] : !aie.objectfifosubview<memref<64x128xi8>> -> memref<64x128xi8>
          %298 = aie.objectfifo.acquire @A_L2L1_0(Consume, 1) : !aie.objectfifosubview<memref<32x64xi8>>
          %299 = aie.objectfifo.subview.access %298[0] : !aie.objectfifosubview<memref<32x64xi8>> -> memref<32x64xi8>
          func.call @matmul_i8_i16(%299, %297, %17) : (memref<32x64xi8>, memref<64x128xi8>, memref<128x128xi16>) -> ()
          aie.objectfifo.release @A_L2L1_0(Consume, 1)
          %300 = aie.objectfifo.acquire @A_L2L1_0(Consume, 1) : !aie.objectfifosubview<memref<32x64xi8>>
          %301 = aie.objectfifo.subview.access %300[0] : !aie.objectfifosubview<memref<32x64xi8>> -> memref<32x64xi8>
          func.call @matmul_i8_i16(%301, %297, %17) : (memref<32x64xi8>, memref<64x128xi8>, memref<128x128xi16>) -> ()
          aie.objectfifo.release @A_L2L1_0(Consume, 1)
          %302 = aie.objectfifo.acquire @A_L2L1_0(Consume, 1) : !aie.objectfifosubview<memref<32x64xi8>>
          %303 = aie.objectfifo.subview.access %302[0] : !aie.objectfifosubview<memref<32x64xi8>> -> memref<32x64xi8>
          func.call @matmul_i8_i16(%303, %297, %17) : (memref<32x64xi8>, memref<64x128xi8>, memref<128x128xi16>) -> ()
          aie.objectfifo.release @A_L2L1_0(Consume, 1)
          %304 = aie.objectfifo.acquire @A_L2L1_0(Consume, 1) : !aie.objectfifosubview<memref<32x64xi8>>
          %305 = aie.objectfifo.subview.access %304[0] : !aie.objectfifosubview<memref<32x64xi8>> -> memref<32x64xi8>
          func.call @matmul_i8_i16(%305, %297, %17) : (memref<32x64xi8>, memref<64x128xi8>, memref<128x128xi16>) -> ()
          aie.objectfifo.release @A_L2L1_0(Consume, 1)
          aie.objectfifo.release @B_L2L1_0(Consume, 1)
        }
        aie.objectfifo.release @C_L1L2_0_0(Produce, 1)
        %18 = aie.objectfifo.acquire @C_L1L2_0_0(Produce, 1) : !aie.objectfifosubview<memref<128x128xi16>>
        %19 = aie.objectfifo.subview.access %18[0] : !aie.objectfifosubview<memref<128x128xi16>> -> memref<128x128xi16>
        func.call @zero_i16(%19) : (memref<128x128xi16>) -> ()
        %c0_26 = arith.constant 0 : index
        %c16_27 = arith.constant 16 : index
        %c1_28 = arith.constant 1 : index
        scf.for %arg1 = %c0_26 to %c16_27 step %c1_28 {
          %296 = aie.objectfifo.acquire @B_L2L1_0(Consume, 1) : !aie.objectfifosubview<memref<64x128xi8>>
          %297 = aie.objectfifo.subview.access %296[0] : !aie.objectfifosubview<memref<64x128xi8>> -> memref<64x128xi8>
          %298 = aie.objectfifo.acquire @A_L2L1_0(Consume, 1) : !aie.objectfifosubview<memref<32x64xi8>>
          %299 = aie.objectfifo.subview.access %298[0] : !aie.objectfifosubview<memref<32x64xi8>> -> memref<32x64xi8>
          func.call @matmul_i8_i16(%299, %297, %19) : (memref<32x64xi8>, memref<64x128xi8>, memref<128x128xi16>) -> ()
          aie.objectfifo.release @A_L2L1_0(Consume, 1)
          %300 = aie.objectfifo.acquire @A_L2L1_0(Consume, 1) : !aie.objectfifosubview<memref<32x64xi8>>
          %301 = aie.objectfifo.subview.access %300[0] : !aie.objectfifosubview<memref<32x64xi8>> -> memref<32x64xi8>
          func.call @matmul_i8_i16(%301, %297, %19) : (memref<32x64xi8>, memref<64x128xi8>, memref<128x128xi16>) -> ()
          aie.objectfifo.release @A_L2L1_0(Consume, 1)
          %302 = aie.objectfifo.acquire @A_L2L1_0(Consume, 1) : !aie.objectfifosubview<memref<32x64xi8>>
          %303 = aie.objectfifo.subview.access %302[0] : !aie.objectfifosubview<memref<32x64xi8>> -> memref<32x64xi8>
          func.call @matmul_i8_i16(%303, %297, %19) : (memref<32x64xi8>, memref<64x128xi8>, memref<128x128xi16>) -> ()
          aie.objectfifo.release @A_L2L1_0(Consume, 1)
          %304 = aie.objectfifo.acquire @A_L2L1_0(Consume, 1) : !aie.objectfifosubview<memref<32x64xi8>>
          %305 = aie.objectfifo.subview.access %304[0] : !aie.objectfifosubview<memref<32x64xi8>> -> memref<32x64xi8>
          func.call @matmul_i8_i16(%305, %297, %19) : (memref<32x64xi8>, memref<64x128xi8>, memref<128x128xi16>) -> ()
          aie.objectfifo.release @A_L2L1_0(Consume, 1)
          aie.objectfifo.release @B_L2L1_0(Consume, 1)
        }
        aie.objectfifo.release @C_L1L2_0_0(Produce, 1)
        %20 = aie.objectfifo.acquire @C_L1L2_0_0(Produce, 1) : !aie.objectfifosubview<memref<128x128xi16>>
        %21 = aie.objectfifo.subview.access %20[0] : !aie.objectfifosubview<memref<128x128xi16>> -> memref<128x128xi16>
        func.call @zero_i16(%21) : (memref<128x128xi16>) -> ()
        %c0_29 = arith.constant 0 : index
        %c16_30 = arith.constant 16 : index
        %c1_31 = arith.constant 1 : index
        scf.for %arg1 = %c0_29 to %c16_30 step %c1_31 {
          %296 = aie.objectfifo.acquire @B_L2L1_0(Consume, 1) : !aie.objectfifosubview<memref<64x128xi8>>
          %297 = aie.objectfifo.subview.access %296[0] : !aie.objectfifosubview<memref<64x128xi8>> -> memref<64x128xi8>
          %298 = aie.objectfifo.acquire @A_L2L1_0(Consume, 1) : !aie.objectfifosubview<memref<32x64xi8>>
          %299 = aie.objectfifo.subview.access %298[0] : !aie.objectfifosubview<memref<32x64xi8>> -> memref<32x64xi8>
          func.call @matmul_i8_i16(%299, %297, %21) : (memref<32x64xi8>, memref<64x128xi8>, memref<128x128xi16>) -> ()
          aie.objectfifo.release @A_L2L1_0(Consume, 1)
          %300 = aie.objectfifo.acquire @A_L2L1_0(Consume, 1) : !aie.objectfifosubview<memref<32x64xi8>>
          %301 = aie.objectfifo.subview.access %300[0] : !aie.objectfifosubview<memref<32x64xi8>> -> memref<32x64xi8>
          func.call @matmul_i8_i16(%301, %297, %21) : (memref<32x64xi8>, memref<64x128xi8>, memref<128x128xi16>) -> ()
          aie.objectfifo.release @A_L2L1_0(Consume, 1)
          %302 = aie.objectfifo.acquire @A_L2L1_0(Consume, 1) : !aie.objectfifosubview<memref<32x64xi8>>
          %303 = aie.objectfifo.subview.access %302[0] : !aie.objectfifosubview<memref<32x64xi8>> -> memref<32x64xi8>
          func.call @matmul_i8_i16(%303, %297, %21) : (memref<32x64xi8>, memref<64x128xi8>, memref<128x128xi16>) -> ()
          aie.objectfifo.release @A_L2L1_0(Consume, 1)
          %304 = aie.objectfifo.acquire @A_L2L1_0(Consume, 1) : !aie.objectfifosubview<memref<32x64xi8>>
          %305 = aie.objectfifo.subview.access %304[0] : !aie.objectfifosubview<memref<32x64xi8>> -> memref<32x64xi8>
          func.call @matmul_i8_i16(%305, %297, %21) : (memref<32x64xi8>, memref<64x128xi8>, memref<128x128xi16>) -> ()
          aie.objectfifo.release @A_L2L1_0(Consume, 1)
          aie.objectfifo.release @B_L2L1_0(Consume, 1)
        }
        aie.objectfifo.release @C_L1L2_0_0(Produce, 1)
        %22 = aie.objectfifo.acquire @C_L1L2_0_0(Produce, 1) : !aie.objectfifosubview<memref<128x128xi16>>
        %23 = aie.objectfifo.subview.access %22[0] : !aie.objectfifosubview<memref<128x128xi16>> -> memref<128x128xi16>
        func.call @zero_i16(%23) : (memref<128x128xi16>) -> ()
        %c0_32 = arith.constant 0 : index
        %c16_33 = arith.constant 16 : index
        %c1_34 = arith.constant 1 : index
        scf.for %arg1 = %c0_32 to %c16_33 step %c1_34 {
          %296 = aie.objectfifo.acquire @B_L2L1_0(Consume, 1) : !aie.objectfifosubview<memref<64x128xi8>>
          %297 = aie.objectfifo.subview.access %296[0] : !aie.objectfifosubview<memref<64x128xi8>> -> memref<64x128xi8>
          %298 = aie.objectfifo.acquire @A_L2L1_0(Consume, 1) : !aie.objectfifosubview<memref<32x64xi8>>
          %299 = aie.objectfifo.subview.access %298[0] : !aie.objectfifosubview<memref<32x64xi8>> -> memref<32x64xi8>
          func.call @matmul_i8_i16(%299, %297, %23) : (memref<32x64xi8>, memref<64x128xi8>, memref<128x128xi16>) -> ()
          aie.objectfifo.release @A_L2L1_0(Consume, 1)
          %300 = aie.objectfifo.acquire @A_L2L1_0(Consume, 1) : !aie.objectfifosubview<memref<32x64xi8>>
          %301 = aie.objectfifo.subview.access %300[0] : !aie.objectfifosubview<memref<32x64xi8>> -> memref<32x64xi8>
          func.call @matmul_i8_i16(%301, %297, %23) : (memref<32x64xi8>, memref<64x128xi8>, memref<128x128xi16>) -> ()
          aie.objectfifo.release @A_L2L1_0(Consume, 1)
          %302 = aie.objectfifo.acquire @A_L2L1_0(Consume, 1) : !aie.objectfifosubview<memref<32x64xi8>>
          %303 = aie.objectfifo.subview.access %302[0] : !aie.objectfifosubview<memref<32x64xi8>> -> memref<32x64xi8>
          func.call @matmul_i8_i16(%303, %297, %23) : (memref<32x64xi8>, memref<64x128xi8>, memref<128x128xi16>) -> ()
          aie.objectfifo.release @A_L2L1_0(Consume, 1)
          %304 = aie.objectfifo.acquire @A_L2L1_0(Consume, 1) : !aie.objectfifosubview<memref<32x64xi8>>
          %305 = aie.objectfifo.subview.access %304[0] : !aie.objectfifosubview<memref<32x64xi8>> -> memref<32x64xi8>
          func.call @matmul_i8_i16(%305, %297, %23) : (memref<32x64xi8>, memref<64x128xi8>, memref<128x128xi16>) -> ()
          aie.objectfifo.release @A_L2L1_0(Consume, 1)
          aie.objectfifo.release @B_L2L1_0(Consume, 1)
        }
        aie.objectfifo.release @C_L1L2_0_0(Produce, 1)
        %24 = aie.objectfifo.acquire @C_L1L2_0_0(Produce, 1) : !aie.objectfifosubview<memref<128x128xi16>>
        %25 = aie.objectfifo.subview.access %24[0] : !aie.objectfifosubview<memref<128x128xi16>> -> memref<128x128xi16>
        func.call @zero_i16(%25) : (memref<128x128xi16>) -> ()
        %c0_35 = arith.constant 0 : index
        %c16_36 = arith.constant 16 : index
        %c1_37 = arith.constant 1 : index
        scf.for %arg1 = %c0_35 to %c16_36 step %c1_37 {
          %296 = aie.objectfifo.acquire @B_L2L1_0(Consume, 1) : !aie.objectfifosubview<memref<64x128xi8>>
          %297 = aie.objectfifo.subview.access %296[0] : !aie.objectfifosubview<memref<64x128xi8>> -> memref<64x128xi8>
          %298 = aie.objectfifo.acquire @A_L2L1_0(Consume, 1) : !aie.objectfifosubview<memref<32x64xi8>>
          %299 = aie.objectfifo.subview.access %298[0] : !aie.objectfifosubview<memref<32x64xi8>> -> memref<32x64xi8>
          func.call @matmul_i8_i16(%299, %297, %25) : (memref<32x64xi8>, memref<64x128xi8>, memref<128x128xi16>) -> ()
          aie.objectfifo.release @A_L2L1_0(Consume, 1)
          %300 = aie.objectfifo.acquire @A_L2L1_0(Consume, 1) : !aie.objectfifosubview<memref<32x64xi8>>
          %301 = aie.objectfifo.subview.access %300[0] : !aie.objectfifosubview<memref<32x64xi8>> -> memref<32x64xi8>
          func.call @matmul_i8_i16(%301, %297, %25) : (memref<32x64xi8>, memref<64x128xi8>, memref<128x128xi16>) -> ()
          aie.objectfifo.release @A_L2L1_0(Consume, 1)
          %302 = aie.objectfifo.acquire @A_L2L1_0(Consume, 1) : !aie.objectfifosubview<memref<32x64xi8>>
          %303 = aie.objectfifo.subview.access %302[0] : !aie.objectfifosubview<memref<32x64xi8>> -> memref<32x64xi8>
          func.call @matmul_i8_i16(%303, %297, %25) : (memref<32x64xi8>, memref<64x128xi8>, memref<128x128xi16>) -> ()
          aie.objectfifo.release @A_L2L1_0(Consume, 1)
          %304 = aie.objectfifo.acquire @A_L2L1_0(Consume, 1) : !aie.objectfifosubview<memref<32x64xi8>>
          %305 = aie.objectfifo.subview.access %304[0] : !aie.objectfifosubview<memref<32x64xi8>> -> memref<32x64xi8>
          func.call @matmul_i8_i16(%305, %297, %25) : (memref<32x64xi8>, memref<64x128xi8>, memref<128x128xi16>) -> ()
          aie.objectfifo.release @A_L2L1_0(Consume, 1)
          aie.objectfifo.release @B_L2L1_0(Consume, 1)
        }
        aie.objectfifo.release @C_L1L2_0_0(Produce, 1)
        %26 = aie.objectfifo.acquire @C_L1L2_0_0(Produce, 1) : !aie.objectfifosubview<memref<128x128xi16>>
        %27 = aie.objectfifo.subview.access %26[0] : !aie.objectfifosubview<memref<128x128xi16>> -> memref<128x128xi16>
        func.call @zero_i16(%27) : (memref<128x128xi16>) -> ()
        %c0_38 = arith.constant 0 : index
        %c16_39 = arith.constant 16 : index
        %c1_40 = arith.constant 1 : index
        scf.for %arg1 = %c0_38 to %c16_39 step %c1_40 {
          %296 = aie.objectfifo.acquire @B_L2L1_0(Consume, 1) : !aie.objectfifosubview<memref<64x128xi8>>
          %297 = aie.objectfifo.subview.access %296[0] : !aie.objectfifosubview<memref<64x128xi8>> -> memref<64x128xi8>
          %298 = aie.objectfifo.acquire @A_L2L1_0(Consume, 1) : !aie.objectfifosubview<memref<32x64xi8>>
          %299 = aie.objectfifo.subview.access %298[0] : !aie.objectfifosubview<memref<32x64xi8>> -> memref<32x64xi8>
          func.call @matmul_i8_i16(%299, %297, %27) : (memref<32x64xi8>, memref<64x128xi8>, memref<128x128xi16>) -> ()
          aie.objectfifo.release @A_L2L1_0(Consume, 1)
          %300 = aie.objectfifo.acquire @A_L2L1_0(Consume, 1) : !aie.objectfifosubview<memref<32x64xi8>>
          %301 = aie.objectfifo.subview.access %300[0] : !aie.objectfifosubview<memref<32x64xi8>> -> memref<32x64xi8>
          func.call @matmul_i8_i16(%301, %297, %27) : (memref<32x64xi8>, memref<64x128xi8>, memref<128x128xi16>) -> ()
          aie.objectfifo.release @A_L2L1_0(Consume, 1)
          %302 = aie.objectfifo.acquire @A_L2L1_0(Consume, 1) : !aie.objectfifosubview<memref<32x64xi8>>
          %303 = aie.objectfifo.subview.access %302[0] : !aie.objectfifosubview<memref<32x64xi8>> -> memref<32x64xi8>
          func.call @matmul_i8_i16(%303, %297, %27) : (memref<32x64xi8>, memref<64x128xi8>, memref<128x128xi16>) -> ()
          aie.objectfifo.release @A_L2L1_0(Consume, 1)
          %304 = aie.objectfifo.acquire @A_L2L1_0(Consume, 1) : !aie.objectfifosubview<memref<32x64xi8>>
          %305 = aie.objectfifo.subview.access %304[0] : !aie.objectfifosubview<memref<32x64xi8>> -> memref<32x64xi8>
          func.call @matmul_i8_i16(%305, %297, %27) : (memref<32x64xi8>, memref<64x128xi8>, memref<128x128xi16>) -> ()
          aie.objectfifo.release @A_L2L1_0(Consume, 1)
          aie.objectfifo.release @B_L2L1_0(Consume, 1)
        }
        aie.objectfifo.release @C_L1L2_0_0(Produce, 1)
        %28 = aie.objectfifo.acquire @C_L1L2_0_0(Produce, 1) : !aie.objectfifosubview<memref<128x128xi16>>
        %29 = aie.objectfifo.subview.access %28[0] : !aie.objectfifosubview<memref<128x128xi16>> -> memref<128x128xi16>
        func.call @zero_i16(%29) : (memref<128x128xi16>) -> ()
        %c0_41 = arith.constant 0 : index
        %c16_42 = arith.constant 16 : index
        %c1_43 = arith.constant 1 : index
        scf.for %arg1 = %c0_41 to %c16_42 step %c1_43 {
          %296 = aie.objectfifo.acquire @B_L2L1_0(Consume, 1) : !aie.objectfifosubview<memref<64x128xi8>>
          %297 = aie.objectfifo.subview.access %296[0] : !aie.objectfifosubview<memref<64x128xi8>> -> memref<64x128xi8>
          %298 = aie.objectfifo.acquire @A_L2L1_0(Consume, 1) : !aie.objectfifosubview<memref<32x64xi8>>
          %299 = aie.objectfifo.subview.access %298[0] : !aie.objectfifosubview<memref<32x64xi8>> -> memref<32x64xi8>
          func.call @matmul_i8_i16(%299, %297, %29) : (memref<32x64xi8>, memref<64x128xi8>, memref<128x128xi16>) -> ()
          aie.objectfifo.release @A_L2L1_0(Consume, 1)
          %300 = aie.objectfifo.acquire @A_L2L1_0(Consume, 1) : !aie.objectfifosubview<memref<32x64xi8>>
          %301 = aie.objectfifo.subview.access %300[0] : !aie.objectfifosubview<memref<32x64xi8>> -> memref<32x64xi8>
          func.call @matmul_i8_i16(%301, %297, %29) : (memref<32x64xi8>, memref<64x128xi8>, memref<128x128xi16>) -> ()
          aie.objectfifo.release @A_L2L1_0(Consume, 1)
          %302 = aie.objectfifo.acquire @A_L2L1_0(Consume, 1) : !aie.objectfifosubview<memref<32x64xi8>>
          %303 = aie.objectfifo.subview.access %302[0] : !aie.objectfifosubview<memref<32x64xi8>> -> memref<32x64xi8>
          func.call @matmul_i8_i16(%303, %297, %29) : (memref<32x64xi8>, memref<64x128xi8>, memref<128x128xi16>) -> ()
          aie.objectfifo.release @A_L2L1_0(Consume, 1)
          %304 = aie.objectfifo.acquire @A_L2L1_0(Consume, 1) : !aie.objectfifosubview<memref<32x64xi8>>
          %305 = aie.objectfifo.subview.access %304[0] : !aie.objectfifosubview<memref<32x64xi8>> -> memref<32x64xi8>
          func.call @matmul_i8_i16(%305, %297, %29) : (memref<32x64xi8>, memref<64x128xi8>, memref<128x128xi16>) -> ()
          aie.objectfifo.release @A_L2L1_0(Consume, 1)
          aie.objectfifo.release @B_L2L1_0(Consume, 1)
        }
        aie.objectfifo.release @C_L1L2_0_0(Produce, 1)
        %30 = aie.objectfifo.acquire @C_L1L2_0_0(Produce, 1) : !aie.objectfifosubview<memref<128x128xi16>>
        %31 = aie.objectfifo.subview.access %30[0] : !aie.objectfifosubview<memref<128x128xi16>> -> memref<128x128xi16>
        func.call @zero_i16(%31) : (memref<128x128xi16>) -> ()
        %c0_44 = arith.constant 0 : index
        %c16_45 = arith.constant 16 : index
        %c1_46 = arith.constant 1 : index
        scf.for %arg1 = %c0_44 to %c16_45 step %c1_46 {
          %296 = aie.objectfifo.acquire @B_L2L1_0(Consume, 1) : !aie.objectfifosubview<memref<64x128xi8>>
          %297 = aie.objectfifo.subview.access %296[0] : !aie.objectfifosubview<memref<64x128xi8>> -> memref<64x128xi8>
          %298 = aie.objectfifo.acquire @A_L2L1_0(Consume, 1) : !aie.objectfifosubview<memref<32x64xi8>>
          %299 = aie.objectfifo.subview.access %298[0] : !aie.objectfifosubview<memref<32x64xi8>> -> memref<32x64xi8>
          func.call @matmul_i8_i16(%299, %297, %31) : (memref<32x64xi8>, memref<64x128xi8>, memref<128x128xi16>) -> ()
          aie.objectfifo.release @A_L2L1_0(Consume, 1)
          %300 = aie.objectfifo.acquire @A_L2L1_0(Consume, 1) : !aie.objectfifosubview<memref<32x64xi8>>
          %301 = aie.objectfifo.subview.access %300[0] : !aie.objectfifosubview<memref<32x64xi8>> -> memref<32x64xi8>
          func.call @matmul_i8_i16(%301, %297, %31) : (memref<32x64xi8>, memref<64x128xi8>, memref<128x128xi16>) -> ()
          aie.objectfifo.release @A_L2L1_0(Consume, 1)
          %302 = aie.objectfifo.acquire @A_L2L1_0(Consume, 1) : !aie.objectfifosubview<memref<32x64xi8>>
          %303 = aie.objectfifo.subview.access %302[0] : !aie.objectfifosubview<memref<32x64xi8>> -> memref<32x64xi8>
          func.call @matmul_i8_i16(%303, %297, %31) : (memref<32x64xi8>, memref<64x128xi8>, memref<128x128xi16>) -> ()
          aie.objectfifo.release @A_L2L1_0(Consume, 1)
          %304 = aie.objectfifo.acquire @A_L2L1_0(Consume, 1) : !aie.objectfifosubview<memref<32x64xi8>>
          %305 = aie.objectfifo.subview.access %304[0] : !aie.objectfifosubview<memref<32x64xi8>> -> memref<32x64xi8>
          func.call @matmul_i8_i16(%305, %297, %31) : (memref<32x64xi8>, memref<64x128xi8>, memref<128x128xi16>) -> ()
          aie.objectfifo.release @A_L2L1_0(Consume, 1)
          aie.objectfifo.release @B_L2L1_0(Consume, 1)
        }
        aie.objectfifo.release @C_L1L2_0_0(Produce, 1)
        %32 = aie.objectfifo.acquire @C_L1L2_0_0(Produce, 1) : !aie.objectfifosubview<memref<128x128xi16>>
        %33 = aie.objectfifo.subview.access %32[0] : !aie.objectfifosubview<memref<128x128xi16>> -> memref<128x128xi16>
        func.call @zero_i16(%33) : (memref<128x128xi16>) -> ()
        %c0_47 = arith.constant 0 : index
        %c16_48 = arith.constant 16 : index
        %c1_49 = arith.constant 1 : index
        scf.for %arg1 = %c0_47 to %c16_48 step %c1_49 {
          %296 = aie.objectfifo.acquire @B_L2L1_0(Consume, 1) : !aie.objectfifosubview<memref<64x128xi8>>
          %297 = aie.objectfifo.subview.access %296[0] : !aie.objectfifosubview<memref<64x128xi8>> -> memref<64x128xi8>
          %298 = aie.objectfifo.acquire @A_L2L1_0(Consume, 1) : !aie.objectfifosubview<memref<32x64xi8>>
          %299 = aie.objectfifo.subview.access %298[0] : !aie.objectfifosubview<memref<32x64xi8>> -> memref<32x64xi8>
          func.call @matmul_i8_i16(%299, %297, %33) : (memref<32x64xi8>, memref<64x128xi8>, memref<128x128xi16>) -> ()
          aie.objectfifo.release @A_L2L1_0(Consume, 1)
          %300 = aie.objectfifo.acquire @A_L2L1_0(Consume, 1) : !aie.objectfifosubview<memref<32x64xi8>>
          %301 = aie.objectfifo.subview.access %300[0] : !aie.objectfifosubview<memref<32x64xi8>> -> memref<32x64xi8>
          func.call @matmul_i8_i16(%301, %297, %33) : (memref<32x64xi8>, memref<64x128xi8>, memref<128x128xi16>) -> ()
          aie.objectfifo.release @A_L2L1_0(Consume, 1)
          %302 = aie.objectfifo.acquire @A_L2L1_0(Consume, 1) : !aie.objectfifosubview<memref<32x64xi8>>
          %303 = aie.objectfifo.subview.access %302[0] : !aie.objectfifosubview<memref<32x64xi8>> -> memref<32x64xi8>
          func.call @matmul_i8_i16(%303, %297, %33) : (memref<32x64xi8>, memref<64x128xi8>, memref<128x128xi16>) -> ()
          aie.objectfifo.release @A_L2L1_0(Consume, 1)
          %304 = aie.objectfifo.acquire @A_L2L1_0(Consume, 1) : !aie.objectfifosubview<memref<32x64xi8>>
          %305 = aie.objectfifo.subview.access %304[0] : !aie.objectfifosubview<memref<32x64xi8>> -> memref<32x64xi8>
          func.call @matmul_i8_i16(%305, %297, %33) : (memref<32x64xi8>, memref<64x128xi8>, memref<128x128xi16>) -> ()
          aie.objectfifo.release @A_L2L1_0(Consume, 1)
          aie.objectfifo.release @B_L2L1_0(Consume, 1)
        }
        aie.objectfifo.release @C_L1L2_0_0(Produce, 1)
        %34 = aie.objectfifo.acquire @C_L1L2_0_0(Produce, 1) : !aie.objectfifosubview<memref<128x128xi16>>
        %35 = aie.objectfifo.subview.access %34[0] : !aie.objectfifosubview<memref<128x128xi16>> -> memref<128x128xi16>
        func.call @zero_i16(%35) : (memref<128x128xi16>) -> ()
        %c0_50 = arith.constant 0 : index
        %c16_51 = arith.constant 16 : index
        %c1_52 = arith.constant 1 : index
        scf.for %arg1 = %c0_50 to %c16_51 step %c1_52 {
          %296 = aie.objectfifo.acquire @B_L2L1_0(Consume, 1) : !aie.objectfifosubview<memref<64x128xi8>>
          %297 = aie.objectfifo.subview.access %296[0] : !aie.objectfifosubview<memref<64x128xi8>> -> memref<64x128xi8>
          %298 = aie.objectfifo.acquire @A_L2L1_0(Consume, 1) : !aie.objectfifosubview<memref<32x64xi8>>
          %299 = aie.objectfifo.subview.access %298[0] : !aie.objectfifosubview<memref<32x64xi8>> -> memref<32x64xi8>
          func.call @matmul_i8_i16(%299, %297, %35) : (memref<32x64xi8>, memref<64x128xi8>, memref<128x128xi16>) -> ()
          aie.objectfifo.release @A_L2L1_0(Consume, 1)
          %300 = aie.objectfifo.acquire @A_L2L1_0(Consume, 1) : !aie.objectfifosubview<memref<32x64xi8>>
          %301 = aie.objectfifo.subview.access %300[0] : !aie.objectfifosubview<memref<32x64xi8>> -> memref<32x64xi8>
          func.call @matmul_i8_i16(%301, %297, %35) : (memref<32x64xi8>, memref<64x128xi8>, memref<128x128xi16>) -> ()
          aie.objectfifo.release @A_L2L1_0(Consume, 1)
          %302 = aie.objectfifo.acquire @A_L2L1_0(Consume, 1) : !aie.objectfifosubview<memref<32x64xi8>>
          %303 = aie.objectfifo.subview.access %302[0] : !aie.objectfifosubview<memref<32x64xi8>> -> memref<32x64xi8>
          func.call @matmul_i8_i16(%303, %297, %35) : (memref<32x64xi8>, memref<64x128xi8>, memref<128x128xi16>) -> ()
          aie.objectfifo.release @A_L2L1_0(Consume, 1)
          %304 = aie.objectfifo.acquire @A_L2L1_0(Consume, 1) : !aie.objectfifosubview<memref<32x64xi8>>
          %305 = aie.objectfifo.subview.access %304[0] : !aie.objectfifosubview<memref<32x64xi8>> -> memref<32x64xi8>
          func.call @matmul_i8_i16(%305, %297, %35) : (memref<32x64xi8>, memref<64x128xi8>, memref<128x128xi16>) -> ()
          aie.objectfifo.release @A_L2L1_0(Consume, 1)
          aie.objectfifo.release @B_L2L1_0(Consume, 1)
        }
        aie.objectfifo.release @C_L1L2_0_0(Produce, 1)
        %36 = aie.objectfifo.acquire @C_L1L2_0_0(Produce, 1) : !aie.objectfifosubview<memref<128x128xi16>>
        %37 = aie.objectfifo.subview.access %36[0] : !aie.objectfifosubview<memref<128x128xi16>> -> memref<128x128xi16>
        func.call @zero_i16(%37) : (memref<128x128xi16>) -> ()
        %c0_53 = arith.constant 0 : index
        %c16_54 = arith.constant 16 : index
        %c1_55 = arith.constant 1 : index
        scf.for %arg1 = %c0_53 to %c16_54 step %c1_55 {
          %296 = aie.objectfifo.acquire @B_L2L1_0(Consume, 1) : !aie.objectfifosubview<memref<64x128xi8>>
          %297 = aie.objectfifo.subview.access %296[0] : !aie.objectfifosubview<memref<64x128xi8>> -> memref<64x128xi8>
          %298 = aie.objectfifo.acquire @A_L2L1_0(Consume, 1) : !aie.objectfifosubview<memref<32x64xi8>>
          %299 = aie.objectfifo.subview.access %298[0] : !aie.objectfifosubview<memref<32x64xi8>> -> memref<32x64xi8>
          func.call @matmul_i8_i16(%299, %297, %37) : (memref<32x64xi8>, memref<64x128xi8>, memref<128x128xi16>) -> ()
          aie.objectfifo.release @A_L2L1_0(Consume, 1)
          %300 = aie.objectfifo.acquire @A_L2L1_0(Consume, 1) : !aie.objectfifosubview<memref<32x64xi8>>
          %301 = aie.objectfifo.subview.access %300[0] : !aie.objectfifosubview<memref<32x64xi8>> -> memref<32x64xi8>
          func.call @matmul_i8_i16(%301, %297, %37) : (memref<32x64xi8>, memref<64x128xi8>, memref<128x128xi16>) -> ()
          aie.objectfifo.release @A_L2L1_0(Consume, 1)
          %302 = aie.objectfifo.acquire @A_L2L1_0(Consume, 1) : !aie.objectfifosubview<memref<32x64xi8>>
          %303 = aie.objectfifo.subview.access %302[0] : !aie.objectfifosubview<memref<32x64xi8>> -> memref<32x64xi8>
          func.call @matmul_i8_i16(%303, %297, %37) : (memref<32x64xi8>, memref<64x128xi8>, memref<128x128xi16>) -> ()
          aie.objectfifo.release @A_L2L1_0(Consume, 1)
          %304 = aie.objectfifo.acquire @A_L2L1_0(Consume, 1) : !aie.objectfifosubview<memref<32x64xi8>>
          %305 = aie.objectfifo.subview.access %304[0] : !aie.objectfifosubview<memref<32x64xi8>> -> memref<32x64xi8>
          func.call @matmul_i8_i16(%305, %297, %37) : (memref<32x64xi8>, memref<64x128xi8>, memref<128x128xi16>) -> ()
          aie.objectfifo.release @A_L2L1_0(Consume, 1)
          aie.objectfifo.release @B_L2L1_0(Consume, 1)
        }
        aie.objectfifo.release @C_L1L2_0_0(Produce, 1)
        %38 = aie.objectfifo.acquire @C_L1L2_0_0(Produce, 1) : !aie.objectfifosubview<memref<128x128xi16>>
        %39 = aie.objectfifo.subview.access %38[0] : !aie.objectfifosubview<memref<128x128xi16>> -> memref<128x128xi16>
        func.call @zero_i16(%39) : (memref<128x128xi16>) -> ()
        %c0_56 = arith.constant 0 : index
        %c16_57 = arith.constant 16 : index
        %c1_58 = arith.constant 1 : index
        scf.for %arg1 = %c0_56 to %c16_57 step %c1_58 {
          %296 = aie.objectfifo.acquire @B_L2L1_0(Consume, 1) : !aie.objectfifosubview<memref<64x128xi8>>
          %297 = aie.objectfifo.subview.access %296[0] : !aie.objectfifosubview<memref<64x128xi8>> -> memref<64x128xi8>
          %298 = aie.objectfifo.acquire @A_L2L1_0(Consume, 1) : !aie.objectfifosubview<memref<32x64xi8>>
          %299 = aie.objectfifo.subview.access %298[0] : !aie.objectfifosubview<memref<32x64xi8>> -> memref<32x64xi8>
          func.call @matmul_i8_i16(%299, %297, %39) : (memref<32x64xi8>, memref<64x128xi8>, memref<128x128xi16>) -> ()
          aie.objectfifo.release @A_L2L1_0(Consume, 1)
          %300 = aie.objectfifo.acquire @A_L2L1_0(Consume, 1) : !aie.objectfifosubview<memref<32x64xi8>>
          %301 = aie.objectfifo.subview.access %300[0] : !aie.objectfifosubview<memref<32x64xi8>> -> memref<32x64xi8>
          func.call @matmul_i8_i16(%301, %297, %39) : (memref<32x64xi8>, memref<64x128xi8>, memref<128x128xi16>) -> ()
          aie.objectfifo.release @A_L2L1_0(Consume, 1)
          %302 = aie.objectfifo.acquire @A_L2L1_0(Consume, 1) : !aie.objectfifosubview<memref<32x64xi8>>
          %303 = aie.objectfifo.subview.access %302[0] : !aie.objectfifosubview<memref<32x64xi8>> -> memref<32x64xi8>
          func.call @matmul_i8_i16(%303, %297, %39) : (memref<32x64xi8>, memref<64x128xi8>, memref<128x128xi16>) -> ()
          aie.objectfifo.release @A_L2L1_0(Consume, 1)
          %304 = aie.objectfifo.acquire @A_L2L1_0(Consume, 1) : !aie.objectfifosubview<memref<32x64xi8>>
          %305 = aie.objectfifo.subview.access %304[0] : !aie.objectfifosubview<memref<32x64xi8>> -> memref<32x64xi8>
          func.call @matmul_i8_i16(%305, %297, %39) : (memref<32x64xi8>, memref<64x128xi8>, memref<128x128xi16>) -> ()
          aie.objectfifo.release @A_L2L1_0(Consume, 1)
          aie.objectfifo.release @B_L2L1_0(Consume, 1)
        }
        aie.objectfifo.release @C_L1L2_0_0(Produce, 1)
        %40 = aie.objectfifo.acquire @C_L1L2_0_0(Produce, 1) : !aie.objectfifosubview<memref<128x128xi16>>
        %41 = aie.objectfifo.subview.access %40[0] : !aie.objectfifosubview<memref<128x128xi16>> -> memref<128x128xi16>
        func.call @zero_i16(%41) : (memref<128x128xi16>) -> ()
        %c0_59 = arith.constant 0 : index
        %c16_60 = arith.constant 16 : index
        %c1_61 = arith.constant 1 : index
        scf.for %arg1 = %c0_59 to %c16_60 step %c1_61 {
          %296 = aie.objectfifo.acquire @B_L2L1_0(Consume, 1) : !aie.objectfifosubview<memref<64x128xi8>>
          %297 = aie.objectfifo.subview.access %296[0] : !aie.objectfifosubview<memref<64x128xi8>> -> memref<64x128xi8>
          %298 = aie.objectfifo.acquire @A_L2L1_0(Consume, 1) : !aie.objectfifosubview<memref<32x64xi8>>
          %299 = aie.objectfifo.subview.access %298[0] : !aie.objectfifosubview<memref<32x64xi8>> -> memref<32x64xi8>
          func.call @matmul_i8_i16(%299, %297, %41) : (memref<32x64xi8>, memref<64x128xi8>, memref<128x128xi16>) -> ()
          aie.objectfifo.release @A_L2L1_0(Consume, 1)
          %300 = aie.objectfifo.acquire @A_L2L1_0(Consume, 1) : !aie.objectfifosubview<memref<32x64xi8>>
          %301 = aie.objectfifo.subview.access %300[0] : !aie.objectfifosubview<memref<32x64xi8>> -> memref<32x64xi8>
          func.call @matmul_i8_i16(%301, %297, %41) : (memref<32x64xi8>, memref<64x128xi8>, memref<128x128xi16>) -> ()
          aie.objectfifo.release @A_L2L1_0(Consume, 1)
          %302 = aie.objectfifo.acquire @A_L2L1_0(Consume, 1) : !aie.objectfifosubview<memref<32x64xi8>>
          %303 = aie.objectfifo.subview.access %302[0] : !aie.objectfifosubview<memref<32x64xi8>> -> memref<32x64xi8>
          func.call @matmul_i8_i16(%303, %297, %41) : (memref<32x64xi8>, memref<64x128xi8>, memref<128x128xi16>) -> ()
          aie.objectfifo.release @A_L2L1_0(Consume, 1)
          %304 = aie.objectfifo.acquire @A_L2L1_0(Consume, 1) : !aie.objectfifosubview<memref<32x64xi8>>
          %305 = aie.objectfifo.subview.access %304[0] : !aie.objectfifosubview<memref<32x64xi8>> -> memref<32x64xi8>
          func.call @matmul_i8_i16(%305, %297, %41) : (memref<32x64xi8>, memref<64x128xi8>, memref<128x128xi16>) -> ()
          aie.objectfifo.release @A_L2L1_0(Consume, 1)
          aie.objectfifo.release @B_L2L1_0(Consume, 1)
        }
        aie.objectfifo.release @C_L1L2_0_0(Produce, 1)
        %42 = aie.objectfifo.acquire @C_L1L2_0_0(Produce, 1) : !aie.objectfifosubview<memref<128x128xi16>>
        %43 = aie.objectfifo.subview.access %42[0] : !aie.objectfifosubview<memref<128x128xi16>> -> memref<128x128xi16>
        func.call @zero_i16(%43) : (memref<128x128xi16>) -> ()
        %c0_62 = arith.constant 0 : index
        %c16_63 = arith.constant 16 : index
        %c1_64 = arith.constant 1 : index
        scf.for %arg1 = %c0_62 to %c16_63 step %c1_64 {
          %296 = aie.objectfifo.acquire @B_L2L1_0(Consume, 1) : !aie.objectfifosubview<memref<64x128xi8>>
          %297 = aie.objectfifo.subview.access %296[0] : !aie.objectfifosubview<memref<64x128xi8>> -> memref<64x128xi8>
          %298 = aie.objectfifo.acquire @A_L2L1_0(Consume, 1) : !aie.objectfifosubview<memref<32x64xi8>>
          %299 = aie.objectfifo.subview.access %298[0] : !aie.objectfifosubview<memref<32x64xi8>> -> memref<32x64xi8>
          func.call @matmul_i8_i16(%299, %297, %43) : (memref<32x64xi8>, memref<64x128xi8>, memref<128x128xi16>) -> ()
          aie.objectfifo.release @A_L2L1_0(Consume, 1)
          %300 = aie.objectfifo.acquire @A_L2L1_0(Consume, 1) : !aie.objectfifosubview<memref<32x64xi8>>
          %301 = aie.objectfifo.subview.access %300[0] : !aie.objectfifosubview<memref<32x64xi8>> -> memref<32x64xi8>
          func.call @matmul_i8_i16(%301, %297, %43) : (memref<32x64xi8>, memref<64x128xi8>, memref<128x128xi16>) -> ()
          aie.objectfifo.release @A_L2L1_0(Consume, 1)
          %302 = aie.objectfifo.acquire @A_L2L1_0(Consume, 1) : !aie.objectfifosubview<memref<32x64xi8>>
          %303 = aie.objectfifo.subview.access %302[0] : !aie.objectfifosubview<memref<32x64xi8>> -> memref<32x64xi8>
          func.call @matmul_i8_i16(%303, %297, %43) : (memref<32x64xi8>, memref<64x128xi8>, memref<128x128xi16>) -> ()
          aie.objectfifo.release @A_L2L1_0(Consume, 1)
          %304 = aie.objectfifo.acquire @A_L2L1_0(Consume, 1) : !aie.objectfifosubview<memref<32x64xi8>>
          %305 = aie.objectfifo.subview.access %304[0] : !aie.objectfifosubview<memref<32x64xi8>> -> memref<32x64xi8>
          func.call @matmul_i8_i16(%305, %297, %43) : (memref<32x64xi8>, memref<64x128xi8>, memref<128x128xi16>) -> ()
          aie.objectfifo.release @A_L2L1_0(Consume, 1)
          aie.objectfifo.release @B_L2L1_0(Consume, 1)
        }
        aie.objectfifo.release @C_L1L2_0_0(Produce, 1)
        %44 = aie.objectfifo.acquire @C_L1L2_0_0(Produce, 1) : !aie.objectfifosubview<memref<128x128xi16>>
        %45 = aie.objectfifo.subview.access %44[0] : !aie.objectfifosubview<memref<128x128xi16>> -> memref<128x128xi16>
        func.call @zero_i16(%45) : (memref<128x128xi16>) -> ()
        %c0_65 = arith.constant 0 : index
        %c16_66 = arith.constant 16 : index
        %c1_67 = arith.constant 1 : index
        scf.for %arg1 = %c0_65 to %c16_66 step %c1_67 {
          %296 = aie.objectfifo.acquire @B_L2L1_0(Consume, 1) : !aie.objectfifosubview<memref<64x128xi8>>
          %297 = aie.objectfifo.subview.access %296[0] : !aie.objectfifosubview<memref<64x128xi8>> -> memref<64x128xi8>
          %298 = aie.objectfifo.acquire @A_L2L1_0(Consume, 1) : !aie.objectfifosubview<memref<32x64xi8>>
          %299 = aie.objectfifo.subview.access %298[0] : !aie.objectfifosubview<memref<32x64xi8>> -> memref<32x64xi8>
          func.call @matmul_i8_i16(%299, %297, %45) : (memref<32x64xi8>, memref<64x128xi8>, memref<128x128xi16>) -> ()
          aie.objectfifo.release @A_L2L1_0(Consume, 1)
          %300 = aie.objectfifo.acquire @A_L2L1_0(Consume, 1) : !aie.objectfifosubview<memref<32x64xi8>>
          %301 = aie.objectfifo.subview.access %300[0] : !aie.objectfifosubview<memref<32x64xi8>> -> memref<32x64xi8>
          func.call @matmul_i8_i16(%301, %297, %45) : (memref<32x64xi8>, memref<64x128xi8>, memref<128x128xi16>) -> ()
          aie.objectfifo.release @A_L2L1_0(Consume, 1)
          %302 = aie.objectfifo.acquire @A_L2L1_0(Consume, 1) : !aie.objectfifosubview<memref<32x64xi8>>
          %303 = aie.objectfifo.subview.access %302[0] : !aie.objectfifosubview<memref<32x64xi8>> -> memref<32x64xi8>
          func.call @matmul_i8_i16(%303, %297, %45) : (memref<32x64xi8>, memref<64x128xi8>, memref<128x128xi16>) -> ()
          aie.objectfifo.release @A_L2L1_0(Consume, 1)
          %304 = aie.objectfifo.acquire @A_L2L1_0(Consume, 1) : !aie.objectfifosubview<memref<32x64xi8>>
          %305 = aie.objectfifo.subview.access %304[0] : !aie.objectfifosubview<memref<32x64xi8>> -> memref<32x64xi8>
          func.call @matmul_i8_i16(%305, %297, %45) : (memref<32x64xi8>, memref<64x128xi8>, memref<128x128xi16>) -> ()
          aie.objectfifo.release @A_L2L1_0(Consume, 1)
          aie.objectfifo.release @B_L2L1_0(Consume, 1)
        }
        aie.objectfifo.release @C_L1L2_0_0(Produce, 1)
        %46 = aie.objectfifo.acquire @C_L1L2_0_0(Produce, 1) : !aie.objectfifosubview<memref<128x128xi16>>
        %47 = aie.objectfifo.subview.access %46[0] : !aie.objectfifosubview<memref<128x128xi16>> -> memref<128x128xi16>
        func.call @zero_i16(%47) : (memref<128x128xi16>) -> ()
        %c0_68 = arith.constant 0 : index
        %c16_69 = arith.constant 16 : index
        %c1_70 = arith.constant 1 : index
        scf.for %arg1 = %c0_68 to %c16_69 step %c1_70 {
          %296 = aie.objectfifo.acquire @B_L2L1_0(Consume, 1) : !aie.objectfifosubview<memref<64x128xi8>>
          %297 = aie.objectfifo.subview.access %296[0] : !aie.objectfifosubview<memref<64x128xi8>> -> memref<64x128xi8>
          %298 = aie.objectfifo.acquire @A_L2L1_0(Consume, 1) : !aie.objectfifosubview<memref<32x64xi8>>
          %299 = aie.objectfifo.subview.access %298[0] : !aie.objectfifosubview<memref<32x64xi8>> -> memref<32x64xi8>
          func.call @matmul_i8_i16(%299, %297, %47) : (memref<32x64xi8>, memref<64x128xi8>, memref<128x128xi16>) -> ()
          aie.objectfifo.release @A_L2L1_0(Consume, 1)
          %300 = aie.objectfifo.acquire @A_L2L1_0(Consume, 1) : !aie.objectfifosubview<memref<32x64xi8>>
          %301 = aie.objectfifo.subview.access %300[0] : !aie.objectfifosubview<memref<32x64xi8>> -> memref<32x64xi8>
          func.call @matmul_i8_i16(%301, %297, %47) : (memref<32x64xi8>, memref<64x128xi8>, memref<128x128xi16>) -> ()
          aie.objectfifo.release @A_L2L1_0(Consume, 1)
          %302 = aie.objectfifo.acquire @A_L2L1_0(Consume, 1) : !aie.objectfifosubview<memref<32x64xi8>>
          %303 = aie.objectfifo.subview.access %302[0] : !aie.objectfifosubview<memref<32x64xi8>> -> memref<32x64xi8>
          func.call @matmul_i8_i16(%303, %297, %47) : (memref<32x64xi8>, memref<64x128xi8>, memref<128x128xi16>) -> ()
          aie.objectfifo.release @A_L2L1_0(Consume, 1)
          %304 = aie.objectfifo.acquire @A_L2L1_0(Consume, 1) : !aie.objectfifosubview<memref<32x64xi8>>
          %305 = aie.objectfifo.subview.access %304[0] : !aie.objectfifosubview<memref<32x64xi8>> -> memref<32x64xi8>
          func.call @matmul_i8_i16(%305, %297, %47) : (memref<32x64xi8>, memref<64x128xi8>, memref<128x128xi16>) -> ()
          aie.objectfifo.release @A_L2L1_0(Consume, 1)
          aie.objectfifo.release @B_L2L1_0(Consume, 1)
        }
        aie.objectfifo.release @C_L1L2_0_0(Produce, 1)
        %48 = aie.objectfifo.acquire @C_L1L2_0_0(Produce, 1) : !aie.objectfifosubview<memref<128x128xi16>>
        %49 = aie.objectfifo.subview.access %48[0] : !aie.objectfifosubview<memref<128x128xi16>> -> memref<128x128xi16>
        func.call @zero_i16(%49) : (memref<128x128xi16>) -> ()
        %c0_71 = arith.constant 0 : index
        %c16_72 = arith.constant 16 : index
        %c1_73 = arith.constant 1 : index
        scf.for %arg1 = %c0_71 to %c16_72 step %c1_73 {
          %296 = aie.objectfifo.acquire @B_L2L1_0(Consume, 1) : !aie.objectfifosubview<memref<64x128xi8>>
          %297 = aie.objectfifo.subview.access %296[0] : !aie.objectfifosubview<memref<64x128xi8>> -> memref<64x128xi8>
          %298 = aie.objectfifo.acquire @A_L2L1_0(Consume, 1) : !aie.objectfifosubview<memref<32x64xi8>>
          %299 = aie.objectfifo.subview.access %298[0] : !aie.objectfifosubview<memref<32x64xi8>> -> memref<32x64xi8>
          func.call @matmul_i8_i16(%299, %297, %49) : (memref<32x64xi8>, memref<64x128xi8>, memref<128x128xi16>) -> ()
          aie.objectfifo.release @A_L2L1_0(Consume, 1)
          %300 = aie.objectfifo.acquire @A_L2L1_0(Consume, 1) : !aie.objectfifosubview<memref<32x64xi8>>
          %301 = aie.objectfifo.subview.access %300[0] : !aie.objectfifosubview<memref<32x64xi8>> -> memref<32x64xi8>
          func.call @matmul_i8_i16(%301, %297, %49) : (memref<32x64xi8>, memref<64x128xi8>, memref<128x128xi16>) -> ()
          aie.objectfifo.release @A_L2L1_0(Consume, 1)
          %302 = aie.objectfifo.acquire @A_L2L1_0(Consume, 1) : !aie.objectfifosubview<memref<32x64xi8>>
          %303 = aie.objectfifo.subview.access %302[0] : !aie.objectfifosubview<memref<32x64xi8>> -> memref<32x64xi8>
          func.call @matmul_i8_i16(%303, %297, %49) : (memref<32x64xi8>, memref<64x128xi8>, memref<128x128xi16>) -> ()
          aie.objectfifo.release @A_L2L1_0(Consume, 1)
          %304 = aie.objectfifo.acquire @A_L2L1_0(Consume, 1) : !aie.objectfifosubview<memref<32x64xi8>>
          %305 = aie.objectfifo.subview.access %304[0] : !aie.objectfifosubview<memref<32x64xi8>> -> memref<32x64xi8>
          func.call @matmul_i8_i16(%305, %297, %49) : (memref<32x64xi8>, memref<64x128xi8>, memref<128x128xi16>) -> ()
          aie.objectfifo.release @A_L2L1_0(Consume, 1)
          aie.objectfifo.release @B_L2L1_0(Consume, 1)
        }
        aie.objectfifo.release @C_L1L2_0_0(Produce, 1)
        %50 = aie.objectfifo.acquire @C_L1L2_0_0(Produce, 1) : !aie.objectfifosubview<memref<128x128xi16>>
        %51 = aie.objectfifo.subview.access %50[0] : !aie.objectfifosubview<memref<128x128xi16>> -> memref<128x128xi16>
        func.call @zero_i16(%51) : (memref<128x128xi16>) -> ()
        %c0_74 = arith.constant 0 : index
        %c16_75 = arith.constant 16 : index
        %c1_76 = arith.constant 1 : index
        scf.for %arg1 = %c0_74 to %c16_75 step %c1_76 {
          %296 = aie.objectfifo.acquire @B_L2L1_0(Consume, 1) : !aie.objectfifosubview<memref<64x128xi8>>
          %297 = aie.objectfifo.subview.access %296[0] : !aie.objectfifosubview<memref<64x128xi8>> -> memref<64x128xi8>
          %298 = aie.objectfifo.acquire @A_L2L1_0(Consume, 1) : !aie.objectfifosubview<memref<32x64xi8>>
          %299 = aie.objectfifo.subview.access %298[0] : !aie.objectfifosubview<memref<32x64xi8>> -> memref<32x64xi8>
          func.call @matmul_i8_i16(%299, %297, %51) : (memref<32x64xi8>, memref<64x128xi8>, memref<128x128xi16>) -> ()
          aie.objectfifo.release @A_L2L1_0(Consume, 1)
          %300 = aie.objectfifo.acquire @A_L2L1_0(Consume, 1) : !aie.objectfifosubview<memref<32x64xi8>>
          %301 = aie.objectfifo.subview.access %300[0] : !aie.objectfifosubview<memref<32x64xi8>> -> memref<32x64xi8>
          func.call @matmul_i8_i16(%301, %297, %51) : (memref<32x64xi8>, memref<64x128xi8>, memref<128x128xi16>) -> ()
          aie.objectfifo.release @A_L2L1_0(Consume, 1)
          %302 = aie.objectfifo.acquire @A_L2L1_0(Consume, 1) : !aie.objectfifosubview<memref<32x64xi8>>
          %303 = aie.objectfifo.subview.access %302[0] : !aie.objectfifosubview<memref<32x64xi8>> -> memref<32x64xi8>
          func.call @matmul_i8_i16(%303, %297, %51) : (memref<32x64xi8>, memref<64x128xi8>, memref<128x128xi16>) -> ()
          aie.objectfifo.release @A_L2L1_0(Consume, 1)
          %304 = aie.objectfifo.acquire @A_L2L1_0(Consume, 1) : !aie.objectfifosubview<memref<32x64xi8>>
          %305 = aie.objectfifo.subview.access %304[0] : !aie.objectfifosubview<memref<32x64xi8>> -> memref<32x64xi8>
          func.call @matmul_i8_i16(%305, %297, %51) : (memref<32x64xi8>, memref<64x128xi8>, memref<128x128xi16>) -> ()
          aie.objectfifo.release @A_L2L1_0(Consume, 1)
          aie.objectfifo.release @B_L2L1_0(Consume, 1)
        }
        aie.objectfifo.release @C_L1L2_0_0(Produce, 1)
        %52 = aie.objectfifo.acquire @C_L1L2_0_0(Produce, 1) : !aie.objectfifosubview<memref<128x128xi16>>
        %53 = aie.objectfifo.subview.access %52[0] : !aie.objectfifosubview<memref<128x128xi16>> -> memref<128x128xi16>
        func.call @zero_i16(%53) : (memref<128x128xi16>) -> ()
        %c0_77 = arith.constant 0 : index
        %c16_78 = arith.constant 16 : index
        %c1_79 = arith.constant 1 : index
        scf.for %arg1 = %c0_77 to %c16_78 step %c1_79 {
          %296 = aie.objectfifo.acquire @B_L2L1_0(Consume, 1) : !aie.objectfifosubview<memref<64x128xi8>>
          %297 = aie.objectfifo.subview.access %296[0] : !aie.objectfifosubview<memref<64x128xi8>> -> memref<64x128xi8>
          %298 = aie.objectfifo.acquire @A_L2L1_0(Consume, 1) : !aie.objectfifosubview<memref<32x64xi8>>
          %299 = aie.objectfifo.subview.access %298[0] : !aie.objectfifosubview<memref<32x64xi8>> -> memref<32x64xi8>
          func.call @matmul_i8_i16(%299, %297, %53) : (memref<32x64xi8>, memref<64x128xi8>, memref<128x128xi16>) -> ()
          aie.objectfifo.release @A_L2L1_0(Consume, 1)
          %300 = aie.objectfifo.acquire @A_L2L1_0(Consume, 1) : !aie.objectfifosubview<memref<32x64xi8>>
          %301 = aie.objectfifo.subview.access %300[0] : !aie.objectfifosubview<memref<32x64xi8>> -> memref<32x64xi8>
          func.call @matmul_i8_i16(%301, %297, %53) : (memref<32x64xi8>, memref<64x128xi8>, memref<128x128xi16>) -> ()
          aie.objectfifo.release @A_L2L1_0(Consume, 1)
          %302 = aie.objectfifo.acquire @A_L2L1_0(Consume, 1) : !aie.objectfifosubview<memref<32x64xi8>>
          %303 = aie.objectfifo.subview.access %302[0] : !aie.objectfifosubview<memref<32x64xi8>> -> memref<32x64xi8>
          func.call @matmul_i8_i16(%303, %297, %53) : (memref<32x64xi8>, memref<64x128xi8>, memref<128x128xi16>) -> ()
          aie.objectfifo.release @A_L2L1_0(Consume, 1)
          %304 = aie.objectfifo.acquire @A_L2L1_0(Consume, 1) : !aie.objectfifosubview<memref<32x64xi8>>
          %305 = aie.objectfifo.subview.access %304[0] : !aie.objectfifosubview<memref<32x64xi8>> -> memref<32x64xi8>
          func.call @matmul_i8_i16(%305, %297, %53) : (memref<32x64xi8>, memref<64x128xi8>, memref<128x128xi16>) -> ()
          aie.objectfifo.release @A_L2L1_0(Consume, 1)
          aie.objectfifo.release @B_L2L1_0(Consume, 1)
        }
        aie.objectfifo.release @C_L1L2_0_0(Produce, 1)
        %54 = aie.objectfifo.acquire @C_L1L2_0_0(Produce, 1) : !aie.objectfifosubview<memref<128x128xi16>>
        %55 = aie.objectfifo.subview.access %54[0] : !aie.objectfifosubview<memref<128x128xi16>> -> memref<128x128xi16>
        func.call @zero_i16(%55) : (memref<128x128xi16>) -> ()
        %c0_80 = arith.constant 0 : index
        %c16_81 = arith.constant 16 : index
        %c1_82 = arith.constant 1 : index
        scf.for %arg1 = %c0_80 to %c16_81 step %c1_82 {
          %296 = aie.objectfifo.acquire @B_L2L1_0(Consume, 1) : !aie.objectfifosubview<memref<64x128xi8>>
          %297 = aie.objectfifo.subview.access %296[0] : !aie.objectfifosubview<memref<64x128xi8>> -> memref<64x128xi8>
          %298 = aie.objectfifo.acquire @A_L2L1_0(Consume, 1) : !aie.objectfifosubview<memref<32x64xi8>>
          %299 = aie.objectfifo.subview.access %298[0] : !aie.objectfifosubview<memref<32x64xi8>> -> memref<32x64xi8>
          func.call @matmul_i8_i16(%299, %297, %55) : (memref<32x64xi8>, memref<64x128xi8>, memref<128x128xi16>) -> ()
          aie.objectfifo.release @A_L2L1_0(Consume, 1)
          %300 = aie.objectfifo.acquire @A_L2L1_0(Consume, 1) : !aie.objectfifosubview<memref<32x64xi8>>
          %301 = aie.objectfifo.subview.access %300[0] : !aie.objectfifosubview<memref<32x64xi8>> -> memref<32x64xi8>
          func.call @matmul_i8_i16(%301, %297, %55) : (memref<32x64xi8>, memref<64x128xi8>, memref<128x128xi16>) -> ()
          aie.objectfifo.release @A_L2L1_0(Consume, 1)
          %302 = aie.objectfifo.acquire @A_L2L1_0(Consume, 1) : !aie.objectfifosubview<memref<32x64xi8>>
          %303 = aie.objectfifo.subview.access %302[0] : !aie.objectfifosubview<memref<32x64xi8>> -> memref<32x64xi8>
          func.call @matmul_i8_i16(%303, %297, %55) : (memref<32x64xi8>, memref<64x128xi8>, memref<128x128xi16>) -> ()
          aie.objectfifo.release @A_L2L1_0(Consume, 1)
          %304 = aie.objectfifo.acquire @A_L2L1_0(Consume, 1) : !aie.objectfifosubview<memref<32x64xi8>>
          %305 = aie.objectfifo.subview.access %304[0] : !aie.objectfifosubview<memref<32x64xi8>> -> memref<32x64xi8>
          func.call @matmul_i8_i16(%305, %297, %55) : (memref<32x64xi8>, memref<64x128xi8>, memref<128x128xi16>) -> ()
          aie.objectfifo.release @A_L2L1_0(Consume, 1)
          aie.objectfifo.release @B_L2L1_0(Consume, 1)
        }
        aie.objectfifo.release @C_L1L2_0_0(Produce, 1)
        %56 = aie.objectfifo.acquire @C_L1L2_0_0(Produce, 1) : !aie.objectfifosubview<memref<128x128xi16>>
        %57 = aie.objectfifo.subview.access %56[0] : !aie.objectfifosubview<memref<128x128xi16>> -> memref<128x128xi16>
        func.call @zero_i16(%57) : (memref<128x128xi16>) -> ()
        %c0_83 = arith.constant 0 : index
        %c16_84 = arith.constant 16 : index
        %c1_85 = arith.constant 1 : index
        scf.for %arg1 = %c0_83 to %c16_84 step %c1_85 {
          %296 = aie.objectfifo.acquire @B_L2L1_0(Consume, 1) : !aie.objectfifosubview<memref<64x128xi8>>
          %297 = aie.objectfifo.subview.access %296[0] : !aie.objectfifosubview<memref<64x128xi8>> -> memref<64x128xi8>
          %298 = aie.objectfifo.acquire @A_L2L1_0(Consume, 1) : !aie.objectfifosubview<memref<32x64xi8>>
          %299 = aie.objectfifo.subview.access %298[0] : !aie.objectfifosubview<memref<32x64xi8>> -> memref<32x64xi8>
          func.call @matmul_i8_i16(%299, %297, %57) : (memref<32x64xi8>, memref<64x128xi8>, memref<128x128xi16>) -> ()
          aie.objectfifo.release @A_L2L1_0(Consume, 1)
          %300 = aie.objectfifo.acquire @A_L2L1_0(Consume, 1) : !aie.objectfifosubview<memref<32x64xi8>>
          %301 = aie.objectfifo.subview.access %300[0] : !aie.objectfifosubview<memref<32x64xi8>> -> memref<32x64xi8>
          func.call @matmul_i8_i16(%301, %297, %57) : (memref<32x64xi8>, memref<64x128xi8>, memref<128x128xi16>) -> ()
          aie.objectfifo.release @A_L2L1_0(Consume, 1)
          %302 = aie.objectfifo.acquire @A_L2L1_0(Consume, 1) : !aie.objectfifosubview<memref<32x64xi8>>
          %303 = aie.objectfifo.subview.access %302[0] : !aie.objectfifosubview<memref<32x64xi8>> -> memref<32x64xi8>
          func.call @matmul_i8_i16(%303, %297, %57) : (memref<32x64xi8>, memref<64x128xi8>, memref<128x128xi16>) -> ()
          aie.objectfifo.release @A_L2L1_0(Consume, 1)
          %304 = aie.objectfifo.acquire @A_L2L1_0(Consume, 1) : !aie.objectfifosubview<memref<32x64xi8>>
          %305 = aie.objectfifo.subview.access %304[0] : !aie.objectfifosubview<memref<32x64xi8>> -> memref<32x64xi8>
          func.call @matmul_i8_i16(%305, %297, %57) : (memref<32x64xi8>, memref<64x128xi8>, memref<128x128xi16>) -> ()
          aie.objectfifo.release @A_L2L1_0(Consume, 1)
          aie.objectfifo.release @B_L2L1_0(Consume, 1)
        }
        aie.objectfifo.release @C_L1L2_0_0(Produce, 1)
        %58 = aie.objectfifo.acquire @C_L1L2_0_0(Produce, 1) : !aie.objectfifosubview<memref<128x128xi16>>
        %59 = aie.objectfifo.subview.access %58[0] : !aie.objectfifosubview<memref<128x128xi16>> -> memref<128x128xi16>
        func.call @zero_i16(%59) : (memref<128x128xi16>) -> ()
        %c0_86 = arith.constant 0 : index
        %c16_87 = arith.constant 16 : index
        %c1_88 = arith.constant 1 : index
        scf.for %arg1 = %c0_86 to %c16_87 step %c1_88 {
          %296 = aie.objectfifo.acquire @B_L2L1_0(Consume, 1) : !aie.objectfifosubview<memref<64x128xi8>>
          %297 = aie.objectfifo.subview.access %296[0] : !aie.objectfifosubview<memref<64x128xi8>> -> memref<64x128xi8>
          %298 = aie.objectfifo.acquire @A_L2L1_0(Consume, 1) : !aie.objectfifosubview<memref<32x64xi8>>
          %299 = aie.objectfifo.subview.access %298[0] : !aie.objectfifosubview<memref<32x64xi8>> -> memref<32x64xi8>
          func.call @matmul_i8_i16(%299, %297, %59) : (memref<32x64xi8>, memref<64x128xi8>, memref<128x128xi16>) -> ()
          aie.objectfifo.release @A_L2L1_0(Consume, 1)
          %300 = aie.objectfifo.acquire @A_L2L1_0(Consume, 1) : !aie.objectfifosubview<memref<32x64xi8>>
          %301 = aie.objectfifo.subview.access %300[0] : !aie.objectfifosubview<memref<32x64xi8>> -> memref<32x64xi8>
          func.call @matmul_i8_i16(%301, %297, %59) : (memref<32x64xi8>, memref<64x128xi8>, memref<128x128xi16>) -> ()
          aie.objectfifo.release @A_L2L1_0(Consume, 1)
          %302 = aie.objectfifo.acquire @A_L2L1_0(Consume, 1) : !aie.objectfifosubview<memref<32x64xi8>>
          %303 = aie.objectfifo.subview.access %302[0] : !aie.objectfifosubview<memref<32x64xi8>> -> memref<32x64xi8>
          func.call @matmul_i8_i16(%303, %297, %59) : (memref<32x64xi8>, memref<64x128xi8>, memref<128x128xi16>) -> ()
          aie.objectfifo.release @A_L2L1_0(Consume, 1)
          %304 = aie.objectfifo.acquire @A_L2L1_0(Consume, 1) : !aie.objectfifosubview<memref<32x64xi8>>
          %305 = aie.objectfifo.subview.access %304[0] : !aie.objectfifosubview<memref<32x64xi8>> -> memref<32x64xi8>
          func.call @matmul_i8_i16(%305, %297, %59) : (memref<32x64xi8>, memref<64x128xi8>, memref<128x128xi16>) -> ()
          aie.objectfifo.release @A_L2L1_0(Consume, 1)
          aie.objectfifo.release @B_L2L1_0(Consume, 1)
        }
        aie.objectfifo.release @C_L1L2_0_0(Produce, 1)
        %60 = aie.objectfifo.acquire @C_L1L2_0_0(Produce, 1) : !aie.objectfifosubview<memref<128x128xi16>>
        %61 = aie.objectfifo.subview.access %60[0] : !aie.objectfifosubview<memref<128x128xi16>> -> memref<128x128xi16>
        func.call @zero_i16(%61) : (memref<128x128xi16>) -> ()
        %c0_89 = arith.constant 0 : index
        %c16_90 = arith.constant 16 : index
        %c1_91 = arith.constant 1 : index
        scf.for %arg1 = %c0_89 to %c16_90 step %c1_91 {
          %296 = aie.objectfifo.acquire @B_L2L1_0(Consume, 1) : !aie.objectfifosubview<memref<64x128xi8>>
          %297 = aie.objectfifo.subview.access %296[0] : !aie.objectfifosubview<memref<64x128xi8>> -> memref<64x128xi8>
          %298 = aie.objectfifo.acquire @A_L2L1_0(Consume, 1) : !aie.objectfifosubview<memref<32x64xi8>>
          %299 = aie.objectfifo.subview.access %298[0] : !aie.objectfifosubview<memref<32x64xi8>> -> memref<32x64xi8>
          func.call @matmul_i8_i16(%299, %297, %61) : (memref<32x64xi8>, memref<64x128xi8>, memref<128x128xi16>) -> ()
          aie.objectfifo.release @A_L2L1_0(Consume, 1)
          %300 = aie.objectfifo.acquire @A_L2L1_0(Consume, 1) : !aie.objectfifosubview<memref<32x64xi8>>
          %301 = aie.objectfifo.subview.access %300[0] : !aie.objectfifosubview<memref<32x64xi8>> -> memref<32x64xi8>
          func.call @matmul_i8_i16(%301, %297, %61) : (memref<32x64xi8>, memref<64x128xi8>, memref<128x128xi16>) -> ()
          aie.objectfifo.release @A_L2L1_0(Consume, 1)
          %302 = aie.objectfifo.acquire @A_L2L1_0(Consume, 1) : !aie.objectfifosubview<memref<32x64xi8>>
          %303 = aie.objectfifo.subview.access %302[0] : !aie.objectfifosubview<memref<32x64xi8>> -> memref<32x64xi8>
          func.call @matmul_i8_i16(%303, %297, %61) : (memref<32x64xi8>, memref<64x128xi8>, memref<128x128xi16>) -> ()
          aie.objectfifo.release @A_L2L1_0(Consume, 1)
          %304 = aie.objectfifo.acquire @A_L2L1_0(Consume, 1) : !aie.objectfifosubview<memref<32x64xi8>>
          %305 = aie.objectfifo.subview.access %304[0] : !aie.objectfifosubview<memref<32x64xi8>> -> memref<32x64xi8>
          func.call @matmul_i8_i16(%305, %297, %61) : (memref<32x64xi8>, memref<64x128xi8>, memref<128x128xi16>) -> ()
          aie.objectfifo.release @A_L2L1_0(Consume, 1)
          aie.objectfifo.release @B_L2L1_0(Consume, 1)
        }
        aie.objectfifo.release @C_L1L2_0_0(Produce, 1)
        %62 = aie.objectfifo.acquire @C_L1L2_0_0(Produce, 1) : !aie.objectfifosubview<memref<128x128xi16>>
        %63 = aie.objectfifo.subview.access %62[0] : !aie.objectfifosubview<memref<128x128xi16>> -> memref<128x128xi16>
        func.call @zero_i16(%63) : (memref<128x128xi16>) -> ()
        %c0_92 = arith.constant 0 : index
        %c16_93 = arith.constant 16 : index
        %c1_94 = arith.constant 1 : index
        scf.for %arg1 = %c0_92 to %c16_93 step %c1_94 {
          %296 = aie.objectfifo.acquire @B_L2L1_0(Consume, 1) : !aie.objectfifosubview<memref<64x128xi8>>
          %297 = aie.objectfifo.subview.access %296[0] : !aie.objectfifosubview<memref<64x128xi8>> -> memref<64x128xi8>
          %298 = aie.objectfifo.acquire @A_L2L1_0(Consume, 1) : !aie.objectfifosubview<memref<32x64xi8>>
          %299 = aie.objectfifo.subview.access %298[0] : !aie.objectfifosubview<memref<32x64xi8>> -> memref<32x64xi8>
          func.call @matmul_i8_i16(%299, %297, %63) : (memref<32x64xi8>, memref<64x128xi8>, memref<128x128xi16>) -> ()
          aie.objectfifo.release @A_L2L1_0(Consume, 1)
          %300 = aie.objectfifo.acquire @A_L2L1_0(Consume, 1) : !aie.objectfifosubview<memref<32x64xi8>>
          %301 = aie.objectfifo.subview.access %300[0] : !aie.objectfifosubview<memref<32x64xi8>> -> memref<32x64xi8>
          func.call @matmul_i8_i16(%301, %297, %63) : (memref<32x64xi8>, memref<64x128xi8>, memref<128x128xi16>) -> ()
          aie.objectfifo.release @A_L2L1_0(Consume, 1)
          %302 = aie.objectfifo.acquire @A_L2L1_0(Consume, 1) : !aie.objectfifosubview<memref<32x64xi8>>
          %303 = aie.objectfifo.subview.access %302[0] : !aie.objectfifosubview<memref<32x64xi8>> -> memref<32x64xi8>
          func.call @matmul_i8_i16(%303, %297, %63) : (memref<32x64xi8>, memref<64x128xi8>, memref<128x128xi16>) -> ()
          aie.objectfifo.release @A_L2L1_0(Consume, 1)
          %304 = aie.objectfifo.acquire @A_L2L1_0(Consume, 1) : !aie.objectfifosubview<memref<32x64xi8>>
          %305 = aie.objectfifo.subview.access %304[0] : !aie.objectfifosubview<memref<32x64xi8>> -> memref<32x64xi8>
          func.call @matmul_i8_i16(%305, %297, %63) : (memref<32x64xi8>, memref<64x128xi8>, memref<128x128xi16>) -> ()
          aie.objectfifo.release @A_L2L1_0(Consume, 1)
          aie.objectfifo.release @B_L2L1_0(Consume, 1)
        }
        aie.objectfifo.release @C_L1L2_0_0(Produce, 1)
        %64 = aie.objectfifo.acquire @C_L1L2_0_0(Produce, 1) : !aie.objectfifosubview<memref<128x128xi16>>
        %65 = aie.objectfifo.subview.access %64[0] : !aie.objectfifosubview<memref<128x128xi16>> -> memref<128x128xi16>
        func.call @zero_i16(%65) : (memref<128x128xi16>) -> ()
        %c0_95 = arith.constant 0 : index
        %c16_96 = arith.constant 16 : index
        %c1_97 = arith.constant 1 : index
        scf.for %arg1 = %c0_95 to %c16_96 step %c1_97 {
          %296 = aie.objectfifo.acquire @B_L2L1_0(Consume, 1) : !aie.objectfifosubview<memref<64x128xi8>>
          %297 = aie.objectfifo.subview.access %296[0] : !aie.objectfifosubview<memref<64x128xi8>> -> memref<64x128xi8>
          %298 = aie.objectfifo.acquire @A_L2L1_0(Consume, 1) : !aie.objectfifosubview<memref<32x64xi8>>
          %299 = aie.objectfifo.subview.access %298[0] : !aie.objectfifosubview<memref<32x64xi8>> -> memref<32x64xi8>
          func.call @matmul_i8_i16(%299, %297, %65) : (memref<32x64xi8>, memref<64x128xi8>, memref<128x128xi16>) -> ()
          aie.objectfifo.release @A_L2L1_0(Consume, 1)
          %300 = aie.objectfifo.acquire @A_L2L1_0(Consume, 1) : !aie.objectfifosubview<memref<32x64xi8>>
          %301 = aie.objectfifo.subview.access %300[0] : !aie.objectfifosubview<memref<32x64xi8>> -> memref<32x64xi8>
          func.call @matmul_i8_i16(%301, %297, %65) : (memref<32x64xi8>, memref<64x128xi8>, memref<128x128xi16>) -> ()
          aie.objectfifo.release @A_L2L1_0(Consume, 1)
          %302 = aie.objectfifo.acquire @A_L2L1_0(Consume, 1) : !aie.objectfifosubview<memref<32x64xi8>>
          %303 = aie.objectfifo.subview.access %302[0] : !aie.objectfifosubview<memref<32x64xi8>> -> memref<32x64xi8>
          func.call @matmul_i8_i16(%303, %297, %65) : (memref<32x64xi8>, memref<64x128xi8>, memref<128x128xi16>) -> ()
          aie.objectfifo.release @A_L2L1_0(Consume, 1)
          %304 = aie.objectfifo.acquire @A_L2L1_0(Consume, 1) : !aie.objectfifosubview<memref<32x64xi8>>
          %305 = aie.objectfifo.subview.access %304[0] : !aie.objectfifosubview<memref<32x64xi8>> -> memref<32x64xi8>
          func.call @matmul_i8_i16(%305, %297, %65) : (memref<32x64xi8>, memref<64x128xi8>, memref<128x128xi16>) -> ()
          aie.objectfifo.release @A_L2L1_0(Consume, 1)
          aie.objectfifo.release @B_L2L1_0(Consume, 1)
        }
        aie.objectfifo.release @C_L1L2_0_0(Produce, 1)
        %66 = aie.objectfifo.acquire @C_L1L2_0_0(Produce, 1) : !aie.objectfifosubview<memref<128x128xi16>>
        %67 = aie.objectfifo.subview.access %66[0] : !aie.objectfifosubview<memref<128x128xi16>> -> memref<128x128xi16>
        func.call @zero_i16(%67) : (memref<128x128xi16>) -> ()
        %c0_98 = arith.constant 0 : index
        %c16_99 = arith.constant 16 : index
        %c1_100 = arith.constant 1 : index
        scf.for %arg1 = %c0_98 to %c16_99 step %c1_100 {
          %296 = aie.objectfifo.acquire @B_L2L1_0(Consume, 1) : !aie.objectfifosubview<memref<64x128xi8>>
          %297 = aie.objectfifo.subview.access %296[0] : !aie.objectfifosubview<memref<64x128xi8>> -> memref<64x128xi8>
          %298 = aie.objectfifo.acquire @A_L2L1_0(Consume, 1) : !aie.objectfifosubview<memref<32x64xi8>>
          %299 = aie.objectfifo.subview.access %298[0] : !aie.objectfifosubview<memref<32x64xi8>> -> memref<32x64xi8>
          func.call @matmul_i8_i16(%299, %297, %67) : (memref<32x64xi8>, memref<64x128xi8>, memref<128x128xi16>) -> ()
          aie.objectfifo.release @A_L2L1_0(Consume, 1)
          %300 = aie.objectfifo.acquire @A_L2L1_0(Consume, 1) : !aie.objectfifosubview<memref<32x64xi8>>
          %301 = aie.objectfifo.subview.access %300[0] : !aie.objectfifosubview<memref<32x64xi8>> -> memref<32x64xi8>
          func.call @matmul_i8_i16(%301, %297, %67) : (memref<32x64xi8>, memref<64x128xi8>, memref<128x128xi16>) -> ()
          aie.objectfifo.release @A_L2L1_0(Consume, 1)
          %302 = aie.objectfifo.acquire @A_L2L1_0(Consume, 1) : !aie.objectfifosubview<memref<32x64xi8>>
          %303 = aie.objectfifo.subview.access %302[0] : !aie.objectfifosubview<memref<32x64xi8>> -> memref<32x64xi8>
          func.call @matmul_i8_i16(%303, %297, %67) : (memref<32x64xi8>, memref<64x128xi8>, memref<128x128xi16>) -> ()
          aie.objectfifo.release @A_L2L1_0(Consume, 1)
          %304 = aie.objectfifo.acquire @A_L2L1_0(Consume, 1) : !aie.objectfifosubview<memref<32x64xi8>>
          %305 = aie.objectfifo.subview.access %304[0] : !aie.objectfifosubview<memref<32x64xi8>> -> memref<32x64xi8>
          func.call @matmul_i8_i16(%305, %297, %67) : (memref<32x64xi8>, memref<64x128xi8>, memref<128x128xi16>) -> ()
          aie.objectfifo.release @A_L2L1_0(Consume, 1)
          aie.objectfifo.release @B_L2L1_0(Consume, 1)
        }
        aie.objectfifo.release @C_L1L2_0_0(Produce, 1)
        %68 = aie.objectfifo.acquire @C_L1L2_0_0(Produce, 1) : !aie.objectfifosubview<memref<128x128xi16>>
        %69 = aie.objectfifo.subview.access %68[0] : !aie.objectfifosubview<memref<128x128xi16>> -> memref<128x128xi16>
        func.call @zero_i16(%69) : (memref<128x128xi16>) -> ()
        %c0_101 = arith.constant 0 : index
        %c16_102 = arith.constant 16 : index
        %c1_103 = arith.constant 1 : index
        scf.for %arg1 = %c0_101 to %c16_102 step %c1_103 {
          %296 = aie.objectfifo.acquire @B_L2L1_0(Consume, 1) : !aie.objectfifosubview<memref<64x128xi8>>
          %297 = aie.objectfifo.subview.access %296[0] : !aie.objectfifosubview<memref<64x128xi8>> -> memref<64x128xi8>
          %298 = aie.objectfifo.acquire @A_L2L1_0(Consume, 1) : !aie.objectfifosubview<memref<32x64xi8>>
          %299 = aie.objectfifo.subview.access %298[0] : !aie.objectfifosubview<memref<32x64xi8>> -> memref<32x64xi8>
          func.call @matmul_i8_i16(%299, %297, %69) : (memref<32x64xi8>, memref<64x128xi8>, memref<128x128xi16>) -> ()
          aie.objectfifo.release @A_L2L1_0(Consume, 1)
          %300 = aie.objectfifo.acquire @A_L2L1_0(Consume, 1) : !aie.objectfifosubview<memref<32x64xi8>>
          %301 = aie.objectfifo.subview.access %300[0] : !aie.objectfifosubview<memref<32x64xi8>> -> memref<32x64xi8>
          func.call @matmul_i8_i16(%301, %297, %69) : (memref<32x64xi8>, memref<64x128xi8>, memref<128x128xi16>) -> ()
          aie.objectfifo.release @A_L2L1_0(Consume, 1)
          %302 = aie.objectfifo.acquire @A_L2L1_0(Consume, 1) : !aie.objectfifosubview<memref<32x64xi8>>
          %303 = aie.objectfifo.subview.access %302[0] : !aie.objectfifosubview<memref<32x64xi8>> -> memref<32x64xi8>
          func.call @matmul_i8_i16(%303, %297, %69) : (memref<32x64xi8>, memref<64x128xi8>, memref<128x128xi16>) -> ()
          aie.objectfifo.release @A_L2L1_0(Consume, 1)
          %304 = aie.objectfifo.acquire @A_L2L1_0(Consume, 1) : !aie.objectfifosubview<memref<32x64xi8>>
          %305 = aie.objectfifo.subview.access %304[0] : !aie.objectfifosubview<memref<32x64xi8>> -> memref<32x64xi8>
          func.call @matmul_i8_i16(%305, %297, %69) : (memref<32x64xi8>, memref<64x128xi8>, memref<128x128xi16>) -> ()
          aie.objectfifo.release @A_L2L1_0(Consume, 1)
          aie.objectfifo.release @B_L2L1_0(Consume, 1)
        }
        aie.objectfifo.release @C_L1L2_0_0(Produce, 1)
        %70 = aie.objectfifo.acquire @C_L1L2_0_0(Produce, 1) : !aie.objectfifosubview<memref<128x128xi16>>
        %71 = aie.objectfifo.subview.access %70[0] : !aie.objectfifosubview<memref<128x128xi16>> -> memref<128x128xi16>
        func.call @zero_i16(%71) : (memref<128x128xi16>) -> ()
        %c0_104 = arith.constant 0 : index
        %c16_105 = arith.constant 16 : index
        %c1_106 = arith.constant 1 : index
        scf.for %arg1 = %c0_104 to %c16_105 step %c1_106 {
          %296 = aie.objectfifo.acquire @B_L2L1_0(Consume, 1) : !aie.objectfifosubview<memref<64x128xi8>>
          %297 = aie.objectfifo.subview.access %296[0] : !aie.objectfifosubview<memref<64x128xi8>> -> memref<64x128xi8>
          %298 = aie.objectfifo.acquire @A_L2L1_0(Consume, 1) : !aie.objectfifosubview<memref<32x64xi8>>
          %299 = aie.objectfifo.subview.access %298[0] : !aie.objectfifosubview<memref<32x64xi8>> -> memref<32x64xi8>
          func.call @matmul_i8_i16(%299, %297, %71) : (memref<32x64xi8>, memref<64x128xi8>, memref<128x128xi16>) -> ()
          aie.objectfifo.release @A_L2L1_0(Consume, 1)
          %300 = aie.objectfifo.acquire @A_L2L1_0(Consume, 1) : !aie.objectfifosubview<memref<32x64xi8>>
          %301 = aie.objectfifo.subview.access %300[0] : !aie.objectfifosubview<memref<32x64xi8>> -> memref<32x64xi8>
          func.call @matmul_i8_i16(%301, %297, %71) : (memref<32x64xi8>, memref<64x128xi8>, memref<128x128xi16>) -> ()
          aie.objectfifo.release @A_L2L1_0(Consume, 1)
          %302 = aie.objectfifo.acquire @A_L2L1_0(Consume, 1) : !aie.objectfifosubview<memref<32x64xi8>>
          %303 = aie.objectfifo.subview.access %302[0] : !aie.objectfifosubview<memref<32x64xi8>> -> memref<32x64xi8>
          func.call @matmul_i8_i16(%303, %297, %71) : (memref<32x64xi8>, memref<64x128xi8>, memref<128x128xi16>) -> ()
          aie.objectfifo.release @A_L2L1_0(Consume, 1)
          %304 = aie.objectfifo.acquire @A_L2L1_0(Consume, 1) : !aie.objectfifosubview<memref<32x64xi8>>
          %305 = aie.objectfifo.subview.access %304[0] : !aie.objectfifosubview<memref<32x64xi8>> -> memref<32x64xi8>
          func.call @matmul_i8_i16(%305, %297, %71) : (memref<32x64xi8>, memref<64x128xi8>, memref<128x128xi16>) -> ()
          aie.objectfifo.release @A_L2L1_0(Consume, 1)
          aie.objectfifo.release @B_L2L1_0(Consume, 1)
        }
        aie.objectfifo.release @C_L1L2_0_0(Produce, 1)
        %72 = aie.objectfifo.acquire @C_L1L2_0_0(Produce, 1) : !aie.objectfifosubview<memref<128x128xi16>>
        %73 = aie.objectfifo.subview.access %72[0] : !aie.objectfifosubview<memref<128x128xi16>> -> memref<128x128xi16>
        func.call @zero_i16(%73) : (memref<128x128xi16>) -> ()
        %c0_107 = arith.constant 0 : index
        %c16_108 = arith.constant 16 : index
        %c1_109 = arith.constant 1 : index
        scf.for %arg1 = %c0_107 to %c16_108 step %c1_109 {
          %296 = aie.objectfifo.acquire @B_L2L1_0(Consume, 1) : !aie.objectfifosubview<memref<64x128xi8>>
          %297 = aie.objectfifo.subview.access %296[0] : !aie.objectfifosubview<memref<64x128xi8>> -> memref<64x128xi8>
          %298 = aie.objectfifo.acquire @A_L2L1_0(Consume, 1) : !aie.objectfifosubview<memref<32x64xi8>>
          %299 = aie.objectfifo.subview.access %298[0] : !aie.objectfifosubview<memref<32x64xi8>> -> memref<32x64xi8>
          func.call @matmul_i8_i16(%299, %297, %73) : (memref<32x64xi8>, memref<64x128xi8>, memref<128x128xi16>) -> ()
          aie.objectfifo.release @A_L2L1_0(Consume, 1)
          %300 = aie.objectfifo.acquire @A_L2L1_0(Consume, 1) : !aie.objectfifosubview<memref<32x64xi8>>
          %301 = aie.objectfifo.subview.access %300[0] : !aie.objectfifosubview<memref<32x64xi8>> -> memref<32x64xi8>
          func.call @matmul_i8_i16(%301, %297, %73) : (memref<32x64xi8>, memref<64x128xi8>, memref<128x128xi16>) -> ()
          aie.objectfifo.release @A_L2L1_0(Consume, 1)
          %302 = aie.objectfifo.acquire @A_L2L1_0(Consume, 1) : !aie.objectfifosubview<memref<32x64xi8>>
          %303 = aie.objectfifo.subview.access %302[0] : !aie.objectfifosubview<memref<32x64xi8>> -> memref<32x64xi8>
          func.call @matmul_i8_i16(%303, %297, %73) : (memref<32x64xi8>, memref<64x128xi8>, memref<128x128xi16>) -> ()
          aie.objectfifo.release @A_L2L1_0(Consume, 1)
          %304 = aie.objectfifo.acquire @A_L2L1_0(Consume, 1) : !aie.objectfifosubview<memref<32x64xi8>>
          %305 = aie.objectfifo.subview.access %304[0] : !aie.objectfifosubview<memref<32x64xi8>> -> memref<32x64xi8>
          func.call @matmul_i8_i16(%305, %297, %73) : (memref<32x64xi8>, memref<64x128xi8>, memref<128x128xi16>) -> ()
          aie.objectfifo.release @A_L2L1_0(Consume, 1)
          aie.objectfifo.release @B_L2L1_0(Consume, 1)
        }
        aie.objectfifo.release @C_L1L2_0_0(Produce, 1)
        %74 = aie.objectfifo.acquire @C_L1L2_0_0(Produce, 1) : !aie.objectfifosubview<memref<128x128xi16>>
        %75 = aie.objectfifo.subview.access %74[0] : !aie.objectfifosubview<memref<128x128xi16>> -> memref<128x128xi16>
        func.call @zero_i16(%75) : (memref<128x128xi16>) -> ()
        %c0_110 = arith.constant 0 : index
        %c16_111 = arith.constant 16 : index
        %c1_112 = arith.constant 1 : index
        scf.for %arg1 = %c0_110 to %c16_111 step %c1_112 {
          %296 = aie.objectfifo.acquire @B_L2L1_0(Consume, 1) : !aie.objectfifosubview<memref<64x128xi8>>
          %297 = aie.objectfifo.subview.access %296[0] : !aie.objectfifosubview<memref<64x128xi8>> -> memref<64x128xi8>
          %298 = aie.objectfifo.acquire @A_L2L1_0(Consume, 1) : !aie.objectfifosubview<memref<32x64xi8>>
          %299 = aie.objectfifo.subview.access %298[0] : !aie.objectfifosubview<memref<32x64xi8>> -> memref<32x64xi8>
          func.call @matmul_i8_i16(%299, %297, %75) : (memref<32x64xi8>, memref<64x128xi8>, memref<128x128xi16>) -> ()
          aie.objectfifo.release @A_L2L1_0(Consume, 1)
          %300 = aie.objectfifo.acquire @A_L2L1_0(Consume, 1) : !aie.objectfifosubview<memref<32x64xi8>>
          %301 = aie.objectfifo.subview.access %300[0] : !aie.objectfifosubview<memref<32x64xi8>> -> memref<32x64xi8>
          func.call @matmul_i8_i16(%301, %297, %75) : (memref<32x64xi8>, memref<64x128xi8>, memref<128x128xi16>) -> ()
          aie.objectfifo.release @A_L2L1_0(Consume, 1)
          %302 = aie.objectfifo.acquire @A_L2L1_0(Consume, 1) : !aie.objectfifosubview<memref<32x64xi8>>
          %303 = aie.objectfifo.subview.access %302[0] : !aie.objectfifosubview<memref<32x64xi8>> -> memref<32x64xi8>
          func.call @matmul_i8_i16(%303, %297, %75) : (memref<32x64xi8>, memref<64x128xi8>, memref<128x128xi16>) -> ()
          aie.objectfifo.release @A_L2L1_0(Consume, 1)
          %304 = aie.objectfifo.acquire @A_L2L1_0(Consume, 1) : !aie.objectfifosubview<memref<32x64xi8>>
          %305 = aie.objectfifo.subview.access %304[0] : !aie.objectfifosubview<memref<32x64xi8>> -> memref<32x64xi8>
          func.call @matmul_i8_i16(%305, %297, %75) : (memref<32x64xi8>, memref<64x128xi8>, memref<128x128xi16>) -> ()
          aie.objectfifo.release @A_L2L1_0(Consume, 1)
          aie.objectfifo.release @B_L2L1_0(Consume, 1)
        }
        aie.objectfifo.release @C_L1L2_0_0(Produce, 1)
        %76 = aie.objectfifo.acquire @C_L1L2_0_0(Produce, 1) : !aie.objectfifosubview<memref<128x128xi16>>
        %77 = aie.objectfifo.subview.access %76[0] : !aie.objectfifosubview<memref<128x128xi16>> -> memref<128x128xi16>
        func.call @zero_i16(%77) : (memref<128x128xi16>) -> ()
        %c0_113 = arith.constant 0 : index
        %c16_114 = arith.constant 16 : index
        %c1_115 = arith.constant 1 : index
        scf.for %arg1 = %c0_113 to %c16_114 step %c1_115 {
          %296 = aie.objectfifo.acquire @B_L2L1_0(Consume, 1) : !aie.objectfifosubview<memref<64x128xi8>>
          %297 = aie.objectfifo.subview.access %296[0] : !aie.objectfifosubview<memref<64x128xi8>> -> memref<64x128xi8>
          %298 = aie.objectfifo.acquire @A_L2L1_0(Consume, 1) : !aie.objectfifosubview<memref<32x64xi8>>
          %299 = aie.objectfifo.subview.access %298[0] : !aie.objectfifosubview<memref<32x64xi8>> -> memref<32x64xi8>
          func.call @matmul_i8_i16(%299, %297, %77) : (memref<32x64xi8>, memref<64x128xi8>, memref<128x128xi16>) -> ()
          aie.objectfifo.release @A_L2L1_0(Consume, 1)
          %300 = aie.objectfifo.acquire @A_L2L1_0(Consume, 1) : !aie.objectfifosubview<memref<32x64xi8>>
          %301 = aie.objectfifo.subview.access %300[0] : !aie.objectfifosubview<memref<32x64xi8>> -> memref<32x64xi8>
          func.call @matmul_i8_i16(%301, %297, %77) : (memref<32x64xi8>, memref<64x128xi8>, memref<128x128xi16>) -> ()
          aie.objectfifo.release @A_L2L1_0(Consume, 1)
          %302 = aie.objectfifo.acquire @A_L2L1_0(Consume, 1) : !aie.objectfifosubview<memref<32x64xi8>>
          %303 = aie.objectfifo.subview.access %302[0] : !aie.objectfifosubview<memref<32x64xi8>> -> memref<32x64xi8>
          func.call @matmul_i8_i16(%303, %297, %77) : (memref<32x64xi8>, memref<64x128xi8>, memref<128x128xi16>) -> ()
          aie.objectfifo.release @A_L2L1_0(Consume, 1)
          %304 = aie.objectfifo.acquire @A_L2L1_0(Consume, 1) : !aie.objectfifosubview<memref<32x64xi8>>
          %305 = aie.objectfifo.subview.access %304[0] : !aie.objectfifosubview<memref<32x64xi8>> -> memref<32x64xi8>
          func.call @matmul_i8_i16(%305, %297, %77) : (memref<32x64xi8>, memref<64x128xi8>, memref<128x128xi16>) -> ()
          aie.objectfifo.release @A_L2L1_0(Consume, 1)
          aie.objectfifo.release @B_L2L1_0(Consume, 1)
        }
        aie.objectfifo.release @C_L1L2_0_0(Produce, 1)
        %78 = aie.objectfifo.acquire @C_L1L2_0_0(Produce, 1) : !aie.objectfifosubview<memref<128x128xi16>>
        %79 = aie.objectfifo.subview.access %78[0] : !aie.objectfifosubview<memref<128x128xi16>> -> memref<128x128xi16>
        func.call @zero_i16(%79) : (memref<128x128xi16>) -> ()
        %c0_116 = arith.constant 0 : index
        %c16_117 = arith.constant 16 : index
        %c1_118 = arith.constant 1 : index
        scf.for %arg1 = %c0_116 to %c16_117 step %c1_118 {
          %296 = aie.objectfifo.acquire @B_L2L1_0(Consume, 1) : !aie.objectfifosubview<memref<64x128xi8>>
          %297 = aie.objectfifo.subview.access %296[0] : !aie.objectfifosubview<memref<64x128xi8>> -> memref<64x128xi8>
          %298 = aie.objectfifo.acquire @A_L2L1_0(Consume, 1) : !aie.objectfifosubview<memref<32x64xi8>>
          %299 = aie.objectfifo.subview.access %298[0] : !aie.objectfifosubview<memref<32x64xi8>> -> memref<32x64xi8>
          func.call @matmul_i8_i16(%299, %297, %79) : (memref<32x64xi8>, memref<64x128xi8>, memref<128x128xi16>) -> ()
          aie.objectfifo.release @A_L2L1_0(Consume, 1)
          %300 = aie.objectfifo.acquire @A_L2L1_0(Consume, 1) : !aie.objectfifosubview<memref<32x64xi8>>
          %301 = aie.objectfifo.subview.access %300[0] : !aie.objectfifosubview<memref<32x64xi8>> -> memref<32x64xi8>
          func.call @matmul_i8_i16(%301, %297, %79) : (memref<32x64xi8>, memref<64x128xi8>, memref<128x128xi16>) -> ()
          aie.objectfifo.release @A_L2L1_0(Consume, 1)
          %302 = aie.objectfifo.acquire @A_L2L1_0(Consume, 1) : !aie.objectfifosubview<memref<32x64xi8>>
          %303 = aie.objectfifo.subview.access %302[0] : !aie.objectfifosubview<memref<32x64xi8>> -> memref<32x64xi8>
          func.call @matmul_i8_i16(%303, %297, %79) : (memref<32x64xi8>, memref<64x128xi8>, memref<128x128xi16>) -> ()
          aie.objectfifo.release @A_L2L1_0(Consume, 1)
          %304 = aie.objectfifo.acquire @A_L2L1_0(Consume, 1) : !aie.objectfifosubview<memref<32x64xi8>>
          %305 = aie.objectfifo.subview.access %304[0] : !aie.objectfifosubview<memref<32x64xi8>> -> memref<32x64xi8>
          func.call @matmul_i8_i16(%305, %297, %79) : (memref<32x64xi8>, memref<64x128xi8>, memref<128x128xi16>) -> ()
          aie.objectfifo.release @A_L2L1_0(Consume, 1)
          aie.objectfifo.release @B_L2L1_0(Consume, 1)
        }
        aie.objectfifo.release @C_L1L2_0_0(Produce, 1)
        %80 = aie.objectfifo.acquire @C_L1L2_0_0(Produce, 1) : !aie.objectfifosubview<memref<128x128xi16>>
        %81 = aie.objectfifo.subview.access %80[0] : !aie.objectfifosubview<memref<128x128xi16>> -> memref<128x128xi16>
        func.call @zero_i16(%81) : (memref<128x128xi16>) -> ()
        %c0_119 = arith.constant 0 : index
        %c16_120 = arith.constant 16 : index
        %c1_121 = arith.constant 1 : index
        scf.for %arg1 = %c0_119 to %c16_120 step %c1_121 {
          %296 = aie.objectfifo.acquire @B_L2L1_0(Consume, 1) : !aie.objectfifosubview<memref<64x128xi8>>
          %297 = aie.objectfifo.subview.access %296[0] : !aie.objectfifosubview<memref<64x128xi8>> -> memref<64x128xi8>
          %298 = aie.objectfifo.acquire @A_L2L1_0(Consume, 1) : !aie.objectfifosubview<memref<32x64xi8>>
          %299 = aie.objectfifo.subview.access %298[0] : !aie.objectfifosubview<memref<32x64xi8>> -> memref<32x64xi8>
          func.call @matmul_i8_i16(%299, %297, %81) : (memref<32x64xi8>, memref<64x128xi8>, memref<128x128xi16>) -> ()
          aie.objectfifo.release @A_L2L1_0(Consume, 1)
          %300 = aie.objectfifo.acquire @A_L2L1_0(Consume, 1) : !aie.objectfifosubview<memref<32x64xi8>>
          %301 = aie.objectfifo.subview.access %300[0] : !aie.objectfifosubview<memref<32x64xi8>> -> memref<32x64xi8>
          func.call @matmul_i8_i16(%301, %297, %81) : (memref<32x64xi8>, memref<64x128xi8>, memref<128x128xi16>) -> ()
          aie.objectfifo.release @A_L2L1_0(Consume, 1)
          %302 = aie.objectfifo.acquire @A_L2L1_0(Consume, 1) : !aie.objectfifosubview<memref<32x64xi8>>
          %303 = aie.objectfifo.subview.access %302[0] : !aie.objectfifosubview<memref<32x64xi8>> -> memref<32x64xi8>
          func.call @matmul_i8_i16(%303, %297, %81) : (memref<32x64xi8>, memref<64x128xi8>, memref<128x128xi16>) -> ()
          aie.objectfifo.release @A_L2L1_0(Consume, 1)
          %304 = aie.objectfifo.acquire @A_L2L1_0(Consume, 1) : !aie.objectfifosubview<memref<32x64xi8>>
          %305 = aie.objectfifo.subview.access %304[0] : !aie.objectfifosubview<memref<32x64xi8>> -> memref<32x64xi8>
          func.call @matmul_i8_i16(%305, %297, %81) : (memref<32x64xi8>, memref<64x128xi8>, memref<128x128xi16>) -> ()
          aie.objectfifo.release @A_L2L1_0(Consume, 1)
          aie.objectfifo.release @B_L2L1_0(Consume, 1)
        }
        aie.objectfifo.release @C_L1L2_0_0(Produce, 1)
        %82 = aie.objectfifo.acquire @C_L1L2_0_0(Produce, 1) : !aie.objectfifosubview<memref<128x128xi16>>
        %83 = aie.objectfifo.subview.access %82[0] : !aie.objectfifosubview<memref<128x128xi16>> -> memref<128x128xi16>
        func.call @zero_i16(%83) : (memref<128x128xi16>) -> ()
        %c0_122 = arith.constant 0 : index
        %c16_123 = arith.constant 16 : index
        %c1_124 = arith.constant 1 : index
        scf.for %arg1 = %c0_122 to %c16_123 step %c1_124 {
          %296 = aie.objectfifo.acquire @B_L2L1_0(Consume, 1) : !aie.objectfifosubview<memref<64x128xi8>>
          %297 = aie.objectfifo.subview.access %296[0] : !aie.objectfifosubview<memref<64x128xi8>> -> memref<64x128xi8>
          %298 = aie.objectfifo.acquire @A_L2L1_0(Consume, 1) : !aie.objectfifosubview<memref<32x64xi8>>
          %299 = aie.objectfifo.subview.access %298[0] : !aie.objectfifosubview<memref<32x64xi8>> -> memref<32x64xi8>
          func.call @matmul_i8_i16(%299, %297, %83) : (memref<32x64xi8>, memref<64x128xi8>, memref<128x128xi16>) -> ()
          aie.objectfifo.release @A_L2L1_0(Consume, 1)
          %300 = aie.objectfifo.acquire @A_L2L1_0(Consume, 1) : !aie.objectfifosubview<memref<32x64xi8>>
          %301 = aie.objectfifo.subview.access %300[0] : !aie.objectfifosubview<memref<32x64xi8>> -> memref<32x64xi8>
          func.call @matmul_i8_i16(%301, %297, %83) : (memref<32x64xi8>, memref<64x128xi8>, memref<128x128xi16>) -> ()
          aie.objectfifo.release @A_L2L1_0(Consume, 1)
          %302 = aie.objectfifo.acquire @A_L2L1_0(Consume, 1) : !aie.objectfifosubview<memref<32x64xi8>>
          %303 = aie.objectfifo.subview.access %302[0] : !aie.objectfifosubview<memref<32x64xi8>> -> memref<32x64xi8>
          func.call @matmul_i8_i16(%303, %297, %83) : (memref<32x64xi8>, memref<64x128xi8>, memref<128x128xi16>) -> ()
          aie.objectfifo.release @A_L2L1_0(Consume, 1)
          %304 = aie.objectfifo.acquire @A_L2L1_0(Consume, 1) : !aie.objectfifosubview<memref<32x64xi8>>
          %305 = aie.objectfifo.subview.access %304[0] : !aie.objectfifosubview<memref<32x64xi8>> -> memref<32x64xi8>
          func.call @matmul_i8_i16(%305, %297, %83) : (memref<32x64xi8>, memref<64x128xi8>, memref<128x128xi16>) -> ()
          aie.objectfifo.release @A_L2L1_0(Consume, 1)
          aie.objectfifo.release @B_L2L1_0(Consume, 1)
        }
        aie.objectfifo.release @C_L1L2_0_0(Produce, 1)
        %84 = aie.objectfifo.acquire @C_L1L2_0_0(Produce, 1) : !aie.objectfifosubview<memref<128x128xi16>>
        %85 = aie.objectfifo.subview.access %84[0] : !aie.objectfifosubview<memref<128x128xi16>> -> memref<128x128xi16>
        func.call @zero_i16(%85) : (memref<128x128xi16>) -> ()
        %c0_125 = arith.constant 0 : index
        %c16_126 = arith.constant 16 : index
        %c1_127 = arith.constant 1 : index
        scf.for %arg1 = %c0_125 to %c16_126 step %c1_127 {
          %296 = aie.objectfifo.acquire @B_L2L1_0(Consume, 1) : !aie.objectfifosubview<memref<64x128xi8>>
          %297 = aie.objectfifo.subview.access %296[0] : !aie.objectfifosubview<memref<64x128xi8>> -> memref<64x128xi8>
          %298 = aie.objectfifo.acquire @A_L2L1_0(Consume, 1) : !aie.objectfifosubview<memref<32x64xi8>>
          %299 = aie.objectfifo.subview.access %298[0] : !aie.objectfifosubview<memref<32x64xi8>> -> memref<32x64xi8>
          func.call @matmul_i8_i16(%299, %297, %85) : (memref<32x64xi8>, memref<64x128xi8>, memref<128x128xi16>) -> ()
          aie.objectfifo.release @A_L2L1_0(Consume, 1)
          %300 = aie.objectfifo.acquire @A_L2L1_0(Consume, 1) : !aie.objectfifosubview<memref<32x64xi8>>
          %301 = aie.objectfifo.subview.access %300[0] : !aie.objectfifosubview<memref<32x64xi8>> -> memref<32x64xi8>
          func.call @matmul_i8_i16(%301, %297, %85) : (memref<32x64xi8>, memref<64x128xi8>, memref<128x128xi16>) -> ()
          aie.objectfifo.release @A_L2L1_0(Consume, 1)
          %302 = aie.objectfifo.acquire @A_L2L1_0(Consume, 1) : !aie.objectfifosubview<memref<32x64xi8>>
          %303 = aie.objectfifo.subview.access %302[0] : !aie.objectfifosubview<memref<32x64xi8>> -> memref<32x64xi8>
          func.call @matmul_i8_i16(%303, %297, %85) : (memref<32x64xi8>, memref<64x128xi8>, memref<128x128xi16>) -> ()
          aie.objectfifo.release @A_L2L1_0(Consume, 1)
          %304 = aie.objectfifo.acquire @A_L2L1_0(Consume, 1) : !aie.objectfifosubview<memref<32x64xi8>>
          %305 = aie.objectfifo.subview.access %304[0] : !aie.objectfifosubview<memref<32x64xi8>> -> memref<32x64xi8>
          func.call @matmul_i8_i16(%305, %297, %85) : (memref<32x64xi8>, memref<64x128xi8>, memref<128x128xi16>) -> ()
          aie.objectfifo.release @A_L2L1_0(Consume, 1)
          aie.objectfifo.release @B_L2L1_0(Consume, 1)
        }
        aie.objectfifo.release @C_L1L2_0_0(Produce, 1)
        %86 = aie.objectfifo.acquire @C_L1L2_0_0(Produce, 1) : !aie.objectfifosubview<memref<128x128xi16>>
        %87 = aie.objectfifo.subview.access %86[0] : !aie.objectfifosubview<memref<128x128xi16>> -> memref<128x128xi16>
        func.call @zero_i16(%87) : (memref<128x128xi16>) -> ()
        %c0_128 = arith.constant 0 : index
        %c16_129 = arith.constant 16 : index
        %c1_130 = arith.constant 1 : index
        scf.for %arg1 = %c0_128 to %c16_129 step %c1_130 {
          %296 = aie.objectfifo.acquire @B_L2L1_0(Consume, 1) : !aie.objectfifosubview<memref<64x128xi8>>
          %297 = aie.objectfifo.subview.access %296[0] : !aie.objectfifosubview<memref<64x128xi8>> -> memref<64x128xi8>
          %298 = aie.objectfifo.acquire @A_L2L1_0(Consume, 1) : !aie.objectfifosubview<memref<32x64xi8>>
          %299 = aie.objectfifo.subview.access %298[0] : !aie.objectfifosubview<memref<32x64xi8>> -> memref<32x64xi8>
          func.call @matmul_i8_i16(%299, %297, %87) : (memref<32x64xi8>, memref<64x128xi8>, memref<128x128xi16>) -> ()
          aie.objectfifo.release @A_L2L1_0(Consume, 1)
          %300 = aie.objectfifo.acquire @A_L2L1_0(Consume, 1) : !aie.objectfifosubview<memref<32x64xi8>>
          %301 = aie.objectfifo.subview.access %300[0] : !aie.objectfifosubview<memref<32x64xi8>> -> memref<32x64xi8>
          func.call @matmul_i8_i16(%301, %297, %87) : (memref<32x64xi8>, memref<64x128xi8>, memref<128x128xi16>) -> ()
          aie.objectfifo.release @A_L2L1_0(Consume, 1)
          %302 = aie.objectfifo.acquire @A_L2L1_0(Consume, 1) : !aie.objectfifosubview<memref<32x64xi8>>
          %303 = aie.objectfifo.subview.access %302[0] : !aie.objectfifosubview<memref<32x64xi8>> -> memref<32x64xi8>
          func.call @matmul_i8_i16(%303, %297, %87) : (memref<32x64xi8>, memref<64x128xi8>, memref<128x128xi16>) -> ()
          aie.objectfifo.release @A_L2L1_0(Consume, 1)
          %304 = aie.objectfifo.acquire @A_L2L1_0(Consume, 1) : !aie.objectfifosubview<memref<32x64xi8>>
          %305 = aie.objectfifo.subview.access %304[0] : !aie.objectfifosubview<memref<32x64xi8>> -> memref<32x64xi8>
          func.call @matmul_i8_i16(%305, %297, %87) : (memref<32x64xi8>, memref<64x128xi8>, memref<128x128xi16>) -> ()
          aie.objectfifo.release @A_L2L1_0(Consume, 1)
          aie.objectfifo.release @B_L2L1_0(Consume, 1)
        }
        aie.objectfifo.release @C_L1L2_0_0(Produce, 1)
        %88 = aie.objectfifo.acquire @C_L1L2_0_0(Produce, 1) : !aie.objectfifosubview<memref<128x128xi16>>
        %89 = aie.objectfifo.subview.access %88[0] : !aie.objectfifosubview<memref<128x128xi16>> -> memref<128x128xi16>
        func.call @zero_i16(%89) : (memref<128x128xi16>) -> ()
        %c0_131 = arith.constant 0 : index
        %c16_132 = arith.constant 16 : index
        %c1_133 = arith.constant 1 : index
        scf.for %arg1 = %c0_131 to %c16_132 step %c1_133 {
          %296 = aie.objectfifo.acquire @B_L2L1_0(Consume, 1) : !aie.objectfifosubview<memref<64x128xi8>>
          %297 = aie.objectfifo.subview.access %296[0] : !aie.objectfifosubview<memref<64x128xi8>> -> memref<64x128xi8>
          %298 = aie.objectfifo.acquire @A_L2L1_0(Consume, 1) : !aie.objectfifosubview<memref<32x64xi8>>
          %299 = aie.objectfifo.subview.access %298[0] : !aie.objectfifosubview<memref<32x64xi8>> -> memref<32x64xi8>
          func.call @matmul_i8_i16(%299, %297, %89) : (memref<32x64xi8>, memref<64x128xi8>, memref<128x128xi16>) -> ()
          aie.objectfifo.release @A_L2L1_0(Consume, 1)
          %300 = aie.objectfifo.acquire @A_L2L1_0(Consume, 1) : !aie.objectfifosubview<memref<32x64xi8>>
          %301 = aie.objectfifo.subview.access %300[0] : !aie.objectfifosubview<memref<32x64xi8>> -> memref<32x64xi8>
          func.call @matmul_i8_i16(%301, %297, %89) : (memref<32x64xi8>, memref<64x128xi8>, memref<128x128xi16>) -> ()
          aie.objectfifo.release @A_L2L1_0(Consume, 1)
          %302 = aie.objectfifo.acquire @A_L2L1_0(Consume, 1) : !aie.objectfifosubview<memref<32x64xi8>>
          %303 = aie.objectfifo.subview.access %302[0] : !aie.objectfifosubview<memref<32x64xi8>> -> memref<32x64xi8>
          func.call @matmul_i8_i16(%303, %297, %89) : (memref<32x64xi8>, memref<64x128xi8>, memref<128x128xi16>) -> ()
          aie.objectfifo.release @A_L2L1_0(Consume, 1)
          %304 = aie.objectfifo.acquire @A_L2L1_0(Consume, 1) : !aie.objectfifosubview<memref<32x64xi8>>
          %305 = aie.objectfifo.subview.access %304[0] : !aie.objectfifosubview<memref<32x64xi8>> -> memref<32x64xi8>
          func.call @matmul_i8_i16(%305, %297, %89) : (memref<32x64xi8>, memref<64x128xi8>, memref<128x128xi16>) -> ()
          aie.objectfifo.release @A_L2L1_0(Consume, 1)
          aie.objectfifo.release @B_L2L1_0(Consume, 1)
        }
        aie.objectfifo.release @C_L1L2_0_0(Produce, 1)
        %90 = aie.objectfifo.acquire @C_L1L2_0_0(Produce, 1) : !aie.objectfifosubview<memref<128x128xi16>>
        %91 = aie.objectfifo.subview.access %90[0] : !aie.objectfifosubview<memref<128x128xi16>> -> memref<128x128xi16>
        func.call @zero_i16(%91) : (memref<128x128xi16>) -> ()
        %c0_134 = arith.constant 0 : index
        %c16_135 = arith.constant 16 : index
        %c1_136 = arith.constant 1 : index
        scf.for %arg1 = %c0_134 to %c16_135 step %c1_136 {
          %296 = aie.objectfifo.acquire @B_L2L1_0(Consume, 1) : !aie.objectfifosubview<memref<64x128xi8>>
          %297 = aie.objectfifo.subview.access %296[0] : !aie.objectfifosubview<memref<64x128xi8>> -> memref<64x128xi8>
          %298 = aie.objectfifo.acquire @A_L2L1_0(Consume, 1) : !aie.objectfifosubview<memref<32x64xi8>>
          %299 = aie.objectfifo.subview.access %298[0] : !aie.objectfifosubview<memref<32x64xi8>> -> memref<32x64xi8>
          func.call @matmul_i8_i16(%299, %297, %91) : (memref<32x64xi8>, memref<64x128xi8>, memref<128x128xi16>) -> ()
          aie.objectfifo.release @A_L2L1_0(Consume, 1)
          %300 = aie.objectfifo.acquire @A_L2L1_0(Consume, 1) : !aie.objectfifosubview<memref<32x64xi8>>
          %301 = aie.objectfifo.subview.access %300[0] : !aie.objectfifosubview<memref<32x64xi8>> -> memref<32x64xi8>
          func.call @matmul_i8_i16(%301, %297, %91) : (memref<32x64xi8>, memref<64x128xi8>, memref<128x128xi16>) -> ()
          aie.objectfifo.release @A_L2L1_0(Consume, 1)
          %302 = aie.objectfifo.acquire @A_L2L1_0(Consume, 1) : !aie.objectfifosubview<memref<32x64xi8>>
          %303 = aie.objectfifo.subview.access %302[0] : !aie.objectfifosubview<memref<32x64xi8>> -> memref<32x64xi8>
          func.call @matmul_i8_i16(%303, %297, %91) : (memref<32x64xi8>, memref<64x128xi8>, memref<128x128xi16>) -> ()
          aie.objectfifo.release @A_L2L1_0(Consume, 1)
          %304 = aie.objectfifo.acquire @A_L2L1_0(Consume, 1) : !aie.objectfifosubview<memref<32x64xi8>>
          %305 = aie.objectfifo.subview.access %304[0] : !aie.objectfifosubview<memref<32x64xi8>> -> memref<32x64xi8>
          func.call @matmul_i8_i16(%305, %297, %91) : (memref<32x64xi8>, memref<64x128xi8>, memref<128x128xi16>) -> ()
          aie.objectfifo.release @A_L2L1_0(Consume, 1)
          aie.objectfifo.release @B_L2L1_0(Consume, 1)
        }
        aie.objectfifo.release @C_L1L2_0_0(Produce, 1)
        %92 = aie.objectfifo.acquire @C_L1L2_0_0(Produce, 1) : !aie.objectfifosubview<memref<128x128xi16>>
        %93 = aie.objectfifo.subview.access %92[0] : !aie.objectfifosubview<memref<128x128xi16>> -> memref<128x128xi16>
        func.call @zero_i16(%93) : (memref<128x128xi16>) -> ()
        %c0_137 = arith.constant 0 : index
        %c16_138 = arith.constant 16 : index
        %c1_139 = arith.constant 1 : index
        scf.for %arg1 = %c0_137 to %c16_138 step %c1_139 {
          %296 = aie.objectfifo.acquire @B_L2L1_0(Consume, 1) : !aie.objectfifosubview<memref<64x128xi8>>
          %297 = aie.objectfifo.subview.access %296[0] : !aie.objectfifosubview<memref<64x128xi8>> -> memref<64x128xi8>
          %298 = aie.objectfifo.acquire @A_L2L1_0(Consume, 1) : !aie.objectfifosubview<memref<32x64xi8>>
          %299 = aie.objectfifo.subview.access %298[0] : !aie.objectfifosubview<memref<32x64xi8>> -> memref<32x64xi8>
          func.call @matmul_i8_i16(%299, %297, %93) : (memref<32x64xi8>, memref<64x128xi8>, memref<128x128xi16>) -> ()
          aie.objectfifo.release @A_L2L1_0(Consume, 1)
          %300 = aie.objectfifo.acquire @A_L2L1_0(Consume, 1) : !aie.objectfifosubview<memref<32x64xi8>>
          %301 = aie.objectfifo.subview.access %300[0] : !aie.objectfifosubview<memref<32x64xi8>> -> memref<32x64xi8>
          func.call @matmul_i8_i16(%301, %297, %93) : (memref<32x64xi8>, memref<64x128xi8>, memref<128x128xi16>) -> ()
          aie.objectfifo.release @A_L2L1_0(Consume, 1)
          %302 = aie.objectfifo.acquire @A_L2L1_0(Consume, 1) : !aie.objectfifosubview<memref<32x64xi8>>
          %303 = aie.objectfifo.subview.access %302[0] : !aie.objectfifosubview<memref<32x64xi8>> -> memref<32x64xi8>
          func.call @matmul_i8_i16(%303, %297, %93) : (memref<32x64xi8>, memref<64x128xi8>, memref<128x128xi16>) -> ()
          aie.objectfifo.release @A_L2L1_0(Consume, 1)
          %304 = aie.objectfifo.acquire @A_L2L1_0(Consume, 1) : !aie.objectfifosubview<memref<32x64xi8>>
          %305 = aie.objectfifo.subview.access %304[0] : !aie.objectfifosubview<memref<32x64xi8>> -> memref<32x64xi8>
          func.call @matmul_i8_i16(%305, %297, %93) : (memref<32x64xi8>, memref<64x128xi8>, memref<128x128xi16>) -> ()
          aie.objectfifo.release @A_L2L1_0(Consume, 1)
          aie.objectfifo.release @B_L2L1_0(Consume, 1)
        }
        aie.objectfifo.release @C_L1L2_0_0(Produce, 1)
        %94 = aie.objectfifo.acquire @C_L1L2_0_0(Produce, 1) : !aie.objectfifosubview<memref<128x128xi16>>
        %95 = aie.objectfifo.subview.access %94[0] : !aie.objectfifosubview<memref<128x128xi16>> -> memref<128x128xi16>
        func.call @zero_i16(%95) : (memref<128x128xi16>) -> ()
        %c0_140 = arith.constant 0 : index
        %c16_141 = arith.constant 16 : index
        %c1_142 = arith.constant 1 : index
        scf.for %arg1 = %c0_140 to %c16_141 step %c1_142 {
          %296 = aie.objectfifo.acquire @B_L2L1_0(Consume, 1) : !aie.objectfifosubview<memref<64x128xi8>>
          %297 = aie.objectfifo.subview.access %296[0] : !aie.objectfifosubview<memref<64x128xi8>> -> memref<64x128xi8>
          %298 = aie.objectfifo.acquire @A_L2L1_0(Consume, 1) : !aie.objectfifosubview<memref<32x64xi8>>
          %299 = aie.objectfifo.subview.access %298[0] : !aie.objectfifosubview<memref<32x64xi8>> -> memref<32x64xi8>
          func.call @matmul_i8_i16(%299, %297, %95) : (memref<32x64xi8>, memref<64x128xi8>, memref<128x128xi16>) -> ()
          aie.objectfifo.release @A_L2L1_0(Consume, 1)
          %300 = aie.objectfifo.acquire @A_L2L1_0(Consume, 1) : !aie.objectfifosubview<memref<32x64xi8>>
          %301 = aie.objectfifo.subview.access %300[0] : !aie.objectfifosubview<memref<32x64xi8>> -> memref<32x64xi8>
          func.call @matmul_i8_i16(%301, %297, %95) : (memref<32x64xi8>, memref<64x128xi8>, memref<128x128xi16>) -> ()
          aie.objectfifo.release @A_L2L1_0(Consume, 1)
          %302 = aie.objectfifo.acquire @A_L2L1_0(Consume, 1) : !aie.objectfifosubview<memref<32x64xi8>>
          %303 = aie.objectfifo.subview.access %302[0] : !aie.objectfifosubview<memref<32x64xi8>> -> memref<32x64xi8>
          func.call @matmul_i8_i16(%303, %297, %95) : (memref<32x64xi8>, memref<64x128xi8>, memref<128x128xi16>) -> ()
          aie.objectfifo.release @A_L2L1_0(Consume, 1)
          %304 = aie.objectfifo.acquire @A_L2L1_0(Consume, 1) : !aie.objectfifosubview<memref<32x64xi8>>
          %305 = aie.objectfifo.subview.access %304[0] : !aie.objectfifosubview<memref<32x64xi8>> -> memref<32x64xi8>
          func.call @matmul_i8_i16(%305, %297, %95) : (memref<32x64xi8>, memref<64x128xi8>, memref<128x128xi16>) -> ()
          aie.objectfifo.release @A_L2L1_0(Consume, 1)
          aie.objectfifo.release @B_L2L1_0(Consume, 1)
        }
        aie.objectfifo.release @C_L1L2_0_0(Produce, 1)
        %96 = aie.objectfifo.acquire @C_L1L2_0_0(Produce, 1) : !aie.objectfifosubview<memref<128x128xi16>>
        %97 = aie.objectfifo.subview.access %96[0] : !aie.objectfifosubview<memref<128x128xi16>> -> memref<128x128xi16>
        func.call @zero_i16(%97) : (memref<128x128xi16>) -> ()
        %c0_143 = arith.constant 0 : index
        %c16_144 = arith.constant 16 : index
        %c1_145 = arith.constant 1 : index
        scf.for %arg1 = %c0_143 to %c16_144 step %c1_145 {
          %296 = aie.objectfifo.acquire @B_L2L1_0(Consume, 1) : !aie.objectfifosubview<memref<64x128xi8>>
          %297 = aie.objectfifo.subview.access %296[0] : !aie.objectfifosubview<memref<64x128xi8>> -> memref<64x128xi8>
          %298 = aie.objectfifo.acquire @A_L2L1_0(Consume, 1) : !aie.objectfifosubview<memref<32x64xi8>>
          %299 = aie.objectfifo.subview.access %298[0] : !aie.objectfifosubview<memref<32x64xi8>> -> memref<32x64xi8>
          func.call @matmul_i8_i16(%299, %297, %97) : (memref<32x64xi8>, memref<64x128xi8>, memref<128x128xi16>) -> ()
          aie.objectfifo.release @A_L2L1_0(Consume, 1)
          %300 = aie.objectfifo.acquire @A_L2L1_0(Consume, 1) : !aie.objectfifosubview<memref<32x64xi8>>
          %301 = aie.objectfifo.subview.access %300[0] : !aie.objectfifosubview<memref<32x64xi8>> -> memref<32x64xi8>
          func.call @matmul_i8_i16(%301, %297, %97) : (memref<32x64xi8>, memref<64x128xi8>, memref<128x128xi16>) -> ()
          aie.objectfifo.release @A_L2L1_0(Consume, 1)
          %302 = aie.objectfifo.acquire @A_L2L1_0(Consume, 1) : !aie.objectfifosubview<memref<32x64xi8>>
          %303 = aie.objectfifo.subview.access %302[0] : !aie.objectfifosubview<memref<32x64xi8>> -> memref<32x64xi8>
          func.call @matmul_i8_i16(%303, %297, %97) : (memref<32x64xi8>, memref<64x128xi8>, memref<128x128xi16>) -> ()
          aie.objectfifo.release @A_L2L1_0(Consume, 1)
          %304 = aie.objectfifo.acquire @A_L2L1_0(Consume, 1) : !aie.objectfifosubview<memref<32x64xi8>>
          %305 = aie.objectfifo.subview.access %304[0] : !aie.objectfifosubview<memref<32x64xi8>> -> memref<32x64xi8>
          func.call @matmul_i8_i16(%305, %297, %97) : (memref<32x64xi8>, memref<64x128xi8>, memref<128x128xi16>) -> ()
          aie.objectfifo.release @A_L2L1_0(Consume, 1)
          aie.objectfifo.release @B_L2L1_0(Consume, 1)
        }
        aie.objectfifo.release @C_L1L2_0_0(Produce, 1)
        %98 = aie.objectfifo.acquire @C_L1L2_0_0(Produce, 1) : !aie.objectfifosubview<memref<128x128xi16>>
        %99 = aie.objectfifo.subview.access %98[0] : !aie.objectfifosubview<memref<128x128xi16>> -> memref<128x128xi16>
        func.call @zero_i16(%99) : (memref<128x128xi16>) -> ()
        %c0_146 = arith.constant 0 : index
        %c16_147 = arith.constant 16 : index
        %c1_148 = arith.constant 1 : index
        scf.for %arg1 = %c0_146 to %c16_147 step %c1_148 {
          %296 = aie.objectfifo.acquire @B_L2L1_0(Consume, 1) : !aie.objectfifosubview<memref<64x128xi8>>
          %297 = aie.objectfifo.subview.access %296[0] : !aie.objectfifosubview<memref<64x128xi8>> -> memref<64x128xi8>
          %298 = aie.objectfifo.acquire @A_L2L1_0(Consume, 1) : !aie.objectfifosubview<memref<32x64xi8>>
          %299 = aie.objectfifo.subview.access %298[0] : !aie.objectfifosubview<memref<32x64xi8>> -> memref<32x64xi8>
          func.call @matmul_i8_i16(%299, %297, %99) : (memref<32x64xi8>, memref<64x128xi8>, memref<128x128xi16>) -> ()
          aie.objectfifo.release @A_L2L1_0(Consume, 1)
          %300 = aie.objectfifo.acquire @A_L2L1_0(Consume, 1) : !aie.objectfifosubview<memref<32x64xi8>>
          %301 = aie.objectfifo.subview.access %300[0] : !aie.objectfifosubview<memref<32x64xi8>> -> memref<32x64xi8>
          func.call @matmul_i8_i16(%301, %297, %99) : (memref<32x64xi8>, memref<64x128xi8>, memref<128x128xi16>) -> ()
          aie.objectfifo.release @A_L2L1_0(Consume, 1)
          %302 = aie.objectfifo.acquire @A_L2L1_0(Consume, 1) : !aie.objectfifosubview<memref<32x64xi8>>
          %303 = aie.objectfifo.subview.access %302[0] : !aie.objectfifosubview<memref<32x64xi8>> -> memref<32x64xi8>
          func.call @matmul_i8_i16(%303, %297, %99) : (memref<32x64xi8>, memref<64x128xi8>, memref<128x128xi16>) -> ()
          aie.objectfifo.release @A_L2L1_0(Consume, 1)
          %304 = aie.objectfifo.acquire @A_L2L1_0(Consume, 1) : !aie.objectfifosubview<memref<32x64xi8>>
          %305 = aie.objectfifo.subview.access %304[0] : !aie.objectfifosubview<memref<32x64xi8>> -> memref<32x64xi8>
          func.call @matmul_i8_i16(%305, %297, %99) : (memref<32x64xi8>, memref<64x128xi8>, memref<128x128xi16>) -> ()
          aie.objectfifo.release @A_L2L1_0(Consume, 1)
          aie.objectfifo.release @B_L2L1_0(Consume, 1)
        }
        aie.objectfifo.release @C_L1L2_0_0(Produce, 1)
        %100 = aie.objectfifo.acquire @C_L1L2_0_0(Produce, 1) : !aie.objectfifosubview<memref<128x128xi16>>
        %101 = aie.objectfifo.subview.access %100[0] : !aie.objectfifosubview<memref<128x128xi16>> -> memref<128x128xi16>
        func.call @zero_i16(%101) : (memref<128x128xi16>) -> ()
        %c0_149 = arith.constant 0 : index
        %c16_150 = arith.constant 16 : index
        %c1_151 = arith.constant 1 : index
        scf.for %arg1 = %c0_149 to %c16_150 step %c1_151 {
          %296 = aie.objectfifo.acquire @B_L2L1_0(Consume, 1) : !aie.objectfifosubview<memref<64x128xi8>>
          %297 = aie.objectfifo.subview.access %296[0] : !aie.objectfifosubview<memref<64x128xi8>> -> memref<64x128xi8>
          %298 = aie.objectfifo.acquire @A_L2L1_0(Consume, 1) : !aie.objectfifosubview<memref<32x64xi8>>
          %299 = aie.objectfifo.subview.access %298[0] : !aie.objectfifosubview<memref<32x64xi8>> -> memref<32x64xi8>
          func.call @matmul_i8_i16(%299, %297, %101) : (memref<32x64xi8>, memref<64x128xi8>, memref<128x128xi16>) -> ()
          aie.objectfifo.release @A_L2L1_0(Consume, 1)
          %300 = aie.objectfifo.acquire @A_L2L1_0(Consume, 1) : !aie.objectfifosubview<memref<32x64xi8>>
          %301 = aie.objectfifo.subview.access %300[0] : !aie.objectfifosubview<memref<32x64xi8>> -> memref<32x64xi8>
          func.call @matmul_i8_i16(%301, %297, %101) : (memref<32x64xi8>, memref<64x128xi8>, memref<128x128xi16>) -> ()
          aie.objectfifo.release @A_L2L1_0(Consume, 1)
          %302 = aie.objectfifo.acquire @A_L2L1_0(Consume, 1) : !aie.objectfifosubview<memref<32x64xi8>>
          %303 = aie.objectfifo.subview.access %302[0] : !aie.objectfifosubview<memref<32x64xi8>> -> memref<32x64xi8>
          func.call @matmul_i8_i16(%303, %297, %101) : (memref<32x64xi8>, memref<64x128xi8>, memref<128x128xi16>) -> ()
          aie.objectfifo.release @A_L2L1_0(Consume, 1)
          %304 = aie.objectfifo.acquire @A_L2L1_0(Consume, 1) : !aie.objectfifosubview<memref<32x64xi8>>
          %305 = aie.objectfifo.subview.access %304[0] : !aie.objectfifosubview<memref<32x64xi8>> -> memref<32x64xi8>
          func.call @matmul_i8_i16(%305, %297, %101) : (memref<32x64xi8>, memref<64x128xi8>, memref<128x128xi16>) -> ()
          aie.objectfifo.release @A_L2L1_0(Consume, 1)
          aie.objectfifo.release @B_L2L1_0(Consume, 1)
        }
        aie.objectfifo.release @C_L1L2_0_0(Produce, 1)
        %102 = aie.objectfifo.acquire @C_L1L2_0_0(Produce, 1) : !aie.objectfifosubview<memref<128x128xi16>>
        %103 = aie.objectfifo.subview.access %102[0] : !aie.objectfifosubview<memref<128x128xi16>> -> memref<128x128xi16>
        func.call @zero_i16(%103) : (memref<128x128xi16>) -> ()
        %c0_152 = arith.constant 0 : index
        %c16_153 = arith.constant 16 : index
        %c1_154 = arith.constant 1 : index
        scf.for %arg1 = %c0_152 to %c16_153 step %c1_154 {
          %296 = aie.objectfifo.acquire @B_L2L1_0(Consume, 1) : !aie.objectfifosubview<memref<64x128xi8>>
          %297 = aie.objectfifo.subview.access %296[0] : !aie.objectfifosubview<memref<64x128xi8>> -> memref<64x128xi8>
          %298 = aie.objectfifo.acquire @A_L2L1_0(Consume, 1) : !aie.objectfifosubview<memref<32x64xi8>>
          %299 = aie.objectfifo.subview.access %298[0] : !aie.objectfifosubview<memref<32x64xi8>> -> memref<32x64xi8>
          func.call @matmul_i8_i16(%299, %297, %103) : (memref<32x64xi8>, memref<64x128xi8>, memref<128x128xi16>) -> ()
          aie.objectfifo.release @A_L2L1_0(Consume, 1)
          %300 = aie.objectfifo.acquire @A_L2L1_0(Consume, 1) : !aie.objectfifosubview<memref<32x64xi8>>
          %301 = aie.objectfifo.subview.access %300[0] : !aie.objectfifosubview<memref<32x64xi8>> -> memref<32x64xi8>
          func.call @matmul_i8_i16(%301, %297, %103) : (memref<32x64xi8>, memref<64x128xi8>, memref<128x128xi16>) -> ()
          aie.objectfifo.release @A_L2L1_0(Consume, 1)
          %302 = aie.objectfifo.acquire @A_L2L1_0(Consume, 1) : !aie.objectfifosubview<memref<32x64xi8>>
          %303 = aie.objectfifo.subview.access %302[0] : !aie.objectfifosubview<memref<32x64xi8>> -> memref<32x64xi8>
          func.call @matmul_i8_i16(%303, %297, %103) : (memref<32x64xi8>, memref<64x128xi8>, memref<128x128xi16>) -> ()
          aie.objectfifo.release @A_L2L1_0(Consume, 1)
          %304 = aie.objectfifo.acquire @A_L2L1_0(Consume, 1) : !aie.objectfifosubview<memref<32x64xi8>>
          %305 = aie.objectfifo.subview.access %304[0] : !aie.objectfifosubview<memref<32x64xi8>> -> memref<32x64xi8>
          func.call @matmul_i8_i16(%305, %297, %103) : (memref<32x64xi8>, memref<64x128xi8>, memref<128x128xi16>) -> ()
          aie.objectfifo.release @A_L2L1_0(Consume, 1)
          aie.objectfifo.release @B_L2L1_0(Consume, 1)
        }
        aie.objectfifo.release @C_L1L2_0_0(Produce, 1)
        %104 = aie.objectfifo.acquire @C_L1L2_0_0(Produce, 1) : !aie.objectfifosubview<memref<128x128xi16>>
        %105 = aie.objectfifo.subview.access %104[0] : !aie.objectfifosubview<memref<128x128xi16>> -> memref<128x128xi16>
        func.call @zero_i16(%105) : (memref<128x128xi16>) -> ()
        %c0_155 = arith.constant 0 : index
        %c16_156 = arith.constant 16 : index
        %c1_157 = arith.constant 1 : index
        scf.for %arg1 = %c0_155 to %c16_156 step %c1_157 {
          %296 = aie.objectfifo.acquire @B_L2L1_0(Consume, 1) : !aie.objectfifosubview<memref<64x128xi8>>
          %297 = aie.objectfifo.subview.access %296[0] : !aie.objectfifosubview<memref<64x128xi8>> -> memref<64x128xi8>
          %298 = aie.objectfifo.acquire @A_L2L1_0(Consume, 1) : !aie.objectfifosubview<memref<32x64xi8>>
          %299 = aie.objectfifo.subview.access %298[0] : !aie.objectfifosubview<memref<32x64xi8>> -> memref<32x64xi8>
          func.call @matmul_i8_i16(%299, %297, %105) : (memref<32x64xi8>, memref<64x128xi8>, memref<128x128xi16>) -> ()
          aie.objectfifo.release @A_L2L1_0(Consume, 1)
          %300 = aie.objectfifo.acquire @A_L2L1_0(Consume, 1) : !aie.objectfifosubview<memref<32x64xi8>>
          %301 = aie.objectfifo.subview.access %300[0] : !aie.objectfifosubview<memref<32x64xi8>> -> memref<32x64xi8>
          func.call @matmul_i8_i16(%301, %297, %105) : (memref<32x64xi8>, memref<64x128xi8>, memref<128x128xi16>) -> ()
          aie.objectfifo.release @A_L2L1_0(Consume, 1)
          %302 = aie.objectfifo.acquire @A_L2L1_0(Consume, 1) : !aie.objectfifosubview<memref<32x64xi8>>
          %303 = aie.objectfifo.subview.access %302[0] : !aie.objectfifosubview<memref<32x64xi8>> -> memref<32x64xi8>
          func.call @matmul_i8_i16(%303, %297, %105) : (memref<32x64xi8>, memref<64x128xi8>, memref<128x128xi16>) -> ()
          aie.objectfifo.release @A_L2L1_0(Consume, 1)
          %304 = aie.objectfifo.acquire @A_L2L1_0(Consume, 1) : !aie.objectfifosubview<memref<32x64xi8>>
          %305 = aie.objectfifo.subview.access %304[0] : !aie.objectfifosubview<memref<32x64xi8>> -> memref<32x64xi8>
          func.call @matmul_i8_i16(%305, %297, %105) : (memref<32x64xi8>, memref<64x128xi8>, memref<128x128xi16>) -> ()
          aie.objectfifo.release @A_L2L1_0(Consume, 1)
          aie.objectfifo.release @B_L2L1_0(Consume, 1)
        }
        aie.objectfifo.release @C_L1L2_0_0(Produce, 1)
        %106 = aie.objectfifo.acquire @C_L1L2_0_0(Produce, 1) : !aie.objectfifosubview<memref<128x128xi16>>
        %107 = aie.objectfifo.subview.access %106[0] : !aie.objectfifosubview<memref<128x128xi16>> -> memref<128x128xi16>
        func.call @zero_i16(%107) : (memref<128x128xi16>) -> ()
        %c0_158 = arith.constant 0 : index
        %c16_159 = arith.constant 16 : index
        %c1_160 = arith.constant 1 : index
        scf.for %arg1 = %c0_158 to %c16_159 step %c1_160 {
          %296 = aie.objectfifo.acquire @B_L2L1_0(Consume, 1) : !aie.objectfifosubview<memref<64x128xi8>>
          %297 = aie.objectfifo.subview.access %296[0] : !aie.objectfifosubview<memref<64x128xi8>> -> memref<64x128xi8>
          %298 = aie.objectfifo.acquire @A_L2L1_0(Consume, 1) : !aie.objectfifosubview<memref<32x64xi8>>
          %299 = aie.objectfifo.subview.access %298[0] : !aie.objectfifosubview<memref<32x64xi8>> -> memref<32x64xi8>
          func.call @matmul_i8_i16(%299, %297, %107) : (memref<32x64xi8>, memref<64x128xi8>, memref<128x128xi16>) -> ()
          aie.objectfifo.release @A_L2L1_0(Consume, 1)
          %300 = aie.objectfifo.acquire @A_L2L1_0(Consume, 1) : !aie.objectfifosubview<memref<32x64xi8>>
          %301 = aie.objectfifo.subview.access %300[0] : !aie.objectfifosubview<memref<32x64xi8>> -> memref<32x64xi8>
          func.call @matmul_i8_i16(%301, %297, %107) : (memref<32x64xi8>, memref<64x128xi8>, memref<128x128xi16>) -> ()
          aie.objectfifo.release @A_L2L1_0(Consume, 1)
          %302 = aie.objectfifo.acquire @A_L2L1_0(Consume, 1) : !aie.objectfifosubview<memref<32x64xi8>>
          %303 = aie.objectfifo.subview.access %302[0] : !aie.objectfifosubview<memref<32x64xi8>> -> memref<32x64xi8>
          func.call @matmul_i8_i16(%303, %297, %107) : (memref<32x64xi8>, memref<64x128xi8>, memref<128x128xi16>) -> ()
          aie.objectfifo.release @A_L2L1_0(Consume, 1)
          %304 = aie.objectfifo.acquire @A_L2L1_0(Consume, 1) : !aie.objectfifosubview<memref<32x64xi8>>
          %305 = aie.objectfifo.subview.access %304[0] : !aie.objectfifosubview<memref<32x64xi8>> -> memref<32x64xi8>
          func.call @matmul_i8_i16(%305, %297, %107) : (memref<32x64xi8>, memref<64x128xi8>, memref<128x128xi16>) -> ()
          aie.objectfifo.release @A_L2L1_0(Consume, 1)
          aie.objectfifo.release @B_L2L1_0(Consume, 1)
        }
        aie.objectfifo.release @C_L1L2_0_0(Produce, 1)
        %108 = aie.objectfifo.acquire @C_L1L2_0_0(Produce, 1) : !aie.objectfifosubview<memref<128x128xi16>>
        %109 = aie.objectfifo.subview.access %108[0] : !aie.objectfifosubview<memref<128x128xi16>> -> memref<128x128xi16>
        func.call @zero_i16(%109) : (memref<128x128xi16>) -> ()
        %c0_161 = arith.constant 0 : index
        %c16_162 = arith.constant 16 : index
        %c1_163 = arith.constant 1 : index
        scf.for %arg1 = %c0_161 to %c16_162 step %c1_163 {
          %296 = aie.objectfifo.acquire @B_L2L1_0(Consume, 1) : !aie.objectfifosubview<memref<64x128xi8>>
          %297 = aie.objectfifo.subview.access %296[0] : !aie.objectfifosubview<memref<64x128xi8>> -> memref<64x128xi8>
          %298 = aie.objectfifo.acquire @A_L2L1_0(Consume, 1) : !aie.objectfifosubview<memref<32x64xi8>>
          %299 = aie.objectfifo.subview.access %298[0] : !aie.objectfifosubview<memref<32x64xi8>> -> memref<32x64xi8>
          func.call @matmul_i8_i16(%299, %297, %109) : (memref<32x64xi8>, memref<64x128xi8>, memref<128x128xi16>) -> ()
          aie.objectfifo.release @A_L2L1_0(Consume, 1)
          %300 = aie.objectfifo.acquire @A_L2L1_0(Consume, 1) : !aie.objectfifosubview<memref<32x64xi8>>
          %301 = aie.objectfifo.subview.access %300[0] : !aie.objectfifosubview<memref<32x64xi8>> -> memref<32x64xi8>
          func.call @matmul_i8_i16(%301, %297, %109) : (memref<32x64xi8>, memref<64x128xi8>, memref<128x128xi16>) -> ()
          aie.objectfifo.release @A_L2L1_0(Consume, 1)
          %302 = aie.objectfifo.acquire @A_L2L1_0(Consume, 1) : !aie.objectfifosubview<memref<32x64xi8>>
          %303 = aie.objectfifo.subview.access %302[0] : !aie.objectfifosubview<memref<32x64xi8>> -> memref<32x64xi8>
          func.call @matmul_i8_i16(%303, %297, %109) : (memref<32x64xi8>, memref<64x128xi8>, memref<128x128xi16>) -> ()
          aie.objectfifo.release @A_L2L1_0(Consume, 1)
          %304 = aie.objectfifo.acquire @A_L2L1_0(Consume, 1) : !aie.objectfifosubview<memref<32x64xi8>>
          %305 = aie.objectfifo.subview.access %304[0] : !aie.objectfifosubview<memref<32x64xi8>> -> memref<32x64xi8>
          func.call @matmul_i8_i16(%305, %297, %109) : (memref<32x64xi8>, memref<64x128xi8>, memref<128x128xi16>) -> ()
          aie.objectfifo.release @A_L2L1_0(Consume, 1)
          aie.objectfifo.release @B_L2L1_0(Consume, 1)
        }
        aie.objectfifo.release @C_L1L2_0_0(Produce, 1)
        %110 = aie.objectfifo.acquire @C_L1L2_0_0(Produce, 1) : !aie.objectfifosubview<memref<128x128xi16>>
        %111 = aie.objectfifo.subview.access %110[0] : !aie.objectfifosubview<memref<128x128xi16>> -> memref<128x128xi16>
        func.call @zero_i16(%111) : (memref<128x128xi16>) -> ()
        %c0_164 = arith.constant 0 : index
        %c16_165 = arith.constant 16 : index
        %c1_166 = arith.constant 1 : index
        scf.for %arg1 = %c0_164 to %c16_165 step %c1_166 {
          %296 = aie.objectfifo.acquire @B_L2L1_0(Consume, 1) : !aie.objectfifosubview<memref<64x128xi8>>
          %297 = aie.objectfifo.subview.access %296[0] : !aie.objectfifosubview<memref<64x128xi8>> -> memref<64x128xi8>
          %298 = aie.objectfifo.acquire @A_L2L1_0(Consume, 1) : !aie.objectfifosubview<memref<32x64xi8>>
          %299 = aie.objectfifo.subview.access %298[0] : !aie.objectfifosubview<memref<32x64xi8>> -> memref<32x64xi8>
          func.call @matmul_i8_i16(%299, %297, %111) : (memref<32x64xi8>, memref<64x128xi8>, memref<128x128xi16>) -> ()
          aie.objectfifo.release @A_L2L1_0(Consume, 1)
          %300 = aie.objectfifo.acquire @A_L2L1_0(Consume, 1) : !aie.objectfifosubview<memref<32x64xi8>>
          %301 = aie.objectfifo.subview.access %300[0] : !aie.objectfifosubview<memref<32x64xi8>> -> memref<32x64xi8>
          func.call @matmul_i8_i16(%301, %297, %111) : (memref<32x64xi8>, memref<64x128xi8>, memref<128x128xi16>) -> ()
          aie.objectfifo.release @A_L2L1_0(Consume, 1)
          %302 = aie.objectfifo.acquire @A_L2L1_0(Consume, 1) : !aie.objectfifosubview<memref<32x64xi8>>
          %303 = aie.objectfifo.subview.access %302[0] : !aie.objectfifosubview<memref<32x64xi8>> -> memref<32x64xi8>
          func.call @matmul_i8_i16(%303, %297, %111) : (memref<32x64xi8>, memref<64x128xi8>, memref<128x128xi16>) -> ()
          aie.objectfifo.release @A_L2L1_0(Consume, 1)
          %304 = aie.objectfifo.acquire @A_L2L1_0(Consume, 1) : !aie.objectfifosubview<memref<32x64xi8>>
          %305 = aie.objectfifo.subview.access %304[0] : !aie.objectfifosubview<memref<32x64xi8>> -> memref<32x64xi8>
          func.call @matmul_i8_i16(%305, %297, %111) : (memref<32x64xi8>, memref<64x128xi8>, memref<128x128xi16>) -> ()
          aie.objectfifo.release @A_L2L1_0(Consume, 1)
          aie.objectfifo.release @B_L2L1_0(Consume, 1)
        }
        aie.objectfifo.release @C_L1L2_0_0(Produce, 1)
        %112 = aie.objectfifo.acquire @C_L1L2_0_0(Produce, 1) : !aie.objectfifosubview<memref<128x128xi16>>
        %113 = aie.objectfifo.subview.access %112[0] : !aie.objectfifosubview<memref<128x128xi16>> -> memref<128x128xi16>
        func.call @zero_i16(%113) : (memref<128x128xi16>) -> ()
        %c0_167 = arith.constant 0 : index
        %c16_168 = arith.constant 16 : index
        %c1_169 = arith.constant 1 : index
        scf.for %arg1 = %c0_167 to %c16_168 step %c1_169 {
          %296 = aie.objectfifo.acquire @B_L2L1_0(Consume, 1) : !aie.objectfifosubview<memref<64x128xi8>>
          %297 = aie.objectfifo.subview.access %296[0] : !aie.objectfifosubview<memref<64x128xi8>> -> memref<64x128xi8>
          %298 = aie.objectfifo.acquire @A_L2L1_0(Consume, 1) : !aie.objectfifosubview<memref<32x64xi8>>
          %299 = aie.objectfifo.subview.access %298[0] : !aie.objectfifosubview<memref<32x64xi8>> -> memref<32x64xi8>
          func.call @matmul_i8_i16(%299, %297, %113) : (memref<32x64xi8>, memref<64x128xi8>, memref<128x128xi16>) -> ()
          aie.objectfifo.release @A_L2L1_0(Consume, 1)
          %300 = aie.objectfifo.acquire @A_L2L1_0(Consume, 1) : !aie.objectfifosubview<memref<32x64xi8>>
          %301 = aie.objectfifo.subview.access %300[0] : !aie.objectfifosubview<memref<32x64xi8>> -> memref<32x64xi8>
          func.call @matmul_i8_i16(%301, %297, %113) : (memref<32x64xi8>, memref<64x128xi8>, memref<128x128xi16>) -> ()
          aie.objectfifo.release @A_L2L1_0(Consume, 1)
          %302 = aie.objectfifo.acquire @A_L2L1_0(Consume, 1) : !aie.objectfifosubview<memref<32x64xi8>>
          %303 = aie.objectfifo.subview.access %302[0] : !aie.objectfifosubview<memref<32x64xi8>> -> memref<32x64xi8>
          func.call @matmul_i8_i16(%303, %297, %113) : (memref<32x64xi8>, memref<64x128xi8>, memref<128x128xi16>) -> ()
          aie.objectfifo.release @A_L2L1_0(Consume, 1)
          %304 = aie.objectfifo.acquire @A_L2L1_0(Consume, 1) : !aie.objectfifosubview<memref<32x64xi8>>
          %305 = aie.objectfifo.subview.access %304[0] : !aie.objectfifosubview<memref<32x64xi8>> -> memref<32x64xi8>
          func.call @matmul_i8_i16(%305, %297, %113) : (memref<32x64xi8>, memref<64x128xi8>, memref<128x128xi16>) -> ()
          aie.objectfifo.release @A_L2L1_0(Consume, 1)
          aie.objectfifo.release @B_L2L1_0(Consume, 1)
        }
        aie.objectfifo.release @C_L1L2_0_0(Produce, 1)
        %114 = aie.objectfifo.acquire @C_L1L2_0_0(Produce, 1) : !aie.objectfifosubview<memref<128x128xi16>>
        %115 = aie.objectfifo.subview.access %114[0] : !aie.objectfifosubview<memref<128x128xi16>> -> memref<128x128xi16>
        func.call @zero_i16(%115) : (memref<128x128xi16>) -> ()
        %c0_170 = arith.constant 0 : index
        %c16_171 = arith.constant 16 : index
        %c1_172 = arith.constant 1 : index
        scf.for %arg1 = %c0_170 to %c16_171 step %c1_172 {
          %296 = aie.objectfifo.acquire @B_L2L1_0(Consume, 1) : !aie.objectfifosubview<memref<64x128xi8>>
          %297 = aie.objectfifo.subview.access %296[0] : !aie.objectfifosubview<memref<64x128xi8>> -> memref<64x128xi8>
          %298 = aie.objectfifo.acquire @A_L2L1_0(Consume, 1) : !aie.objectfifosubview<memref<32x64xi8>>
          %299 = aie.objectfifo.subview.access %298[0] : !aie.objectfifosubview<memref<32x64xi8>> -> memref<32x64xi8>
          func.call @matmul_i8_i16(%299, %297, %115) : (memref<32x64xi8>, memref<64x128xi8>, memref<128x128xi16>) -> ()
          aie.objectfifo.release @A_L2L1_0(Consume, 1)
          %300 = aie.objectfifo.acquire @A_L2L1_0(Consume, 1) : !aie.objectfifosubview<memref<32x64xi8>>
          %301 = aie.objectfifo.subview.access %300[0] : !aie.objectfifosubview<memref<32x64xi8>> -> memref<32x64xi8>
          func.call @matmul_i8_i16(%301, %297, %115) : (memref<32x64xi8>, memref<64x128xi8>, memref<128x128xi16>) -> ()
          aie.objectfifo.release @A_L2L1_0(Consume, 1)
          %302 = aie.objectfifo.acquire @A_L2L1_0(Consume, 1) : !aie.objectfifosubview<memref<32x64xi8>>
          %303 = aie.objectfifo.subview.access %302[0] : !aie.objectfifosubview<memref<32x64xi8>> -> memref<32x64xi8>
          func.call @matmul_i8_i16(%303, %297, %115) : (memref<32x64xi8>, memref<64x128xi8>, memref<128x128xi16>) -> ()
          aie.objectfifo.release @A_L2L1_0(Consume, 1)
          %304 = aie.objectfifo.acquire @A_L2L1_0(Consume, 1) : !aie.objectfifosubview<memref<32x64xi8>>
          %305 = aie.objectfifo.subview.access %304[0] : !aie.objectfifosubview<memref<32x64xi8>> -> memref<32x64xi8>
          func.call @matmul_i8_i16(%305, %297, %115) : (memref<32x64xi8>, memref<64x128xi8>, memref<128x128xi16>) -> ()
          aie.objectfifo.release @A_L2L1_0(Consume, 1)
          aie.objectfifo.release @B_L2L1_0(Consume, 1)
        }
        aie.objectfifo.release @C_L1L2_0_0(Produce, 1)
        %116 = aie.objectfifo.acquire @C_L1L2_0_0(Produce, 1) : !aie.objectfifosubview<memref<128x128xi16>>
        %117 = aie.objectfifo.subview.access %116[0] : !aie.objectfifosubview<memref<128x128xi16>> -> memref<128x128xi16>
        func.call @zero_i16(%117) : (memref<128x128xi16>) -> ()
        %c0_173 = arith.constant 0 : index
        %c16_174 = arith.constant 16 : index
        %c1_175 = arith.constant 1 : index
        scf.for %arg1 = %c0_173 to %c16_174 step %c1_175 {
          %296 = aie.objectfifo.acquire @B_L2L1_0(Consume, 1) : !aie.objectfifosubview<memref<64x128xi8>>
          %297 = aie.objectfifo.subview.access %296[0] : !aie.objectfifosubview<memref<64x128xi8>> -> memref<64x128xi8>
          %298 = aie.objectfifo.acquire @A_L2L1_0(Consume, 1) : !aie.objectfifosubview<memref<32x64xi8>>
          %299 = aie.objectfifo.subview.access %298[0] : !aie.objectfifosubview<memref<32x64xi8>> -> memref<32x64xi8>
          func.call @matmul_i8_i16(%299, %297, %117) : (memref<32x64xi8>, memref<64x128xi8>, memref<128x128xi16>) -> ()
          aie.objectfifo.release @A_L2L1_0(Consume, 1)
          %300 = aie.objectfifo.acquire @A_L2L1_0(Consume, 1) : !aie.objectfifosubview<memref<32x64xi8>>
          %301 = aie.objectfifo.subview.access %300[0] : !aie.objectfifosubview<memref<32x64xi8>> -> memref<32x64xi8>
          func.call @matmul_i8_i16(%301, %297, %117) : (memref<32x64xi8>, memref<64x128xi8>, memref<128x128xi16>) -> ()
          aie.objectfifo.release @A_L2L1_0(Consume, 1)
          %302 = aie.objectfifo.acquire @A_L2L1_0(Consume, 1) : !aie.objectfifosubview<memref<32x64xi8>>
          %303 = aie.objectfifo.subview.access %302[0] : !aie.objectfifosubview<memref<32x64xi8>> -> memref<32x64xi8>
          func.call @matmul_i8_i16(%303, %297, %117) : (memref<32x64xi8>, memref<64x128xi8>, memref<128x128xi16>) -> ()
          aie.objectfifo.release @A_L2L1_0(Consume, 1)
          %304 = aie.objectfifo.acquire @A_L2L1_0(Consume, 1) : !aie.objectfifosubview<memref<32x64xi8>>
…
        aie.dma_bd(%arg2 : memref<19447808xi16>, 143104, 16384, [<size = 1, stride = 0>, <size = 1, stride = 0>, <size = 128, stride = 151936>, <size = 128, stride = 1>]) {burst_length = 0 : i32}
        aie.end
      } {issue_token = true}
      aiex.dma_start_task(%2378)
      %2379 = aiex.dma_configure_task_for @C_L2L3_7 {
        aie.dma_bd(%arg2 : memref<19447808xi16>, 143232, 16384, [<size = 1, stride = 0>, <size = 1, stride = 0>, <size = 128, stride = 151936>, <size = 128, stride = 1>]) {burst_length = 0 : i32}
        aie.end
      } {issue_token = true}
      aiex.dma_start_task(%2379)
      aiex.dma_await_task(%2321)
      aiex.dma_await_task(%2322)
      aiex.dma_await_task(%2323)
      aiex.dma_await_task(%2324)
      aiex.dma_await_task(%2325)
      aiex.dma_await_task(%2326)
      aiex.dma_await_task(%2327)
      aiex.dma_await_task(%2328)
      aiex.dma_free_task(%2312)
      aiex.dma_free_task(%2313)
      aiex.dma_free_task(%2314)
      aiex.dma_free_task(%2315)
      aiex.dma_free_task(%2316)
      aiex.dma_free_task(%2317)
      aiex.dma_free_task(%2318)
      aiex.dma_free_task(%2319)
      aiex.dma_free_task(%2320)
      aiex.dma_await_task(%2338)
      aiex.dma_await_task(%2339)
      aiex.dma_await_task(%2340)
      aiex.dma_await_task(%2341)
      aiex.dma_await_task(%2342)
      aiex.dma_await_task(%2343)
      aiex.dma_await_task(%2344)
      aiex.dma_await_task(%2345)
      aiex.dma_free_task(%2329)
      aiex.dma_free_task(%2330)
      aiex.dma_free_task(%2331)
      aiex.dma_free_task(%2332)
      aiex.dma_free_task(%2333)
      aiex.dma_free_task(%2334)
      aiex.dma_free_task(%2335)
      aiex.dma_free_task(%2336)
      aiex.dma_free_task(%2337)
      %2380 = aiex.dma_configure_task_for @A_L3L2_0 {
        aie.dma_bd(%arg0 : memref<131072xi8>, 0, 131072, [<size = 1, stride = 0>, <size = 2, stride = 512>, <size = 128, stride = 1024>, <size = 512, stride = 1>]) {burst_length = 0 : i32}
        aie.end
      }
      aiex.dma_start_task(%2380)
      %2381 = aiex.dma_configure_task_for @B_L3L2_0 {
        aie.dma_bd(%arg1 : memref<155582464xi8>, 18350080, 16384, [<size = 1, stride = 0>, <size = 1, stride = 0>, <size = 1, stride = 0>, <size = 16384, stride = 1>]) {burst_length = 0 : i32}
        aie.end
      }
      aiex.dma_start_task(%2381)
      %2382 = aiex.dma_configure_task_for @B_L3L2_1 {
        aie.dma_bd(%arg1 : memref<155582464xi8>, 18366464, 16384, [<size = 1, stride = 0>, <size = 1, stride = 0>, <size = 1, stride = 0>, <size = 16384, stride = 1>]) {burst_length = 0 : i32}
        aie.end
      }
      aiex.dma_start_task(%2382)
      %2383 = aiex.dma_configure_task_for @B_L3L2_2 {
        aie.dma_bd(%arg1 : memref<155582464xi8>, 18382848, 16384, [<size = 1, stride = 0>, <size = 1, stride = 0>, <size = 1, stride = 0>, <size = 16384, stride = 1>]) {burst_length = 0 : i32}
        aie.end
      }
      aiex.dma_start_task(%2383)
      %2384 = aiex.dma_configure_task_for @B_L3L2_3 {
        aie.dma_bd(%arg1 : memref<155582464xi8>, 18399232, 16384, [<size = 1, stride = 0>, <size = 1, stride = 0>, <size = 1, stride = 0>, <size = 16384, stride = 1>]) {burst_length = 0 : i32}
        aie.end
      }
      aiex.dma_start_task(%2384)
      %2385 = aiex.dma_configure_task_for @B_L3L2_4 {
        aie.dma_bd(%arg1 : memref<155582464xi8>, 18415616, 16384, [<size = 1, stride = 0>, <size = 1, stride = 0>, <size = 1, stride = 0>, <size = 16384, stride = 1>]) {burst_length = 0 : i32}
        aie.end
      }
      aiex.dma_start_task(%2385)
      %2386 = aiex.dma_configure_task_for @B_L3L2_5 {
        aie.dma_bd(%arg1 : memref<155582464xi8>, 18432000, 16384, [<size = 1, stride = 0>, <size = 1, stride = 0>, <size = 1, stride = 0>, <size = 16384, stride = 1>]) {burst_length = 0 : i32}
        aie.end
      }
      aiex.dma_start_task(%2386)
      %2387 = aiex.dma_configure_task_for @B_L3L2_6 {
        aie.dma_bd(%arg1 : memref<155582464xi8>, 18448384, 16384, [<size = 1, stride = 0>, <size = 1, stride = 0>, <size = 1, stride = 0>, <size = 16384, stride = 1>]) {burst_length = 0 : i32}
        aie.end
      }
      aiex.dma_start_task(%2387)
      %2388 = aiex.dma_configure_task_for @B_L3L2_7 {
        aie.dma_bd(%arg1 : memref<155582464xi8>, 18464768, 16384, [<size = 1, stride = 0>, <size = 1, stride = 0>, <size = 1, stride = 0>, <size = 16384, stride = 1>]) {burst_length = 0 : i32}
        aie.end
      }
      aiex.dma_start_task(%2388)
      %2389 = aiex.dma_configure_task_for @C_L2L3_0 {
        aie.dma_bd(%arg2 : memref<19447808xi16>, 143360, 16384, [<size = 1, stride = 0>, <size = 1, stride = 0>, <size = 128, stride = 151936>, <size = 128, stride = 1>]) {burst_length = 0 : i32}
        aie.end
      } {issue_token = true}
      aiex.dma_start_task(%2389)
      %2390 = aiex.dma_configure_task_for @C_L2L3_1 {
        aie.dma_bd(%arg2 : memref<19447808xi16>, 143488, 16384, [<size = 1, stride = 0>, <size = 1, stride = 0>, <size = 128, stride = 151936>, <size = 128, stride = 1>]) {burst_length = 0 : i32}
        aie.end
      } {issue_token = true}
      aiex.dma_start_task(%2390)
      %2391 = aiex.dma_configure_task_for @C_L2L3_2 {
        aie.dma_bd(%arg2 : memref<19447808xi16>, 143616, 16384, [<size = 1, stride = 0>, <size = 1, stride = 0>, <size = 128, stride = 151936>, <size = 128, stride = 1>]) {burst_length = 0 : i32}
        aie.end
      } {issue_token = true}
      aiex.dma_start_task(%2391)
      %2392 = aiex.dma_configure_task_for @C_L2L3_3 {
        aie.dma_bd(%arg2 : memref<19447808xi16>, 143744, 16384, [<size = 1, stride = 0>, <size = 1, stride = 0>, <size = 128, stride = 151936>, <size = 128, stride = 1>]) {burst_length = 0 : i32}
        aie.end
      } {issue_token = true}
      aiex.dma_start_task(%2392)
      %2393 = aiex.dma_configure_task_for @C_L2L3_4 {
        aie.dma_bd(%arg2 : memref<19447808xi16>, 143872, 16384, [<size = 1, stride = 0>, <size = 1, stride = 0>, <size = 128, stride = 151936>, <size = 128, stride = 1>]) {burst_length = 0 : i32}
        aie.end
      } {issue_token = true}
      aiex.dma_start_task(%2393)
      %2394 = aiex.dma_configure_task_for @C_L2L3_5 {
        aie.dma_bd(%arg2 : memref<19447808xi16>, 144000, 16384, [<size = 1, stride = 0>, <size = 1, stride = 0>, <size = 128, stride = 151936>, <size = 128, stride = 1>]) {burst_length = 0 : i32}
        aie.end
      } {issue_token = true}
      aiex.dma_start_task(%2394)
      %2395 = aiex.dma_configure_task_for @C_L2L3_6 {
        aie.dma_bd(%arg2 : memref<19447808xi16>, 144128, 16384, [<size = 1, stride = 0>, <size = 1, stride = 0>, <size = 128, stride = 151936>, <size = 128, stride = 1>]) {burst_length = 0 : i32}
        aie.end
      } {issue_token = true}
      aiex.dma_start_task(%2395)
      %2396 = aiex.dma_configure_task_for @C_L2L3_7 {
        aie.dma_bd(%arg2 : memref<19447808xi16>, 144256, 16384, [<size = 1, stride = 0>, <size = 1, stride = 0>, <size = 128, stride = 151936>, <size = 128, stride = 1>]) {burst_length = 0 : i32}
        aie.end
      } {issue_token = true}
      aiex.dma_start_task(%2396)
      %2397 = aiex.dma_configure_task_for @A_L3L2_0 {
        aie.dma_bd(%arg0 : memref<131072xi8>, 0, 131072, [<size = 1, stride = 0>, <size = 2, stride = 512>, <size = 128, stride = 1024>, <size = 512, stride = 1>]) {burst_length = 0 : i32}
        aie.end
      }
      aiex.dma_start_task(%2397)
      %2398 = aiex.dma_configure_task_for @B_L3L2_0 {
        aie.dma_bd(%arg1 : memref<155582464xi8>, 18481152, 16384, [<size = 1, stride = 0>, <size = 1, stride = 0>, <size = 1, stride = 0>, <size = 16384, stride = 1>]) {burst_length = 0 : i32}
        aie.end
      }
      aiex.dma_start_task(%2398)
      %2399 = aiex.dma_configure_task_for @B_L3L2_1 {
        aie.dma_bd(%arg1 : memref<155582464xi8>, 18497536, 16384, [<size = 1, stride = 0>, <size = 1, stride = 0>, <size = 1, stride = 0>, <size = 16384, stride = 1>]) {burst_length = 0 : i32}
        aie.end
      }
      aiex.dma_start_task(%2399)
      %2400 = aiex.dma_configure_task_for @B_L3L2_2 {
        aie.dma_bd(%arg1 : memref<155582464xi8>, 18513920, 16384, [<size = 1, stride = 0>, <size = 1, stride = 0>, <size = 1, stride = 0>, <size = 16384, stride = 1>]) {burst_length = 0 : i32}
        aie.end
      }
      aiex.dma_start_task(%2400)
      %2401 = aiex.dma_configure_task_for @B_L3L2_3 {
        aie.dma_bd(%arg1 : memref<155582464xi8>, 18530304, 16384, [<size = 1, stride = 0>, <size = 1, stride = 0>, <size = 1, stride = 0>, <size = 16384, stride = 1>]) {burst_length = 0 : i32}
        aie.end
      }
      aiex.dma_start_task(%2401)
      %2402 = aiex.dma_configure_task_for @B_L3L2_4 {
        aie.dma_bd(%arg1 : memref<155582464xi8>, 18546688, 16384, [<size = 1, stride = 0>, <size = 1, stride = 0>, <size = 1, stride = 0>, <size = 16384, stride = 1>]) {burst_length = 0 : i32}
        aie.end
      }
      aiex.dma_start_task(%2402)
      %2403 = aiex.dma_configure_task_for @B_L3L2_5 {
        aie.dma_bd(%arg1 : memref<155582464xi8>, 18563072, 16384, [<size = 1, stride = 0>, <size = 1, stride = 0>, <size = 1, stride = 0>, <size = 16384, stride = 1>]) {burst_length = 0 : i32}
        aie.end
      }
      aiex.dma_start_task(%2403)
      %2404 = aiex.dma_configure_task_for @B_L3L2_6 {
        aie.dma_bd(%arg1 : memref<155582464xi8>, 18579456, 16384, [<size = 1, stride = 0>, <size = 1, stride = 0>, <size = 1, stride = 0>, <size = 16384, stride = 1>]) {burst_length = 0 : i32}
        aie.end
      }
      aiex.dma_start_task(%2404)
      %2405 = aiex.dma_configure_task_for @B_L3L2_7 {
        aie.dma_bd(%arg1 : memref<155582464xi8>, 18595840, 16384, [<size = 1, stride = 0>, <size = 1, stride = 0>, <size = 1, stride = 0>, <size = 16384, stride = 1>]) {burst_length = 0 : i32}
        aie.end
      }
      aiex.dma_start_task(%2405)
      %2406 = aiex.dma_configure_task_for @C_L2L3_0 {
        aie.dma_bd(%arg2 : memref<19447808xi16>, 144384, 16384, [<size = 1, stride = 0>, <size = 1, stride = 0>, <size = 128, stride = 151936>, <size = 128, stride = 1>]) {burst_length = 0 : i32}
        aie.end
      } {issue_token = true}
      aiex.dma_start_task(%2406)
      %2407 = aiex.dma_configure_task_for @C_L2L3_1 {
        aie.dma_bd(%arg2 : memref<19447808xi16>, 144512, 16384, [<size = 1, stride = 0>, <size = 1, stride = 0>, <size = 128, stride = 151936>, <size = 128, stride = 1>]) {burst_length = 0 : i32}
        aie.end
      } {issue_token = true}
      aiex.dma_start_task(%2407)
      %2408 = aiex.dma_configure_task_for @C_L2L3_2 {
        aie.dma_bd(%arg2 : memref<19447808xi16>, 144640, 16384, [<size = 1, stride = 0>, <size = 1, stride = 0>, <size = 128, stride = 151936>, <size = 128, stride = 1>]) {burst_length = 0 : i32}
        aie.end
      } {issue_token = true}
      aiex.dma_start_task(%2408)
      %2409 = aiex.dma_configure_task_for @C_L2L3_3 {
        aie.dma_bd(%arg2 : memref<19447808xi16>, 144768, 16384, [<size = 1, stride = 0>, <size = 1, stride = 0>, <size = 128, stride = 151936>, <size = 128, stride = 1>]) {burst_length = 0 : i32}
        aie.end
      } {issue_token = true}
      aiex.dma_start_task(%2409)
      %2410 = aiex.dma_configure_task_for @C_L2L3_4 {
        aie.dma_bd(%arg2 : memref<19447808xi16>, 144896, 16384, [<size = 1, stride = 0>, <size = 1, stride = 0>, <size = 128, stride = 151936>, <size = 128, stride = 1>]) {burst_length = 0 : i32}
        aie.end
      } {issue_token = true}
      aiex.dma_start_task(%2410)
      %2411 = aiex.dma_configure_task_for @C_L2L3_5 {
        aie.dma_bd(%arg2 : memref<19447808xi16>, 145024, 16384, [<size = 1, stride = 0>, <size = 1, stride = 0>, <size = 128, stride = 151936>, <size = 128, stride = 1>]) {burst_length = 0 : i32}
        aie.end
      } {issue_token = true}
      aiex.dma_start_task(%2411)
      %2412 = aiex.dma_configure_task_for @C_L2L3_6 {
        aie.dma_bd(%arg2 : memref<19447808xi16>, 145152, 16384, [<size = 1, stride = 0>, <size = 1, stride = 0>, <size = 128, stride = 151936>, <size = 128, stride = 1>]) {burst_length = 0 : i32}
        aie.end
      } {issue_token = true}
      aiex.dma_start_task(%2412)
      %2413 = aiex.dma_configure_task_for @C_L2L3_7 {
        aie.dma_bd(%arg2 : memref<19447808xi16>, 145280, 16384, [<size = 1, stride = 0>, <size = 1, stride = 0>, <size = 128, stride = 151936>, <size = 128, stride = 1>]) {burst_length = 0 : i32}
        aie.end
      } {issue_token = true}
      aiex.dma_start_task(%2413)
      aiex.dma_await_task(%2355)
      aiex.dma_await_task(%2356)
      aiex.dma_await_task(%2357)
      aiex.dma_await_task(%2358)
      aiex.dma_await_task(%2359)
      aiex.dma_await_task(%2360)
      aiex.dma_await_task(%2361)
      aiex.dma_await_task(%2362)
      aiex.dma_free_task(%2346)
      aiex.dma_free_task(%2347)
      aiex.dma_free_task(%2348)
      aiex.dma_free_task(%2349)
      aiex.dma_free_task(%2350)
      aiex.dma_free_task(%2351)
      aiex.dma_free_task(%2352)
      aiex.dma_free_task(%2353)
      aiex.dma_free_task(%2354)
      aiex.dma_await_task(%2372)
      aiex.dma_await_task(%2373)
      aiex.dma_await_task(%2374)
      aiex.dma_await_task(%2375)
      aiex.dma_await_task(%2376)
      aiex.dma_await_task(%2377)
      aiex.dma_await_task(%2378)
      aiex.dma_await_task(%2379)
      aiex.dma_free_task(%2363)
      aiex.dma_free_task(%2364)
      aiex.dma_free_task(%2365)
      aiex.dma_free_task(%2366)
      aiex.dma_free_task(%2367)
      aiex.dma_free_task(%2368)
      aiex.dma_free_task(%2369)
      aiex.dma_free_task(%2370)
      aiex.dma_free_task(%2371)
      %2414 = aiex.dma_configure_task_for @A_L3L2_0 {
        aie.dma_bd(%arg0 : memref<131072xi8>, 0, 131072, [<size = 1, stride = 0>, <size = 2, stride = 512>, <size = 128, stride = 1024>, <size = 512, stride = 1>]) {burst_length = 0 : i32}
        aie.end
      }
      aiex.dma_start_task(%2414)
      %2415 = aiex.dma_configure_task_for @B_L3L2_0 {
        aie.dma_bd(%arg1 : memref<155582464xi8>, 18612224, 16384, [<size = 1, stride = 0>, <size = 1, stride = 0>, <size = 1, stride = 0>, <size = 16384, stride = 1>]) {burst_length = 0 : i32}
        aie.end
      }
      aiex.dma_start_task(%2415)
      %2416 = aiex.dma_configure_task_for @B_L3L2_1 {
        aie.dma_bd(%arg1 : memref<155582464xi8>, 18628608, 16384, [<size = 1, stride = 0>, <size = 1, stride = 0>, <size = 1, stride = 0>, <size = 16384, stride = 1>]) {burst_length = 0 : i32}
        aie.end
      }
      aiex.dma_start_task(%2416)
      %2417 = aiex.dma_configure_task_for @B_L3L2_2 {
        aie.dma_bd(%arg1 : memref<155582464xi8>, 18644992, 16384, [<size = 1, stride = 0>, <size = 1, stride = 0>, <size = 1, stride = 0>, <size = 16384, stride = 1>]) {burst_length = 0 : i32}
        aie.end
      }
      aiex.dma_start_task(%2417)
      %2418 = aiex.dma_configure_task_for @B_L3L2_3 {
        aie.dma_bd(%arg1 : memref<155582464xi8>, 18661376, 16384, [<size = 1, stride = 0>, <size = 1, stride = 0>, <size = 1, stride = 0>, <size = 16384, stride = 1>]) {burst_length = 0 : i32}
        aie.end
      }
      aiex.dma_start_task(%2418)
      %2419 = aiex.dma_configure_task_for @B_L3L2_4 {
        aie.dma_bd(%arg1 : memref<155582464xi8>, 18677760, 16384, [<size = 1, stride = 0>, <size = 1, stride = 0>, <size = 1, stride = 0>, <size = 16384, stride = 1>]) {burst_length = 0 : i32}
        aie.end
      }
      aiex.dma_start_task(%2419)
      %2420 = aiex.dma_configure_task_for @B_L3L2_5 {
        aie.dma_bd(%arg1 : memref<155582464xi8>, 18694144, 16384, [<size = 1, stride = 0>, <size = 1, stride = 0>, <size = 1, stride = 0>, <size = 16384, stride = 1>]) {burst_length = 0 : i32}
        aie.end
      }
      aiex.dma_start_task(%2420)
      %2421 = aiex.dma_configure_task_for @B_L3L2_6 {
        aie.dma_bd(%arg1 : memref<155582464xi8>, 18710528, 16384, [<size = 1, stride = 0>, <size = 1, stride = 0>, <size = 1, stride = 0>, <size = 16384, stride = 1>]) {burst_length = 0 : i32}
        aie.end
      }
      aiex.dma_start_task(%2421)
      %2422 = aiex.dma_configure_task_for @B_L3L2_7 {
        aie.dma_bd(%arg1 : memref<155582464xi8>, 18726912, 16384, [<size = 1, stride = 0>, <size = 1, stride = 0>, <size = 1, stride = 0>, <size = 16384, stride = 1>]) {burst_length = 0 : i32}
        aie.end
      }
      aiex.dma_start_task(%2422)
      %2423 = aiex.dma_configure_task_for @C_L2L3_0 {
        aie.dma_bd(%arg2 : memref<19447808xi16>, 145408, 16384, [<size = 1, stride = 0>, <size = 1, stride = 0>, <size = 128, stride = 151936>, <size = 128, stride = 1>]) {burst_length = 0 : i32}
        aie.end
      } {issue_token = true}
      aiex.dma_start_task(%2423)
      %2424 = aiex.dma_configure_task_for @C_L2L3_1 {
        aie.dma_bd(%arg2 : memref<19447808xi16>, 145536, 16384, [<size = 1, stride = 0>, <size = 1, stride = 0>, <size = 128, stride = 151936>, <size = 128, stride = 1>]) {burst_length = 0 : i32}
        aie.end
      } {issue_token = true}
      aiex.dma_start_task(%2424)
      %2425 = aiex.dma_configure_task_for @C_L2L3_2 {
        aie.dma_bd(%arg2 : memref<19447808xi16>, 145664, 16384, [<size = 1, stride = 0>, <size = 1, stride = 0>, <size = 128, stride = 151936>, <size = 128, stride = 1>]) {burst_length = 0 : i32}
        aie.end
      } {issue_token = true}
      aiex.dma_start_task(%2425)
      %2426 = aiex.dma_configure_task_for @C_L2L3_3 {
        aie.dma_bd(%arg2 : memref<19447808xi16>, 145792, 16384, [<size = 1, stride = 0>, <size = 1, stride = 0>, <size = 128, stride = 151936>, <size = 128, stride = 1>]) {burst_length = 0 : i32}
        aie.end
      } {issue_token = true}
      aiex.dma_start_task(%2426)
      %2427 = aiex.dma_configure_task_for @C_L2L3_4 {
        aie.dma_bd(%arg2 : memref<19447808xi16>, 145920, 16384, [<size = 1, stride = 0>, <size = 1, stride = 0>, <size = 128, stride = 151936>, <size = 128, stride = 1>]) {burst_length = 0 : i32}
        aie.end
      } {issue_token = true}
      aiex.dma_start_task(%2427)
      %2428 = aiex.dma_configure_task_for @C_L2L3_5 {
        aie.dma_bd(%arg2 : memref<19447808xi16>, 146048, 16384, [<size = 1, stride = 0>, <size = 1, stride = 0>, <size = 128, stride = 151936>, <size = 128, stride = 1>]) {burst_length = 0 : i32}
        aie.end
      } {issue_token = true}
      aiex.dma_start_task(%2428)
      %2429 = aiex.dma_configure_task_for @C_L2L3_6 {
        aie.dma_bd(%arg2 : memref<19447808xi16>, 146176, 16384, [<size = 1, stride = 0>, <size = 1, stride = 0>, <size = 128, stride = 151936>, <size = 128, stride = 1>]) {burst_length = 0 : i32}
        aie.end
      } {issue_token = true}
      aiex.dma_start_task(%2429)
      %2430 = aiex.dma_configure_task_for @C_L2L3_7 {
        aie.dma_bd(%arg2 : memref<19447808xi16>, 146304, 16384, [<size = 1, stride = 0>, <size = 1, stride = 0>, <size = 128, stride = 151936>, <size = 128, stride = 1>]) {burst_length = 0 : i32}
        aie.end
      } {issue_token = true}
      aiex.dma_start_task(%2430)
      %2431 = aiex.dma_configure_task_for @A_L3L2_0 {
        aie.dma_bd(%arg0 : memref<131072xi8>, 0, 131072, [<size = 1, stride = 0>, <size = 2, stride = 512>, <size = 128, stride = 1024>, <size = 512, stride = 1>]) {burst_length = 0 : i32}
        aie.end
      }
      aiex.dma_start_task(%2431)
      %2432 = aiex.dma_configure_task_for @B_L3L2_0 {
        aie.dma_bd(%arg1 : memref<155582464xi8>, 18743296, 16384, [<size = 1, stride = 0>, <size = 1, stride = 0>, <size = 1, stride = 0>, <size = 16384, stride = 1>]) {burst_length = 0 : i32}
        aie.end
      }
      aiex.dma_start_task(%2432)
      %2433 = aiex.dma_configure_task_for @B_L3L2_1 {
        aie.dma_bd(%arg1 : memref<155582464xi8>, 18759680, 16384, [<size = 1, stride = 0>, <size = 1, stride = 0>, <size = 1, stride = 0>, <size = 16384, stride = 1>]) {burst_length = 0 : i32}
        aie.end
      }
      aiex.dma_start_task(%2433)
      %2434 = aiex.dma_configure_task_for @B_L3L2_2 {
        aie.dma_bd(%arg1 : memref<155582464xi8>, 18776064, 16384, [<size = 1, stride = 0>, <size = 1, stride = 0>, <size = 1, stride = 0>, <size = 16384, stride = 1>]) {burst_length = 0 : i32}
        aie.end
      }
      aiex.dma_start_task(%2434)
      %2435 = aiex.dma_configure_task_for @B_L3L2_3 {
        aie.dma_bd(%arg1 : memref<155582464xi8>, 18792448, 16384, [<size = 1, stride = 0>, <size = 1, stride = 0>, <size = 1, stride = 0>, <size = 16384, stride = 1>]) {burst_length = 0 : i32}
        aie.end
      }
      aiex.dma_start_task(%2435)
      %2436 = aiex.dma_configure_task_for @B_L3L2_4 {
        aie.dma_bd(%arg1 : memref<155582464xi8>, 18808832, 16384, [<size = 1, stride = 0>, <size = 1, stride = 0>, <size = 1, stride = 0>, <size = 16384, stride = 1>]) {burst_length = 0 : i32}
        aie.end
      }
      aiex.dma_start_task(%2436)
      %2437 = aiex.dma_configure_task_for @B_L3L2_5 {
        aie.dma_bd(%arg1 : memref<155582464xi8>, 18825216, 16384, [<size = 1, stride = 0>, <size = 1, stride = 0>, <size = 1, stride = 0>, <size = 16384, stride = 1>]) {burst_length = 0 : i32}
        aie.end
      }
      aiex.dma_start_task(%2437)
      %2438 = aiex.dma_configure_task_for @B_L3L2_6 {
        aie.dma_bd(%arg1 : memref<155582464xi8>, 18841600, 16384, [<size = 1, stride = 0>, <size = 1, stride = 0>, <size = 1, stride = 0>, <size = 16384, stride = 1>]) {burst_length = 0 : i32}
        aie.end
      }
      aiex.dma_start_task(%2438)
      %2439 = aiex.dma_configure_task_for @B_L3L2_7 {
        aie.dma_bd(%arg1 : memref<155582464xi8>, 18857984, 16384, [<size = 1, stride = 0>, <size = 1, stride = 0>, <size = 1, stride = 0>, <size = 16384, stride = 1>]) {burst_length = 0 : i32}
        aie.end
      }
      aiex.dma_start_task(%2439)
      %2440 = aiex.dma_configure_task_for @C_L2L3_0 {
        aie.dma_bd(%arg2 : memref<19447808xi16>, 146432, 16384, [<size = 1, stride = 0>, <size = 1, stride = 0>, <size = 128, stride = 151936>, <size = 128, stride = 1>]) {burst_length = 0 : i32}
        aie.end
      } {issue_token = true}
      aiex.dma_start_task(%2440)
      %2441 = aiex.dma_configure_task_for @C_L2L3_1 {
        aie.dma_bd(%arg2 : memref<19447808xi16>, 146560, 16384, [<size = 1, stride = 0>, <size = 1, stride = 0>, <size = 128, stride = 151936>, <size = 128, stride = 1>]) {burst_length = 0 : i32}
        aie.end
      } {issue_token = true}
      aiex.dma_start_task(%2441)
      %2442 = aiex.dma_configure_task_for @C_L2L3_2 {
        aie.dma_bd(%arg2 : memref<19447808xi16>, 146688, 16384, [<size = 1, stride = 0>, <size = 1, stride = 0>, <size = 128, stride = 151936>, <size = 128, stride = 1>]) {burst_length = 0 : i32}
        aie.end
      } {issue_token = true}
      aiex.dma_start_task(%2442)
      %2443 = aiex.dma_configure_task_for @C_L2L3_3 {
        aie.dma_bd(%arg2 : memref<19447808xi16>, 146816, 16384, [<size = 1, stride = 0>, <size = 1, stride = 0>, <size = 128, stride = 151936>, <size = 128, stride = 1>]) {burst_length = 0 : i32}
        aie.end
      } {issue_token = true}
      aiex.dma_start_task(%2443)
      %2444 = aiex.dma_configure_task_for @C_L2L3_4 {
        aie.dma_bd(%arg2 : memref<19447808xi16>, 146944, 16384, [<size = 1, stride = 0>, <size = 1, stride = 0>, <size = 128, stride = 151936>, <size = 128, stride = 1>]) {burst_length = 0 : i32}
        aie.end
      } {issue_token = true}
      aiex.dma_start_task(%2444)
      %2445 = aiex.dma_configure_task_for @C_L2L3_5 {
        aie.dma_bd(%arg2 : memref<19447808xi16>, 147072, 16384, [<size = 1, stride = 0>, <size = 1, stride = 0>, <size = 128, stride = 151936>, <size = 128, stride = 1>]) {burst_length = 0 : i32}
        aie.end
      } {issue_token = true}
      aiex.dma_start_task(%2445)
      %2446 = aiex.dma_configure_task_for @C_L2L3_6 {
        aie.dma_bd(%arg2 : memref<19447808xi16>, 147200, 16384, [<size = 1, stride = 0>, <size = 1, stride = 0>, <size = 128, stride = 151936>, <size = 128, stride = 1>]) {burst_length = 0 : i32}
        aie.end
      } {issue_token = true}
      aiex.dma_start_task(%2446)
      %2447 = aiex.dma_configure_task_for @C_L2L3_7 {
        aie.dma_bd(%arg2 : memref<19447808xi16>, 147328, 16384, [<size = 1, stride = 0>, <size = 1, stride = 0>, <size = 128, stride = 151936>, <size = 128, stride = 1>]) {burst_length = 0 : i32}
        aie.end
      } {issue_token = true}
      aiex.dma_start_task(%2447)
      aiex.dma_await_task(%2389)
      aiex.dma_await_task(%2390)
      aiex.dma_await_task(%2391)
      aiex.dma_await_task(%2392)
      aiex.dma_await_task(%2393)
      aiex.dma_await_task(%2394)
      aiex.dma_await_task(%2395)
      aiex.dma_await_task(%2396)
      aiex.dma_free_task(%2380)
      aiex.dma_free_task(%2381)
      aiex.dma_free_task(%2382)
      aiex.dma_free_task(%2383)
      aiex.dma_free_task(%2384)
      aiex.dma_free_task(%2385)
      aiex.dma_free_task(%2386)
      aiex.dma_free_task(%2387)
      aiex.dma_free_task(%2388)
      aiex.dma_await_task(%2406)
      aiex.dma_await_task(%2407)
      aiex.dma_await_task(%2408)
      aiex.dma_await_task(%2409)
      aiex.dma_await_task(%2410)
      aiex.dma_await_task(%2411)
      aiex.dma_await_task(%2412)
      aiex.dma_await_task(%2413)
      aiex.dma_free_task(%2397)
      aiex.dma_free_task(%2398)
      aiex.dma_free_task(%2399)
      aiex.dma_free_task(%2400)
      aiex.dma_free_task(%2401)
      aiex.dma_free_task(%2402)
      aiex.dma_free_task(%2403)
      aiex.dma_free_task(%2404)
      aiex.dma_free_task(%2405)
      %2448 = aiex.dma_configure_task_for @A_L3L2_0 {
        aie.dma_bd(%arg0 : memref<131072xi8>, 0, 131072, [<size = 1, stride = 0>, <size = 2, stride = 512>, <size = 128, stride = 1024>, <size = 512, stride = 1>]) {burst_length = 0 : i32}
        aie.end
      }
      aiex.dma_start_task(%2448)
      %2449 = aiex.dma_configure_task_for @B_L3L2_0 {
        aie.dma_bd(%arg1 : memref<155582464xi8>, 18874368, 16384, [<size = 1, stride = 0>, <size = 1, stride = 0>, <size = 1, stride = 0>, <size = 16384, stride = 1>]) {burst_length = 0 : i32}
        aie.end
      }
      aiex.dma_start_task(%2449)
      %2450 = aiex.dma_configure_task_for @B_L3L2_1 {
        aie.dma_bd(%arg1 : memref<155582464xi8>, 18890752, 16384, [<size = 1, stride = 0>, <size = 1, stride = 0>, <size = 1, stride = 0>, <size = 16384, stride = 1>]) {burst_length = 0 : i32}
        aie.end
      }
      aiex.dma_start_task(%2450)
      %2451 = aiex.dma_configure_task_for @B_L3L2_2 {
        aie.dma_bd(%arg1 : memref<155582464xi8>, 18907136, 16384, [<size = 1, stride = 0>, <size = 1, stride = 0>, <size = 1, stride = 0>, <size = 16384, stride = 1>]) {burst_length = 0 : i32}
        aie.end
      }
      aiex.dma_start_task(%2451)
      %2452 = aiex.dma_configure_task_for @B_L3L2_3 {
        aie.dma_bd(%arg1 : memref<155582464xi8>, 18923520, 16384, [<size = 1, stride = 0>, <size = 1, stride = 0>, <size = 1, stride = 0>, <size = 16384, stride = 1>]) {burst_length = 0 : i32}
        aie.end
      }
      aiex.dma_start_task(%2452)
      %2453 = aiex.dma_configure_task_for @B_L3L2_4 {
        aie.dma_bd(%arg1 : memref<155582464xi8>, 18939904, 16384, [<size = 1, stride = 0>, <size = 1, stride = 0>, <size = 1, stride = 0>, <size = 16384, stride = 1>]) {burst_length = 0 : i32}
        aie.end
      }
      aiex.dma_start_task(%2453)
      %2454 = aiex.dma_configure_task_for @B_L3L2_5 {
        aie.dma_bd(%arg1 : memref<155582464xi8>, 18956288, 16384, [<size = 1, stride = 0>, <size = 1, stride = 0>, <size = 1, stride = 0>, <size = 16384, stride = 1>]) {burst_length = 0 : i32}
        aie.end
      }
      aiex.dma_start_task(%2454)
      %2455 = aiex.dma_configure_task_for @B_L3L2_6 {
        aie.dma_bd(%arg1 : memref<155582464xi8>, 18972672, 16384, [<size = 1, stride = 0>, <size = 1, stride = 0>, <size = 1, stride = 0>, <size = 16384, stride = 1>]) {burst_length = 0 : i32}
        aie.end
      }
      aiex.dma_start_task(%2455)
      %2456 = aiex.dma_configure_task_for @B_L3L2_7 {
        aie.dma_bd(%arg1 : memref<155582464xi8>, 18989056, 16384, [<size = 1, stride = 0>, <size = 1, stride = 0>, <size = 1, stride = 0>, <size = 16384, stride = 1>]) {burst_length = 0 : i32}
        aie.end
      }
      aiex.dma_start_task(%2456)
      %2457 = aiex.dma_configure_task_for @C_L2L3_0 {
        aie.dma_bd(%arg2 : memref<19447808xi16>, 147456, 16384, [<size = 1, stride = 0>, <size = 1, stride = 0>, <size = 128, stride = 151936>, <size = 128, stride = 1>]) {burst_length = 0 : i32}
        aie.end
      } {issue_token = true}
      aiex.dma_start_task(%2457)
      %2458 = aiex.dma_configure_task_for @C_L2L3_1 {
        aie.dma_bd(%arg2 : memref<19447808xi16>, 147584, 16384, [<size = 1, stride = 0>, <size = 1, stride = 0>, <size = 128, stride = 151936>, <size = 128, stride = 1>]) {burst_length = 0 : i32}
        aie.end
      } {issue_token = true}
      aiex.dma_start_task(%2458)
      %2459 = aiex.dma_configure_task_for @C_L2L3_2 {
        aie.dma_bd(%arg2 : memref<19447808xi16>, 147712, 16384, [<size = 1, stride = 0>, <size = 1, stride = 0>, <size = 128, stride = 151936>, <size = 128, stride = 1>]) {burst_length = 0 : i32}
        aie.end
      } {issue_token = true}
      aiex.dma_start_task(%2459)
      %2460 = aiex.dma_configure_task_for @C_L2L3_3 {
        aie.dma_bd(%arg2 : memref<19447808xi16>, 147840, 16384, [<size = 1, stride = 0>, <size = 1, stride = 0>, <size = 128, stride = 151936>, <size = 128, stride = 1>]) {burst_length = 0 : i32}
        aie.end
      } {issue_token = true}
      aiex.dma_start_task(%2460)
      %2461 = aiex.dma_configure_task_for @C_L2L3_4 {
        aie.dma_bd(%arg2 : memref<19447808xi16>, 147968, 16384, [<size = 1, stride = 0>, <size = 1, stride = 0>, <size = 128, stride = 151936>, <size = 128, stride = 1>]) {burst_length = 0 : i32}
        aie.end
      } {issue_token = true}
      aiex.dma_start_task(%2461)
      %2462 = aiex.dma_configure_task_for @C_L2L3_5 {
        aie.dma_bd(%arg2 : memref<19447808xi16>, 148096, 16384, [<size = 1, stride = 0>, <size = 1, stride = 0>, <size = 128, stride = 151936>, <size = 128, stride = 1>]) {burst_length = 0 : i32}
        aie.end
      } {issue_token = true}
      aiex.dma_start_task(%2462)
      %2463 = aiex.dma_configure_task_for @C_L2L3_6 {
        aie.dma_bd(%arg2 : memref<19447808xi16>, 148224, 16384, [<size = 1, stride = 0>, <size = 1, stride = 0>, <size = 128, stride = 151936>, <size = 128, stride = 1>]) {burst_length = 0 : i32}
        aie.end
      } {issue_token = true}
      aiex.dma_start_task(%2463)
      %2464 = aiex.dma_configure_task_for @C_L2L3_7 {
        aie.dma_bd(%arg2 : memref<19447808xi16>, 148352, 16384, [<size = 1, stride = 0>, <size = 1, stride = 0>, <size = 128, stride = 151936>, <size = 128, stride = 1>]) {burst_length = 0 : i32}
        aie.end
      } {issue_token = true}
      aiex.dma_start_task(%2464)
      %2465 = aiex.dma_configure_task_for @A_L3L2_0 {
        aie.dma_bd(%arg0 : memref<131072xi8>, 0, 131072, [<size = 1, stride = 0>, <size = 2, stride = 512>, <size = 128, stride = 1024>, <size = 512, stride = 1>]) {burst_length = 0 : i32}
        aie.end
      }
      aiex.dma_start_task(%2465)
      %2466 = aiex.dma_configure_task_for @B_L3L2_0 {
        aie.dma_bd(%arg1 : memref<155582464xi8>, 19005440, 16384, [<size = 1, stride = 0>, <size = 1, stride = 0>, <size = 1, stride = 0>, <size = 16384, stride = 1>]) {burst_length = 0 : i32}
        aie.end
      }
      aiex.dma_start_task(%2466)
      %2467 = aiex.dma_configure_task_for @B_L3L2_1 {
        aie.dma_bd(%arg1 : memref<155582464xi8>, 19021824, 16384, [<size = 1, stride = 0>, <size = 1, stride = 0>, <size = 1, stride = 0>, <size = 16384, stride = 1>]) {burst_length = 0 : i32}
        aie.end
      }
      aiex.dma_start_task(%2467)
      %2468 = aiex.dma_configure_task_for @B_L3L2_2 {
        aie.dma_bd(%arg1 : memref<155582464xi8>, 19038208, 16384, [<size = 1, stride = 0>, <size = 1, stride = 0>, <size = 1, stride = 0>, <size = 16384, stride = 1>]) {burst_length = 0 : i32}
        aie.end
      }
      aiex.dma_start_task(%2468)
      %2469 = aiex.dma_configure_task_for @B_L3L2_3 {
        aie.dma_bd(%arg1 : memref<155582464xi8>, 19054592, 16384, [<size = 1, stride = 0>, <size = 1, stride = 0>, <size = 1, stride = 0>, <size = 16384, stride = 1>]) {burst_length = 0 : i32}
        aie.end
      }
      aiex.dma_start_task(%2469)
      %2470 = aiex.dma_configure_task_for @B_L3L2_4 {
        aie.dma_bd(%arg1 : memref<155582464xi8>, 19070976, 16384, [<size = 1, stride = 0>, <size = 1, stride = 0>, <size = 1, stride = 0>, <size = 16384, stride = 1>]) {burst_length = 0 : i32}
        aie.end
      }
      aiex.dma_start_task(%2470)
      %2471 = aiex.dma_configure_task_for @B_L3L2_5 {
        aie.dma_bd(%arg1 : memref<155582464xi8>, 19087360, 16384, [<size = 1, stride = 0>, <size = 1, stride = 0>, <size = 1, stride = 0>, <size = 16384, stride = 1>]) {burst_length = 0 : i32}
        aie.end
      }
      aiex.dma_start_task(%2471)
      %2472 = aiex.dma_configure_task_for @B_L3L2_6 {
        aie.dma_bd(%arg1 : memref<155582464xi8>, 19103744, 16384, [<size = 1, stride = 0>, <size = 1, stride = 0>, <size = 1, stride = 0>, <size = 16384, stride = 1>]) {burst_length = 0 : i32}
        aie.end
      }
      aiex.dma_start_task(%2472)
      %2473 = aiex.dma_configure_task_for @B_L3L2_7 {
        aie.dma_bd(%arg1 : memref<155582464xi8>, 19120128, 16384, [<size = 1, stride = 0>, <size = 1, stride = 0>, <size = 1, stride = 0>, <size = 16384, stride = 1>]) {burst_length = 0 : i32}
        aie.end
      }
      aiex.dma_start_task(%2473)
      %2474 = aiex.dma_configure_task_for @C_L2L3_0 {
        aie.dma_bd(%arg2 : memref<19447808xi16>, 148480, 16384, [<size = 1, stride = 0>, <size = 1, stride = 0>, <size = 128, stride = 151936>, <size = 128, stride = 1>]) {burst_length = 0 : i32}
        aie.end
      } {issue_token = true}
      aiex.dma_start_task(%2474)
      %2475 = aiex.dma_configure_task_for @C_L2L3_1 {
        aie.dma_bd(%arg2 : memref<19447808xi16>, 148608, 16384, [<size = 1, stride = 0>, <size = 1, stride = 0>, <size = 128, stride = 151936>, <size = 128, stride = 1>]) {burst_length = 0 : i32}
        aie.end
      } {issue_token = true}
      aiex.dma_start_task(%2475)
      %2476 = aiex.dma_configure_task_for @C_L2L3_2 {
        aie.dma_bd(%arg2 : memref<19447808xi16>, 148736, 16384, [<size = 1, stride = 0>, <size = 1, stride = 0>, <size = 128, stride = 151936>, <size = 128, stride = 1>]) {burst_length = 0 : i32}
        aie.end
      } {issue_token = true}
      aiex.dma_start_task(%2476)
      %2477 = aiex.dma_configure_task_for @C_L2L3_3 {
        aie.dma_bd(%arg2 : memref<19447808xi16>, 148864, 16384, [<size = 1, stride = 0>, <size = 1, stride = 0>, <size = 128, stride = 151936>, <size = 128, stride = 1>]) {burst_length = 0 : i32}
        aie.end
      } {issue_token = true}
      aiex.dma_start_task(%2477)
      %2478 = aiex.dma_configure_task_for @C_L2L3_4 {
        aie.dma_bd(%arg2 : memref<19447808xi16>, 148992, 16384, [<size = 1, stride = 0>, <size = 1, stride = 0>, <size = 128, stride = 151936>, <size = 128, stride = 1>]) {burst_length = 0 : i32}
        aie.end
      } {issue_token = true}
      aiex.dma_start_task(%2478)
      %2479 = aiex.dma_configure_task_for @C_L2L3_5 {
        aie.dma_bd(%arg2 : memref<19447808xi16>, 149120, 16384, [<size = 1, stride = 0>, <size = 1, stride = 0>, <size = 128, stride = 151936>, <size = 128, stride = 1>]) {burst_length = 0 : i32}
        aie.end
      } {issue_token = true}
      aiex.dma_start_task(%2479)
      %2480 = aiex.dma_configure_task_for @C_L2L3_6 {
        aie.dma_bd(%arg2 : memref<19447808xi16>, 149248, 16384, [<size = 1, stride = 0>, <size = 1, stride = 0>, <size = 128, stride = 151936>, <size = 128, stride = 1>]) {burst_length = 0 : i32}
        aie.end
      } {issue_token = true}
      aiex.dma_start_task(%2480)
      %2481 = aiex.dma_configure_task_for @C_L2L3_7 {
        aie.dma_bd(%arg2 : memref<19447808xi16>, 149376, 16384, [<size = 1, stride = 0>, <size = 1, stride = 0>, <size = 128, stride = 151936>, <size = 128, stride = 1>]) {burst_length = 0 : i32}
        aie.end
      } {issue_token = true}
      aiex.dma_start_task(%2481)
      aiex.dma_await_task(%2423)
      aiex.dma_await_task(%2424)
      aiex.dma_await_task(%2425)
      aiex.dma_await_task(%2426)
      aiex.dma_await_task(%2427)
      aiex.dma_await_task(%2428)
      aiex.dma_await_task(%2429)
      aiex.dma_await_task(%2430)
      aiex.dma_free_task(%2414)
      aiex.dma_free_task(%2415)
      aiex.dma_free_task(%2416)
      aiex.dma_free_task(%2417)
      aiex.dma_free_task(%2418)
      aiex.dma_free_task(%2419)
      aiex.dma_free_task(%2420)
      aiex.dma_free_task(%2421)
      aiex.dma_free_task(%2422)
      aiex.dma_await_task(%2440)
      aiex.dma_await_task(%2441)
      aiex.dma_await_task(%2442)
      aiex.dma_await_task(%2443)
      aiex.dma_await_task(%2444)
      aiex.dma_await_task(%2445)
      aiex.dma_await_task(%2446)
      aiex.dma_await_task(%2447)
      aiex.dma_free_task(%2431)
      aiex.dma_free_task(%2432)
      aiex.dma_free_task(%2433)
      aiex.dma_free_task(%2434)
      aiex.dma_free_task(%2435)
      aiex.dma_free_task(%2436)
      aiex.dma_free_task(%2437)
      aiex.dma_free_task(%2438)
      aiex.dma_free_task(%2439)
      %2482 = aiex.dma_configure_task_for @A_L3L2_0 {
        aie.dma_bd(%arg0 : memref<131072xi8>, 0, 131072, [<size = 1, stride = 0>, <size = 2, stride = 512>, <size = 128, stride = 1024>, <size = 512, stride = 1>]) {burst_length = 0 : i32}
        aie.end
      }
      aiex.dma_start_task(%2482)
      %2483 = aiex.dma_configure_task_for @B_L3L2_0 {
        aie.dma_bd(%arg1 : memref<155582464xi8>, 19136512, 16384, [<size = 1, stride = 0>, <size = 1, stride = 0>, <size = 1, stride = 0>, <size = 16384, stride = 1>]) {burst_length = 0 : i32}
        aie.end
      }
      aiex.dma_start_task(%2483)
      %2484 = aiex.dma_configure_task_for @B_L3L2_1 {
        aie.dma_bd(%arg1 : memref<155582464xi8>, 19152896, 16384, [<size = 1, stride = 0>, <size = 1, stride = 0>, <size = 1, stride = 0>, <size = 16384, stride = 1>]) {burst_length = 0 : i32}
        aie.end
      }
      aiex.dma_start_task(%2484)
      %2485 = aiex.dma_configure_task_for @B_L3L2_2 {
        aie.dma_bd(%arg1 : memref<155582464xi8>, 19169280, 16384, [<size = 1, stride = 0>, <size = 1, stride = 0>, <size = 1, stride = 0>, <size = 16384, stride = 1>]) {burst_length = 0 : i32}
        aie.end
      }
      aiex.dma_start_task(%2485)
      %2486 = aiex.dma_configure_task_for @B_L3L2_3 {
        aie.dma_bd(%arg1 : memref<155582464xi8>, 19185664, 16384, [<size = 1, stride = 0>, <size = 1, stride = 0>, <size = 1, stride = 0>, <size = 16384, stride = 1>]) {burst_length = 0 : i32}
        aie.end
      }
      aiex.dma_start_task(%2486)
      %2487 = aiex.dma_configure_task_for @B_L3L2_4 {
        aie.dma_bd(%arg1 : memref<155582464xi8>, 19202048, 16384, [<size = 1, stride = 0>, <size = 1, stride = 0>, <size = 1, stride = 0>, <size = 16384, stride = 1>]) {burst_length = 0 : i32}
        aie.end
      }
      aiex.dma_start_task(%2487)
      %2488 = aiex.dma_configure_task_for @B_L3L2_5 {
        aie.dma_bd(%arg1 : memref<155582464xi8>, 19218432, 16384, [<size = 1, stride = 0>, <size = 1, stride = 0>, <size = 1, stride = 0>, <size = 16384, stride = 1>]) {burst_length = 0 : i32}
        aie.end
      }
      aiex.dma_start_task(%2488)
      %2489 = aiex.dma_configure_task_for @B_L3L2_6 {
        aie.dma_bd(%arg1 : memref<155582464xi8>, 19234816, 16384, [<size = 1, stride = 0>, <size = 1, stride = 0>, <size = 1, stride = 0>, <size = 16384, stride = 1>]) {burst_length = 0 : i32}
        aie.end
      }
      aiex.dma_start_task(%2489)
      %2490 = aiex.dma_configure_task_for @B_L3L2_7 {
        aie.dma_bd(%arg1 : memref<155582464xi8>, 19251200, 16384, [<size = 1, stride = 0>, <size = 1, stride = 0>, <size = 1, stride = 0>, <size = 16384, stride = 1>]) {burst_length = 0 : i32}
        aie.end
      }
      aiex.dma_start_task(%2490)
      %2491 = aiex.dma_configure_task_for @C_L2L3_0 {
        aie.dma_bd(%arg2 : memref<19447808xi16>, 149504, 16384, [<size = 1, stride = 0>, <size = 1, stride = 0>, <size = 128, stride = 151936>, <size = 128, stride = 1>]) {burst_length = 0 : i32}
        aie.end
      } {issue_token = true}
      aiex.dma_start_task(%2491)
      %2492 = aiex.dma_configure_task_for @C_L2L3_1 {
        aie.dma_bd(%arg2 : memref<19447808xi16>, 149632, 16384, [<size = 1, stride = 0>, <size = 1, stride = 0>, <size = 128, stride = 151936>, <size = 128, stride = 1>]) {burst_length = 0 : i32}
        aie.end
      } {issue_token = true}
      aiex.dma_start_task(%2492)
      %2493 = aiex.dma_configure_task_for @C_L2L3_2 {
        aie.dma_bd(%arg2 : memref<19447808xi16>, 149760, 16384, [<size = 1, stride = 0>, <size = 1, stride = 0>, <size = 128, stride = 151936>, <size = 128, stride = 1>]) {burst_length = 0 : i32}
        aie.end
      } {issue_token = true}
      aiex.dma_start_task(%2493)
      %2494 = aiex.dma_configure_task_for @C_L2L3_3 {
        aie.dma_bd(%arg2 : memref<19447808xi16>, 149888, 16384, [<size = 1, stride = 0>, <size = 1, stride = 0>, <size = 128, stride = 151936>, <size = 128, stride = 1>]) {burst_length = 0 : i32}
        aie.end
      } {issue_token = true}
      aiex.dma_start_task(%2494)
      %2495 = aiex.dma_configure_task_for @C_L2L3_4 {
        aie.dma_bd(%arg2 : memref<19447808xi16>, 150016, 16384, [<size = 1, stride = 0>, <size = 1, stride = 0>, <size = 128, stride = 151936>, <size = 128, stride = 1>]) {burst_length = 0 : i32}
        aie.end
      } {issue_token = true}
      aiex.dma_start_task(%2495)
      %2496 = aiex.dma_configure_task_for @C_L2L3_5 {
        aie.dma_bd(%arg2 : memref<19447808xi16>, 150144, 16384, [<size = 1, stride = 0>, <size = 1, stride = 0>, <size = 128, stride = 151936>, <size = 128, stride = 1>]) {burst_length = 0 : i32}
        aie.end
      } {issue_token = true}
      aiex.dma_start_task(%2496)
      %2497 = aiex.dma_configure_task_for @C_L2L3_6 {
        aie.dma_bd(%arg2 : memref<19447808xi16>, 150272, 16384, [<size = 1, stride = 0>, <size = 1, stride = 0>, <size = 128, stride = 151936>, <size = 128, stride = 1>]) {burst_length = 0 : i32}
        aie.end
      } {issue_token = true}
      aiex.dma_start_task(%2497)
      %2498 = aiex.dma_configure_task_for @C_L2L3_7 {
        aie.dma_bd(%arg2 : memref<19447808xi16>, 150400, 16384, [<size = 1, stride = 0>, <size = 1, stride = 0>, <size = 128, stride = 151936>, <size = 128, stride = 1>]) {burst_length = 0 : i32}
        aie.end
      } {issue_token = true}
      aiex.dma_start_task(%2498)
      %2499 = aiex.dma_configure_task_for @A_L3L2_0 {
        aie.dma_bd(%arg0 : memref<131072xi8>, 0, 131072, [<size = 1, stride = 0>, <size = 2, stride = 512>, <size = 128, stride = 1024>, <size = 512, stride = 1>]) {burst_length = 0 : i32}
        aie.end
      }
      aiex.dma_start_task(%2499)
      %2500 = aiex.dma_configure_task_for @B_L3L2_0 {
        aie.dma_bd(%arg1 : memref<155582464xi8>, 19267584, 16384, [<size = 1, stride = 0>, <size = 1, stride = 0>, <size = 1, stride = 0>, <size = 16384, stride = 1>]) {burst_length = 0 : i32}
        aie.end
      }
      aiex.dma_start_task(%2500)
      %2501 = aiex.dma_configure_task_for @B_L3L2_1 {
        aie.dma_bd(%arg1 : memref<155582464xi8>, 19283968, 16384, [<size = 1, stride = 0>, <size = 1, stride = 0>, <size = 1, stride = 0>, <size = 16384, stride = 1>]) {burst_length = 0 : i32}
        aie.end
      }
      aiex.dma_start_task(%2501)
      %2502 = aiex.dma_configure_task_for @B_L3L2_2 {
        aie.dma_bd(%arg1 : memref<155582464xi8>, 19300352, 16384, [<size = 1, stride = 0>, <size = 1, stride = 0>, <size = 1, stride = 0>, <size = 16384, stride = 1>]) {burst_length = 0 : i32}
        aie.end
      }
      aiex.dma_start_task(%2502)
      %2503 = aiex.dma_configure_task_for @B_L3L2_3 {
        aie.dma_bd(%arg1 : memref<155582464xi8>, 19316736, 16384, [<size = 1, stride = 0>, <size = 1, stride = 0>, <size = 1, stride = 0>, <size = 16384, stride = 1>]) {burst_length = 0 : i32}
        aie.end
      }
      aiex.dma_start_task(%2503)
      %2504 = aiex.dma_configure_task_for @B_L3L2_4 {
        aie.dma_bd(%arg1 : memref<155582464xi8>, 19333120, 16384, [<size = 1, stride = 0>, <size = 1, stride = 0>, <size = 1, stride = 0>, <size = 16384, stride = 1>]) {burst_length = 0 : i32}
        aie.end
      }
      aiex.dma_start_task(%2504)
      %2505 = aiex.dma_configure_task_for @B_L3L2_5 {
        aie.dma_bd(%arg1 : memref<155582464xi8>, 19349504, 16384, [<size = 1, stride = 0>, <size = 1, stride = 0>, <size = 1, stride = 0>, <size = 16384, stride = 1>]) {burst_length = 0 : i32}
        aie.end
      }
      aiex.dma_start_task(%2505)
      %2506 = aiex.dma_configure_task_for @B_L3L2_6 {
        aie.dma_bd(%arg1 : memref<155582464xi8>, 19365888, 16384, [<size = 1, stride = 0>, <size = 1, stride = 0>, <size = 1, stride = 0>, <size = 16384, stride = 1>]) {burst_length = 0 : i32}
        aie.end
      }
      aiex.dma_start_task(%2506)
      %2507 = aiex.dma_configure_task_for @B_L3L2_7 {
        aie.dma_bd(%arg1 : memref<155582464xi8>, 19382272, 16384, [<size = 1, stride = 0>, <size = 1, stride = 0>, <size = 1, stride = 0>, <size = 16384, stride = 1>]) {burst_length = 0 : i32}
        aie.end
      }
      aiex.dma_start_task(%2507)
      %2508 = aiex.dma_configure_task_for @C_L2L3_0 {
        aie.dma_bd(%arg2 : memref<19447808xi16>, 150528, 16384, [<size = 1, stride = 0>, <size = 1, stride = 0>, <size = 128, stride = 151936>, <size = 128, stride = 1>]) {burst_length = 0 : i32}
        aie.end
      } {issue_token = true}
      aiex.dma_start_task(%2508)
      %2509 = aiex.dma_configure_task_for @C_L2L3_1 {
        aie.dma_bd(%arg2 : memref<19447808xi16>, 150656, 16384, [<size = 1, stride = 0>, <size = 1, stride = 0>, <size = 128, stride = 151936>, <size = 128, stride = 1>]) {burst_length = 0 : i32}
        aie.end
      } {issue_token = true}
      aiex.dma_start_task(%2509)
      %2510 = aiex.dma_configure_task_for @C_L2L3_2 {
        aie.dma_bd(%arg2 : memref<19447808xi16>, 150784, 16384, [<size = 1, stride = 0>, <size = 1, stride = 0>, <size = 128, stride = 151936>, <size = 128, stride = 1>]) {burst_length = 0 : i32}
        aie.end
      } {issue_token = true}
      aiex.dma_start_task(%2510)
      %2511 = aiex.dma_configure_task_for @C_L2L3_3 {
        aie.dma_bd(%arg2 : memref<19447808xi16>, 150912, 16384, [<size = 1, stride = 0>, <size = 1, stride = 0>, <size = 128, stride = 151936>, <size = 128, stride = 1>]) {burst_length = 0 : i32}
        aie.end
      } {issue_token = true}
      aiex.dma_start_task(%2511)
      %2512 = aiex.dma_configure_task_for @C_L2L3_4 {
        aie.dma_bd(%arg2 : memref<19447808xi16>, 151040, 16384, [<size = 1, stride = 0>, <size = 1, stride = 0>, <size = 128, stride = 151936>, <size = 128, stride = 1>]) {burst_length = 0 : i32}
        aie.end
      } {issue_token = true}
      aiex.dma_start_task(%2512)
      %2513 = aiex.dma_configure_task_for @C_L2L3_5 {
        aie.dma_bd(%arg2 : memref<19447808xi16>, 151168, 16384, [<size = 1, stride = 0>, <size = 1, stride = 0>, <size = 128, stride = 151936>, <size = 128, stride = 1>]) {burst_length = 0 : i32}
        aie.end
      } {issue_token = true}
      aiex.dma_start_task(%2513)
      %2514 = aiex.dma_configure_task_for @C_L2L3_6 {
        aie.dma_bd(%arg2 : memref<19447808xi16>, 151296, 16384, [<size = 1, stride = 0>, <size = 1, stride = 0>, <size = 128, stride = 151936>, <size = 128, stride = 1>]) {burst_length = 0 : i32}
        aie.end
      } {issue_token = true}
      aiex.dma_start_task(%2514)
      %2515 = aiex.dma_configure_task_for @C_L2L3_7 {
        aie.dma_bd(%arg2 : memref<19447808xi16>, 151424, 16384, [<size = 1, stride = 0>, <size = 1, stride = 0>, <size = 128, stride = 151936>, <size = 128, stride = 1>]) {burst_length = 0 : i32}
        aie.end
      } {issue_token = true}
      aiex.dma_start_task(%2515)
      aiex.dma_await_task(%2457)
      aiex.dma_await_task(%2458)
      aiex.dma_await_task(%2459)
      aiex.dma_await_task(%2460)
      aiex.dma_await_task(%2461)
      aiex.dma_await_task(%2462)
      aiex.dma_await_task(%2463)
      aiex.dma_await_task(%2464)
      aiex.dma_free_task(%2448)
      aiex.dma_free_task(%2449)
      aiex.dma_free_task(%2450)
      aiex.dma_free_task(%2451)
      aiex.dma_free_task(%2452)
      aiex.dma_free_task(%2453)
      aiex.dma_free_task(%2454)
      aiex.dma_free_task(%2455)
      aiex.dma_free_task(%2456)
      aiex.dma_await_task(%2474)
      aiex.dma_await_task(%2475)
      aiex.dma_await_task(%2476)
      aiex.dma_await_task(%2477)
      aiex.dma_await_task(%2478)
      aiex.dma_await_task(%2479)
      aiex.dma_await_task(%2480)
      aiex.dma_await_task(%2481)
      aiex.dma_free_task(%2465)
      aiex.dma_free_task(%2466)
      aiex.dma_free_task(%2467)
      aiex.dma_free_task(%2468)
      aiex.dma_free_task(%2469)
      aiex.dma_free_task(%2470)
      aiex.dma_free_task(%2471)
      aiex.dma_free_task(%2472)
      aiex.dma_free_task(%2473)
      aiex.dma_await_task(%2491)
      aiex.dma_await_task(%2492)
      aiex.dma_await_task(%2493)
      aiex.dma_await_task(%2494)
      aiex.dma_await_task(%2495)
      aiex.dma_await_task(%2496)
      aiex.dma_await_task(%2497)
      aiex.dma_await_task(%2498)
      aiex.dma_free_task(%2482)
      aiex.dma_free_task(%2483)
      aiex.dma_free_task(%2484)
      aiex.dma_free_task(%2485)
      aiex.dma_free_task(%2486)
      aiex.dma_free_task(%2487)
      aiex.dma_free_task(%2488)
      aiex.dma_free_task(%2489)
      aiex.dma_free_task(%2490)
      aiex.dma_await_task(%2508)
      aiex.dma_await_task(%2509)
      aiex.dma_await_task(%2510)
      aiex.dma_await_task(%2511)
      aiex.dma_await_task(%2512)
      aiex.dma_await_task(%2513)
      aiex.dma_await_task(%2514)
      aiex.dma_await_task(%2515)
      aiex.dma_free_task(%2499)
      aiex.dma_free_task(%2500)
      aiex.dma_free_task(%2501)
      aiex.dma_free_task(%2502)
      aiex.dma_free_task(%2503)
      aiex.dma_free_task(%2504)
      aiex.dma_free_task(%2505)
      aiex.dma_free_task(%2506)
      aiex.dma_free_task(%2507)
    }
  }
}

