module {
  aie.device(npu2) {
    func.func private @zero_i16(memref<32x128xi16>) attributes {link_with = "mm_32x64x128.o"}
    func.func private @matmul_i8_i16(memref<32x64xi8>, memref<64x128xi8>, memref<32x128xi16>) attributes {link_with = "mm_32x64x128.o"}
    %shim_noc_tile_0_0 = aie.tile(0, 0)
    %shim_noc_tile_1_0 = aie.tile(1, 0)
    %shim_noc_tile_2_0 = aie.tile(2, 0)
    %shim_noc_tile_3_0 = aie.tile(3, 0)
    %shim_noc_tile_4_0 = aie.tile(4, 0)
    %shim_noc_tile_5_0 = aie.tile(5, 0)
    %shim_noc_tile_6_0 = aie.tile(6, 0)
    %shim_noc_tile_7_0 = aie.tile(7, 0)
    %mem_tile_0_1 = aie.tile(0, 1)
    %mem_tile_1_1 = aie.tile(1, 1)
    %mem_tile_2_1 = aie.tile(2, 1)
    %mem_tile_3_1 = aie.tile(3, 1)
    %mem_tile_4_1 = aie.tile(4, 1)
    %mem_tile_5_1 = aie.tile(5, 1)
    %mem_tile_6_1 = aie.tile(6, 1)
    %mem_tile_7_1 = aie.tile(7, 1)
    %tile_0_2 = aie.tile(0, 2)
    %tile_1_2 = aie.tile(1, 2)
    %tile_2_2 = aie.tile(2, 2)
    %tile_3_2 = aie.tile(3, 2)
    %tile_4_2 = aie.tile(4, 2)
    %tile_5_2 = aie.tile(5, 2)
    %tile_6_2 = aie.tile(6, 2)
    %tile_7_2 = aie.tile(7, 2)
    aie.objectfifo @A_L3L2_0(%shim_noc_tile_0_0, {%mem_tile_0_1 dimensionsFromStream [<size = 32, stride = 512>, <size = 512, stride = 1>]}, 2 : i32) : !aie.objectfifo<memref<32x512xi8>> 
    aie.objectfifo @A_L2L1_0(%mem_tile_0_1 dimensionsToStream [<size = 32, stride = 512>, <size = 64, stride = 1>], {%tile_0_2 dimensionsFromStream [<size = 32, stride = 64>, <size = 64, stride = 1>], %tile_1_2 dimensionsFromStream [<size = 32, stride = 64>, <size = 64, stride = 1>], %tile_2_2 dimensionsFromStream [<size = 32, stride = 64>, <size = 64, stride = 1>], %tile_3_2 dimensionsFromStream [<size = 32, stride = 64>, <size = 64, stride = 1>], %tile_4_2 dimensionsFromStream [<size = 32, stride = 64>, <size = 64, stride = 1>], %tile_5_2 dimensionsFromStream [<size = 32, stride = 64>, <size = 64, stride = 1>], %tile_6_2 dimensionsFromStream [<size = 32, stride = 64>, <size = 64, stride = 1>], %tile_7_2 dimensionsFromStream [<size = 32, stride = 64>, <size = 64, stride = 1>]}, 2 : i32) : !aie.objectfifo<memref<32x64xi8>> 
    aie.objectfifo.link [@A_L3L2_0] -> [@A_L2L1_0]([] [])
    aie.objectfifo @B_L3L2_0(%shim_noc_tile_0_0, {%mem_tile_0_1}, 2 : i32) : !aie.objectfifo<memref<64x128xi8>> 
    aie.objectfifo @B_L2L1_0(%mem_tile_0_1, {%tile_0_2}, 2 : i32) : !aie.objectfifo<memref<64x128xi8>> 
    aie.objectfifo.link [@B_L3L2_0] -> [@B_L2L1_0]([] [])
    aie.objectfifo @B_L3L2_1(%shim_noc_tile_1_0, {%mem_tile_1_1}, 2 : i32) : !aie.objectfifo<memref<64x128xi8>> 
    aie.objectfifo @B_L2L1_1(%mem_tile_1_1, {%tile_1_2}, 2 : i32) : !aie.objectfifo<memref<64x128xi8>> 
    aie.objectfifo.link [@B_L3L2_1] -> [@B_L2L1_1]([] [])
    aie.objectfifo @B_L3L2_2(%shim_noc_tile_2_0, {%mem_tile_2_1}, 2 : i32) : !aie.objectfifo<memref<64x128xi8>> 
    aie.objectfifo @B_L2L1_2(%mem_tile_2_1, {%tile_2_2}, 2 : i32) : !aie.objectfifo<memref<64x128xi8>> 
    aie.objectfifo.link [@B_L3L2_2] -> [@B_L2L1_2]([] [])
    aie.objectfifo @B_L3L2_3(%shim_noc_tile_3_0, {%mem_tile_3_1}, 2 : i32) : !aie.objectfifo<memref<64x128xi8>> 
    aie.objectfifo @B_L2L1_3(%mem_tile_3_1, {%tile_3_2}, 2 : i32) : !aie.objectfifo<memref<64x128xi8>> 
    aie.objectfifo.link [@B_L3L2_3] -> [@B_L2L1_3]([] [])
    aie.objectfifo @B_L3L2_4(%shim_noc_tile_4_0, {%mem_tile_4_1}, 2 : i32) : !aie.objectfifo<memref<64x128xi8>> 
    aie.objectfifo @B_L2L1_4(%mem_tile_4_1, {%tile_4_2}, 2 : i32) : !aie.objectfifo<memref<64x128xi8>> 
    aie.objectfifo.link [@B_L3L2_4] -> [@B_L2L1_4]([] [])
    aie.objectfifo @B_L3L2_5(%shim_noc_tile_5_0, {%mem_tile_5_1}, 2 : i32) : !aie.objectfifo<memref<64x128xi8>> 
    aie.objectfifo @B_L2L1_5(%mem_tile_5_1, {%tile_5_2}, 2 : i32) : !aie.objectfifo<memref<64x128xi8>> 
    aie.objectfifo.link [@B_L3L2_5] -> [@B_L2L1_5]([] [])
    aie.objectfifo @B_L3L2_6(%shim_noc_tile_6_0, {%mem_tile_6_1}, 2 : i32) : !aie.objectfifo<memref<64x128xi8>> 
    aie.objectfifo @B_L2L1_6(%mem_tile_6_1, {%tile_6_2}, 2 : i32) : !aie.objectfifo<memref<64x128xi8>> 
    aie.objectfifo.link [@B_L3L2_6] -> [@B_L2L1_6]([] [])
    aie.objectfifo @B_L3L2_7(%shim_noc_tile_7_0, {%mem_tile_7_1}, 2 : i32) : !aie.objectfifo<memref<64x128xi8>> 
    aie.objectfifo @B_L2L1_7(%mem_tile_7_1, {%tile_7_2}, 2 : i32) : !aie.objectfifo<memref<64x128xi8>> 
    aie.objectfifo.link [@B_L3L2_7] -> [@B_L2L1_7]([] [])
    aie.objectfifo @C_L1L2_0_0(%tile_0_2, {%mem_tile_0_1}, 1 : i32) : !aie.objectfifo<memref<32x128xi16>> 
    aie.objectfifo @C_L2L3_0(%mem_tile_0_1, {%shim_noc_tile_0_0}, 2 : i32) : !aie.objectfifo<memref<32x128xi16>> 
    aie.objectfifo.link [@C_L1L2_0_0] -> [@C_L2L3_0]([0] [])
    aie.objectfifo @C_L1L2_1_0(%tile_1_2, {%mem_tile_1_1}, 1 : i32) : !aie.objectfifo<memref<32x128xi16>> 
    aie.objectfifo @C_L2L3_1(%mem_tile_1_1, {%shim_noc_tile_1_0}, 2 : i32) : !aie.objectfifo<memref<32x128xi16>> 
    aie.objectfifo.link [@C_L1L2_1_0] -> [@C_L2L3_1]([0] [])
    aie.objectfifo @C_L1L2_2_0(%tile_2_2, {%mem_tile_2_1}, 1 : i32) : !aie.objectfifo<memref<32x128xi16>> 
    aie.objectfifo @C_L2L3_2(%mem_tile_2_1, {%shim_noc_tile_2_0}, 2 : i32) : !aie.objectfifo<memref<32x128xi16>> 
    aie.objectfifo.link [@C_L1L2_2_0] -> [@C_L2L3_2]([0] [])
    aie.objectfifo @C_L1L2_3_0(%tile_3_2, {%mem_tile_3_1}, 1 : i32) : !aie.objectfifo<memref<32x128xi16>> 
    aie.objectfifo @C_L2L3_3(%mem_tile_3_1, {%shim_noc_tile_3_0}, 2 : i32) : !aie.objectfifo<memref<32x128xi16>> 
    aie.objectfifo.link [@C_L1L2_3_0] -> [@C_L2L3_3]([0] [])
    aie.objectfifo @C_L1L2_4_0(%tile_4_2, {%mem_tile_4_1}, 1 : i32) : !aie.objectfifo<memref<32x128xi16>> 
    aie.objectfifo @C_L2L3_4(%mem_tile_4_1, {%shim_noc_tile_4_0}, 2 : i32) : !aie.objectfifo<memref<32x128xi16>> 
    aie.objectfifo.link [@C_L1L2_4_0] -> [@C_L2L3_4]([0] [])
    aie.objectfifo @C_L1L2_5_0(%tile_5_2, {%mem_tile_5_1}, 1 : i32) : !aie.objectfifo<memref<32x128xi16>> 
    aie.objectfifo @C_L2L3_5(%mem_tile_5_1, {%shim_noc_tile_5_0}, 2 : i32) : !aie.objectfifo<memref<32x128xi16>> 
    aie.objectfifo.link [@C_L1L2_5_0] -> [@C_L2L3_5]([0] [])
    aie.objectfifo @C_L1L2_6_0(%tile_6_2, {%mem_tile_6_1}, 1 : i32) : !aie.objectfifo<memref<32x128xi16>> 
    aie.objectfifo @C_L2L3_6(%mem_tile_6_1, {%shim_noc_tile_6_0}, 2 : i32) : !aie.objectfifo<memref<32x128xi16>> 
    aie.objectfifo.link [@C_L1L2_6_0] -> [@C_L2L3_6]([0] [])
    aie.objectfifo @C_L1L2_7_0(%tile_7_2, {%mem_tile_7_1}, 1 : i32) : !aie.objectfifo<memref<32x128xi16>> 
    aie.objectfifo @C_L2L3_7(%mem_tile_7_1, {%shim_noc_tile_7_0}, 2 : i32) : !aie.objectfifo<memref<32x128xi16>> 
    aie.objectfifo.link [@C_L1L2_7_0] -> [@C_L2L3_7]([0] [])
    %core_0_2 = aie.core(%tile_0_2) {
      %c0 = arith.constant 0 : index
      %c4294967295 = arith.constant 4294967295 : index
      %c1 = arith.constant 1 : index
      scf.for %arg0 = %c0 to %c4294967295 step %c1 {
        %0 = aie.objectfifo.acquire @C_L1L2_0_0(Produce, 1) : !aie.objectfifosubview<memref<32x128xi16>>
        %1 = aie.objectfifo.subview.access %0[0] : !aie.objectfifosubview<memref<32x128xi16>> -> memref<32x128xi16>
        func.call @zero_i16(%1) : (memref<32x128xi16>) -> ()
        %c0_0 = arith.constant 0 : index
        %c16 = arith.constant 16 : index
        %c1_1 = arith.constant 1 : index
        scf.for %arg1 = %c0_0 to %c16 step %c1_1 {
          %32 = aie.objectfifo.acquire @B_L2L1_0(Consume, 1) : !aie.objectfifosubview<memref<64x128xi8>>
          %33 = aie.objectfifo.subview.access %32[0] : !aie.objectfifosubview<memref<64x128xi8>> -> memref<64x128xi8>
          %34 = aie.objectfifo.acquire @A_L2L1_0(Consume, 1) : !aie.objectfifosubview<memref<32x64xi8>>
          %35 = aie.objectfifo.subview.access %34[0] : !aie.objectfifosubview<memref<32x64xi8>> -> memref<32x64xi8>
          func.call @matmul_i8_i16(%35, %33, %1) : (memref<32x64xi8>, memref<64x128xi8>, memref<32x128xi16>) -> ()
          aie.objectfifo.release @A_L2L1_0(Consume, 1)
          aie.objectfifo.release @B_L2L1_0(Consume, 1)
        }
        aie.objectfifo.release @C_L1L2_0_0(Produce, 1)
        %2 = aie.objectfifo.acquire @C_L1L2_0_0(Produce, 1) : !aie.objectfifosubview<memref<32x128xi16>>
        %3 = aie.objectfifo.subview.access %2[0] : !aie.objectfifosubview<memref<32x128xi16>> -> memref<32x128xi16>
        func.call @zero_i16(%3) : (memref<32x128xi16>) -> ()
        %c0_2 = arith.constant 0 : index
        %c16_3 = arith.constant 16 : index
        %c1_4 = arith.constant 1 : index
        scf.for %arg1 = %c0_2 to %c16_3 step %c1_4 {
          %32 = aie.objectfifo.acquire @B_L2L1_0(Consume, 1) : !aie.objectfifosubview<memref<64x128xi8>>
          %33 = aie.objectfifo.subview.access %32[0] : !aie.objectfifosubview<memref<64x128xi8>> -> memref<64x128xi8>
          %34 = aie.objectfifo.acquire @A_L2L1_0(Consume, 1) : !aie.objectfifosubview<memref<32x64xi8>>
          %35 = aie.objectfifo.subview.access %34[0] : !aie.objectfifosubview<memref<32x64xi8>> -> memref<32x64xi8>
          func.call @matmul_i8_i16(%35, %33, %3) : (memref<32x64xi8>, memref<64x128xi8>, memref<32x128xi16>) -> ()
          aie.objectfifo.release @A_L2L1_0(Consume, 1)
          aie.objectfifo.release @B_L2L1_0(Consume, 1)
        }
        aie.objectfifo.release @C_L1L2_0_0(Produce, 1)
        %4 = aie.objectfifo.acquire @C_L1L2_0_0(Produce, 1) : !aie.objectfifosubview<memref<32x128xi16>>
        %5 = aie.objectfifo.subview.access %4[0] : !aie.objectfifosubview<memref<32x128xi16>> -> memref<32x128xi16>
        func.call @zero_i16(%5) : (memref<32x128xi16>) -> ()
        %c0_5 = arith.constant 0 : index
        %c16_6 = arith.constant 16 : index
        %c1_7 = arith.constant 1 : index
        scf.for %arg1 = %c0_5 to %c16_6 step %c1_7 {
          %32 = aie.objectfifo.acquire @B_L2L1_0(Consume, 1) : !aie.objectfifosubview<memref<64x128xi8>>
          %33 = aie.objectfifo.subview.access %32[0] : !aie.objectfifosubview<memref<64x128xi8>> -> memref<64x128xi8>
          %34 = aie.objectfifo.acquire @A_L2L1_0(Consume, 1) : !aie.objectfifosubview<memref<32x64xi8>>
          %35 = aie.objectfifo.subview.access %34[0] : !aie.objectfifosubview<memref<32x64xi8>> -> memref<32x64xi8>
          func.call @matmul_i8_i16(%35, %33, %5) : (memref<32x64xi8>, memref<64x128xi8>, memref<32x128xi16>) -> ()
          aie.objectfifo.release @A_L2L1_0(Consume, 1)
          aie.objectfifo.release @B_L2L1_0(Consume, 1)
        }
        aie.objectfifo.release @C_L1L2_0_0(Produce, 1)
        %6 = aie.objectfifo.acquire @C_L1L2_0_0(Produce, 1) : !aie.objectfifosubview<memref<32x128xi16>>
        %7 = aie.objectfifo.subview.access %6[0] : !aie.objectfifosubview<memref<32x128xi16>> -> memref<32x128xi16>
        func.call @zero_i16(%7) : (memref<32x128xi16>) -> ()
        %c0_8 = arith.constant 0 : index
        %c16_9 = arith.constant 16 : index
        %c1_10 = arith.constant 1 : index
        scf.for %arg1 = %c0_8 to %c16_9 step %c1_10 {
          %32 = aie.objectfifo.acquire @B_L2L1_0(Consume, 1) : !aie.objectfifosubview<memref<64x128xi8>>
          %33 = aie.objectfifo.subview.access %32[0] : !aie.objectfifosubview<memref<64x128xi8>> -> memref<64x128xi8>
          %34 = aie.objectfifo.acquire @A_L2L1_0(Consume, 1) : !aie.objectfifosubview<memref<32x64xi8>>
          %35 = aie.objectfifo.subview.access %34[0] : !aie.objectfifosubview<memref<32x64xi8>> -> memref<32x64xi8>
          func.call @matmul_i8_i16(%35, %33, %7) : (memref<32x64xi8>, memref<64x128xi8>, memref<32x128xi16>) -> ()
          aie.objectfifo.release @A_L2L1_0(Consume, 1)
          aie.objectfifo.release @B_L2L1_0(Consume, 1)
        }
        aie.objectfifo.release @C_L1L2_0_0(Produce, 1)
        %8 = aie.objectfifo.acquire @C_L1L2_0_0(Produce, 1) : !aie.objectfifosubview<memref<32x128xi16>>
        %9 = aie.objectfifo.subview.access %8[0] : !aie.objectfifosubview<memref<32x128xi16>> -> memref<32x128xi16>
        func.call @zero_i16(%9) : (memref<32x128xi16>) -> ()
        %c0_11 = arith.constant 0 : index
        %c16_12 = arith.constant 16 : index
        %c1_13 = arith.constant 1 : index
        scf.for %arg1 = %c0_11 to %c16_12 step %c1_13 {
          %32 = aie.objectfifo.acquire @B_L2L1_0(Consume, 1) : !aie.objectfifosubview<memref<64x128xi8>>
          %33 = aie.objectfifo.subview.access %32[0] : !aie.objectfifosubview<memref<64x128xi8>> -> memref<64x128xi8>
          %34 = aie.objectfifo.acquire @A_L2L1_0(Consume, 1) : !aie.objectfifosubview<memref<32x64xi8>>
          %35 = aie.objectfifo.subview.access %34[0] : !aie.objectfifosubview<memref<32x64xi8>> -> memref<32x64xi8>
          func.call @matmul_i8_i16(%35, %33, %9) : (memref<32x64xi8>, memref<64x128xi8>, memref<32x128xi16>) -> ()
          aie.objectfifo.release @A_L2L1_0(Consume, 1)
          aie.objectfifo.release @B_L2L1_0(Consume, 1)
        }
        aie.objectfifo.release @C_L1L2_0_0(Produce, 1)
        %10 = aie.objectfifo.acquire @C_L1L2_0_0(Produce, 1) : !aie.objectfifosubview<memref<32x128xi16>>
        %11 = aie.objectfifo.subview.access %10[0] : !aie.objectfifosubview<memref<32x128xi16>> -> memref<32x128xi16>
        func.call @zero_i16(%11) : (memref<32x128xi16>) -> ()
        %c0_14 = arith.constant 0 : index
        %c16_15 = arith.constant 16 : index
        %c1_16 = arith.constant 1 : index
        scf.for %arg1 = %c0_14 to %c16_15 step %c1_16 {
          %32 = aie.objectfifo.acquire @B_L2L1_0(Consume, 1) : !aie.objectfifosubview<memref<64x128xi8>>
          %33 = aie.objectfifo.subview.access %32[0] : !aie.objectfifosubview<memref<64x128xi8>> -> memref<64x128xi8>
          %34 = aie.objectfifo.acquire @A_L2L1_0(Consume, 1) : !aie.objectfifosubview<memref<32x64xi8>>
          %35 = aie.objectfifo.subview.access %34[0] : !aie.objectfifosubview<memref<32x64xi8>> -> memref<32x64xi8>
          func.call @matmul_i8_i16(%35, %33, %11) : (memref<32x64xi8>, memref<64x128xi8>, memref<32x128xi16>) -> ()
          aie.objectfifo.release @A_L2L1_0(Consume, 1)
          aie.objectfifo.release @B_L2L1_0(Consume, 1)
        }
        aie.objectfifo.release @C_L1L2_0_0(Produce, 1)
        %12 = aie.objectfifo.acquire @C_L1L2_0_0(Produce, 1) : !aie.objectfifosubview<memref<32x128xi16>>
        %13 = aie.objectfifo.subview.access %12[0] : !aie.objectfifosubview<memref<32x128xi16>> -> memref<32x128xi16>
        func.call @zero_i16(%13) : (memref<32x128xi16>) -> ()
        %c0_17 = arith.constant 0 : index
        %c16_18 = arith.constant 16 : index
        %c1_19 = arith.constant 1 : index
        scf.for %arg1 = %c0_17 to %c16_18 step %c1_19 {
          %32 = aie.objectfifo.acquire @B_L2L1_0(Consume, 1) : !aie.objectfifosubview<memref<64x128xi8>>
          %33 = aie.objectfifo.subview.access %32[0] : !aie.objectfifosubview<memref<64x128xi8>> -> memref<64x128xi8>
          %34 = aie.objectfifo.acquire @A_L2L1_0(Consume, 1) : !aie.objectfifosubview<memref<32x64xi8>>
          %35 = aie.objectfifo.subview.access %34[0] : !aie.objectfifosubview<memref<32x64xi8>> -> memref<32x64xi8>
          func.call @matmul_i8_i16(%35, %33, %13) : (memref<32x64xi8>, memref<64x128xi8>, memref<32x128xi16>) -> ()
          aie.objectfifo.release @A_L2L1_0(Consume, 1)
          aie.objectfifo.release @B_L2L1_0(Consume, 1)
        }
        aie.objectfifo.release @C_L1L2_0_0(Produce, 1)
        %14 = aie.objectfifo.acquire @C_L1L2_0_0(Produce, 1) : !aie.objectfifosubview<memref<32x128xi16>>
        %15 = aie.objectfifo.subview.access %14[0] : !aie.objectfifosubview<memref<32x128xi16>> -> memref<32x128xi16>
        func.call @zero_i16(%15) : (memref<32x128xi16>) -> ()
        %c0_20 = arith.constant 0 : index
        %c16_21 = arith.constant 16 : index
        %c1_22 = arith.constant 1 : index
        scf.for %arg1 = %c0_20 to %c16_21 step %c1_22 {
          %32 = aie.objectfifo.acquire @B_L2L1_0(Consume, 1) : !aie.objectfifosubview<memref<64x128xi8>>
          %33 = aie.objectfifo.subview.access %32[0] : !aie.objectfifosubview<memref<64x128xi8>> -> memref<64x128xi8>
          %34 = aie.objectfifo.acquire @A_L2L1_0(Consume, 1) : !aie.objectfifosubview<memref<32x64xi8>>
          %35 = aie.objectfifo.subview.access %34[0] : !aie.objectfifosubview<memref<32x64xi8>> -> memref<32x64xi8>
          func.call @matmul_i8_i16(%35, %33, %15) : (memref<32x64xi8>, memref<64x128xi8>, memref<32x128xi16>) -> ()
          aie.objectfifo.release @A_L2L1_0(Consume, 1)
          aie.objectfifo.release @B_L2L1_0(Consume, 1)
        }
        aie.objectfifo.release @C_L1L2_0_0(Produce, 1)
        %16 = aie.objectfifo.acquire @C_L1L2_0_0(Produce, 1) : !aie.objectfifosubview<memref<32x128xi16>>
        %17 = aie.objectfifo.subview.access %16[0] : !aie.objectfifosubview<memref<32x128xi16>> -> memref<32x128xi16>
        func.call @zero_i16(%17) : (memref<32x128xi16>) -> ()
        %c0_23 = arith.constant 0 : index
        %c16_24 = arith.constant 16 : index
        %c1_25 = arith.constant 1 : index
        scf.for %arg1 = %c0_23 to %c16_24 step %c1_25 {
          %32 = aie.objectfifo.acquire @B_L2L1_0(Consume, 1) : !aie.objectfifosubview<memref<64x128xi8>>
          %33 = aie.objectfifo.subview.access %32[0] : !aie.objectfifosubview<memref<64x128xi8>> -> memref<64x128xi8>
          %34 = aie.objectfifo.acquire @A_L2L1_0(Consume, 1) : !aie.objectfifosubview<memref<32x64xi8>>
          %35 = aie.objectfifo.subview.access %34[0] : !aie.objectfifosubview<memref<32x64xi8>> -> memref<32x64xi8>
          func.call @matmul_i8_i16(%35, %33, %17) : (memref<32x64xi8>, memref<64x128xi8>, memref<32x128xi16>) -> ()
          aie.objectfifo.release @A_L2L1_0(Consume, 1)
          aie.objectfifo.release @B_L2L1_0(Consume, 1)
        }
        aie.objectfifo.release @C_L1L2_0_0(Produce, 1)
        %18 = aie.objectfifo.acquire @C_L1L2_0_0(Produce, 1) : !aie.objectfifosubview<memref<32x128xi16>>
        %19 = aie.objectfifo.subview.access %18[0] : !aie.objectfifosubview<memref<32x128xi16>> -> memref<32x128xi16>
        func.call @zero_i16(%19) : (memref<32x128xi16>) -> ()
        %c0_26 = arith.constant 0 : index
        %c16_27 = arith.constant 16 : index
        %c1_28 = arith.constant 1 : index
        scf.for %arg1 = %c0_26 to %c16_27 step %c1_28 {
          %32 = aie.objectfifo.acquire @B_L2L1_0(Consume, 1) : !aie.objectfifosubview<memref<64x128xi8>>
          %33 = aie.objectfifo.subview.access %32[0] : !aie.objectfifosubview<memref<64x128xi8>> -> memref<64x128xi8>
          %34 = aie.objectfifo.acquire @A_L2L1_0(Consume, 1) : !aie.objectfifosubview<memref<32x64xi8>>
          %35 = aie.objectfifo.subview.access %34[0] : !aie.objectfifosubview<memref<32x64xi8>> -> memref<32x64xi8>
          func.call @matmul_i8_i16(%35, %33, %19) : (memref<32x64xi8>, memref<64x128xi8>, memref<32x128xi16>) -> ()
          aie.objectfifo.release @A_L2L1_0(Consume, 1)
          aie.objectfifo.release @B_L2L1_0(Consume, 1)
        }
        aie.objectfifo.release @C_L1L2_0_0(Produce, 1)
        %20 = aie.objectfifo.acquire @C_L1L2_0_0(Produce, 1) : !aie.objectfifosubview<memref<32x128xi16>>
        %21 = aie.objectfifo.subview.access %20[0] : !aie.objectfifosubview<memref<32x128xi16>> -> memref<32x128xi16>
        func.call @zero_i16(%21) : (memref<32x128xi16>) -> ()
        %c0_29 = arith.constant 0 : index
        %c16_30 = arith.constant 16 : index
        %c1_31 = arith.constant 1 : index
        scf.for %arg1 = %c0_29 to %c16_30 step %c1_31 {
          %32 = aie.objectfifo.acquire @B_L2L1_0(Consume, 1) : !aie.objectfifosubview<memref<64x128xi8>>
          %33 = aie.objectfifo.subview.access %32[0] : !aie.objectfifosubview<memref<64x128xi8>> -> memref<64x128xi8>
          %34 = aie.objectfifo.acquire @A_L2L1_0(Consume, 1) : !aie.objectfifosubview<memref<32x64xi8>>
          %35 = aie.objectfifo.subview.access %34[0] : !aie.objectfifosubview<memref<32x64xi8>> -> memref<32x64xi8>
          func.call @matmul_i8_i16(%35, %33, %21) : (memref<32x64xi8>, memref<64x128xi8>, memref<32x128xi16>) -> ()
          aie.objectfifo.release @A_L2L1_0(Consume, 1)
          aie.objectfifo.release @B_L2L1_0(Consume, 1)
        }
        aie.objectfifo.release @C_L1L2_0_0(Produce, 1)
        %22 = aie.objectfifo.acquire @C_L1L2_0_0(Produce, 1) : !aie.objectfifosubview<memref<32x128xi16>>
        %23 = aie.objectfifo.subview.access %22[0] : !aie.objectfifosubview<memref<32x128xi16>> -> memref<32x128xi16>
        func.call @zero_i16(%23) : (memref<32x128xi16>) -> ()
        %c0_32 = arith.constant 0 : index
        %c16_33 = arith.constant 16 : index
        %c1_34 = arith.constant 1 : index
        scf.for %arg1 = %c0_32 to %c16_33 step %c1_34 {
          %32 = aie.objectfifo.acquire @B_L2L1_0(Consume, 1) : !aie.objectfifosubview<memref<64x128xi8>>
          %33 = aie.objectfifo.subview.access %32[0] : !aie.objectfifosubview<memref<64x128xi8>> -> memref<64x128xi8>
          %34 = aie.objectfifo.acquire @A_L2L1_0(Consume, 1) : !aie.objectfifosubview<memref<32x64xi8>>
          %35 = aie.objectfifo.subview.access %34[0] : !aie.objectfifosubview<memref<32x64xi8>> -> memref<32x64xi8>
          func.call @matmul_i8_i16(%35, %33, %23) : (memref<32x64xi8>, memref<64x128xi8>, memref<32x128xi16>) -> ()
          aie.objectfifo.release @A_L2L1_0(Consume, 1)
          aie.objectfifo.release @B_L2L1_0(Consume, 1)
        }
        aie.objectfifo.release @C_L1L2_0_0(Produce, 1)
        %24 = aie.objectfifo.acquire @C_L1L2_0_0(Produce, 1) : !aie.objectfifosubview<memref<32x128xi16>>
        %25 = aie.objectfifo.subview.access %24[0] : !aie.objectfifosubview<memref<32x128xi16>> -> memref<32x128xi16>
        func.call @zero_i16(%25) : (memref<32x128xi16>) -> ()
        %c0_35 = arith.constant 0 : index
        %c16_36 = arith.constant 16 : index
        %c1_37 = arith.constant 1 : index
        scf.for %arg1 = %c0_35 to %c16_36 step %c1_37 {
          %32 = aie.objectfifo.acquire @B_L2L1_0(Consume, 1) : !aie.objectfifosubview<memref<64x128xi8>>
          %33 = aie.objectfifo.subview.access %32[0] : !aie.objectfifosubview<memref<64x128xi8>> -> memref<64x128xi8>
          %34 = aie.objectfifo.acquire @A_L2L1_0(Consume, 1) : !aie.objectfifosubview<memref<32x64xi8>>
          %35 = aie.objectfifo.subview.access %34[0] : !aie.objectfifosubview<memref<32x64xi8>> -> memref<32x64xi8>
          func.call @matmul_i8_i16(%35, %33, %25) : (memref<32x64xi8>, memref<64x128xi8>, memref<32x128xi16>) -> ()
          aie.objectfifo.release @A_L2L1_0(Consume, 1)
          aie.objectfifo.release @B_L2L1_0(Consume, 1)
        }
        aie.objectfifo.release @C_L1L2_0_0(Produce, 1)
        %26 = aie.objectfifo.acquire @C_L1L2_0_0(Produce, 1) : !aie.objectfifosubview<memref<32x128xi16>>
        %27 = aie.objectfifo.subview.access %26[0] : !aie.objectfifosubview<memref<32x128xi16>> -> memref<32x128xi16>
        func.call @zero_i16(%27) : (memref<32x128xi16>) -> ()
        %c0_38 = arith.constant 0 : index
        %c16_39 = arith.constant 16 : index
        %c1_40 = arith.constant 1 : index
        scf.for %arg1 = %c0_38 to %c16_39 step %c1_40 {
          %32 = aie.objectfifo.acquire @B_L2L1_0(Consume, 1) : !aie.objectfifosubview<memref<64x128xi8>>
          %33 = aie.objectfifo.subview.access %32[0] : !aie.objectfifosubview<memref<64x128xi8>> -> memref<64x128xi8>
          %34 = aie.objectfifo.acquire @A_L2L1_0(Consume, 1) : !aie.objectfifosubview<memref<32x64xi8>>
          %35 = aie.objectfifo.subview.access %34[0] : !aie.objectfifosubview<memref<32x64xi8>> -> memref<32x64xi8>
          func.call @matmul_i8_i16(%35, %33, %27) : (memref<32x64xi8>, memref<64x128xi8>, memref<32x128xi16>) -> ()
          aie.objectfifo.release @A_L2L1_0(Consume, 1)
          aie.objectfifo.release @B_L2L1_0(Consume, 1)
        }
        aie.objectfifo.release @C_L1L2_0_0(Produce, 1)
        %28 = aie.objectfifo.acquire @C_L1L2_0_0(Produce, 1) : !aie.objectfifosubview<memref<32x128xi16>>
        %29 = aie.objectfifo.subview.access %28[0] : !aie.objectfifosubview<memref<32x128xi16>> -> memref<32x128xi16>
        func.call @zero_i16(%29) : (memref<32x128xi16>) -> ()
        %c0_41 = arith.constant 0 : index
        %c16_42 = arith.constant 16 : index
        %c1_43 = arith.constant 1 : index
        scf.for %arg1 = %c0_41 to %c16_42 step %c1_43 {
          %32 = aie.objectfifo.acquire @B_L2L1_0(Consume, 1) : !aie.objectfifosubview<memref<64x128xi8>>
          %33 = aie.objectfifo.subview.access %32[0] : !aie.objectfifosubview<memref<64x128xi8>> -> memref<64x128xi8>
          %34 = aie.objectfifo.acquire @A_L2L1_0(Consume, 1) : !aie.objectfifosubview<memref<32x64xi8>>
          %35 = aie.objectfifo.subview.access %34[0] : !aie.objectfifosubview<memref<32x64xi8>> -> memref<32x64xi8>
          func.call @matmul_i8_i16(%35, %33, %29) : (memref<32x64xi8>, memref<64x128xi8>, memref<32x128xi16>) -> ()
          aie.objectfifo.release @A_L2L1_0(Consume, 1)
          aie.objectfifo.release @B_L2L1_0(Consume, 1)
        }
        aie.objectfifo.release @C_L1L2_0_0(Produce, 1)
        %30 = aie.objectfifo.acquire @C_L1L2_0_0(Produce, 1) : !aie.objectfifosubview<memref<32x128xi16>>
        %31 = aie.objectfifo.subview.access %30[0] : !aie.objectfifosubview<memref<32x128xi16>> -> memref<32x128xi16>
        func.call @zero_i16(%31) : (memref<32x128xi16>) -> ()
        %c0_44 = arith.constant 0 : index
        %c16_45 = arith.constant 16 : index
        %c1_46 = arith.constant 1 : index
        scf.for %arg1 = %c0_44 to %c16_45 step %c1_46 {
          %32 = aie.objectfifo.acquire @B_L2L1_0(Consume, 1) : !aie.objectfifosubview<memref<64x128xi8>>
          %33 = aie.objectfifo.subview.access %32[0] : !aie.objectfifosubview<memref<64x128xi8>> -> memref<64x128xi8>
          %34 = aie.objectfifo.acquire @A_L2L1_0(Consume, 1) : !aie.objectfifosubview<memref<32x64xi8>>
          %35 = aie.objectfifo.subview.access %34[0] : !aie.objectfifosubview<memref<32x64xi8>> -> memref<32x64xi8>
          func.call @matmul_i8_i16(%35, %33, %31) : (memref<32x64xi8>, memref<64x128xi8>, memref<32x128xi16>) -> ()
          aie.objectfifo.release @A_L2L1_0(Consume, 1)
          aie.objectfifo.release @B_L2L1_0(Consume, 1)
        }
        aie.objectfifo.release @C_L1L2_0_0(Produce, 1)
      }
      aie.end
    } {stack_size = 3328 : i32}
    %core_1_2 = aie.core(%tile_1_2) {
      %c0 = arith.constant 0 : index
      %c4294967295 = arith.constant 4294967295 : index
      %c1 = arith.constant 1 : index
      scf.for %arg0 = %c0 to %c4294967295 step %c1 {
        %0 = aie.objectfifo.acquire @C_L1L2_1_0(Produce, 1) : !aie.objectfifosubview<memref<32x128xi16>>
        %1 = aie.objectfifo.subview.access %0[0] : !aie.objectfifosubview<memref<32x128xi16>> -> memref<32x128xi16>
        func.call @zero_i16(%1) : (memref<32x128xi16>) -> ()
        %c0_0 = arith.constant 0 : index
        %c16 = arith.constant 16 : index
        %c1_1 = arith.constant 1 : index
        scf.for %arg1 = %c0_0 to %c16 step %c1_1 {
          %32 = aie.objectfifo.acquire @B_L2L1_1(Consume, 1) : !aie.objectfifosubview<memref<64x128xi8>>
          %33 = aie.objectfifo.subview.access %32[0] : !aie.objectfifosubview<memref<64x128xi8>> -> memref<64x128xi8>
          %34 = aie.objectfifo.acquire @A_L2L1_0(Consume, 1) : !aie.objectfifosubview<memref<32x64xi8>>
          %35 = aie.objectfifo.subview.access %34[0] : !aie.objectfifosubview<memref<32x64xi8>> -> memref<32x64xi8>
          func.call @matmul_i8_i16(%35, %33, %1) : (memref<32x64xi8>, memref<64x128xi8>, memref<32x128xi16>) -> ()
          aie.objectfifo.release @A_L2L1_0(Consume, 1)
          aie.objectfifo.release @B_L2L1_1(Consume, 1)
        }
        aie.objectfifo.release @C_L1L2_1_0(Produce, 1)
        %2 = aie.objectfifo.acquire @C_L1L2_1_0(Produce, 1) : !aie.objectfifosubview<memref<32x128xi16>>
        %3 = aie.objectfifo.subview.access %2[0] : !aie.objectfifosubview<memref<32x128xi16>> -> memref<32x128xi16>
        func.call @zero_i16(%3) : (memref<32x128xi16>) -> ()
        %c0_2 = arith.constant 0 : index
        %c16_3 = arith.constant 16 : index
        %c1_4 = arith.constant 1 : index
        scf.for %arg1 = %c0_2 to %c16_3 step %c1_4 {
          %32 = aie.objectfifo.acquire @B_L2L1_1(Consume, 1) : !aie.objectfifosubview<memref<64x128xi8>>
          %33 = aie.objectfifo.subview.access %32[0] : !aie.objectfifosubview<memref<64x128xi8>> -> memref<64x128xi8>
          %34 = aie.objectfifo.acquire @A_L2L1_0(Consume, 1) : !aie.objectfifosubview<memref<32x64xi8>>
          %35 = aie.objectfifo.subview.access %34[0] : !aie.objectfifosubview<memref<32x64xi8>> -> memref<32x64xi8>
          func.call @matmul_i8_i16(%35, %33, %3) : (memref<32x64xi8>, memref<64x128xi8>, memref<32x128xi16>) -> ()
          aie.objectfifo.release @A_L2L1_0(Consume, 1)
          aie.objectfifo.release @B_L2L1_1(Consume, 1)
        }
        aie.objectfifo.release @C_L1L2_1_0(Produce, 1)
        %4 = aie.objectfifo.acquire @C_L1L2_1_0(Produce, 1) : !aie.objectfifosubview<memref<32x128xi16>>
        %5 = aie.objectfifo.subview.access %4[0] : !aie.objectfifosubview<memref<32x128xi16>> -> memref<32x128xi16>
        func.call @zero_i16(%5) : (memref<32x128xi16>) -> ()
        %c0_5 = arith.constant 0 : index
        %c16_6 = arith.constant 16 : index
        %c1_7 = arith.constant 1 : index
        scf.for %arg1 = %c0_5 to %c16_6 step %c1_7 {
          %32 = aie.objectfifo.acquire @B_L2L1_1(Consume, 1) : !aie.objectfifosubview<memref<64x128xi8>>
          %33 = aie.objectfifo.subview.access %32[0] : !aie.objectfifosubview<memref<64x128xi8>> -> memref<64x128xi8>
          %34 = aie.objectfifo.acquire @A_L2L1_0(Consume, 1) : !aie.objectfifosubview<memref<32x64xi8>>
          %35 = aie.objectfifo.subview.access %34[0] : !aie.objectfifosubview<memref<32x64xi8>> -> memref<32x64xi8>
          func.call @matmul_i8_i16(%35, %33, %5) : (memref<32x64xi8>, memref<64x128xi8>, memref<32x128xi16>) -> ()
          aie.objectfifo.release @A_L2L1_0(Consume, 1)
          aie.objectfifo.release @B_L2L1_1(Consume, 1)
        }
        aie.objectfifo.release @C_L1L2_1_0(Produce, 1)
        %6 = aie.objectfifo.acquire @C_L1L2_1_0(Produce, 1) : !aie.objectfifosubview<memref<32x128xi16>>
        %7 = aie.objectfifo.subview.access %6[0] : !aie.objectfifosubview<memref<32x128xi16>> -> memref<32x128xi16>
        func.call @zero_i16(%7) : (memref<32x128xi16>) -> ()
        %c0_8 = arith.constant 0 : index
        %c16_9 = arith.constant 16 : index
        %c1_10 = arith.constant 1 : index
        scf.for %arg1 = %c0_8 to %c16_9 step %c1_10 {
          %32 = aie.objectfifo.acquire @B_L2L1_1(Consume, 1) : !aie.objectfifosubview<memref<64x128xi8>>
          %33 = aie.objectfifo.subview.access %32[0] : !aie.objectfifosubview<memref<64x128xi8>> -> memref<64x128xi8>
          %34 = aie.objectfifo.acquire @A_L2L1_0(Consume, 1) : !aie.objectfifosubview<memref<32x64xi8>>
          %35 = aie.objectfifo.subview.access %34[0] : !aie.objectfifosubview<memref<32x64xi8>> -> memref<32x64xi8>
          func.call @matmul_i8_i16(%35, %33, %7) : (memref<32x64xi8>, memref<64x128xi8>, memref<32x128xi16>) -> ()
          aie.objectfifo.release @A_L2L1_0(Consume, 1)
          aie.objectfifo.release @B_L2L1_1(Consume, 1)
        }
        aie.objectfifo.release @C_L1L2_1_0(Produce, 1)
        %8 = aie.objectfifo.acquire @C_L1L2_1_0(Produce, 1) : !aie.objectfifosubview<memref<32x128xi16>>
        %9 = aie.objectfifo.subview.access %8[0] : !aie.objectfifosubview<memref<32x128xi16>> -> memref<32x128xi16>
        func.call @zero_i16(%9) : (memref<32x128xi16>) -> ()
        %c0_11 = arith.constant 0 : index
        %c16_12 = arith.constant 16 : index
        %c1_13 = arith.constant 1 : index
        scf.for %arg1 = %c0_11 to %c16_12 step %c1_13 {
          %32 = aie.objectfifo.acquire @B_L2L1_1(Consume, 1) : !aie.objectfifosubview<memref<64x128xi8>>
          %33 = aie.objectfifo.subview.access %32[0] : !aie.objectfifosubview<memref<64x128xi8>> -> memref<64x128xi8>
          %34 = aie.objectfifo.acquire @A_L2L1_0(Consume, 1) : !aie.objectfifosubview<memref<32x64xi8>>
          %35 = aie.objectfifo.subview.access %34[0] : !aie.objectfifosubview<memref<32x64xi8>> -> memref<32x64xi8>
          func.call @matmul_i8_i16(%35, %33, %9) : (memref<32x64xi8>, memref<64x128xi8>, memref<32x128xi16>) -> ()
          aie.objectfifo.release @A_L2L1_0(Consume, 1)
          aie.objectfifo.release @B_L2L1_1(Consume, 1)
        }
        aie.objectfifo.release @C_L1L2_1_0(Produce, 1)
        %10 = aie.objectfifo.acquire @C_L1L2_1_0(Produce, 1) : !aie.objectfifosubview<memref<32x128xi16>>
        %11 = aie.objectfifo.subview.access %10[0] : !aie.objectfifosubview<memref<32x128xi16>> -> memref<32x128xi16>
        func.call @zero_i16(%11) : (memref<32x128xi16>) -> ()
        %c0_14 = arith.constant 0 : index
        %c16_15 = arith.constant 16 : index
        %c1_16 = arith.constant 1 : index
        scf.for %arg1 = %c0_14 to %c16_15 step %c1_16 {
          %32 = aie.objectfifo.acquire @B_L2L1_1(Consume, 1) : !aie.objectfifosubview<memref<64x128xi8>>
          %33 = aie.objectfifo.subview.access %32[0] : !aie.objectfifosubview<memref<64x128xi8>> -> memref<64x128xi8>
          %34 = aie.objectfifo.acquire @A_L2L1_0(Consume, 1) : !aie.objectfifosubview<memref<32x64xi8>>
          %35 = aie.objectfifo.subview.access %34[0] : !aie.objectfifosubview<memref<32x64xi8>> -> memref<32x64xi8>
          func.call @matmul_i8_i16(%35, %33, %11) : (memref<32x64xi8>, memref<64x128xi8>, memref<32x128xi16>) -> ()
          aie.objectfifo.release @A_L2L1_0(Consume, 1)
          aie.objectfifo.release @B_L2L1_1(Consume, 1)
        }
        aie.objectfifo.release @C_L1L2_1_0(Produce, 1)
        %12 = aie.objectfifo.acquire @C_L1L2_1_0(Produce, 1) : !aie.objectfifosubview<memref<32x128xi16>>
        %13 = aie.objectfifo.subview.access %12[0] : !aie.objectfifosubview<memref<32x128xi16>> -> memref<32x128xi16>
        func.call @zero_i16(%13) : (memref<32x128xi16>) -> ()
        %c0_17 = arith.constant 0 : index
        %c16_18 = arith.constant 16 : index
        %c1_19 = arith.constant 1 : index
        scf.for %arg1 = %c0_17 to %c16_18 step %c1_19 {
          %32 = aie.objectfifo.acquire @B_L2L1_1(Consume, 1) : !aie.objectfifosubview<memref<64x128xi8>>
          %33 = aie.objectfifo.subview.access %32[0] : !aie.objectfifosubview<memref<64x128xi8>> -> memref<64x128xi8>
          %34 = aie.objectfifo.acquire @A_L2L1_0(Consume, 1) : !aie.objectfifosubview<memref<32x64xi8>>
          %35 = aie.objectfifo.subview.access %34[0] : !aie.objectfifosubview<memref<32x64xi8>> -> memref<32x64xi8>
          func.call @matmul_i8_i16(%35, %33, %13) : (memref<32x64xi8>, memref<64x128xi8>, memref<32x128xi16>) -> ()
          aie.objectfifo.release @A_L2L1_0(Consume, 1)
          aie.objectfifo.release @B_L2L1_1(Consume, 1)
        }
        aie.objectfifo.release @C_L1L2_1_0(Produce, 1)
        %14 = aie.objectfifo.acquire @C_L1L2_1_0(Produce, 1) : !aie.objectfifosubview<memref<32x128xi16>>
        %15 = aie.objectfifo.subview.access %14[0] : !aie.objectfifosubview<memref<32x128xi16>> -> memref<32x128xi16>
        func.call @zero_i16(%15) : (memref<32x128xi16>) -> ()
        %c0_20 = arith.constant 0 : index
        %c16_21 = arith.constant 16 : index
        %c1_22 = arith.constant 1 : index
        scf.for %arg1 = %c0_20 to %c16_21 step %c1_22 {
          %32 = aie.objectfifo.acquire @B_L2L1_1(Consume, 1) : !aie.objectfifosubview<memref<64x128xi8>>
          %33 = aie.objectfifo.subview.access %32[0] : !aie.objectfifosubview<memref<64x128xi8>> -> memref<64x128xi8>
          %34 = aie.objectfifo.acquire @A_L2L1_0(Consume, 1) : !aie.objectfifosubview<memref<32x64xi8>>
          %35 = aie.objectfifo.subview.access %34[0] : !aie.objectfifosubview<memref<32x64xi8>> -> memref<32x64xi8>
          func.call @matmul_i8_i16(%35, %33, %15) : (memref<32x64xi8>, memref<64x128xi8>, memref<32x128xi16>) -> ()
          aie.objectfifo.release @A_L2L1_0(Consume, 1)
          aie.objectfifo.release @B_L2L1_1(Consume, 1)
        }
        aie.objectfifo.release @C_L1L2_1_0(Produce, 1)
        %16 = aie.objectfifo.acquire @C_L1L2_1_0(Produce, 1) : !aie.objectfifosubview<memref<32x128xi16>>
        %17 = aie.objectfifo.subview.access %16[0] : !aie.objectfifosubview<memref<32x128xi16>> -> memref<32x128xi16>
        func.call @zero_i16(%17) : (memref<32x128xi16>) -> ()
        %c0_23 = arith.constant 0 : index
        %c16_24 = arith.constant 16 : index
        %c1_25 = arith.constant 1 : index
        scf.for %arg1 = %c0_23 to %c16_24 step %c1_25 {
          %32 = aie.objectfifo.acquire @B_L2L1_1(Consume, 1) : !aie.objectfifosubview<memref<64x128xi8>>
          %33 = aie.objectfifo.subview.access %32[0] : !aie.objectfifosubview<memref<64x128xi8>> -> memref<64x128xi8>
          %34 = aie.objectfifo.acquire @A_L2L1_0(Consume, 1) : !aie.objectfifosubview<memref<32x64xi8>>
          %35 = aie.objectfifo.subview.access %34[0] : !aie.objectfifosubview<memref<32x64xi8>> -> memref<32x64xi8>
          func.call @matmul_i8_i16(%35, %33, %17) : (memref<32x64xi8>, memref<64x128xi8>, memref<32x128xi16>) -> ()
          aie.objectfifo.release @A_L2L1_0(Consume, 1)
          aie.objectfifo.release @B_L2L1_1(Consume, 1)
        }
        aie.objectfifo.release @C_L1L2_1_0(Produce, 1)
        %18 = aie.objectfifo.acquire @C_L1L2_1_0(Produce, 1) : !aie.objectfifosubview<memref<32x128xi16>>
        %19 = aie.objectfifo.subview.access %18[0] : !aie.objectfifosubview<memref<32x128xi16>> -> memref<32x128xi16>
        func.call @zero_i16(%19) : (memref<32x128xi16>) -> ()
        %c0_26 = arith.constant 0 : index
        %c16_27 = arith.constant 16 : index
        %c1_28 = arith.constant 1 : index
        scf.for %arg1 = %c0_26 to %c16_27 step %c1_28 {
          %32 = aie.objectfifo.acquire @B_L2L1_1(Consume, 1) : !aie.objectfifosubview<memref<64x128xi8>>
          %33 = aie.objectfifo.subview.access %32[0] : !aie.objectfifosubview<memref<64x128xi8>> -> memref<64x128xi8>
          %34 = aie.objectfifo.acquire @A_L2L1_0(Consume, 1) : !aie.objectfifosubview<memref<32x64xi8>>
          %35 = aie.objectfifo.subview.access %34[0] : !aie.objectfifosubview<memref<32x64xi8>> -> memref<32x64xi8>
          func.call @matmul_i8_i16(%35, %33, %19) : (memref<32x64xi8>, memref<64x128xi8>, memref<32x128xi16>) -> ()
          aie.objectfifo.release @A_L2L1_0(Consume, 1)
          aie.objectfifo.release @B_L2L1_1(Consume, 1)
        }
        aie.objectfifo.release @C_L1L2_1_0(Produce, 1)
        %20 = aie.objectfifo.acquire @C_L1L2_1_0(Produce, 1) : !aie.objectfifosubview<memref<32x128xi16>>
        %21 = aie.objectfifo.subview.access %20[0] : !aie.objectfifosubview<memref<32x128xi16>> -> memref<32x128xi16>
        func.call @zero_i16(%21) : (memref<32x128xi16>) -> ()
        %c0_29 = arith.constant 0 : index
        %c16_30 = arith.constant 16 : index
        %c1_31 = arith.constant 1 : index
        scf.for %arg1 = %c0_29 to %c16_30 step %c1_31 {
          %32 = aie.objectfifo.acquire @B_L2L1_1(Consume, 1) : !aie.objectfifosubview<memref<64x128xi8>>
          %33 = aie.objectfifo.subview.access %32[0] : !aie.objectfifosubview<memref<64x128xi8>> -> memref<64x128xi8>
          %34 = aie.objectfifo.acquire @A_L2L1_0(Consume, 1) : !aie.objectfifosubview<memref<32x64xi8>>
          %35 = aie.objectfifo.subview.access %34[0] : !aie.objectfifosubview<memref<32x64xi8>> -> memref<32x64xi8>
          func.call @matmul_i8_i16(%35, %33, %21) : (memref<32x64xi8>, memref<64x128xi8>, memref<32x128xi16>) -> ()
          aie.objectfifo.release @A_L2L1_0(Consume, 1)
          aie.objectfifo.release @B_L2L1_1(Consume, 1)
        }
        aie.objectfifo.release @C_L1L2_1_0(Produce, 1)
        %22 = aie.objectfifo.acquire @C_L1L2_1_0(Produce, 1) : !aie.objectfifosubview<memref<32x128xi16>>
        %23 = aie.objectfifo.subview.access %22[0] : !aie.objectfifosubview<memref<32x128xi16>> -> memref<32x128xi16>
        func.call @zero_i16(%23) : (memref<32x128xi16>) -> ()
        %c0_32 = arith.constant 0 : index
        %c16_33 = arith.constant 16 : index
        %c1_34 = arith.constant 1 : index
        scf.for %arg1 = %c0_32 to %c16_33 step %c1_34 {
          %32 = aie.objectfifo.acquire @B_L2L1_1(Consume, 1) : !aie.objectfifosubview<memref<64x128xi8>>
          %33 = aie.objectfifo.subview.access %32[0] : !aie.objectfifosubview<memref<64x128xi8>> -> memref<64x128xi8>
          %34 = aie.objectfifo.acquire @A_L2L1_0(Consume, 1) : !aie.objectfifosubview<memref<32x64xi8>>
          %35 = aie.objectfifo.subview.access %34[0] : !aie.objectfifosubview<memref<32x64xi8>> -> memref<32x64xi8>
          func.call @matmul_i8_i16(%35, %33, %23) : (memref<32x64xi8>, memref<64x128xi8>, memref<32x128xi16>) -> ()
          aie.objectfifo.release @A_L2L1_0(Consume, 1)
          aie.objectfifo.release @B_L2L1_1(Consume, 1)
        }
        aie.objectfifo.release @C_L1L2_1_0(Produce, 1)
        %24 = aie.objectfifo.acquire @C_L1L2_1_0(Produce, 1) : !aie.objectfifosubview<memref<32x128xi16>>
        %25 = aie.objectfifo.subview.access %24[0] : !aie.objectfifosubview<memref<32x128xi16>> -> memref<32x128xi16>
        func.call @zero_i16(%25) : (memref<32x128xi16>) -> ()
        %c0_35 = arith.constant 0 : index
        %c16_36 = arith.constant 16 : index
        %c1_37 = arith.constant 1 : index
        scf.for %arg1 = %c0_35 to %c16_36 step %c1_37 {
          %32 = aie.objectfifo.acquire @B_L2L1_1(Consume, 1) : !aie.objectfifosubview<memref<64x128xi8>>
          %33 = aie.objectfifo.subview.access %32[0] : !aie.objectfifosubview<memref<64x128xi8>> -> memref<64x128xi8>
          %34 = aie.objectfifo.acquire @A_L2L1_0(Consume, 1) : !aie.objectfifosubview<memref<32x64xi8>>
          %35 = aie.objectfifo.subview.access %34[0] : !aie.objectfifosubview<memref<32x64xi8>> -> memref<32x64xi8>
          func.call @matmul_i8_i16(%35, %33, %25) : (memref<32x64xi8>, memref<64x128xi8>, memref<32x128xi16>) -> ()
          aie.objectfifo.release @A_L2L1_0(Consume, 1)
          aie.objectfifo.release @B_L2L1_1(Consume, 1)
        }
        aie.objectfifo.release @C_L1L2_1_0(Produce, 1)
        %26 = aie.objectfifo.acquire @C_L1L2_1_0(Produce, 1) : !aie.objectfifosubview<memref<32x128xi16>>
        %27 = aie.objectfifo.subview.access %26[0] : !aie.objectfifosubview<memref<32x128xi16>> -> memref<32x128xi16>
        func.call @zero_i16(%27) : (memref<32x128xi16>) -> ()
        %c0_38 = arith.constant 0 : index
        %c16_39 = arith.constant 16 : index
        %c1_40 = arith.constant 1 : index
        scf.for %arg1 = %c0_38 to %c16_39 step %c1_40 {
          %32 = aie.objectfifo.acquire @B_L2L1_1(Consume, 1) : !aie.objectfifosubview<memref<64x128xi8>>
          %33 = aie.objectfifo.subview.access %32[0] : !aie.objectfifosubview<memref<64x128xi8>> -> memref<64x128xi8>
          %34 = aie.objectfifo.acquire @A_L2L1_0(Consume, 1) : !aie.objectfifosubview<memref<32x64xi8>>
          %35 = aie.objectfifo.subview.access %34[0] : !aie.objectfifosubview<memref<32x64xi8>> -> memref<32x64xi8>
          func.call @matmul_i8_i16(%35, %33, %27) : (memref<32x64xi8>, memref<64x128xi8>, memref<32x128xi16>) -> ()
          aie.objectfifo.release @A_L2L1_0(Consume, 1)
          aie.objectfifo.release @B_L2L1_1(Consume, 1)
        }
        aie.objectfifo.release @C_L1L2_1_0(Produce, 1)
        %28 = aie.objectfifo.acquire @C_L1L2_1_0(Produce, 1) : !aie.objectfifosubview<memref<32x128xi16>>
        %29 = aie.objectfifo.subview.access %28[0] : !aie.objectfifosubview<memref<32x128xi16>> -> memref<32x128xi16>
        func.call @zero_i16(%29) : (memref<32x128xi16>) -> ()
        %c0_41 = arith.constant 0 : index
        %c16_42 = arith.constant 16 : index
        %c1_43 = arith.constant 1 : index
        scf.for %arg1 = %c0_41 to %c16_42 step %c1_43 {
          %32 = aie.objectfifo.acquire @B_L2L1_1(Consume, 1) : !aie.objectfifosubview<memref<64x128xi8>>
          %33 = aie.objectfifo.subview.access %32[0] : !aie.objectfifosubview<memref<64x128xi8>> -> memref<64x128xi8>
          %34 = aie.objectfifo.acquire @A_L2L1_0(Consume, 1) : !aie.objectfifosubview<memref<32x64xi8>>
          %35 = aie.objectfifo.subview.access %34[0] : !aie.objectfifosubview<memref<32x64xi8>> -> memref<32x64xi8>
          func.call @matmul_i8_i16(%35, %33, %29) : (memref<32x64xi8>, memref<64x128xi8>, memref<32x128xi16>) -> ()
          aie.objectfifo.release @A_L2L1_0(Consume, 1)
          aie.objectfifo.release @B_L2L1_1(Consume, 1)
        }
        aie.objectfifo.release @C_L1L2_1_0(Produce, 1)
        %30 = aie.objectfifo.acquire @C_L1L2_1_0(Produce, 1) : !aie.objectfifosubview<memref<32x128xi16>>
        %31 = aie.objectfifo.subview.access %30[0] : !aie.objectfifosubview<memref<32x128xi16>> -> memref<32x128xi16>
        func.call @zero_i16(%31) : (memref<32x128xi16>) -> ()
        %c0_44 = arith.constant 0 : index
        %c16_45 = arith.constant 16 : index
        %c1_46 = arith.constant 1 : index
        scf.for %arg1 = %c0_44 to %c16_45 step %c1_46 {
          %32 = aie.objectfifo.acquire @B_L2L1_1(Consume, 1) : !aie.objectfifosubview<memref<64x128xi8>>
          %33 = aie.objectfifo.subview.access %32[0] : !aie.objectfifosubview<memref<64x128xi8>> -> memref<64x128xi8>
          %34 = aie.objectfifo.acquire @A_L2L1_0(Consume, 1) : !aie.objectfifosubview<memref<32x64xi8>>
          %35 = aie.objectfifo.subview.access %34[0] : !aie.objectfifosubview<memref<32x64xi8>> -> memref<32x64xi8>
          func.call @matmul_i8_i16(%35, %33, %31) : (memref<32x64xi8>, memref<64x128xi8>, memref<32x128xi16>) -> ()
          aie.objectfifo.release @A_L2L1_0(Consume, 1)
          aie.objectfifo.release @B_L2L1_1(Consume, 1)
        }
        aie.objectfifo.release @C_L1L2_1_0(Produce, 1)
      }
      aie.end
    } {stack_size = 3328 : i32}
    %core_2_2 = aie.core(%tile_2_2) {
      %c0 = arith.constant 0 : index
      %c4294967295 = arith.constant 4294967295 : index
      %c1 = arith.constant 1 : index
      scf.for %arg0 = %c0 to %c4294967295 step %c1 {
        %0 = aie.objectfifo.acquire @C_L1L2_2_0(Produce, 1) : !aie.objectfifosubview<memref<32x128xi16>>
        %1 = aie.objectfifo.subview.access %0[0] : !aie.objectfifosubview<memref<32x128xi16>> -> memref<32x128xi16>
        func.call @zero_i16(%1) : (memref<32x128xi16>) -> ()
        %c0_0 = arith.constant 0 : index
        %c16 = arith.constant 16 : index
        %c1_1 = arith.constant 1 : index
        scf.for %arg1 = %c0_0 to %c16 step %c1_1 {
          %32 = aie.objectfifo.acquire @B_L2L1_2(Consume, 1) : !aie.objectfifosubview<memref<64x128xi8>>
          %33 = aie.objectfifo.subview.access %32[0] : !aie.objectfifosubview<memref<64x128xi8>> -> memref<64x128xi8>
          %34 = aie.objectfifo.acquire @A_L2L1_0(Consume, 1) : !aie.objectfifosubview<memref<32x64xi8>>
          %35 = aie.objectfifo.subview.access %34[0] : !aie.objectfifosubview<memref<32x64xi8>> -> memref<32x64xi8>
          func.call @matmul_i8_i16(%35, %33, %1) : (memref<32x64xi8>, memref<64x128xi8>, memref<32x128xi16>) -> ()
          aie.objectfifo.release @A_L2L1_0(Consume, 1)
          aie.objectfifo.release @B_L2L1_2(Consume, 1)
        }
        aie.objectfifo.release @C_L1L2_2_0(Produce, 1)
        %2 = aie.objectfifo.acquire @C_L1L2_2_0(Produce, 1) : !aie.objectfifosubview<memref<32x128xi16>>
        %3 = aie.objectfifo.subview.access %2[0] : !aie.objectfifosubview<memref<32x128xi16>> -> memref<32x128xi16>
        func.call @zero_i16(%3) : (memref<32x128xi16>) -> ()
        %c0_2 = arith.constant 0 : index
        %c16_3 = arith.constant 16 : index
        %c1_4 = arith.constant 1 : index
        scf.for %arg1 = %c0_2 to %c16_3 step %c1_4 {
          %32 = aie.objectfifo.acquire @B_L2L1_2(Consume, 1) : !aie.objectfifosubview<memref<64x128xi8>>
          %33 = aie.objectfifo.subview.access %32[0] : !aie.objectfifosubview<memref<64x128xi8>> -> memref<64x128xi8>
          %34 = aie.objectfifo.acquire @A_L2L1_0(Consume, 1) : !aie.objectfifosubview<memref<32x64xi8>>
          %35 = aie.objectfifo.subview.access %34[0] : !aie.objectfifosubview<memref<32x64xi8>> -> memref<32x64xi8>
          func.call @matmul_i8_i16(%35, %33, %3) : (memref<32x64xi8>, memref<64x128xi8>, memref<32x128xi16>) -> ()
          aie.objectfifo.release @A_L2L1_0(Consume, 1)
          aie.objectfifo.release @B_L2L1_2(Consume, 1)
        }
        aie.objectfifo.release @C_L1L2_2_0(Produce, 1)
        %4 = aie.objectfifo.acquire @C_L1L2_2_0(Produce, 1) : !aie.objectfifosubview<memref<32x128xi16>>
        %5 = aie.objectfifo.subview.access %4[0] : !aie.objectfifosubview<memref<32x128xi16>> -> memref<32x128xi16>
        func.call @zero_i16(%5) : (memref<32x128xi16>) -> ()
        %c0_5 = arith.constant 0 : index
        %c16_6 = arith.constant 16 : index
        %c1_7 = arith.constant 1 : index
        scf.for %arg1 = %c0_5 to %c16_6 step %c1_7 {
          %32 = aie.objectfifo.acquire @B_L2L1_2(Consume, 1) : !aie.objectfifosubview<memref<64x128xi8>>
          %33 = aie.objectfifo.subview.access %32[0] : !aie.objectfifosubview<memref<64x128xi8>> -> memref<64x128xi8>
          %34 = aie.objectfifo.acquire @A_L2L1_0(Consume, 1) : !aie.objectfifosubview<memref<32x64xi8>>
          %35 = aie.objectfifo.subview.access %34[0] : !aie.objectfifosubview<memref<32x64xi8>> -> memref<32x64xi8>
          func.call @matmul_i8_i16(%35, %33, %5) : (memref<32x64xi8>, memref<64x128xi8>, memref<32x128xi16>) -> ()
          aie.objectfifo.release @A_L2L1_0(Consume, 1)
          aie.objectfifo.release @B_L2L1_2(Consume, 1)
        }
        aie.objectfifo.release @C_L1L2_2_0(Produce, 1)
        %6 = aie.objectfifo.acquire @C_L1L2_2_0(Produce, 1) : !aie.objectfifosubview<memref<32x128xi16>>
        %7 = aie.objectfifo.subview.access %6[0] : !aie.objectfifosubview<memref<32x128xi16>> -> memref<32x128xi16>
        func.call @zero_i16(%7) : (memref<32x128xi16>) -> ()
        %c0_8 = arith.constant 0 : index
        %c16_9 = arith.constant 16 : index
        %c1_10 = arith.constant 1 : index
        scf.for %arg1 = %c0_8 to %c16_9 step %c1_10 {
          %32 = aie.objectfifo.acquire @B_L2L1_2(Consume, 1) : !aie.objectfifosubview<memref<64x128xi8>>
          %33 = aie.objectfifo.subview.access %32[0] : !aie.objectfifosubview<memref<64x128xi8>> -> memref<64x128xi8>
          %34 = aie.objectfifo.acquire @A_L2L1_0(Consume, 1) : !aie.objectfifosubview<memref<32x64xi8>>
          %35 = aie.objectfifo.subview.access %34[0] : !aie.objectfifosubview<memref<32x64xi8>> -> memref<32x64xi8>
          func.call @matmul_i8_i16(%35, %33, %7) : (memref<32x64xi8>, memref<64x128xi8>, memref<32x128xi16>) -> ()
          aie.objectfifo.release @A_L2L1_0(Consume, 1)
          aie.objectfifo.release @B_L2L1_2(Consume, 1)
        }
        aie.objectfifo.release @C_L1L2_2_0(Produce, 1)
        %8 = aie.objectfifo.acquire @C_L1L2_2_0(Produce, 1) : !aie.objectfifosubview<memref<32x128xi16>>
        %9 = aie.objectfifo.subview.access %8[0] : !aie.objectfifosubview<memref<32x128xi16>> -> memref<32x128xi16>
        func.call @zero_i16(%9) : (memref<32x128xi16>) -> ()
        %c0_11 = arith.constant 0 : index
        %c16_12 = arith.constant 16 : index
        %c1_13 = arith.constant 1 : index
        scf.for %arg1 = %c0_11 to %c16_12 step %c1_13 {
          %32 = aie.objectfifo.acquire @B_L2L1_2(Consume, 1) : !aie.objectfifosubview<memref<64x128xi8>>
          %33 = aie.objectfifo.subview.access %32[0] : !aie.objectfifosubview<memref<64x128xi8>> -> memref<64x128xi8>
          %34 = aie.objectfifo.acquire @A_L2L1_0(Consume, 1) : !aie.objectfifosubview<memref<32x64xi8>>
          %35 = aie.objectfifo.subview.access %34[0] : !aie.objectfifosubview<memref<32x64xi8>> -> memref<32x64xi8>
          func.call @matmul_i8_i16(%35, %33, %9) : (memref<32x64xi8>, memref<64x128xi8>, memref<32x128xi16>) -> ()
          aie.objectfifo.release @A_L2L1_0(Consume, 1)
          aie.objectfifo.release @B_L2L1_2(Consume, 1)
        }
        aie.objectfifo.release @C_L1L2_2_0(Produce, 1)
        %10 = aie.objectfifo.acquire @C_L1L2_2_0(Produce, 1) : !aie.objectfifosubview<memref<32x128xi16>>
        %11 = aie.objectfifo.subview.access %10[0] : !aie.objectfifosubview<memref<32x128xi16>> -> memref<32x128xi16>
        func.call @zero_i16(%11) : (memref<32x128xi16>) -> ()
        %c0_14 = arith.constant 0 : index
        %c16_15 = arith.constant 16 : index
        %c1_16 = arith.constant 1 : index
        scf.for %arg1 = %c0_14 to %c16_15 step %c1_16 {
          %32 = aie.objectfifo.acquire @B_L2L1_2(Consume, 1) : !aie.objectfifosubview<memref<64x128xi8>>
          %33 = aie.objectfifo.subview.access %32[0] : !aie.objectfifosubview<memref<64x128xi8>> -> memref<64x128xi8>
          %34 = aie.objectfifo.acquire @A_L2L1_0(Consume, 1) : !aie.objectfifosubview<memref<32x64xi8>>
          %35 = aie.objectfifo.subview.access %34[0] : !aie.objectfifosubview<memref<32x64xi8>> -> memref<32x64xi8>
          func.call @matmul_i8_i16(%35, %33, %11) : (memref<32x64xi8>, memref<64x128xi8>, memref<32x128xi16>) -> ()
          aie.objectfifo.release @A_L2L1_0(Consume, 1)
          aie.objectfifo.release @B_L2L1_2(Consume, 1)
        }
        aie.objectfifo.release @C_L1L2_2_0(Produce, 1)
        %12 = aie.objectfifo.acquire @C_L1L2_2_0(Produce, 1) : !aie.objectfifosubview<memref<32x128xi16>>
        %13 = aie.objectfifo.subview.access %12[0] : !aie.objectfifosubview<memref<32x128xi16>> -> memref<32x128xi16>
        func.call @zero_i16(%13) : (memref<32x128xi16>) -> ()
        %c0_17 = arith.constant 0 : index
        %c16_18 = arith.constant 16 : index
        %c1_19 = arith.constant 1 : index
        scf.for %arg1 = %c0_17 to %c16_18 step %c1_19 {
          %32 = aie.objectfifo.acquire @B_L2L1_2(Consume, 1) : !aie.objectfifosubview<memref<64x128xi8>>
          %33 = aie.objectfifo.subview.access %32[0] : !aie.objectfifosubview<memref<64x128xi8>> -> memref<64x128xi8>
          %34 = aie.objectfifo.acquire @A_L2L1_0(Consume, 1) : !aie.objectfifosubview<memref<32x64xi8>>
          %35 = aie.objectfifo.subview.access %34[0] : !aie.objectfifosubview<memref<32x64xi8>> -> memref<32x64xi8>
          func.call @matmul_i8_i16(%35, %33, %13) : (memref<32x64xi8>, memref<64x128xi8>, memref<32x128xi16>) -> ()
          aie.objectfifo.release @A_L2L1_0(Consume, 1)
          aie.objectfifo.release @B_L2L1_2(Consume, 1)
        }
        aie.objectfifo.release @C_L1L2_2_0(Produce, 1)
        %14 = aie.objectfifo.acquire @C_L1L2_2_0(Produce, 1) : !aie.objectfifosubview<memref<32x128xi16>>
        %15 = aie.objectfifo.subview.access %14[0] : !aie.objectfifosubview<memref<32x128xi16>> -> memref<32x128xi16>
        func.call @zero_i16(%15) : (memref<32x128xi16>) -> ()
        %c0_20 = arith.constant 0 : index
        %c16_21 = arith.constant 16 : index
        %c1_22 = arith.constant 1 : index
        scf.for %arg1 = %c0_20 to %c16_21 step %c1_22 {
          %32 = aie.objectfifo.acquire @B_L2L1_2(Consume, 1) : !aie.objectfifosubview<memref<64x128xi8>>
          %33 = aie.objectfifo.subview.access %32[0] : !aie.objectfifosubview<memref<64x128xi8>> -> memref<64x128xi8>
          %34 = aie.objectfifo.acquire @A_L2L1_0(Consume, 1) : !aie.objectfifosubview<memref<32x64xi8>>
          %35 = aie.objectfifo.subview.access %34[0] : !aie.objectfifosubview<memref<32x64xi8>> -> memref<32x64xi8>
          func.call @matmul_i8_i16(%35, %33, %15) : (memref<32x64xi8>, memref<64x128xi8>, memref<32x128xi16>) -> ()
          aie.objectfifo.release @A_L2L1_0(Consume, 1)
          aie.objectfifo.release @B_L2L1_2(Consume, 1)
        }
        aie.objectfifo.release @C_L1L2_2_0(Produce, 1)
        %16 = aie.objectfifo.acquire @C_L1L2_2_0(Produce, 1) : !aie.objectfifosubview<memref<32x128xi16>>
        %17 = aie.objectfifo.subview.access %16[0] : !aie.objectfifosubview<memref<32x128xi16>> -> memref<32x128xi16>
        func.call @zero_i16(%17) : (memref<32x128xi16>) -> ()
        %c0_23 = arith.constant 0 : index
        %c16_24 = arith.constant 16 : index
        %c1_25 = arith.constant 1 : index
        scf.for %arg1 = %c0_23 to %c16_24 step %c1_25 {
          %32 = aie.objectfifo.acquire @B_L2L1_2(Consume, 1) : !aie.objectfifosubview<memref<64x128xi8>>
          %33 = aie.objectfifo.subview.access %32[0] : !aie.objectfifosubview<memref<64x128xi8>> -> memref<64x128xi8>
          %34 = aie.objectfifo.acquire @A_L2L1_0(Consume, 1) : !aie.objectfifosubview<memref<32x64xi8>>
          %35 = aie.objectfifo.subview.access %34[0] : !aie.objectfifosubview<memref<32x64xi8>> -> memref<32x64xi8>
          func.call @matmul_i8_i16(%35, %33, %17) : (memref<32x64xi8>, memref<64x128xi8>, memref<32x128xi16>) -> ()
          aie.objectfifo.release @A_L2L1_0(Consume, 1)
          aie.objectfifo.release @B_L2L1_2(Consume, 1)
        }
        aie.objectfifo.release @C_L1L2_2_0(Produce, 1)
        %18 = aie.objectfifo.acquire @C_L1L2_2_0(Produce, 1) : !aie.objectfifosubview<memref<32x128xi16>>
        %19 = aie.objectfifo.subview.access %18[0] : !aie.objectfifosubview<memref<32x128xi16>> -> memref<32x128xi16>
        func.call @zero_i16(%19) : (memref<32x128xi16>) -> ()
        %c0_26 = arith.constant 0 : index
        %c16_27 = arith.constant 16 : index
        %c1_28 = arith.constant 1 : index
        scf.for %arg1 = %c0_26 to %c16_27 step %c1_28 {
          %32 = aie.objectfifo.acquire @B_L2L1_2(Consume, 1) : !aie.objectfifosubview<memref<64x128xi8>>
          %33 = aie.objectfifo.subview.access %32[0] : !aie.objectfifosubview<memref<64x128xi8>> -> memref<64x128xi8>
          %34 = aie.objectfifo.acquire @A_L2L1_0(Consume, 1) : !aie.objectfifosubview<memref<32x64xi8>>
          %35 = aie.objectfifo.subview.access %34[0] : !aie.objectfifosubview<memref<32x64xi8>> -> memref<32x64xi8>
          func.call @matmul_i8_i16(%35, %33, %19) : (memref<32x64xi8>, memref<64x128xi8>, memref<32x128xi16>) -> ()
          aie.objectfifo.release @A_L2L1_0(Consume, 1)
          aie.objectfifo.release @B_L2L1_2(Consume, 1)
        }
        aie.objectfifo.release @C_L1L2_2_0(Produce, 1)
        %20 = aie.objectfifo.acquire @C_L1L2_2_0(Produce, 1) : !aie.objectfifosubview<memref<32x128xi16>>
        %21 = aie.objectfifo.subview.access %20[0] : !aie.objectfifosubview<memref<32x128xi16>> -> memref<32x128xi16>
        func.call @zero_i16(%21) : (memref<32x128xi16>) -> ()
        %c0_29 = arith.constant 0 : index
        %c16_30 = arith.constant 16 : index
        %c1_31 = arith.constant 1 : index
        scf.for %arg1 = %c0_29 to %c16_30 step %c1_31 {
          %32 = aie.objectfifo.acquire @B_L2L1_2(Consume, 1) : !aie.objectfifosubview<memref<64x128xi8>>
          %33 = aie.objectfifo.subview.access %32[0] : !aie.objectfifosubview<memref<64x128xi8>> -> memref<64x128xi8>
          %34 = aie.objectfifo.acquire @A_L2L1_0(Consume, 1) : !aie.objectfifosubview<memref<32x64xi8>>
          %35 = aie.objectfifo.subview.access %34[0] : !aie.objectfifosubview<memref<32x64xi8>> -> memref<32x64xi8>
          func.call @matmul_i8_i16(%35, %33, %21) : (memref<32x64xi8>, memref<64x128xi8>, memref<32x128xi16>) -> ()
          aie.objectfifo.release @A_L2L1_0(Consume, 1)
          aie.objectfifo.release @B_L2L1_2(Consume, 1)
        }
        aie.objectfifo.release @C_L1L2_2_0(Produce, 1)
        %22 = aie.objectfifo.acquire @C_L1L2_2_0(Produce, 1) : !aie.objectfifosubview<memref<32x128xi16>>
        %23 = aie.objectfifo.subview.access %22[0] : !aie.objectfifosubview<memref<32x128xi16>> -> memref<32x128xi16>
        func.call @zero_i16(%23) : (memref<32x128xi16>) -> ()
        %c0_32 = arith.constant 0 : index
        %c16_33 = arith.constant 16 : index
        %c1_34 = arith.constant 1 : index
        scf.for %arg1 = %c0_32 to %c16_33 step %c1_34 {
          %32 = aie.objectfifo.acquire @B_L2L1_2(Consume, 1) : !aie.objectfifosubview<memref<64x128xi8>>
          %33 = aie.objectfifo.subview.access %32[0] : !aie.objectfifosubview<memref<64x128xi8>> -> memref<64x128xi8>
          %34 = aie.objectfifo.acquire @A_L2L1_0(Consume, 1) : !aie.objectfifosubview<memref<32x64xi8>>
          %35 = aie.objectfifo.subview.access %34[0] : !aie.objectfifosubview<memref<32x64xi8>> -> memref<32x64xi8>
          func.call @matmul_i8_i16(%35, %33, %23) : (memref<32x64xi8>, memref<64x128xi8>, memref<32x128xi16>) -> ()
          aie.objectfifo.release @A_L2L1_0(Consume, 1)
          aie.objectfifo.release @B_L2L1_2(Consume, 1)
        }
        aie.objectfifo.release @C_L1L2_2_0(Produce, 1)
        %24 = aie.objectfifo.acquire @C_L1L2_2_0(Produce, 1) : !aie.objectfifosubview<memref<32x128xi16>>
        %25 = aie.objectfifo.subview.access %24[0] : !aie.objectfifosubview<memref<32x128xi16>> -> memref<32x128xi16>
        func.call @zero_i16(%25) : (memref<32x128xi16>) -> ()
        %c0_35 = arith.constant 0 : index
        %c16_36 = arith.constant 16 : index
        %c1_37 = arith.constant 1 : index
        scf.for %arg1 = %c0_35 to %c16_36 step %c1_37 {
          %32 = aie.objectfifo.acquire @B_L2L1_2(Consume, 1) : !aie.objectfifosubview<memref<64x128xi8>>
          %33 = aie.objectfifo.subview.access %32[0] : !aie.objectfifosubview<memref<64x128xi8>> -> memref<64x128xi8>
          %34 = aie.objectfifo.acquire @A_L2L1_0(Consume, 1) : !aie.objectfifosubview<memref<32x64xi8>>
          %35 = aie.objectfifo.subview.access %34[0] : !aie.objectfifosubview<memref<32x64xi8>> -> memref<32x64xi8>
          func.call @matmul_i8_i16(%35, %33, %25) : (memref<32x64xi8>, memref<64x128xi8>, memref<32x128xi16>) -> ()
          aie.objectfifo.release @A_L2L1_0(Consume, 1)
          aie.objectfifo.release @B_L2L1_2(Consume, 1)
        }
        aie.objectfifo.release @C_L1L2_2_0(Produce, 1)
        %26 = aie.objectfifo.acquire @C_L1L2_2_0(Produce, 1) : !aie.objectfifosubview<memref<32x128xi16>>
        %27 = aie.objectfifo.subview.access %26[0] : !aie.objectfifosubview<memref<32x128xi16>> -> memref<32x128xi16>
        func.call @zero_i16(%27) : (memref<32x128xi16>) -> ()
        %c0_38 = arith.constant 0 : index
        %c16_39 = arith.constant 16 : index
        %c1_40 = arith.constant 1 : index
        scf.for %arg1 = %c0_38 to %c16_39 step %c1_40 {
          %32 = aie.objectfifo.acquire @B_L2L1_2(Consume, 1) : !aie.objectfifosubview<memref<64x128xi8>>
          %33 = aie.objectfifo.subview.access %32[0] : !aie.objectfifosubview<memref<64x128xi8>> -> memref<64x128xi8>
          %34 = aie.objectfifo.acquire @A_L2L1_0(Consume, 1) : !aie.objectfifosubview<memref<32x64xi8>>
          %35 = aie.objectfifo.subview.access %34[0] : !aie.objectfifosubview<memref<32x64xi8>> -> memref<32x64xi8>
          func.call @matmul_i8_i16(%35, %33, %27) : (memref<32x64xi8>, memref<64x128xi8>, memref<32x128xi16>) -> ()
          aie.objectfifo.release @A_L2L1_0(Consume, 1)
          aie.objectfifo.release @B_L2L1_2(Consume, 1)
        }
        aie.objectfifo.release @C_L1L2_2_0(Produce, 1)
        %28 = aie.objectfifo.acquire @C_L1L2_2_0(Produce, 1) : !aie.objectfifosubview<memref<32x128xi16>>
        %29 = aie.objectfifo.subview.access %28[0] : !aie.objectfifosubview<memref<32x128xi16>> -> memref<32x128xi16>
        func.call @zero_i16(%29) : (memref<32x128xi16>) -> ()
        %c0_41 = arith.constant 0 : index
        %c16_42 = arith.constant 16 : index
        %c1_43 = arith.constant 1 : index
        scf.for %arg1 = %c0_41 to %c16_42 step %c1_43 {
          %32 = aie.objectfifo.acquire @B_L2L1_2(Consume, 1) : !aie.objectfifosubview<memref<64x128xi8>>
          %33 = aie.objectfifo.subview.access %32[0] : !aie.objectfifosubview<memref<64x128xi8>> -> memref<64x128xi8>
          %34 = aie.objectfifo.acquire @A_L2L1_0(Consume, 1) : !aie.objectfifosubview<memref<32x64xi8>>
          %35 = aie.objectfifo.subview.access %34[0] : !aie.objectfifosubview<memref<32x64xi8>> -> memref<32x64xi8>
          func.call @matmul_i8_i16(%35, %33, %29) : (memref<32x64xi8>, memref<64x128xi8>, memref<32x128xi16>) -> ()
          aie.objectfifo.release @A_L2L1_0(Consume, 1)
          aie.objectfifo.release @B_L2L1_2(Consume, 1)
        }
        aie.objectfifo.release @C_L1L2_2_0(Produce, 1)
        %30 = aie.objectfifo.acquire @C_L1L2_2_0(Produce, 1) : !aie.objectfifosubview<memref<32x128xi16>>
        %31 = aie.objectfifo.subview.access %30[0] : !aie.objectfifosubview<memref<32x128xi16>> -> memref<32x128xi16>
        func.call @zero_i16(%31) : (memref<32x128xi16>) -> ()
        %c0_44 = arith.constant 0 : index
        %c16_45 = arith.constant 16 : index
        %c1_46 = arith.constant 1 : index
        scf.for %arg1 = %c0_44 to %c16_45 step %c1_46 {
          %32 = aie.objectfifo.acquire @B_L2L1_2(Consume, 1) : !aie.objectfifosubview<memref<64x128xi8>>
          %33 = aie.objectfifo.subview.access %32[0] : !aie.objectfifosubview<memref<64x128xi8>> -> memref<64x128xi8>
          %34 = aie.objectfifo.acquire @A_L2L1_0(Consume, 1) : !aie.objectfifosubview<memref<32x64xi8>>
          %35 = aie.objectfifo.subview.access %34[0] : !aie.objectfifosubview<memref<32x64xi8>> -> memref<32x64xi8>
          func.call @matmul_i8_i16(%35, %33, %31) : (memref<32x64xi8>, memref<64x128xi8>, memref<32x128xi16>) -> ()
          aie.objectfifo.release @A_L2L1_0(Consume, 1)
          aie.objectfifo.release @B_L2L1_2(Consume, 1)
        }
        aie.objectfifo.release @C_L1L2_2_0(Produce, 1)
      }
      aie.end
    } {stack_size = 3328 : i32}
    %core_3_2 = aie.core(%tile_3_2) {
      %c0 = arith.constant 0 : index
      %c4294967295 = arith.constant 4294967295 : index
      %c1 = arith.constant 1 : index
      scf.for %arg0 = %c0 to %c4294967295 step %c1 {
        %0 = aie.objectfifo.acquire @C_L1L2_3_0(Produce, 1) : !aie.objectfifosubview<memref<32x128xi16>>
        %1 = aie.objectfifo.subview.access %0[0] : !aie.objectfifosubview<memref<32x128xi16>> -> memref<32x128xi16>
        func.call @zero_i16(%1) : (memref<32x128xi16>) -> ()
        %c0_0 = arith.constant 0 : index
        %c16 = arith.constant 16 : index
        %c1_1 = arith.constant 1 : index
        scf.for %arg1 = %c0_0 to %c16 step %c1_1 {
          %32 = aie.objectfifo.acquire @B_L2L1_3(Consume, 1) : !aie.objectfifosubview<memref<64x128xi8>>
          %33 = aie.objectfifo.subview.access %32[0] : !aie.objectfifosubview<memref<64x128xi8>> -> memref<64x128xi8>
          %34 = aie.objectfifo.acquire @A_L2L1_0(Consume, 1) : !aie.objectfifosubview<memref<32x64xi8>>
          %35 = aie.objectfifo.subview.access %34[0] : !aie.objectfifosubview<memref<32x64xi8>> -> memref<32x64xi8>
          func.call @matmul_i8_i16(%35, %33, %1) : (memref<32x64xi8>, memref<64x128xi8>, memref<32x128xi16>) -> ()
          aie.objectfifo.release @A_L2L1_0(Consume, 1)
          aie.objectfifo.release @B_L2L1_3(Consume, 1)
        }
        aie.objectfifo.release @C_L1L2_3_0(Produce, 1)
        %2 = aie.objectfifo.acquire @C_L1L2_3_0(Produce, 1) : !aie.objectfifosubview<memref<32x128xi16>>
        %3 = aie.objectfifo.subview.access %2[0] : !aie.objectfifosubview<memref<32x128xi16>> -> memref<32x128xi16>
        func.call @zero_i16(%3) : (memref<32x128xi16>) -> ()
        %c0_2 = arith.constant 0 : index
        %c16_3 = arith.constant 16 : index
        %c1_4 = arith.constant 1 : index
        scf.for %arg1 = %c0_2 to %c16_3 step %c1_4 {
          %32 = aie.objectfifo.acquire @B_L2L1_3(Consume, 1) : !aie.objectfifosubview<memref<64x128xi8>>
          %33 = aie.objectfifo.subview.access %32[0] : !aie.objectfifosubview<memref<64x128xi8>> -> memref<64x128xi8>
          %34 = aie.objectfifo.acquire @A_L2L1_0(Consume, 1) : !aie.objectfifosubview<memref<32x64xi8>>
          %35 = aie.objectfifo.subview.access %34[0] : !aie.objectfifosubview<memref<32x64xi8>> -> memref<32x64xi8>
          func.call @matmul_i8_i16(%35, %33, %3) : (memref<32x64xi8>, memref<64x128xi8>, memref<32x128xi16>) -> ()
          aie.objectfifo.release @A_L2L1_0(Consume, 1)
          aie.objectfifo.release @B_L2L1_3(Consume, 1)
        }
        aie.objectfifo.release @C_L1L2_3_0(Produce, 1)
        %4 = aie.objectfifo.acquire @C_L1L2_3_0(Produce, 1) : !aie.objectfifosubview<memref<32x128xi16>>
        %5 = aie.objectfifo.subview.access %4[0] : !aie.objectfifosubview<memref<32x128xi16>> -> memref<32x128xi16>
        func.call @zero_i16(%5) : (memref<32x128xi16>) -> ()
        %c0_5 = arith.constant 0 : index
        %c16_6 = arith.constant 16 : index
        %c1_7 = arith.constant 1 : index
        scf.for %arg1 = %c0_5 to %c16_6 step %c1_7 {
          %32 = aie.objectfifo.acquire @B_L2L1_3(Consume, 1) : !aie.objectfifosubview<memref<64x128xi8>>
          %33 = aie.objectfifo.subview.access %32[0] : !aie.objectfifosubview<memref<64x128xi8>> -> memref<64x128xi8>
          %34 = aie.objectfifo.acquire @A_L2L1_0(Consume, 1) : !aie.objectfifosubview<memref<32x64xi8>>
          %35 = aie.objectfifo.subview.access %34[0] : !aie.objectfifosubview<memref<32x64xi8>> -> memref<32x64xi8>
          func.call @matmul_i8_i16(%35, %33, %5) : (memref<32x64xi8>, memref<64x128xi8>, memref<32x128xi16>) -> ()
          aie.objectfifo.release @A_L2L1_0(Consume, 1)
          aie.objectfifo.release @B_L2L1_3(Consume, 1)
        }
        aie.objectfifo.release @C_L1L2_3_0(Produce, 1)
        %6 = aie.objectfifo.acquire @C_L1L2_3_0(Produce, 1) : !aie.objectfifosubview<memref<32x128xi16>>
        %7 = aie.objectfifo.subview.access %6[0] : !aie.objectfifosubview<memref<32x128xi16>> -> memref<32x128xi16>
        func.call @zero_i16(%7) : (memref<32x128xi16>) -> ()
        %c0_8 = arith.constant 0 : index
        %c16_9 = arith.constant 16 : index
        %c1_10 = arith.constant 1 : index
        scf.for %arg1 = %c0_8 to %c16_9 step %c1_10 {
          %32 = aie.objectfifo.acquire @B_L2L1_3(Consume, 1) : !aie.objectfifosubview<memref<64x128xi8>>
          %33 = aie.objectfifo.subview.access %32[0] : !aie.objectfifosubview<memref<64x128xi8>> -> memref<64x128xi8>
          %34 = aie.objectfifo.acquire @A_L2L1_0(Consume, 1) : !aie.objectfifosubview<memref<32x64xi8>>
          %35 = aie.objectfifo.subview.access %34[0] : !aie.objectfifosubview<memref<32x64xi8>> -> memref<32x64xi8>
          func.call @matmul_i8_i16(%35, %33, %7) : (memref<32x64xi8>, memref<64x128xi8>, memref<32x128xi16>) -> ()
          aie.objectfifo.release @A_L2L1_0(Consume, 1)
          aie.objectfifo.release @B_L2L1_3(Consume, 1)
        }
        aie.objectfifo.release @C_L1L2_3_0(Produce, 1)
        %8 = aie.objectfifo.acquire @C_L1L2_3_0(Produce, 1) : !aie.objectfifosubview<memref<32x128xi16>>
        %9 = aie.objectfifo.subview.access %8[0] : !aie.objectfifosubview<memref<32x128xi16>> -> memref<32x128xi16>
        func.call @zero_i16(%9) : (memref<32x128xi16>) -> ()
        %c0_11 = arith.constant 0 : index
        %c16_12 = arith.constant 16 : index
        %c1_13 = arith.constant 1 : index
        scf.for %arg1 = %c0_11 to %c16_12 step %c1_13 {
          %32 = aie.objectfifo.acquire @B_L2L1_3(Consume, 1) : !aie.objectfifosubview<memref<64x128xi8>>
          %33 = aie.objectfifo.subview.access %32[0] : !aie.objectfifosubview<memref<64x128xi8>> -> memref<64x128xi8>
          %34 = aie.objectfifo.acquire @A_L2L1_0(Consume, 1) : !aie.objectfifosubview<memref<32x64xi8>>
          %35 = aie.objectfifo.subview.access %34[0] : !aie.objectfifosubview<memref<32x64xi8>> -> memref<32x64xi8>
          func.call @matmul_i8_i16(%35, %33, %9) : (memref<32x64xi8>, memref<64x128xi8>, memref<32x128xi16>) -> ()
          aie.objectfifo.release @A_L2L1_0(Consume, 1)
          aie.objectfifo.release @B_L2L1_3(Consume, 1)
        }
        aie.objectfifo.release @C_L1L2_3_0(Produce, 1)
        %10 = aie.objectfifo.acquire @C_L1L2_3_0(Produce, 1) : !aie.objectfifosubview<memref<32x128xi16>>
        %11 = aie.objectfifo.subview.access %10[0] : !aie.objectfifosubview<memref<32x128xi16>> -> memref<32x128xi16>
        func.call @zero_i16(%11) : (memref<32x128xi16>) -> ()
        %c0_14 = arith.constant 0 : index
        %c16_15 = arith.constant 16 : index
        %c1_16 = arith.constant 1 : index
        scf.for %arg1 = %c0_14 to %c16_15 step %c1_16 {
          %32 = aie.objectfifo.acquire @B_L2L1_3(Consume, 1) : !aie.objectfifosubview<memref<64x128xi8>>
          %33 = aie.objectfifo.subview.access %32[0] : !aie.objectfifosubview<memref<64x128xi8>> -> memref<64x128xi8>
          %34 = aie.objectfifo.acquire @A_L2L1_0(Consume, 1) : !aie.objectfifosubview<memref<32x64xi8>>
          %35 = aie.objectfifo.subview.access %34[0] : !aie.objectfifosubview<memref<32x64xi8>> -> memref<32x64xi8>
          func.call @matmul_i8_i16(%35, %33, %11) : (memref<32x64xi8>, memref<64x128xi8>, memref<32x128xi16>) -> ()
          aie.objectfifo.release @A_L2L1_0(Consume, 1)
          aie.objectfifo.release @B_L2L1_3(Consume, 1)
        }
        aie.objectfifo.release @C_L1L2_3_0(Produce, 1)
        %12 = aie.objectfifo.acquire @C_L1L2_3_0(Produce, 1) : !aie.objectfifosubview<memref<32x128xi16>>
        %13 = aie.objectfifo.subview.access %12[0] : !aie.objectfifosubview<memref<32x128xi16>> -> memref<32x128xi16>
        func.call @zero_i16(%13) : (memref<32x128xi16>) -> ()
        %c0_17 = arith.constant 0 : index
        %c16_18 = arith.constant 16 : index
        %c1_19 = arith.constant 1 : index
        scf.for %arg1 = %c0_17 to %c16_18 step %c1_19 {
          %32 = aie.objectfifo.acquire @B_L2L1_3(Consume, 1) : !aie.objectfifosubview<memref<64x128xi8>>
          %33 = aie.objectfifo.subview.access %32[0] : !aie.objectfifosubview<memref<64x128xi8>> -> memref<64x128xi8>
          %34 = aie.objectfifo.acquire @A_L2L1_0(Consume, 1) : !aie.objectfifosubview<memref<32x64xi8>>
          %35 = aie.objectfifo.subview.access %34[0] : !aie.objectfifosubview<memref<32x64xi8>> -> memref<32x64xi8>
          func.call @matmul_i8_i16(%35, %33, %13) : (memref<32x64xi8>, memref<64x128xi8>, memref<32x128xi16>) -> ()
          aie.objectfifo.release @A_L2L1_0(Consume, 1)
          aie.objectfifo.release @B_L2L1_3(Consume, 1)
        }
        aie.objectfifo.release @C_L1L2_3_0(Produce, 1)
        %14 = aie.objectfifo.acquire @C_L1L2_3_0(Produce, 1) : !aie.objectfifosubview<memref<32x128xi16>>
        %15 = aie.objectfifo.subview.access %14[0] : !aie.objectfifosubview<memref<32x128xi16>> -> memref<32x128xi16>
        func.call @zero_i16(%15) : (memref<32x128xi16>) -> ()
        %c0_20 = arith.constant 0 : index
        %c16_21 = arith.constant 16 : index
        %c1_22 = arith.constant 1 : index
        scf.for %arg1 = %c0_20 to %c16_21 step %c1_22 {
          %32 = aie.objectfifo.acquire @B_L2L1_3(Consume, 1) : !aie.objectfifosubview<memref<64x128xi8>>
          %33 = aie.objectfifo.subview.access %32[0] : !aie.objectfifosubview<memref<64x128xi8>> -> memref<64x128xi8>
          %34 = aie.objectfifo.acquire @A_L2L1_0(Consume, 1) : !aie.objectfifosubview<memref<32x64xi8>>
          %35 = aie.objectfifo.subview.access %34[0] : !aie.objectfifosubview<memref<32x64xi8>> -> memref<32x64xi8>
          func.call @matmul_i8_i16(%35, %33, %15) : (memref<32x64xi8>, memref<64x128xi8>, memref<32x128xi16>) -> ()
          aie.objectfifo.release @A_L2L1_0(Consume, 1)
          aie.objectfifo.release @B_L2L1_3(Consume, 1)
        }
        aie.objectfifo.release @C_L1L2_3_0(Produce, 1)
        %16 = aie.objectfifo.acquire @C_L1L2_3_0(Produce, 1) : !aie.objectfifosubview<memref<32x128xi16>>
        %17 = aie.objectfifo.subview.access %16[0] : !aie.objectfifosubview<memref<32x128xi16>> -> memref<32x128xi16>
        func.call @zero_i16(%17) : (memref<32x128xi16>) -> ()
        %c0_23 = arith.constant 0 : index
        %c16_24 = arith.constant 16 : index
        %c1_25 = arith.constant 1 : index
        scf.for %arg1 = %c0_23 to %c16_24 step %c1_25 {
          %32 = aie.objectfifo.acquire @B_L2L1_3(Consume, 1) : !aie.objectfifosubview<memref<64x128xi8>>
          %33 = aie.objectfifo.subview.access %32[0] : !aie.objectfifosubview<memref<64x128xi8>> -> memref<64x128xi8>
          %34 = aie.objectfifo.acquire @A_L2L1_0(Consume, 1) : !aie.objectfifosubview<memref<32x64xi8>>
          %35 = aie.objectfifo.subview.access %34[0] : !aie.objectfifosubview<memref<32x64xi8>> -> memref<32x64xi8>
          func.call @matmul_i8_i16(%35, %33, %17) : (memref<32x64xi8>, memref<64x128xi8>, memref<32x128xi16>) -> ()
          aie.objectfifo.release @A_L2L1_0(Consume, 1)
          aie.objectfifo.release @B_L2L1_3(Consume, 1)
        }
        aie.objectfifo.release @C_L1L2_3_0(Produce, 1)
        %18 = aie.objectfifo.acquire @C_L1L2_3_0(Produce, 1) : !aie.objectfifosubview<memref<32x128xi16>>
        %19 = aie.objectfifo.subview.access %18[0] : !aie.objectfifosubview<memref<32x128xi16>> -> memref<32x128xi16>
        func.call @zero_i16(%19) : (memref<32x128xi16>) -> ()
        %c0_26 = arith.constant 0 : index
        %c16_27 = arith.constant 16 : index
        %c1_28 = arith.constant 1 : index
        scf.for %arg1 = %c0_26 to %c16_27 step %c1_28 {
          %32 = aie.objectfifo.acquire @B_L2L1_3(Consume, 1) : !aie.objectfifosubview<memref<64x128xi8>>
          %33 = aie.objectfifo.subview.access %32[0] : !aie.objectfifosubview<memref<64x128xi8>> -> memref<64x128xi8>
          %34 = aie.objectfifo.acquire @A_L2L1_0(Consume, 1) : !aie.objectfifosubview<memref<32x64xi8>>
          %35 = aie.objectfifo.subview.access %34[0] : !aie.objectfifosubview<memref<32x64xi8>> -> memref<32x64xi8>
          func.call @matmul_i8_i16(%35, %33, %19) : (memref<32x64xi8>, memref<64x128xi8>, memref<32x128xi16>) -> ()
          aie.objectfifo.release @A_L2L1_0(Consume, 1)
          aie.objectfifo.release @B_L2L1_3(Consume, 1)
        }
        aie.objectfifo.release @C_L1L2_3_0(Produce, 1)
        %20 = aie.objectfifo.acquire @C_L1L2_3_0(Produce, 1) : !aie.objectfifosubview<memref<32x128xi16>>
        %21 = aie.objectfifo.subview.access %20[0] : !aie.objectfifosubview<memref<32x128xi16>> -> memref<32x128xi16>
        func.call @zero_i16(%21) : (memref<32x128xi16>) -> ()
        %c0_29 = arith.constant 0 : index
        %c16_30 = arith.constant 16 : index
        %c1_31 = arith.constant 1 : index
        scf.for %arg1 = %c0_29 to %c16_30 step %c1_31 {
          %32 = aie.objectfifo.acquire @B_L2L1_3(Consume, 1) : !aie.objectfifosubview<memref<64x128xi8>>
          %33 = aie.objectfifo.subview.access %32[0] : !aie.objectfifosubview<memref<64x128xi8>> -> memref<64x128xi8>
          %34 = aie.objectfifo.acquire @A_L2L1_0(Consume, 1) : !aie.objectfifosubview<memref<32x64xi8>>
          %35 = aie.objectfifo.subview.access %34[0] : !aie.objectfifosubview<memref<32x64xi8>> -> memref<32x64xi8>
          func.call @matmul_i8_i16(%35, %33, %21) : (memref<32x64xi8>, memref<64x128xi8>, memref<32x128xi16>) -> ()
          aie.objectfifo.release @A_L2L1_0(Consume, 1)
          aie.objectfifo.release @B_L2L1_3(Consume, 1)
        }
        aie.objectfifo.release @C_L1L2_3_0(Produce, 1)
        %22 = aie.objectfifo.acquire @C_L1L2_3_0(Produce, 1) : !aie.objectfifosubview<memref<32x128xi16>>
        %23 = aie.objectfifo.subview.access %22[0] : !aie.objectfifosubview<memref<32x128xi16>> -> memref<32x128xi16>
        func.call @zero_i16(%23) : (memref<32x128xi16>) -> ()
        %c0_32 = arith.constant 0 : index
        %c16_33 = arith.constant 16 : index
        %c1_34 = arith.constant 1 : index
        scf.for %arg1 = %c0_32 to %c16_33 step %c1_34 {
          %32 = aie.objectfifo.acquire @B_L2L1_3(Consume, 1) : !aie.objectfifosubview<memref<64x128xi8>>
          %33 = aie.objectfifo.subview.access %32[0] : !aie.objectfifosubview<memref<64x128xi8>> -> memref<64x128xi8>
          %34 = aie.objectfifo.acquire @A_L2L1_0(Consume, 1) : !aie.objectfifosubview<memref<32x64xi8>>
          %35 = aie.objectfifo.subview.access %34[0] : !aie.objectfifosubview<memref<32x64xi8>> -> memref<32x64xi8>
          func.call @matmul_i8_i16(%35, %33, %23) : (memref<32x64xi8>, memref<64x128xi8>, memref<32x128xi16>) -> ()
          aie.objectfifo.release @A_L2L1_0(Consume, 1)
          aie.objectfifo.release @B_L2L1_3(Consume, 1)
        }
        aie.objectfifo.release @C_L1L2_3_0(Produce, 1)
        %24 = aie.objectfifo.acquire @C_L1L2_3_0(Produce, 1) : !aie.objectfifosubview<memref<32x128xi16>>
        %25 = aie.objectfifo.subview.access %24[0] : !aie.objectfifosubview<memref<32x128xi16>> -> memref<32x128xi16>
        func.call @zero_i16(%25) : (memref<32x128xi16>) -> ()
        %c0_35 = arith.constant 0 : index
        %c16_36 = arith.constant 16 : index
        %c1_37 = arith.constant 1 : index
        scf.for %arg1 = %c0_35 to %c16_36 step %c1_37 {
          %32 = aie.objectfifo.acquire @B_L2L1_3(Consume, 1) : !aie.objectfifosubview<memref<64x128xi8>>
          %33 = aie.objectfifo.subview.access %32[0] : !aie.objectfifosubview<memref<64x128xi8>> -> memref<64x128xi8>
          %34 = aie.objectfifo.acquire @A_L2L1_0(Consume, 1) : !aie.objectfifosubview<memref<32x64xi8>>
          %35 = aie.objectfifo.subview.access %34[0] : !aie.objectfifosubview<memref<32x64xi8>> -> memref<32x64xi8>
          func.call @matmul_i8_i16(%35, %33, %25) : (memref<32x64xi8>, memref<64x128xi8>, memref<32x128xi16>) -> ()
          aie.objectfifo.release @A_L2L1_0(Consume, 1)
          aie.objectfifo.release @B_L2L1_3(Consume, 1)
        }
        aie.objectfifo.release @C_L1L2_3_0(Produce, 1)
        %26 = aie.objectfifo.acquire @C_L1L2_3_0(Produce, 1) : !aie.objectfifosubview<memref<32x128xi16>>
        %27 = aie.objectfifo.subview.access %26[0] : !aie.objectfifosubview<memref<32x128xi16>> -> memref<32x128xi16>
        func.call @zero_i16(%27) : (memref<32x128xi16>) -> ()
        %c0_38 = arith.constant 0 : index
        %c16_39 = arith.constant 16 : index
        %c1_40 = arith.constant 1 : index
        scf.for %arg1 = %c0_38 to %c16_39 step %c1_40 {
          %32 = aie.objectfifo.acquire @B_L2L1_3(Consume, 1) : !aie.objectfifosubview<memref<64x128xi8>>
          %33 = aie.objectfifo.subview.access %32[0] : !aie.objectfifosubview<memref<64x128xi8>> -> memref<64x128xi8>
          %34 = aie.objectfifo.acquire @A_L2L1_0(Consume, 1) : !aie.objectfifosubview<memref<32x64xi8>>
          %35 = aie.objectfifo.subview.access %34[0] : !aie.objectfifosubview<memref<32x64xi8>> -> memref<32x64xi8>
          func.call @matmul_i8_i16(%35, %33, %27) : (memref<32x64xi8>, memref<64x128xi8>, memref<32x128xi16>) -> ()
          aie.objectfifo.release @A_L2L1_0(Consume, 1)
          aie.objectfifo.release @B_L2L1_3(Consume, 1)
        }
        aie.objectfifo.release @C_L1L2_3_0(Produce, 1)
        %28 = aie.objectfifo.acquire @C_L1L2_3_0(Produce, 1) : !aie.objectfifosubview<memref<32x128xi16>>
        %29 = aie.objectfifo.subview.access %28[0] : !aie.objectfifosubview<memref<32x128xi16>> -> memref<32x128xi16>
        func.call @zero_i16(%29) : (memref<32x128xi16>) -> ()
        %c0_41 = arith.constant 0 : index
        %c16_42 = arith.constant 16 : index
        %c1_43 = arith.constant 1 : index
        scf.for %arg1 = %c0_41 to %c16_42 step %c1_43 {
          %32 = aie.objectfifo.acquire @B_L2L1_3(Consume, 1) : !aie.objectfifosubview<memref<64x128xi8>>
          %33 = aie.objectfifo.subview.access %32[0] : !aie.objectfifosubview<memref<64x128xi8>> -> memref<64x128xi8>
          %34 = aie.objectfifo.acquire @A_L2L1_0(Consume, 1) : !aie.objectfifosubview<memref<32x64xi8>>
          %35 = aie.objectfifo.subview.access %34[0] : !aie.objectfifosubview<memref<32x64xi8>> -> memref<32x64xi8>
          func.call @matmul_i8_i16(%35, %33, %29) : (memref<32x64xi8>, memref<64x128xi8>, memref<32x128xi16>) -> ()
          aie.objectfifo.release @A_L2L1_0(Consume, 1)
          aie.objectfifo.release @B_L2L1_3(Consume, 1)
        }
        aie.objectfifo.release @C_L1L2_3_0(Produce, 1)
        %30 = aie.objectfifo.acquire @C_L1L2_3_0(Produce, 1) : !aie.objectfifosubview<memref<32x128xi16>>
        %31 = aie.objectfifo.subview.access %30[0] : !aie.objectfifosubview<memref<32x128xi16>> -> memref<32x128xi16>
        func.call @zero_i16(%31) : (memref<32x128xi16>) -> ()
        %c0_44 = arith.constant 0 : index
        %c16_45 = arith.constant 16 : index
        %c1_46 = arith.constant 1 : index
        scf.for %arg1 = %c0_44 to %c16_45 step %c1_46 {
          %32 = aie.objectfifo.acquire @B_L2L1_3(Consume, 1) : !aie.objectfifosubview<memref<64x128xi8>>
          %33 = aie.objectfifo.subview.access %32[0] : !aie.objectfifosubview<memref<64x128xi8>> -> memref<64x128xi8>
          %34 = aie.objectfifo.acquire @A_L2L1_0(Consume, 1) : !aie.objectfifosubview<memref<32x64xi8>>
          %35 = aie.objectfifo.subview.access %34[0] : !aie.objectfifosubview<memref<32x64xi8>> -> memref<32x64xi8>
          func.call @matmul_i8_i16(%35, %33, %31) : (memref<32x64xi8>, memref<64x128xi8>, memref<32x128xi16>) -> ()
          aie.objectfifo.release @A_L2L1_0(Consume, 1)
          aie.objectfifo.release @B_L2L1_3(Consume, 1)
        }
        aie.objectfifo.release @C_L1L2_3_0(Produce, 1)
      }
      aie.end
    } {stack_size = 3328 : i32}
    %core_4_2 = aie.core(%tile_4_2) {
      %c0 = arith.constant 0 : index
      %c4294967295 = arith.constant 4294967295 : index
      %c1 = arith.constant 1 : index
      scf.for %arg0 = %c0 to %c4294967295 step %c1 {
        %0 = aie.objectfifo.acquire @C_L1L2_4_0(Produce, 1) : !aie.objectfifosubview<memref<32x128xi16>>
        %1 = aie.objectfifo.subview.access %0[0] : !aie.objectfifosubview<memref<32x128xi16>> -> memref<32x128xi16>
        func.call @zero_i16(%1) : (memref<32x128xi16>) -> ()
        %c0_0 = arith.constant 0 : index
        %c16 = arith.constant 16 : index
        %c1_1 = arith.constant 1 : index
        scf.for %arg1 = %c0_0 to %c16 step %c1_1 {
          %32 = aie.objectfifo.acquire @B_L2L1_4(Consume, 1) : !aie.objectfifosubview<memref<64x128xi8>>
          %33 = aie.objectfifo.subview.access %32[0] : !aie.objectfifosubview<memref<64x128xi8>> -> memref<64x128xi8>
          %34 = aie.objectfifo.acquire @A_L2L1_0(Consume, 1) : !aie.objectfifosubview<memref<32x64xi8>>
          %35 = aie.objectfifo.subview.access %34[0] : !aie.objectfifosubview<memref<32x64xi8>> -> memref<32x64xi8>
          func.call @matmul_i8_i16(%35, %33, %1) : (memref<32x64xi8>, memref<64x128xi8>, memref<32x128xi16>) -> ()
          aie.objectfifo.release @A_L2L1_0(Consume, 1)
          aie.objectfifo.release @B_L2L1_4(Consume, 1)
        }
        aie.objectfifo.release @C_L1L2_4_0(Produce, 1)
        %2 = aie.objectfifo.acquire @C_L1L2_4_0(Produce, 1) : !aie.objectfifosubview<memref<32x128xi16>>
        %3 = aie.objectfifo.subview.access %2[0] : !aie.objectfifosubview<memref<32x128xi16>> -> memref<32x128xi16>
        func.call @zero_i16(%3) : (memref<32x128xi16>) -> ()
        %c0_2 = arith.constant 0 : index
        %c16_3 = arith.constant 16 : index
        %c1_4 = arith.constant 1 : index
        scf.for %arg1 = %c0_2 to %c16_3 step %c1_4 {
          %32 = aie.objectfifo.acquire @B_L2L1_4(Consume, 1) : !aie.objectfifosubview<memref<64x128xi8>>
          %33 = aie.objectfifo.subview.access %32[0] : !aie.objectfifosubview<memref<64x128xi8>> -> memref<64x128xi8>
          %34 = aie.objectfifo.acquire @A_L2L1_0(Consume, 1) : !aie.objectfifosubview<memref<32x64xi8>>
          %35 = aie.objectfifo.subview.access %34[0] : !aie.objectfifosubview<memref<32x64xi8>> -> memref<32x64xi8>
          func.call @matmul_i8_i16(%35, %33, %3) : (memref<32x64xi8>, memref<64x128xi8>, memref<32x128xi16>) -> ()
          aie.objectfifo.release @A_L2L1_0(Consume, 1)
          aie.objectfifo.release @B_L2L1_4(Consume, 1)
        }
        aie.objectfifo.release @C_L1L2_4_0(Produce, 1)
        %4 = aie.objectfifo.acquire @C_L1L2_4_0(Produce, 1) : !aie.objectfifosubview<memref<32x128xi16>>
        %5 = aie.objectfifo.subview.access %4[0] : !aie.objectfifosubview<memref<32x128xi16>> -> memref<32x128xi16>
        func.call @zero_i16(%5) : (memref<32x128xi16>) -> ()
        %c0_5 = arith.constant 0 : index
        %c16_6 = arith.constant 16 : index
        %c1_7 = arith.constant 1 : index
        scf.for %arg1 = %c0_5 to %c16_6 step %c1_7 {
          %32 = aie.objectfifo.acquire @B_L2L1_4(Consume, 1) : !aie.objectfifosubview<memref<64x128xi8>>
          %33 = aie.objectfifo.subview.access %32[0] : !aie.objectfifosubview<memref<64x128xi8>> -> memref<64x128xi8>
          %34 = aie.objectfifo.acquire @A_L2L1_0(Consume, 1) : !aie.objectfifosubview<memref<32x64xi8>>
          %35 = aie.objectfifo.subview.access %34[0] : !aie.objectfifosubview<memref<32x64xi8>> -> memref<32x64xi8>
          func.call @matmul_i8_i16(%35, %33, %5) : (memref<32x64xi8>, memref<64x128xi8>, memref<32x128xi16>) -> ()
          aie.objectfifo.release @A_L2L1_0(Consume, 1)
          aie.objectfifo.release @B_L2L1_4(Consume, 1)
        }
        aie.objectfifo.release @C_L1L2_4_0(Produce, 1)
        %6 = aie.objectfifo.acquire @C_L1L2_4_0(Produce, 1) : !aie.objectfifosubview<memref<32x128xi16>>
        %7 = aie.objectfifo.subview.access %6[0] : !aie.objectfifosubview<memref<32x128xi16>> -> memref<32x128xi16>
        func.call @zero_i16(%7) : (memref<32x128xi16>) -> ()
        %c0_8 = arith.constant 0 : index
        %c16_9 = arith.constant 16 : index
        %c1_10 = arith.constant 1 : index
        scf.for %arg1 = %c0_8 to %c16_9 step %c1_10 {
          %32 = aie.objectfifo.acquire @B_L2L1_4(Consume, 1) : !aie.objectfifosubview<memref<64x128xi8>>
          %33 = aie.objectfifo.subview.access %32[0] : !aie.objectfifosubview<memref<64x128xi8>> -> memref<64x128xi8>
          %34 = aie.objectfifo.acquire @A_L2L1_0(Consume, 1) : !aie.objectfifosubview<memref<32x64xi8>>
          %35 = aie.objectfifo.subview.access %34[0] : !aie.objectfifosubview<memref<32x64xi8>> -> memref<32x64xi8>
          func.call @matmul_i8_i16(%35, %33, %7) : (memref<32x64xi8>, memref<64x128xi8>, memref<32x128xi16>) -> ()
          aie.objectfifo.release @A_L2L1_0(Consume, 1)
          aie.objectfifo.release @B_L2L1_4(Consume, 1)
        }
        aie.objectfifo.release @C_L1L2_4_0(Produce, 1)
        %8 = aie.objectfifo.acquire @C_L1L2_4_0(Produce, 1) : !aie.objectfifosubview<memref<32x128xi16>>
        %9 = aie.objectfifo.subview.access %8[0] : !aie.objectfifosubview<memref<32x128xi16>> -> memref<32x128xi16>
        func.call @zero_i16(%9) : (memref<32x128xi16>) -> ()
        %c0_11 = arith.constant 0 : index
        %c16_12 = arith.constant 16 : index
        %c1_13 = arith.constant 1 : index
        scf.for %arg1 = %c0_11 to %c16_12 step %c1_13 {
          %32 = aie.objectfifo.acquire @B_L2L1_4(Consume, 1) : !aie.objectfifosubview<memref<64x128xi8>>
          %33 = aie.objectfifo.subview.access %32[0] : !aie.objectfifosubview<memref<64x128xi8>> -> memref<64x128xi8>
          %34 = aie.objectfifo.acquire @A_L2L1_0(Consume, 1) : !aie.objectfifosubview<memref<32x64xi8>>
          %35 = aie.objectfifo.subview.access %34[0] : !aie.objectfifosubview<memref<32x64xi8>> -> memref<32x64xi8>
          func.call @matmul_i8_i16(%35, %33, %9) : (memref<32x64xi8>, memref<64x128xi8>, memref<32x128xi16>) -> ()
          aie.objectfifo.release @A_L2L1_0(Consume, 1)
          aie.objectfifo.release @B_L2L1_4(Consume, 1)
        }
        aie.objectfifo.release @C_L1L2_4_0(Produce, 1)
        %10 = aie.objectfifo.acquire @C_L1L2_4_0(Produce, 1) : !aie.objectfifosubview<memref<32x128xi16>>
        %11 = aie.objectfifo.subview.access %10[0] : !aie.objectfifosubview<memref<32x128xi16>> -> memref<32x128xi16>
        func.call @zero_i16(%11) : (memref<32x128xi16>) -> ()
        %c0_14 = arith.constant 0 : index
        %c16_15 = arith.constant 16 : index
        %c1_16 = arith.constant 1 : index
        scf.for %arg1 = %c0_14 to %c16_15 step %c1_16 {
          %32 = aie.objectfifo.acquire @B_L2L1_4(Consume, 1) : !aie.objectfifosubview<memref<64x128xi8>>
          %33 = aie.objectfifo.subview.access %32[0] : !aie.objectfifosubview<memref<64x128xi8>> -> memref<64x128xi8>
          %34 = aie.objectfifo.acquire @A_L2L1_0(Consume, 1) : !aie.objectfifosubview<memref<32x64xi8>>
          %35 = aie.objectfifo.subview.access %34[0] : !aie.objectfifosubview<memref<32x64xi8>> -> memref<32x64xi8>
          func.call @matmul_i8_i16(%35, %33, %11) : (memref<32x64xi8>, memref<64x128xi8>, memref<32x128xi16>) -> ()
          aie.objectfifo.release @A_L2L1_0(Consume, 1)
          aie.objectfifo.release @B_L2L1_4(Consume, 1)
        }
        aie.objectfifo.release @C_L1L2_4_0(Produce, 1)
        %12 = aie.objectfifo.acquire @C_L1L2_4_0(Produce, 1) : !aie.objectfifosubview<memref<32x128xi16>>
        %13 = aie.objectfifo.subview.access %12[0] : !aie.objectfifosubview<memref<32x128xi16>> -> memref<32x128xi16>
        func.call @zero_i16(%13) : (memref<32x128xi16>) -> ()
        %c0_17 = arith.constant 0 : index
        %c16_18 = arith.constant 16 : index
        %c1_19 = arith.constant 1 : index
        scf.for %arg1 = %c0_17 to %c16_18 step %c1_19 {
          %32 = aie.objectfifo.acquire @B_L2L1_4(Consume, 1) : !aie.objectfifosubview<memref<64x128xi8>>
          %33 = aie.objectfifo.subview.access %32[0] : !aie.objectfifosubview<memref<64x128xi8>> -> memref<64x128xi8>
          %34 = aie.objectfifo.acquire @A_L2L1_0(Consume, 1) : !aie.objectfifosubview<memref<32x64xi8>>
          %35 = aie.objectfifo.subview.access %34[0] : !aie.objectfifosubview<memref<32x64xi8>> -> memref<32x64xi8>
          func.call @matmul_i8_i16(%35, %33, %13) : (memref<32x64xi8>, memref<64x128xi8>, memref<32x128xi16>) -> ()
          aie.objectfifo.release @A_L2L1_0(Consume, 1)
          aie.objectfifo.release @B_L2L1_4(Consume, 1)
        }
        aie.objectfifo.release @C_L1L2_4_0(Produce, 1)
        %14 = aie.objectfifo.acquire @C_L1L2_4_0(Produce, 1) : !aie.objectfifosubview<memref<32x128xi16>>
        %15 = aie.objectfifo.subview.access %14[0] : !aie.objectfifosubview<memref<32x128xi16>> -> memref<32x128xi16>
        func.call @zero_i16(%15) : (memref<32x128xi16>) -> ()
        %c0_20 = arith.constant 0 : index
        %c16_21 = arith.constant 16 : index
        %c1_22 = arith.constant 1 : index
        scf.for %arg1 = %c0_20 to %c16_21 step %c1_22 {
          %32 = aie.objectfifo.acquire @B_L2L1_4(Consume, 1) : !aie.objectfifosubview<memref<64x128xi8>>
          %33 = aie.objectfifo.subview.access %32[0] : !aie.objectfifosubview<memref<64x128xi8>> -> memref<64x128xi8>
          %34 = aie.objectfifo.acquire @A_L2L1_0(Consume, 1) : !aie.objectfifosubview<memref<32x64xi8>>
          %35 = aie.objectfifo.subview.access %34[0] : !aie.objectfifosubview<memref<32x64xi8>> -> memref<32x64xi8>
          func.call @matmul_i8_i16(%35, %33, %15) : (memref<32x64xi8>, memref<64x128xi8>, memref<32x128xi16>) -> ()
          aie.objectfifo.release @A_L2L1_0(Consume, 1)
          aie.objectfifo.release @B_L2L1_4(Consume, 1)
        }
        aie.objectfifo.release @C_L1L2_4_0(Produce, 1)
        %16 = aie.objectfifo.acquire @C_L1L2_4_0(Produce, 1) : !aie.objectfifosubview<memref<32x128xi16>>
        %17 = aie.objectfifo.subview.access %16[0] : !aie.objectfifosubview<memref<32x128xi16>> -> memref<32x128xi16>
        func.call @zero_i16(%17) : (memref<32x128xi16>) -> ()
        %c0_23 = arith.constant 0 : index
        %c16_24 = arith.constant 16 : index
        %c1_25 = arith.constant 1 : index
        scf.for %arg1 = %c0_23 to %c16_24 step %c1_25 {
          %32 = aie.objectfifo.acquire @B_L2L1_4(Consume, 1) : !aie.objectfifosubview<memref<64x128xi8>>
          %33 = aie.objectfifo.subview.access %32[0] : !aie.objectfifosubview<memref<64x128xi8>> -> memref<64x128xi8>
          %34 = aie.objectfifo.acquire @A_L2L1_0(Consume, 1) : !aie.objectfifosubview<memref<32x64xi8>>
          %35 = aie.objectfifo.subview.access %34[0] : !aie.objectfifosubview<memref<32x64xi8>> -> memref<32x64xi8>
          func.call @matmul_i8_i16(%35, %33, %17) : (memref<32x64xi8>, memref<64x128xi8>, memref<32x128xi16>) -> ()
          aie.objectfifo.release @A_L2L1_0(Consume, 1)
          aie.objectfifo.release @B_L2L1_4(Consume, 1)
        }
        aie.objectfifo.release @C_L1L2_4_0(Produce, 1)
        %18 = aie.objectfifo.acquire @C_L1L2_4_0(Produce, 1) : !aie.objectfifosubview<memref<32x128xi16>>
        %19 = aie.objectfifo.subview.access %18[0] : !aie.objectfifosubview<memref<32x128xi16>> -> memref<32x128xi16>
        func.call @zero_i16(%19) : (memref<32x128xi16>) -> ()
        %c0_26 = arith.constant 0 : index
        %c16_27 = arith.constant 16 : index
        %c1_28 = arith.constant 1 : index
        scf.for %arg1 = %c0_26 to %c16_27 step %c1_28 {
          %32 = aie.objectfifo.acquire @B_L2L1_4(Consume, 1) : !aie.objectfifosubview<memref<64x128xi8>>
          %33 = aie.objectfifo.subview.access %32[0] : !aie.objectfifosubview<memref<64x128xi8>> -> memref<64x128xi8>
          %34 = aie.objectfifo.acquire @A_L2L1_0(Consume, 1) : !aie.objectfifosubview<memref<32x64xi8>>
          %35 = aie.objectfifo.subview.access %34[0] : !aie.objectfifosubview<memref<32x64xi8>> -> memref<32x64xi8>
          func.call @matmul_i8_i16(%35, %33, %19) : (memref<32x64xi8>, memref<64x128xi8>, memref<32x128xi16>) -> ()
          aie.objectfifo.release @A_L2L1_0(Consume, 1)
          aie.objectfifo.release @B_L2L1_4(Consume, 1)
        }
        aie.objectfifo.release @C_L1L2_4_0(Produce, 1)
        %20 = aie.objectfifo.acquire @C_L1L2_4_0(Produce, 1) : !aie.objectfifosubview<memref<32x128xi16>>
        %21 = aie.objectfifo.subview.access %20[0] : !aie.objectfifosubview<memref<32x128xi16>> -> memref<32x128xi16>
        func.call @zero_i16(%21) : (memref<32x128xi16>) -> ()
        %c0_29 = arith.constant 0 : index
        %c16_30 = arith.constant 16 : index
        %c1_31 = arith.constant 1 : index
        scf.for %arg1 = %c0_29 to %c16_30 step %c1_31 {
          %32 = aie.objectfifo.acquire @B_L2L1_4(Consume, 1) : !aie.objectfifosubview<memref<64x128xi8>>
          %33 = aie.objectfifo.subview.access %32[0] : !aie.objectfifosubview<memref<64x128xi8>> -> memref<64x128xi8>
          %34 = aie.objectfifo.acquire @A_L2L1_0(Consume, 1) : !aie.objectfifosubview<memref<32x64xi8>>
          %35 = aie.objectfifo.subview.access %34[0] : !aie.objectfifosubview<memref<32x64xi8>> -> memref<32x64xi8>
          func.call @matmul_i8_i16(%35, %33, %21) : (memref<32x64xi8>, memref<64x128xi8>, memref<32x128xi16>) -> ()
          aie.objectfifo.release @A_L2L1_0(Consume, 1)
          aie.objectfifo.release @B_L2L1_4(Consume, 1)
        }
        aie.objectfifo.release @C_L1L2_4_0(Produce, 1)
        %22 = aie.objectfifo.acquire @C_L1L2_4_0(Produce, 1) : !aie.objectfifosubview<memref<32x128xi16>>
        %23 = aie.objectfifo.subview.access %22[0] : !aie.objectfifosubview<memref<32x128xi16>> -> memref<32x128xi16>
        func.call @zero_i16(%23) : (memref<32x128xi16>) -> ()
        %c0_32 = arith.constant 0 : index
        %c16_33 = arith.constant 16 : index
        %c1_34 = arith.constant 1 : index
        scf.for %arg1 = %c0_32 to %c16_33 step %c1_34 {
          %32 = aie.objectfifo.acquire @B_L2L1_4(Consume, 1) : !aie.objectfifosubview<memref<64x128xi8>>
          %33 = aie.objectfifo.subview.access %32[0] : !aie.objectfifosubview<memref<64x128xi8>> -> memref<64x128xi8>
          %34 = aie.objectfifo.acquire @A_L2L1_0(Consume, 1) : !aie.objectfifosubview<memref<32x64xi8>>
          %35 = aie.objectfifo.subview.access %34[0] : !aie.objectfifosubview<memref<32x64xi8>> -> memref<32x64xi8>
          func.call @matmul_i8_i16(%35, %33, %23) : (memref<32x64xi8>, memref<64x128xi8>, memref<32x128xi16>) -> ()
          aie.objectfifo.release @A_L2L1_0(Consume, 1)
          aie.objectfifo.release @B_L2L1_4(Consume, 1)
        }
        aie.objectfifo.release @C_L1L2_4_0(Produce, 1)
        %24 = aie.objectfifo.acquire @C_L1L2_4_0(Produce, 1) : !aie.objectfifosubview<memref<32x128xi16>>
        %25 = aie.objectfifo.subview.access %24[0] : !aie.objectfifosubview<memref<32x128xi16>> -> memref<32x128xi16>
        func.call @zero_i16(%25) : (memref<32x128xi16>) -> ()
        %c0_35 = arith.constant 0 : index
        %c16_36 = arith.constant 16 : index
        %c1_37 = arith.constant 1 : index
        scf.for %arg1 = %c0_35 to %c16_36 step %c1_37 {
          %32 = aie.objectfifo.acquire @B_L2L1_4(Consume, 1) : !aie.objectfifosubview<memref<64x128xi8>>
          %33 = aie.objectfifo.subview.access %32[0] : !aie.objectfifosubview<memref<64x128xi8>> -> memref<64x128xi8>
          %34 = aie.objectfifo.acquire @A_L2L1_0(Consume, 1) : !aie.objectfifosubview<memref<32x64xi8>>
          %35 = aie.objectfifo.subview.access %34[0] : !aie.objectfifosubview<memref<32x64xi8>> -> memref<32x64xi8>
          func.call @matmul_i8_i16(%35, %33, %25) : (memref<32x64xi8>, memref<64x128xi8>, memref<32x128xi16>) -> ()
          aie.objectfifo.release @A_L2L1_0(Consume, 1)
          aie.objectfifo.release @B_L2L1_4(Consume, 1)
        }
        aie.objectfifo.release @C_L1L2_4_0(Produce, 1)
        %26 = aie.objectfifo.acquire @C_L1L2_4_0(Produce, 1) : !aie.objectfifosubview<memref<32x128xi16>>
        %27 = aie.objectfifo.subview.access %26[0] : !aie.objectfifosubview<memref<32x128xi16>> -> memref<32x128xi16>
        func.call @zero_i16(%27) : (memref<32x128xi16>) -> ()
        %c0_38 = arith.constant 0 : index
        %c16_39 = arith.constant 16 : index
        %c1_40 = arith.constant 1 : index
        scf.for %arg1 = %c0_38 to %c16_39 step %c1_40 {
          %32 = aie.objectfifo.acquire @B_L2L1_4(Consume, 1) : !aie.objectfifosubview<memref<64x128xi8>>
          %33 = aie.objectfifo.subview.access %32[0] : !aie.objectfifosubview<memref<64x128xi8>> -> memref<64x128xi8>
          %34 = aie.objectfifo.acquire @A_L2L1_0(Consume, 1) : !aie.objectfifosubview<memref<32x64xi8>>
          %35 = aie.objectfifo.subview.access %34[0] : !aie.objectfifosubview<memref<32x64xi8>> -> memref<32x64xi8>
          func.call @matmul_i8_i16(%35, %33, %27) : (memref<32x64xi8>, memref<64x128xi8>, memref<32x128xi16>) -> ()
          aie.objectfifo.release @A_L2L1_0(Consume, 1)
          aie.objectfifo.release @B_L2L1_4(Consume, 1)
        }
        aie.objectfifo.release @C_L1L2_4_0(Produce, 1)
        %28 = aie.objectfifo.acquire @C_L1L2_4_0(Produce, 1) : !aie.objectfifosubview<memref<32x128xi16>>
        %29 = aie.objectfifo.subview.access %28[0] : !aie.objectfifosubview<memref<32x128xi16>> -> memref<32x128xi16>
        func.call @zero_i16(%29) : (memref<32x128xi16>) -> ()
        %c0_41 = arith.constant 0 : index
        %c16_42 = arith.constant 16 : index
        %c1_43 = arith.constant 1 : index
        scf.for %arg1 = %c0_41 to %c16_42 step %c1_43 {
          %32 = aie.objectfifo.acquire @B_L2L1_4(Consume, 1) : !aie.objectfifosubview<memref<64x128xi8>>
          %33 = aie.objectfifo.subview.access %32[0] : !aie.objectfifosubview<memref<64x128xi8>> -> memref<64x128xi8>
          %34 = aie.objectfifo.acquire @A_L2L1_0(Consume, 1) : !aie.objectfifosubview<memref<32x64xi8>>
          %35 = aie.objectfifo.subview.access %34[0] : !aie.objectfifosubview<memref<32x64xi8>> -> memref<32x64xi8>
          func.call @matmul_i8_i16(%35, %33, %29) : (memref<32x64xi8>, memref<64x128xi8>, memref<32x128xi16>) -> ()
          aie.objectfifo.release @A_L2L1_0(Consume, 1)
          aie.objectfifo.release @B_L2L1_4(Consume, 1)
        }
        aie.objectfifo.release @C_L1L2_4_0(Produce, 1)
        %30 = aie.objectfifo.acquire @C_L1L2_4_0(Produce, 1) : !aie.objectfifosubview<memref<32x128xi16>>
        %31 = aie.objectfifo.subview.access %30[0] : !aie.objectfifosubview<memref<32x128xi16>> -> memref<32x128xi16>
        func.call @zero_i16(%31) : (memref<32x128xi16>) -> ()
        %c0_44 = arith.constant 0 : index
        %c16_45 = arith.constant 16 : index
        %c1_46 = arith.constant 1 : index
        scf.for %arg1 = %c0_44 to %c16_45 step %c1_46 {
          %32 = aie.objectfifo.acquire @B_L2L1_4(Consume, 1) : !aie.objectfifosubview<memref<64x128xi8>>
          %33 = aie.objectfifo.subview.access %32[0] : !aie.objectfifosubview<memref<64x128xi8>> -> memref<64x128xi8>
          %34 = aie.objectfifo.acquire @A_L2L1_0(Consume, 1) : !aie.objectfifosubview<memref<32x64xi8>>
          %35 = aie.objectfifo.subview.access %34[0] : !aie.objectfifosubview<memref<32x64xi8>> -> memref<32x64xi8>
          func.call @matmul_i8_i16(%35, %33, %31) : (memref<32x64xi8>, memref<64x128xi8>, memref<32x128xi16>) -> ()
          aie.objectfifo.release @A_L2L1_0(Consume, 1)
          aie.objectfifo.release @B_L2L1_4(Consume, 1)
        }
        aie.objectfifo.release @C_L1L2_4_0(Produce, 1)
      }
      aie.end
    } {stack_size = 3328 : i32}
    %core_5_2 = aie.core(%tile_5_2) {
      %c0 = arith.constant 0 : index
      %c4294967295 = arith.constant 4294967295 : index
      %c1 = arith.constant 1 : index
      scf.for %arg0 = %c0 to %c4294967295 step %c1 {
        %0 = aie.objectfifo.acquire @C_L1L2_5_0(Produce, 1) : !aie.objectfifosubview<memref<32x128xi16>>
        %1 = aie.objectfifo.subview.access %0[0] : !aie.objectfifosubview<memref<32x128xi16>> -> memref<32x128xi16>
        func.call @zero_i16(%1) : (memref<32x128xi16>) -> ()
        %c0_0 = arith.constant 0 : index
        %c16 = arith.constant 16 : index
        %c1_1 = arith.constant 1 : index
        scf.for %arg1 = %c0_0 to %c16 step %c1_1 {
          %32 = aie.objectfifo.acquire @B_L2L1_5(Consume, 1) : !aie.objectfifosubview<memref<64x128xi8>>
          %33 = aie.objectfifo.subview.access %32[0] : !aie.objectfifosubview<memref<64x128xi8>> -> memref<64x128xi8>
          %34 = aie.objectfifo.acquire @A_L2L1_0(Consume, 1) : !aie.objectfifosubview<memref<32x64xi8>>
          %35 = aie.objectfifo.subview.access %34[0] : !aie.objectfifosubview<memref<32x64xi8>> -> memref<32x64xi8>
          func.call @matmul_i8_i16(%35, %33, %1) : (memref<32x64xi8>, memref<64x128xi8>, memref<32x128xi16>) -> ()
          aie.objectfifo.release @A_L2L1_0(Consume, 1)
          aie.objectfifo.release @B_L2L1_5(Consume, 1)
        }
        aie.objectfifo.release @C_L1L2_5_0(Produce, 1)
        %2 = aie.objectfifo.acquire @C_L1L2_5_0(Produce, 1) : !aie.objectfifosubview<memref<32x128xi16>>
        %3 = aie.objectfifo.subview.access %2[0] : !aie.objectfifosubview<memref<32x128xi16>> -> memref<32x128xi16>
        func.call @zero_i16(%3) : (memref<32x128xi16>) -> ()
        %c0_2 = arith.constant 0 : index
        %c16_3 = arith.constant 16 : index
        %c1_4 = arith.constant 1 : index
        scf.for %arg1 = %c0_2 to %c16_3 step %c1_4 {
          %32 = aie.objectfifo.acquire @B_L2L1_5(Consume, 1) : !aie.objectfifosubview<memref<64x128xi8>>
          %33 = aie.objectfifo.subview.access %32[0] : !aie.objectfifosubview<memref<64x128xi8>> -> memref<64x128xi8>
          %34 = aie.objectfifo.acquire @A_L2L1_0(Consume, 1) : !aie.objectfifosubview<memref<32x64xi8>>
          %35 = aie.objectfifo.subview.access %34[0] : !aie.objectfifosubview<memref<32x64xi8>> -> memref<32x64xi8>
          func.call @matmul_i8_i16(%35, %33, %3) : (memref<32x64xi8>, memref<64x128xi8>, memref<32x128xi16>) -> ()
          aie.objectfifo.release @A_L2L1_0(Consume, 1)
          aie.objectfifo.release @B_L2L1_5(Consume, 1)
        }
        aie.objectfifo.release @C_L1L2_5_0(Produce, 1)
        %4 = aie.objectfifo.acquire @C_L1L2_5_0(Produce, 1) : !aie.objectfifosubview<memref<32x128xi16>>
        %5 = aie.objectfifo.subview.access %4[0] : !aie.objectfifosubview<memref<32x128xi16>> -> memref<32x128xi16>
        func.call @zero_i16(%5) : (memref<32x128xi16>) -> ()
        %c0_5 = arith.constant 0 : index
        %c16_6 = arith.constant 16 : index
        %c1_7 = arith.constant 1 : index
        scf.for %arg1 = %c0_5 to %c16_6 step %c1_7 {
          %32 = aie.objectfifo.acquire @B_L2L1_5(Consume, 1) : !aie.objectfifosubview<memref<64x128xi8>>
          %33 = aie.objectfifo.subview.access %32[0] : !aie.objectfifosubview<memref<64x128xi8>> -> memref<64x128xi8>
          %34 = aie.objectfifo.acquire @A_L2L1_0(Consume, 1) : !aie.objectfifosubview<memref<32x64xi8>>
          %35 = aie.objectfifo.subview.access %34[0] : !aie.objectfifosubview<memref<32x64xi8>> -> memref<32x64xi8>
          func.call @matmul_i8_i16(%35, %33, %5) : (memref<32x64xi8>, memref<64x128xi8>, memref<32x128xi16>) -> ()
          aie.objectfifo.release @A_L2L1_0(Consume, 1)
          aie.objectfifo.release @B_L2L1_5(Consume, 1)
        }
        aie.objectfifo.release @C_L1L2_5_0(Produce, 1)
        %6 = aie.objectfifo.acquire @C_L1L2_5_0(Produce, 1) : !aie.objectfifosubview<memref<32x128xi16>>
        %7 = aie.objectfifo.subview.access %6[0] : !aie.objectfifosubview<memref<32x128xi16>> -> memref<32x128xi16>
        func.call @zero_i16(%7) : (memref<32x128xi16>) -> ()
        %c0_8 = arith.constant 0 : index
        %c16_9 = arith.constant 16 : index
        %c1_10 = arith.constant 1 : index
        scf.for %arg1 = %c0_8 to %c16_9 step %c1_10 {
          %32 = aie.objectfifo.acquire @B_L2L1_5(Consume, 1) : !aie.objectfifosubview<memref<64x128xi8>>
          %33 = aie.objectfifo.subview.access %32[0] : !aie.objectfifosubview<memref<64x128xi8>> -> memref<64x128xi8>
          %34 = aie.objectfifo.acquire @A_L2L1_0(Consume, 1) : !aie.objectfifosubview<memref<32x64xi8>>
          %35 = aie.objectfifo.subview.access %34[0] : !aie.objectfifosubview<memref<32x64xi8>> -> memref<32x64xi8>
          func.call @matmul_i8_i16(%35, %33, %7) : (memref<32x64xi8>, memref<64x128xi8>, memref<32x128xi16>) -> ()
          aie.objectfifo.release @A_L2L1_0(Consume, 1)
          aie.objectfifo.release @B_L2L1_5(Consume, 1)
        }
        aie.objectfifo.release @C_L1L2_5_0(Produce, 1)
        %8 = aie.objectfifo.acquire @C_L1L2_5_0(Produce, 1) : !aie.objectfifosubview<memref<32x128xi16>>
        %9 = aie.objectfifo.subview.access %8[0] : !aie.objectfifosubview<memref<32x128xi16>> -> memref<32x128xi16>
        func.call @zero_i16(%9) : (memref<32x128xi16>) -> ()
        %c0_11 = arith.constant 0 : index
        %c16_12 = arith.constant 16 : index
        %c1_13 = arith.constant 1 : index
        scf.for %arg1 = %c0_11 to %c16_12 step %c1_13 {
          %32 = aie.objectfifo.acquire @B_L2L1_5(Consume, 1) : !aie.objectfifosubview<memref<64x128xi8>>
          %33 = aie.objectfifo.subview.access %32[0] : !aie.objectfifosubview<memref<64x128xi8>> -> memref<64x128xi8>
          %34 = aie.objectfifo.acquire @A_L2L1_0(Consume, 1) : !aie.objectfifosubview<memref<32x64xi8>>
          %35 = aie.objectfifo.subview.access %34[0] : !aie.objectfifosubview<memref<32x64xi8>> -> memref<32x64xi8>
          func.call @matmul_i8_i16(%35, %33, %9) : (memref<32x64xi8>, memref<64x128xi8>, memref<32x128xi16>) -> ()
          aie.objectfifo.release @A_L2L1_0(Consume, 1)
          aie.objectfifo.release @B_L2L1_5(Consume, 1)
        }
        aie.objectfifo.release @C_L1L2_5_0(Produce, 1)
        %10 = aie.objectfifo.acquire @C_L1L2_5_0(Produce, 1) : !aie.objectfifosubview<memref<32x128xi16>>
        %11 = aie.objectfifo.subview.access %10[0] : !aie.objectfifosubview<memref<32x128xi16>> -> memref<32x128xi16>
        func.call @zero_i16(%11) : (memref<32x128xi16>) -> ()
        %c0_14 = arith.constant 0 : index
        %c16_15 = arith.constant 16 : index
        %c1_16 = arith.constant 1 : index
        scf.for %arg1 = %c0_14 to %c16_15 step %c1_16 {
          %32 = aie.objectfifo.acquire @B_L2L1_5(Consume, 1) : !aie.objectfifosubview<memref<64x128xi8>>
          %33 = aie.objectfifo.subview.access %32[0] : !aie.objectfifosubview<memref<64x128xi8>> -> memref<64x128xi8>
          %34 = aie.objectfifo.acquire @A_L2L1_0(Consume, 1) : !aie.objectfifosubview<memref<32x64xi8>>
          %35 = aie.objectfifo.subview.access %34[0] : !aie.objectfifosubview<memref<32x64xi8>> -> memref<32x64xi8>
          func.call @matmul_i8_i16(%35, %33, %11) : (memref<32x64xi8>, memref<64x128xi8>, memref<32x128xi16>) -> ()
          aie.objectfifo.release @A_L2L1_0(Consume, 1)
          aie.objectfifo.release @B_L2L1_5(Consume, 1)
        }
        aie.objectfifo.release @C_L1L2_5_0(Produce, 1)
        %12 = aie.objectfifo.acquire @C_L1L2_5_0(Produce, 1) : !aie.objectfifosubview<memref<32x128xi16>>
        %13 = aie.objectfifo.subview.access %12[0] : !aie.objectfifosubview<memref<32x128xi16>> -> memref<32x128xi16>
        func.call @zero_i16(%13) : (memref<32x128xi16>) -> ()
        %c0_17 = arith.constant 0 : index
        %c16_18 = arith.constant 16 : index
        %c1_19 = arith.constant 1 : index
        scf.for %arg1 = %c0_17 to %c16_18 step %c1_19 {
          %32 = aie.objectfifo.acquire @B_L2L1_5(Consume, 1) : !aie.objectfifosubview<memref<64x128xi8>>
          %33 = aie.objectfifo.subview.access %32[0] : !aie.objectfifosubview<memref<64x128xi8>> -> memref<64x128xi8>
          %34 = aie.objectfifo.acquire @A_L2L1_0(Consume, 1) : !aie.objectfifosubview<memref<32x64xi8>>
          %35 = aie.objectfifo.subview.access %34[0] : !aie.objectfifosubview<memref<32x64xi8>> -> memref<32x64xi8>
          func.call @matmul_i8_i16(%35, %33, %13) : (memref<32x64xi8>, memref<64x128xi8>, memref<32x128xi16>) -> ()
          aie.objectfifo.release @A_L2L1_0(Consume, 1)
          aie.objectfifo.release @B_L2L1_5(Consume, 1)
        }
        aie.objectfifo.release @C_L1L2_5_0(Produce, 1)
        %14 = aie.objectfifo.acquire @C_L1L2_5_0(Produce, 1) : !aie.objectfifosubview<memref<32x128xi16>>
        %15 = aie.objectfifo.subview.access %14[0] : !aie.objectfifosubview<memref<32x128xi16>> -> memref<32x128xi16>
        func.call @zero_i16(%15) : (memref<32x128xi16>) -> ()
        %c0_20 = arith.constant 0 : index
        %c16_21 = arith.constant 16 : index
        %c1_22 = arith.constant 1 : index
        scf.for %arg1 = %c0_20 to %c16_21 step %c1_22 {
          %32 = aie.objectfifo.acquire @B_L2L1_5(Consume, 1) : !aie.objectfifosubview<memref<64x128xi8>>
          %33 = aie.objectfifo.subview.access %32[0] : !aie.objectfifosubview<memref<64x128xi8>> -> memref<64x128xi8>
          %34 = aie.objectfifo.acquire @A_L2L1_0(Consume, 1) : !aie.objectfifosubview<memref<32x64xi8>>
          %35 = aie.objectfifo.subview.access %34[0] : !aie.objectfifosubview<memref<32x64xi8>> -> memref<32x64xi8>
          func.call @matmul_i8_i16(%35, %33, %15) : (memref<32x64xi8>, memref<64x128xi8>, memref<32x128xi16>) -> ()
          aie.objectfifo.release @A_L2L1_0(Consume, 1)
          aie.objectfifo.release @B_L2L1_5(Consume, 1)
        }
        aie.objectfifo.release @C_L1L2_5_0(Produce, 1)
        %16 = aie.objectfifo.acquire @C_L1L2_5_0(Produce, 1) : !aie.objectfifosubview<memref<32x128xi16>>
        %17 = aie.objectfifo.subview.access %16[0] : !aie.objectfifosubview<memref<32x128xi16>> -> memref<32x128xi16>
        func.call @zero_i16(%17) : (memref<32x128xi16>) -> ()
        %c0_23 = arith.constant 0 : index
        %c16_24 = arith.constant 16 : index
        %c1_25 = arith.constant 1 : index
        scf.for %arg1 = %c0_23 to %c16_24 step %c1_25 {
          %32 = aie.objectfifo.acquire @B_L2L1_5(Consume, 1) : !aie.objectfifosubview<memref<64x128xi8>>
          %33 = aie.objectfifo.subview.access %32[0] : !aie.objectfifosubview<memref<64x128xi8>> -> memref<64x128xi8>
          %34 = aie.objectfifo.acquire @A_L2L1_0(Consume, 1) : !aie.objectfifosubview<memref<32x64xi8>>
          %35 = aie.objectfifo.subview.access %34[0] : !aie.objectfifosubview<memref<32x64xi8>> -> memref<32x64xi8>
          func.call @matmul_i8_i16(%35, %33, %17) : (memref<32x64xi8>, memref<64x128xi8>, memref<32x128xi16>) -> ()
          aie.objectfifo.release @A_L2L1_0(Consume, 1)
          aie.objectfifo.release @B_L2L1_5(Consume, 1)
        }
        aie.objectfifo.release @C_L1L2_5_0(Produce, 1)
        %18 = aie.objectfifo.acquire @C_L1L2_5_0(Produce, 1) : !aie.objectfifosubview<memref<32x128xi16>>
        %19 = aie.objectfifo.subview.access %18[0] : !aie.objectfifosubview<memref<32x128xi16>> -> memref<32x128xi16>
        func.call @zero_i16(%19) : (memref<32x128xi16>) -> ()
        %c0_26 = arith.constant 0 : index
        %c16_27 = arith.constant 16 : index
        %c1_28 = arith.constant 1 : index
        scf.for %arg1 = %c0_26 to %c16_27 step %c1_28 {
          %32 = aie.objectfifo.acquire @B_L2L1_5(Consume, 1) : !aie.objectfifosubview<memref<64x128xi8>>
          %33 = aie.objectfifo.subview.access %32[0] : !aie.objectfifosubview<memref<64x128xi8>> -> memref<64x128xi8>
          %34 = aie.objectfifo.acquire @A_L2L1_0(Consume, 1) : !aie.objectfifosubview<memref<32x64xi8>>
          %35 = aie.objectfifo.subview.access %34[0] : !aie.objectfifosubview<memref<32x64xi8>> -> memref<32x64xi8>
          func.call @matmul_i8_i16(%35, %33, %19) : (memref<32x64xi8>, memref<64x128xi8>, memref<32x128xi16>) -> ()
          aie.objectfifo.release @A_L2L1_0(Consume, 1)
          aie.objectfifo.release @B_L2L1_5(Consume, 1)
        }
        aie.objectfifo.release @C_L1L2_5_0(Produce, 1)
        %20 = aie.objectfifo.acquire @C_L1L2_5_0(Produce, 1) : !aie.objectfifosubview<memref<32x128xi16>>
        %21 = aie.objectfifo.subview.access %20[0] : !aie.objectfifosubview<memref<32x128xi16>> -> memref<32x128xi16>
        func.call @zero_i16(%21) : (memref<32x128xi16>) -> ()
        %c0_29 = arith.constant 0 : index
        %c16_30 = arith.constant 16 : index
        %c1_31 = arith.constant 1 : index
        scf.for %arg1 = %c0_29 to %c16_30 step %c1_31 {
          %32 = aie.objectfifo.acquire @B_L2L1_5(Consume, 1) : !aie.objectfifosubview<memref<64x128xi8>>
          %33 = aie.objectfifo.subview.access %32[0] : !aie.objectfifosubview<memref<64x128xi8>> -> memref<64x128xi8>
          %34 = aie.objectfifo.acquire @A_L2L1_0(Consume, 1) : !aie.objectfifosubview<memref<32x64xi8>>
          %35 = aie.objectfifo.subview.access %34[0] : !aie.objectfifosubview<memref<32x64xi8>> -> memref<32x64xi8>
          func.call @matmul_i8_i16(%35, %33, %21) : (memref<32x64xi8>, memref<64x128xi8>, memref<32x128xi16>) -> ()
          aie.objectfifo.release @A_L2L1_0(Consume, 1)
          aie.objectfifo.release @B_L2L1_5(Consume, 1)
        }
        aie.objectfifo.release @C_L1L2_5_0(Produce, 1)
        %22 = aie.objectfifo.acquire @C_L1L2_5_0(Produce, 1) : !aie.objectfifosubview<memref<32x128xi16>>
        %23 = aie.objectfifo.subview.access %22[0] : !aie.objectfifosubview<memref<32x128xi16>> -> memref<32x128xi16>
        func.call @zero_i16(%23) : (memref<32x128xi16>) -> ()
        %c0_32 = arith.constant 0 : index
        %c16_33 = arith.constant 16 : index
        %c1_34 = arith.constant 1 : index
        scf.for %arg1 = %c0_32 to %c16_33 step %c1_34 {
          %32 = aie.objectfifo.acquire @B_L2L1_5(Consume, 1) : !aie.objectfifosubview<memref<64x128xi8>>
          %33 = aie.objectfifo.subview.access %32[0] : !aie.objectfifosubview<memref<64x128xi8>> -> memref<64x128xi8>
          %34 = aie.objectfifo.acquire @A_L2L1_0(Consume, 1) : !aie.objectfifosubview<memref<32x64xi8>>
          %35 = aie.objectfifo.subview.access %34[0] : !aie.objectfifosubview<memref<32x64xi8>> -> memref<32x64xi8>
          func.call @matmul_i8_i16(%35, %33, %23) : (memref<32x64xi8>, memref<64x128xi8>, memref<32x128xi16>) -> ()
          aie.objectfifo.release @A_L2L1_0(Consume, 1)
          aie.objectfifo.release @B_L2L1_5(Consume, 1)
        }
        aie.objectfifo.release @C_L1L2_5_0(Produce, 1)
        %24 = aie.objectfifo.acquire @C_L1L2_5_0(Produce, 1) : !aie.objectfifosubview<memref<32x128xi16>>
        %25 = aie.objectfifo.subview.access %24[0] : !aie.objectfifosubview<memref<32x128xi16>> -> memref<32x128xi16>
        func.call @zero_i16(%25) : (memref<32x128xi16>) -> ()
        %c0_35 = arith.constant 0 : index
        %c16_36 = arith.constant 16 : index
        %c1_37 = arith.constant 1 : index
        scf.for %arg1 = %c0_35 to %c16_36 step %c1_37 {
          %32 = aie.objectfifo.acquire @B_L2L1_5(Consume, 1) : !aie.objectfifosubview<memref<64x128xi8>>
          %33 = aie.objectfifo.subview.access %32[0] : !aie.objectfifosubview<memref<64x128xi8>> -> memref<64x128xi8>
          %34 = aie.objectfifo.acquire @A_L2L1_0(Consume, 1) : !aie.objectfifosubview<memref<32x64xi8>>
          %35 = aie.objectfifo.subview.access %34[0] : !aie.objectfifosubview<memref<32x64xi8>> -> memref<32x64xi8>
          func.call @matmul_i8_i16(%35, %33, %25) : (memref<32x64xi8>, memref<64x128xi8>, memref<32x128xi16>) -> ()
          aie.objectfifo.release @A_L2L1_0(Consume, 1)
          aie.objectfifo.release @B_L2L1_5(Consume, 1)
        }
        aie.objectfifo.release @C_L1L2_5_0(Produce, 1)
        %26 = aie.objectfifo.acquire @C_L1L2_5_0(Produce, 1) : !aie.objectfifosubview<memref<32x128xi16>>
        %27 = aie.objectfifo.subview.access %26[0] : !aie.objectfifosubview<memref<32x128xi16>> -> memref<32x128xi16>
        func.call @zero_i16(%27) : (memref<32x128xi16>) -> ()
        %c0_38 = arith.constant 0 : index
        %c16_39 = arith.constant 16 : index
        %c1_40 = arith.constant 1 : index
        scf.for %arg1 = %c0_38 to %c16_39 step %c1_40 {
          %32 = aie.objectfifo.acquire @B_L2L1_5(Consume, 1) : !aie.objectfifosubview<memref<64x128xi8>>
          %33 = aie.objectfifo.subview.access %32[0] : !aie.objectfifosubview<memref<64x128xi8>> -> memref<64x128xi8>
          %34 = aie.objectfifo.acquire @A_L2L1_0(Consume, 1) : !aie.objectfifosubview<memref<32x64xi8>>
          %35 = aie.objectfifo.subview.access %34[0] : !aie.objectfifosubview<memref<32x64xi8>> -> memref<32x64xi8>
          func.call @matmul_i8_i16(%35, %33, %27) : (memref<32x64xi8>, memref<64x128xi8>, memref<32x128xi16>) -> ()
          aie.objectfifo.release @A_L2L1_0(Consume, 1)
          aie.objectfifo.release @B_L2L1_5(Consume, 1)
        }
        aie.objectfifo.release @C_L1L2_5_0(Produce, 1)
        %28 = aie.objectfifo.acquire @C_L1L2_5_0(Produce, 1) : !aie.objectfifosubview<memref<32x128xi16>>
        %29 = aie.objectfifo.subview.access %28[0] : !aie.objectfifosubview<memref<32x128xi16>> -> memref<32x128xi16>
        func.call @zero_i16(%29) : (memref<32x128xi16>) -> ()
        %c0_41 = arith.constant 0 : index
        %c16_42 = arith.constant 16 : index
        %c1_43 = arith.constant 1 : index
        scf.for %arg1 = %c0_41 to %c16_42 step %c1_43 {
          %32 = aie.objectfifo.acquire @B_L2L1_5(Consume, 1) : !aie.objectfifosubview<memref<64x128xi8>>
          %33 = aie.objectfifo.subview.access %32[0] : !aie.objectfifosubview<memref<64x128xi8>> -> memref<64x128xi8>
          %34 = aie.objectfifo.acquire @A_L2L1_0(Consume, 1) : !aie.objectfifosubview<memref<32x64xi8>>
          %35 = aie.objectfifo.subview.access %34[0] : !aie.objectfifosubview<memref<32x64xi8>> -> memref<32x64xi8>
          func.call @matmul_i8_i16(%35, %33, %29) : (memref<32x64xi8>, memref<64x128xi8>, memref<32x128xi16>) -> ()
          aie.objectfifo.release @A_L2L1_0(Consume, 1)
          aie.objectfifo.release @B_L2L1_5(Consume, 1)
        }
        aie.objectfifo.release @C_L1L2_5_0(Produce, 1)
        %30 = aie.objectfifo.acquire @C_L1L2_5_0(Produce, 1) : !aie.objectfifosubview<memref<32x128xi16>>
        %31 = aie.objectfifo.subview.access %30[0] : !aie.objectfifosubview<memref<32x128xi16>> -> memref<32x128xi16>
        func.call @zero_i16(%31) : (memref<32x128xi16>) -> ()
        %c0_44 = arith.constant 0 : index
        %c16_45 = arith.constant 16 : index
        %c1_46 = arith.constant 1 : index
        scf.for %arg1 = %c0_44 to %c16_45 step %c1_46 {
          %32 = aie.objectfifo.acquire @B_L2L1_5(Consume, 1) : !aie.objectfifosubview<memref<64x128xi8>>
          %33 = aie.objectfifo.subview.access %32[0] : !aie.objectfifosubview<memref<64x128xi8>> -> memref<64x128xi8>
          %34 = aie.objectfifo.acquire @A_L2L1_0(Consume, 1) : !aie.objectfifosubview<memref<32x64xi8>>
          %35 = aie.objectfifo.subview.access %34[0] : !aie.objectfifosubview<memref<32x64xi8>> -> memref<32x64xi8>
          func.call @matmul_i8_i16(%35, %33, %31) : (memref<32x64xi8>, memref<64x128xi8>, memref<32x128xi16>) -> ()
          aie.objectfifo.release @A_L2L1_0(Consume, 1)
          aie.objectfifo.release @B_L2L1_5(Consume, 1)
        }
        aie.objectfifo.release @C_L1L2_5_0(Produce, 1)
      }
      aie.end
    } {stack_size = 3328 : i32}
    %core_6_2 = aie.core(%tile_6_2) {
      %c0 = arith.constant 0 : index
      %c4294967295 = arith.constant 4294967295 : index
      %c1 = arith.constant 1 : index
      scf.for %arg0 = %c0 to %c4294967295 step %c1 {
        %0 = aie.objectfifo.acquire @C_L1L2_6_0(Produce, 1) : !aie.objectfifosubview<memref<32x128xi16>>
        %1 = aie.objectfifo.subview.access %0[0] : !aie.objectfifosubview<memref<32x128xi16>> -> memref<32x128xi16>
        func.call @zero_i16(%1) : (memref<32x128xi16>) -> ()
        %c0_0 = arith.constant 0 : index
        %c16 = arith.constant 16 : index
        %c1_1 = arith.constant 1 : index
        scf.for %arg1 = %c0_0 to %c16 step %c1_1 {
          %32 = aie.objectfifo.acquire @B_L2L1_6(Consume, 1) : !aie.objectfifosubview<memref<64x128xi8>>
          %33 = aie.objectfifo.subview.access %32[0] : !aie.objectfifosubview<memref<64x128xi8>> -> memref<64x128xi8>
          %34 = aie.objectfifo.acquire @A_L2L1_0(Consume, 1) : !aie.objectfifosubview<memref<32x64xi8>>
          %35 = aie.objectfifo.subview.access %34[0] : !aie.objectfifosubview<memref<32x64xi8>> -> memref<32x64xi8>
          func.call @matmul_i8_i16(%35, %33, %1) : (memref<32x64xi8>, memref<64x128xi8>, memref<32x128xi16>) -> ()
          aie.objectfifo.release @A_L2L1_0(Consume, 1)
          aie.objectfifo.release @B_L2L1_6(Consume, 1)
        }
        aie.objectfifo.release @C_L1L2_6_0(Produce, 1)
        %2 = aie.objectfifo.acquire @C_L1L2_6_0(Produce, 1) : !aie.objectfifosubview<memref<32x128xi16>>
        %3 = aie.objectfifo.subview.access %2[0] : !aie.objectfifosubview<memref<32x128xi16>> -> memref<32x128xi16>
        func.call @zero_i16(%3) : (memref<32x128xi16>) -> ()
        %c0_2 = arith.constant 0 : index
        %c16_3 = arith.constant 16 : index
        %c1_4 = arith.constant 1 : index
        scf.for %arg1 = %c0_2 to %c16_3 step %c1_4 {
          %32 = aie.objectfifo.acquire @B_L2L1_6(Consume, 1) : !aie.objectfifosubview<memref<64x128xi8>>
          %33 = aie.objectfifo.subview.access %32[0] : !aie.objectfifosubview<memref<64x128xi8>> -> memref<64x128xi8>
          %34 = aie.objectfifo.acquire @A_L2L1_0(Consume, 1) : !aie.objectfifosubview<memref<32x64xi8>>
          %35 = aie.objectfifo.subview.access %34[0] : !aie.objectfifosubview<memref<32x64xi8>> -> memref<32x64xi8>
          func.call @matmul_i8_i16(%35, %33, %3) : (memref<32x64xi8>, memref<64x128xi8>, memref<32x128xi16>) -> ()
          aie.objectfifo.release @A_L2L1_0(Consume, 1)
          aie.objectfifo.release @B_L2L1_6(Consume, 1)
        }
        aie.objectfifo.release @C_L1L2_6_0(Produce, 1)
        %4 = aie.objectfifo.acquire @C_L1L2_6_0(Produce, 1) : !aie.objectfifosubview<memref<32x128xi16>>
        %5 = aie.objectfifo.subview.access %4[0] : !aie.objectfifosubview<memref<32x128xi16>> -> memref<32x128xi16>
        func.call @zero_i16(%5) : (memref<32x128xi16>) -> ()
        %c0_5 = arith.constant 0 : index
        %c16_6 = arith.constant 16 : index
        %c1_7 = arith.constant 1 : index
        scf.for %arg1 = %c0_5 to %c16_6 step %c1_7 {
          %32 = aie.objectfifo.acquire @B_L2L1_6(Consume, 1) : !aie.objectfifosubview<memref<64x128xi8>>
          %33 = aie.objectfifo.subview.access %32[0] : !aie.objectfifosubview<memref<64x128xi8>> -> memref<64x128xi8>
          %34 = aie.objectfifo.acquire @A_L2L1_0(Consume, 1) : !aie.objectfifosubview<memref<32x64xi8>>
          %35 = aie.objectfifo.subview.access %34[0] : !aie.objectfifosubview<memref<32x64xi8>> -> memref<32x64xi8>
          func.call @matmul_i8_i16(%35, %33, %5) : (memref<32x64xi8>, memref<64x128xi8>, memref<32x128xi16>) -> ()
          aie.objectfifo.release @A_L2L1_0(Consume, 1)
          aie.objectfifo.release @B_L2L1_6(Consume, 1)
        }
        aie.objectfifo.release @C_L1L2_6_0(Produce, 1)
        %6 = aie.objectfifo.acquire @C_L1L2_6_0(Produce, 1) : !aie.objectfifosubview<memref<32x128xi16>>
        %7 = aie.objectfifo.subview.access %6[0] : !aie.objectfifosubview<memref<32x128xi16>> -> memref<32x128xi16>
        func.call @zero_i16(%7) : (memref<32x128xi16>) -> ()
        %c0_8 = arith.constant 0 : index
        %c16_9 = arith.constant 16 : index
        %c1_10 = arith.constant 1 : index
        scf.for %arg1 = %c0_8 to %c16_9 step %c1_10 {
          %32 = aie.objectfifo.acquire @B_L2L1_6(Consume, 1) : !aie.objectfifosubview<memref<64x128xi8>>
          %33 = aie.objectfifo.subview.access %32[0] : !aie.objectfifosubview<memref<64x128xi8>> -> memref<64x128xi8>
          %34 = aie.objectfifo.acquire @A_L2L1_0(Consume, 1) : !aie.objectfifosubview<memref<32x64xi8>>
          %35 = aie.objectfifo.subview.access %34[0] : !aie.objectfifosubview<memref<32x64xi8>> -> memref<32x64xi8>
          func.call @matmul_i8_i16(%35, %33, %7) : (memref<32x64xi8>, memref<64x128xi8>, memref<32x128xi16>) -> ()
          aie.objectfifo.release @A_L2L1_0(Consume, 1)
          aie.objectfifo.release @B_L2L1_6(Consume, 1)
        }
        aie.objectfifo.release @C_L1L2_6_0(Produce, 1)
        %8 = aie.objectfifo.acquire @C_L1L2_6_0(Produce, 1) : !aie.objectfifosubview<memref<32x128xi16>>
        %9 = aie.objectfifo.subview.access %8[0] : !aie.objectfifosubview<memref<32x128xi16>> -> memref<32x128xi16>
        func.call @zero_i16(%9) : (memref<32x128xi16>) -> ()
        %c0_11 = arith.constant 0 : index
        %c16_12 = arith.constant 16 : index
        %c1_13 = arith.constant 1 : index
        scf.for %arg1 = %c0_11 to %c16_12 step %c1_13 {
          %32 = aie.objectfifo.acquire @B_L2L1_6(Consume, 1) : !aie.objectfifosubview<memref<64x128xi8>>
          %33 = aie.objectfifo.subview.access %32[0] : !aie.objectfifosubview<memref<64x128xi8>> -> memref<64x128xi8>
          %34 = aie.objectfifo.acquire @A_L2L1_0(Consume, 1) : !aie.objectfifosubview<memref<32x64xi8>>
          %35 = aie.objectfifo.subview.access %34[0] : !aie.objectfifosubview<memref<32x64xi8>> -> memref<32x64xi8>
          func.call @matmul_i8_i16(%35, %33, %9) : (memref<32x64xi8>, memref<64x128xi8>, memref<32x128xi16>) -> ()
          aie.objectfifo.release @A_L2L1_0(Consume, 1)
          aie.objectfifo.release @B_L2L1_6(Consume, 1)
        }
        aie.objectfifo.release @C_L1L2_6_0(Produce, 1)
        %10 = aie.objectfifo.acquire @C_L1L2_6_0(Produce, 1) : !aie.objectfifosubview<memref<32x128xi16>>
        %11 = aie.objectfifo.subview.access %10[0] : !aie.objectfifosubview<memref<32x128xi16>> -> memref<32x128xi16>
        func.call @zero_i16(%11) : (memref<32x128xi16>) -> ()
        %c0_14 = arith.constant 0 : index
        %c16_15 = arith.constant 16 : index
        %c1_16 = arith.constant 1 : index
        scf.for %arg1 = %c0_14 to %c16_15 step %c1_16 {
          %32 = aie.objectfifo.acquire @B_L2L1_6(Consume, 1) : !aie.objectfifosubview<memref<64x128xi8>>
          %33 = aie.objectfifo.subview.access %32[0] : !aie.objectfifosubview<memref<64x128xi8>> -> memref<64x128xi8>
          %34 = aie.objectfifo.acquire @A_L2L1_0(Consume, 1) : !aie.objectfifosubview<memref<32x64xi8>>
          %35 = aie.objectfifo.subview.access %34[0] : !aie.objectfifosubview<memref<32x64xi8>> -> memref<32x64xi8>
          func.call @matmul_i8_i16(%35, %33, %11) : (memref<32x64xi8>, memref<64x128xi8>, memref<32x128xi16>) -> ()
          aie.objectfifo.release @A_L2L1_0(Consume, 1)
          aie.objectfifo.release @B_L2L1_6(Consume, 1)
        }
        aie.objectfifo.release @C_L1L2_6_0(Produce, 1)
        %12 = aie.objectfifo.acquire @C_L1L2_6_0(Produce, 1) : !aie.objectfifosubview<memref<32x128xi16>>
        %13 = aie.objectfifo.subview.access %12[0] : !aie.objectfifosubview<memref<32x128xi16>> -> memref<32x128xi16>
        func.call @zero_i16(%13) : (memref<32x128xi16>) -> ()
        %c0_17 = arith.constant 0 : index
        %c16_18 = arith.constant 16 : index
        %c1_19 = arith.constant 1 : index
        scf.for %arg1 = %c0_17 to %c16_18 step %c1_19 {
          %32 = aie.objectfifo.acquire @B_L2L1_6(Consume, 1) : !aie.objectfifosubview<memref<64x128xi8>>
          %33 = aie.objectfifo.subview.access %32[0] : !aie.objectfifosubview<memref<64x128xi8>> -> memref<64x128xi8>
          %34 = aie.objectfifo.acquire @A_L2L1_0(Consume, 1) : !aie.objectfifosubview<memref<32x64xi8>>
          %35 = aie.objectfifo.subview.access %34[0] : !aie.objectfifosubview<memref<32x64xi8>> -> memref<32x64xi8>
          func.call @matmul_i8_i16(%35, %33, %13) : (memref<32x64xi8>, memref<64x128xi8>, memref<32x128xi16>) -> ()
          aie.objectfifo.release @A_L2L1_0(Consume, 1)
          aie.objectfifo.release @B_L2L1_6(Consume, 1)
        }
        aie.objectfifo.release @C_L1L2_6_0(Produce, 1)
        %14 = aie.objectfifo.acquire @C_L1L2_6_0(Produce, 1) : !aie.objectfifosubview<memref<32x128xi16>>
        %15 = aie.objectfifo.subview.access %14[0] : !aie.objectfifosubview<memref<32x128xi16>> -> memref<32x128xi16>
        func.call @zero_i16(%15) : (memref<32x128xi16>) -> ()
        %c0_20 = arith.constant 0 : index
        %c16_21 = arith.constant 16 : index
        %c1_22 = arith.constant 1 : index
        scf.for %arg1 = %c0_20 to %c16_21 step %c1_22 {
          %32 = aie.objectfifo.acquire @B_L2L1_6(Consume, 1) : !aie.objectfifosubview<memref<64x128xi8>>
          %33 = aie.objectfifo.subview.access %32[0] : !aie.objectfifosubview<memref<64x128xi8>> -> memref<64x128xi8>
          %34 = aie.objectfifo.acquire @A_L2L1_0(Consume, 1) : !aie.objectfifosubview<memref<32x64xi8>>
          %35 = aie.objectfifo.subview.access %34[0] : !aie.objectfifosubview<memref<32x64xi8>> -> memref<32x64xi8>
          func.call @matmul_i8_i16(%35, %33, %15) : (memref<32x64xi8>, memref<64x128xi8>, memref<32x128xi16>) -> ()
          aie.objectfifo.release @A_L2L1_0(Consume, 1)
          aie.objectfifo.release @B_L2L1_6(Consume, 1)
        }
        aie.objectfifo.release @C_L1L2_6_0(Produce, 1)
        %16 = aie.objectfifo.acquire @C_L1L2_6_0(Produce, 1) : !aie.objectfifosubview<memref<32x128xi16>>
        %17 = aie.objectfifo.subview.access %16[0] : !aie.objectfifosubview<memref<32x128xi16>> -> memref<32x128xi16>
        func.call @zero_i16(%17) : (memref<32x128xi16>) -> ()
        %c0_23 = arith.constant 0 : index
        %c16_24 = arith.constant 16 : index
        %c1_25 = arith.constant 1 : index
        scf.for %arg1 = %c0_23 to %c16_24 step %c1_25 {
          %32 = aie.objectfifo.acquire @B_L2L1_6(Consume, 1) : !aie.objectfifosubview<memref<64x128xi8>>
          %33 = aie.objectfifo.subview.access %32[0] : !aie.objectfifosubview<memref<64x128xi8>> -> memref<64x128xi8>
          %34 = aie.objectfifo.acquire @A_L2L1_0(Consume, 1) : !aie.objectfifosubview<memref<32x64xi8>>
          %35 = aie.objectfifo.subview.access %34[0] : !aie.objectfifosubview<memref<32x64xi8>> -> memref<32x64xi8>
          func.call @matmul_i8_i16(%35, %33, %17) : (memref<32x64xi8>, memref<64x128xi8>, memref<32x128xi16>) -> ()
          aie.objectfifo.release @A_L2L1_0(Consume, 1)
          aie.objectfifo.release @B_L2L1_6(Consume, 1)
        }
        aie.objectfifo.release @C_L1L2_6_0(Produce, 1)
        %18 = aie.objectfifo.acquire @C_L1L2_6_0(Produce, 1) : !aie.objectfifosubview<memref<32x128xi16>>
        %19 = aie.objectfifo.subview.access %18[0] : !aie.objectfifosubview<memref<32x128xi16>> -> memref<32x128xi16>
        func.call @zero_i16(%19) : (memref<32x128xi16>) -> ()
        %c0_26 = arith.constant 0 : index
        %c16_27 = arith.constant 16 : index
        %c1_28 = arith.constant 1 : index
        scf.for %arg1 = %c0_26 to %c16_27 step %c1_28 {
          %32 = aie.objectfifo.acquire @B_L2L1_6(Consume, 1) : !aie.objectfifosubview<memref<64x128xi8>>
          %33 = aie.objectfifo.subview.access %32[0] : !aie.objectfifosubview<memref<64x128xi8>> -> memref<64x128xi8>
          %34 = aie.objectfifo.acquire @A_L2L1_0(Consume, 1) : !aie.objectfifosubview<memref<32x64xi8>>
          %35 = aie.objectfifo.subview.access %34[0] : !aie.objectfifosubview<memref<32x64xi8>> -> memref<32x64xi8>
          func.call @matmul_i8_i16(%35, %33, %19) : (memref<32x64xi8>, memref<64x128xi8>, memref<32x128xi16>) -> ()
          aie.objectfifo.release @A_L2L1_0(Consume, 1)
          aie.objectfifo.release @B_L2L1_6(Consume, 1)
        }
        aie.objectfifo.release @C_L1L2_6_0(Produce, 1)
        %20 = aie.objectfifo.acquire @C_L1L2_6_0(Produce, 1) : !aie.objectfifosubview<memref<32x128xi16>>
        %21 = aie.objectfifo.subview.access %20[0] : !aie.objectfifosubview<memref<32x128xi16>> -> memref<32x128xi16>
        func.call @zero_i16(%21) : (memref<32x128xi16>) -> ()
        %c0_29 = arith.constant 0 : index
        %c16_30 = arith.constant 16 : index
        %c1_31 = arith.constant 1 : index
        scf.for %arg1 = %c0_29 to %c16_30 step %c1_31 {
          %32 = aie.objectfifo.acquire @B_L2L1_6(Consume, 1) : !aie.objectfifosubview<memref<64x128xi8>>
          %33 = aie.objectfifo.subview.access %32[0] : !aie.objectfifosubview<memref<64x128xi8>> -> memref<64x128xi8>
          %34 = aie.objectfifo.acquire @A_L2L1_0(Consume, 1) : !aie.objectfifosubview<memref<32x64xi8>>
          %35 = aie.objectfifo.subview.access %34[0] : !aie.objectfifosubview<memref<32x64xi8>> -> memref<32x64xi8>
          func.call @matmul_i8_i16(%35, %33, %21) : (memref<32x64xi8>, memref<64x128xi8>, memref<32x128xi16>) -> ()
          aie.objectfifo.release @A_L2L1_0(Consume, 1)
          aie.objectfifo.release @B_L2L1_6(Consume, 1)
        }
        aie.objectfifo.release @C_L1L2_6_0(Produce, 1)
        %22 = aie.objectfifo.acquire @C_L1L2_6_0(Produce, 1) : !aie.objectfifosubview<memref<32x128xi16>>
        %23 = aie.objectfifo.subview.access %22[0] : !aie.objectfifosubview<memref<32x128xi16>> -> memref<32x128xi16>
        func.call @zero_i16(%23) : (memref<32x128xi16>) -> ()
        %c0_32 = arith.constant 0 : index
        %c16_33 = arith.constant 16 : index
        %c1_34 = arith.constant 1 : index
        scf.for %arg1 = %c0_32 to %c16_33 step %c1_34 {
          %32 = aie.objectfifo.acquire @B_L2L1_6(Consume, 1) : !aie.objectfifosubview<memref<64x128xi8>>
          %33 = aie.objectfifo.subview.access %32[0] : !aie.objectfifosubview<memref<64x128xi8>> -> memref<64x128xi8>
          %34 = aie.objectfifo.acquire @A_L2L1_0(Consume, 1) : !aie.objectfifosubview<memref<32x64xi8>>
          %35 = aie.objectfifo.subview.access %34[0] : !aie.objectfifosubview<memref<32x64xi8>> -> memref<32x64xi8>
          func.call @matmul_i8_i16(%35, %33, %23) : (memref<32x64xi8>, memref<64x128xi8>, memref<32x128xi16>) -> ()
          aie.objectfifo.release @A_L2L1_0(Consume, 1)
          aie.objectfifo.release @B_L2L1_6(Consume, 1)
        }
        aie.objectfifo.release @C_L1L2_6_0(Produce, 1)
        %24 = aie.objectfifo.acquire @C_L1L2_6_0(Produce, 1) : !aie.objectfifosubview<memref<32x128xi16>>
        %25 = aie.objectfifo.subview.access %24[0] : !aie.objectfifosubview<memref<32x128xi16>> -> memref<32x128xi16>
        func.call @zero_i16(%25) : (memref<32x128xi16>) -> ()
        %c0_35 = arith.constant 0 : index
        %c16_36 = arith.constant 16 : index
        %c1_37 = arith.constant 1 : index
        scf.for %arg1 = %c0_35 to %c16_36 step %c1_37 {
          %32 = aie.objectfifo.acquire @B_L2L1_6(Consume, 1) : !aie.objectfifosubview<memref<64x128xi8>>
          %33 = aie.objectfifo.subview.access %32[0] : !aie.objectfifosubview<memref<64x128xi8>> -> memref<64x128xi8>
          %34 = aie.objectfifo.acquire @A_L2L1_0(Consume, 1) : !aie.objectfifosubview<memref<32x64xi8>>
          %35 = aie.objectfifo.subview.access %34[0] : !aie.objectfifosubview<memref<32x64xi8>> -> memref<32x64xi8>
          func.call @matmul_i8_i16(%35, %33, %25) : (memref<32x64xi8>, memref<64x128xi8>, memref<32x128xi16>) -> ()
          aie.objectfifo.release @A_L2L1_0(Consume, 1)
          aie.objectfifo.release @B_L2L1_6(Consume, 1)
        }
        aie.objectfifo.release @C_L1L2_6_0(Produce, 1)
        %26 = aie.objectfifo.acquire @C_L1L2_6_0(Produce, 1) : !aie.objectfifosubview<memref<32x128xi16>>
        %27 = aie.objectfifo.subview.access %26[0] : !aie.objectfifosubview<memref<32x128xi16>> -> memref<32x128xi16>
        func.call @zero_i16(%27) : (memref<32x128xi16>) -> ()
        %c0_38 = arith.constant 0 : index
        %c16_39 = arith.constant 16 : index
        %c1_40 = arith.constant 1 : index
        scf.for %arg1 = %c0_38 to %c16_39 step %c1_40 {
          %32 = aie.objectfifo.acquire @B_L2L1_6(Consume, 1) : !aie.objectfifosubview<memref<64x128xi8>>
          %33 = aie.objectfifo.subview.access %32[0] : !aie.objectfifosubview<memref<64x128xi8>> -> memref<64x128xi8>
          %34 = aie.objectfifo.acquire @A_L2L1_0(Consume, 1) : !aie.objectfifosubview<memref<32x64xi8>>
          %35 = aie.objectfifo.subview.access %34[0] : !aie.objectfifosubview<memref<32x64xi8>> -> memref<32x64xi8>
          func.call @matmul_i8_i16(%35, %33, %27) : (memref<32x64xi8>, memref<64x128xi8>, memref<32x128xi16>) -> ()
          aie.objectfifo.release @A_L2L1_0(Consume, 1)
          aie.objectfifo.release @B_L2L1_6(Consume, 1)
        }
        aie.objectfifo.release @C_L1L2_6_0(Produce, 1)
        %28 = aie.objectfifo.acquire @C_L1L2_6_0(Produce, 1) : !aie.objectfifosubview<memref<32x128xi16>>
        %29 = aie.objectfifo.subview.access %28[0] : !aie.objectfifosubview<memref<32x128xi16>> -> memref<32x128xi16>
        func.call @zero_i16(%29) : (memref<32x128xi16>) -> ()
        %c0_41 = arith.constant 0 : index
        %c16_42 = arith.constant 16 : index
        %c1_43 = arith.constant 1 : index
        scf.for %arg1 = %c0_41 to %c16_42 step %c1_43 {
          %32 = aie.objectfifo.acquire @B_L2L1_6(Consume, 1) : !aie.objectfifosubview<memref<64x128xi8>>
          %33 = aie.objectfifo.subview.access %32[0] : !aie.objectfifosubview<memref<64x128xi8>> -> memref<64x128xi8>
          %34 = aie.objectfifo.acquire @A_L2L1_0(Consume, 1) : !aie.objectfifosubview<memref<32x64xi8>>
          %35 = aie.objectfifo.subview.access %34[0] : !aie.objectfifosubview<memref<32x64xi8>> -> memref<32x64xi8>
          func.call @matmul_i8_i16(%35, %33, %29) : (memref<32x64xi8>, memref<64x128xi8>, memref<32x128xi16>) -> ()
          aie.objectfifo.release @A_L2L1_0(Consume, 1)
          aie.objectfifo.release @B_L2L1_6(Consume, 1)
        }
        aie.objectfifo.release @C_L1L2_6_0(Produce, 1)
        %30 = aie.objectfifo.acquire @C_L1L2_6_0(Produce, 1) : !aie.objectfifosubview<memref<32x128xi16>>
        %31 = aie.objectfifo.subview.access %30[0] : !aie.objectfifosubview<memref<32x128xi16>> -> memref<32x128xi16>
        func.call @zero_i16(%31) : (memref<32x128xi16>) -> ()
        %c0_44 = arith.constant 0 : index
        %c16_45 = arith.constant 16 : index
        %c1_46 = arith.constant 1 : index
        scf.for %arg1 = %c0_44 to %c16_45 step %c1_46 {
          %32 = aie.objectfifo.acquire @B_L2L1_6(Consume, 1) : !aie.objectfifosubview<memref<64x128xi8>>
          %33 = aie.objectfifo.subview.access %32[0] : !aie.objectfifosubview<memref<64x128xi8>> -> memref<64x128xi8>
          %34 = aie.objectfifo.acquire @A_L2L1_0(Consume, 1) : !aie.objectfifosubview<memref<32x64xi8>>
          %35 = aie.objectfifo.subview.access %34[0] : !aie.objectfifosubview<memref<32x64xi8>> -> memref<32x64xi8>
          func.call @matmul_i8_i16(%35, %33, %31) : (memref<32x64xi8>, memref<64x128xi8>, memref<32x128xi16>) -> ()
          aie.objectfifo.release @A_L2L1_0(Consume, 1)
          aie.objectfifo.release @B_L2L1_6(Consume, 1)
        }
        aie.objectfifo.release @C_L1L2_6_0(Produce, 1)
      }
      aie.end
    } {stack_size = 3328 : i32}
    %core_7_2 = aie.core(%tile_7_2) {
      %c0 = arith.constant 0 : index
      %c4294967295 = arith.constant 4294967295 : index
      %c1 = arith.constant 1 : index
      scf.for %arg0 = %c0 to %c4294967295 step %c1 {
        %0 = aie.objectfifo.acquire @C_L1L2_7_0(Produce, 1) : !aie.objectfifosubview<memref<32x128xi16>>
        %1 = aie.objectfifo.subview.access %0[0] : !aie.objectfifosubview<memref<32x128xi16>> -> memref<32x128xi16>
        func.call @zero_i16(%1) : (memref<32x128xi16>) -> ()
        %c0_0 = arith.constant 0 : index
        %c16 = arith.constant 16 : index
        %c1_1 = arith.constant 1 : index
        scf.for %arg1 = %c0_0 to %c16 step %c1_1 {
          %32 = aie.objectfifo.acquire @B_L2L1_7(Consume, 1) : !aie.objectfifosubview<memref<64x128xi8>>
          %33 = aie.objectfifo.subview.access %32[0] : !aie.objectfifosubview<memref<64x128xi8>> -> memref<64x128xi8>
          %34 = aie.objectfifo.acquire @A_L2L1_0(Consume, 1) : !aie.objectfifosubview<memref<32x64xi8>>
          %35 = aie.objectfifo.subview.access %34[0] : !aie.objectfifosubview<memref<32x64xi8>> -> memref<32x64xi8>
          func.call @matmul_i8_i16(%35, %33, %1) : (memref<32x64xi8>, memref<64x128xi8>, memref<32x128xi16>) -> ()
          aie.objectfifo.release @A_L2L1_0(Consume, 1)
          aie.objectfifo.release @B_L2L1_7(Consume, 1)
        }
        aie.objectfifo.release @C_L1L2_7_0(Produce, 1)
        %2 = aie.objectfifo.acquire @C_L1L2_7_0(Produce, 1) : !aie.objectfifosubview<memref<32x128xi16>>
        %3 = aie.objectfifo.subview.access %2[0] : !aie.objectfifosubview<memref<32x128xi16>> -> memref<32x128xi16>
        func.call @zero_i16(%3) : (memref<32x128xi16>) -> ()
        %c0_2 = arith.constant 0 : index
        %c16_3 = arith.constant 16 : index
        %c1_4 = arith.constant 1 : index
        scf.for %arg1 = %c0_2 to %c16_3 step %c1_4 {
          %32 = aie.objectfifo.acquire @B_L2L1_7(Consume, 1) : !aie.objectfifosubview<memref<64x128xi8>>
          %33 = aie.objectfifo.subview.access %32[0] : !aie.objectfifosubview<memref<64x128xi8>> -> memref<64x128xi8>
          %34 = aie.objectfifo.acquire @A_L2L1_0(Consume, 1) : !aie.objectfifosubview<memref<32x64xi8>>
          %35 = aie.objectfifo.subview.access %34[0] : !aie.objectfifosubview<memref<32x64xi8>> -> memref<32x64xi8>
          func.call @matmul_i8_i16(%35, %33, %3) : (memref<32x64xi8>, memref<64x128xi8>, memref<32x128xi16>) -> ()
          aie.objectfifo.release @A_L2L1_0(Consume, 1)
          aie.objectfifo.release @B_L2L1_7(Consume, 1)
        }
        aie.objectfifo.release @C_L1L2_7_0(Produce, 1)
        %4 = aie.objectfifo.acquire @C_L1L2_7_0(Produce, 1) : !aie.objectfifosubview<memref<32x128xi16>>
        %5 = aie.objectfifo.subview.access %4[0] : !aie.objectfifosubview<memref<32x128xi16>> -> memref<32x128xi16>
        func.call @zero_i16(%5) : (memref<32x128xi16>) -> ()
        %c0_5 = arith.constant 0 : index
        %c16_6 = arith.constant 16 : index
        %c1_7 = arith.constant 1 : index
        scf.for %arg1 = %c0_5 to %c16_6 step %c1_7 {
          %32 = aie.objectfifo.acquire @B_L2L1_7(Consume, 1) : !aie.objectfifosubview<memref<64x128xi8>>
          %33 = aie.objectfifo.subview.access %32[0] : !aie.objectfifosubview<memref<64x128xi8>> -> memref<64x128xi8>
          %34 = aie.objectfifo.acquire @A_L2L1_0(Consume, 1) : !aie.objectfifosubview<memref<32x64xi8>>
          %35 = aie.objectfifo.subview.access %34[0] : !aie.objectfifosubview<memref<32x64xi8>> -> memref<32x64xi8>
          func.call @matmul_i8_i16(%35, %33, %5) : (memref<32x64xi8>, memref<64x128xi8>, memref<32x128xi16>) -> ()
          aie.objectfifo.release @A_L2L1_0(Consume, 1)
          aie.objectfifo.release @B_L2L1_7(Consume, 1)
        }
        aie.objectfifo.release @C_L1L2_7_0(Produce, 1)
        %6 = aie.objectfifo.acquire @C_L1L2_7_0(Produce, 1) : !aie.objectfifosubview<memref<32x128xi16>>
        %7 = aie.objectfifo.subview.access %6[0] : !aie.objectfifosubview<memref<32x128xi16>> -> memref<32x128xi16>
        func.call @zero_i16(%7) : (memref<32x128xi16>) -> ()
        %c0_8 = arith.constant 0 : index
        %c16_9 = arith.constant 16 : index
        %c1_10 = arith.constant 1 : index
        scf.for %arg1 = %c0_8 to %c16_9 step %c1_10 {
          %32 = aie.objectfifo.acquire @B_L2L1_7(Consume, 1) : !aie.objectfifosubview<memref<64x128xi8>>
          %33 = aie.objectfifo.subview.access %32[0] : !aie.objectfifosubview<memref<64x128xi8>> -> memref<64x128xi8>
          %34 = aie.objectfifo.acquire @A_L2L1_0(Consume, 1) : !aie.objectfifosubview<memref<32x64xi8>>
          %35 = aie.objectfifo.subview.access %34[0] : !aie.objectfifosubview<memref<32x64xi8>> -> memref<32x64xi8>
          func.call @matmul_i8_i16(%35, %33, %7) : (memref<32x64xi8>, memref<64x128xi8>, memref<32x128xi16>) -> ()
          aie.objectfifo.release @A_L2L1_0(Consume, 1)
          aie.objectfifo.release @B_L2L1_7(Consume, 1)
        }
        aie.objectfifo.release @C_L1L2_7_0(Produce, 1)
        %8 = aie.objectfifo.acquire @C_L1L2_7_0(Produce, 1) : !aie.objectfifosubview<memref<32x128xi16>>
        %9 = aie.objectfifo.subview.access %8[0] : !aie.objectfifosubview<memref<32x128xi16>> -> memref<32x128xi16>
        func.call @zero_i16(%9) : (memref<32x128xi16>) -> ()
        %c0_11 = arith.constant 0 : index
        %c16_12 = arith.constant 16 : index
        %c1_13 = arith.constant 1 : index
        scf.for %arg1 = %c0_11 to %c16_12 step %c1_13 {
          %32 = aie.objectfifo.acquire @B_L2L1_7(Consume, 1) : !aie.objectfifosubview<memref<64x128xi8>>
          %33 = aie.objectfifo.subview.access %32[0] : !aie.objectfifosubview<memref<64x128xi8>> -> memref<64x128xi8>
          %34 = aie.objectfifo.acquire @A_L2L1_0(Consume, 1) : !aie.objectfifosubview<memref<32x64xi8>>
          %35 = aie.objectfifo.subview.access %34[0] : !aie.objectfifosubview<memref<32x64xi8>> -> memref<32x64xi8>
          func.call @matmul_i8_i16(%35, %33, %9) : (memref<32x64xi8>, memref<64x128xi8>, memref<32x128xi16>) -> ()
          aie.objectfifo.release @A_L2L1_0(Consume, 1)
          aie.objectfifo.release @B_L2L1_7(Consume, 1)
        }
        aie.objectfifo.release @C_L1L2_7_0(Produce, 1)
        %10 = aie.objectfifo.acquire @C_L1L2_7_0(Produce, 1) : !aie.objectfifosubview<memref<32x128xi16>>
        %11 = aie.objectfifo.subview.access %10[0] : !aie.objectfifosubview<memref<32x128xi16>> -> memref<32x128xi16>
        func.call @zero_i16(%11) : (memref<32x128xi16>) -> ()
        %c0_14 = arith.constant 0 : index
        %c16_15 = arith.constant 16 : index
        %c1_16 = arith.constant 1 : index
        scf.for %arg1 = %c0_14 to %c16_15 step %c1_16 {
          %32 = aie.objectfifo.acquire @B_L2L1_7(Consume, 1) : !aie.objectfifosubview<memref<64x128xi8>>
          %33 = aie.objectfifo.subview.access %32[0] : !aie.objectfifosubview<memref<64x128xi8>> -> memref<64x128xi8>
…
        aie.dma_bd(%arg1 : memref<4194304xi8>, 3932160, 131072, [<size = 1, stride = 0>, <size = 1, stride = 0>, <size = 1, stride = 0>, <size = 131072, stride = 1>]) {burst_length = 0 : i32}
        aie.end
      }
      aiex.dma_start_task(%126)
      %127 = aiex.dma_configure_task_for @B_L3L2_7 {
        aie.dma_bd(%arg1 : memref<4194304xi8>, 4063232, 131072, [<size = 1, stride = 0>, <size = 1, stride = 0>, <size = 1, stride = 0>, <size = 131072, stride = 1>]) {burst_length = 0 : i32}
        aie.end
      }
      aiex.dma_start_task(%127)
      %128 = aiex.dma_configure_task_for @C_L2L3_0 {
        aie.dma_bd(%arg2 : memref<524288xi16>, 134144, 4096, [<size = 1, stride = 0>, <size = 1, stride = 0>, <size = 32, stride = 4096>, <size = 128, stride = 1>]) {burst_length = 0 : i32}
        aie.end
      } {issue_token = true}
      aiex.dma_start_task(%128)
      %129 = aiex.dma_configure_task_for @C_L2L3_1 {
        aie.dma_bd(%arg2 : memref<524288xi16>, 134272, 4096, [<size = 1, stride = 0>, <size = 1, stride = 0>, <size = 32, stride = 4096>, <size = 128, stride = 1>]) {burst_length = 0 : i32}
        aie.end
      } {issue_token = true}
      aiex.dma_start_task(%129)
      %130 = aiex.dma_configure_task_for @C_L2L3_2 {
        aie.dma_bd(%arg2 : memref<524288xi16>, 134400, 4096, [<size = 1, stride = 0>, <size = 1, stride = 0>, <size = 32, stride = 4096>, <size = 128, stride = 1>]) {burst_length = 0 : i32}
        aie.end
      } {issue_token = true}
      aiex.dma_start_task(%130)
      %131 = aiex.dma_configure_task_for @C_L2L3_3 {
        aie.dma_bd(%arg2 : memref<524288xi16>, 134528, 4096, [<size = 1, stride = 0>, <size = 1, stride = 0>, <size = 32, stride = 4096>, <size = 128, stride = 1>]) {burst_length = 0 : i32}
        aie.end
      } {issue_token = true}
      aiex.dma_start_task(%131)
      %132 = aiex.dma_configure_task_for @C_L2L3_4 {
        aie.dma_bd(%arg2 : memref<524288xi16>, 134656, 4096, [<size = 1, stride = 0>, <size = 1, stride = 0>, <size = 32, stride = 4096>, <size = 128, stride = 1>]) {burst_length = 0 : i32}
        aie.end
      } {issue_token = true}
      aiex.dma_start_task(%132)
      %133 = aiex.dma_configure_task_for @C_L2L3_5 {
        aie.dma_bd(%arg2 : memref<524288xi16>, 134784, 4096, [<size = 1, stride = 0>, <size = 1, stride = 0>, <size = 32, stride = 4096>, <size = 128, stride = 1>]) {burst_length = 0 : i32}
        aie.end
      } {issue_token = true}
      aiex.dma_start_task(%133)
      %134 = aiex.dma_configure_task_for @C_L2L3_6 {
        aie.dma_bd(%arg2 : memref<524288xi16>, 134912, 4096, [<size = 1, stride = 0>, <size = 1, stride = 0>, <size = 32, stride = 4096>, <size = 128, stride = 1>]) {burst_length = 0 : i32}
        aie.end
      } {issue_token = true}
      aiex.dma_start_task(%134)
      %135 = aiex.dma_configure_task_for @C_L2L3_7 {
        aie.dma_bd(%arg2 : memref<524288xi16>, 135040, 4096, [<size = 1, stride = 0>, <size = 1, stride = 0>, <size = 32, stride = 4096>, <size = 128, stride = 1>]) {burst_length = 0 : i32}
        aie.end
      } {issue_token = true}
      aiex.dma_start_task(%135)
      aiex.dma_await_task(%128)
      aiex.dma_await_task(%129)
      aiex.dma_await_task(%130)
      aiex.dma_await_task(%131)
      aiex.dma_await_task(%132)
      aiex.dma_await_task(%133)
      aiex.dma_await_task(%134)
      aiex.dma_await_task(%135)
      aiex.dma_free_task(%119)
      aiex.dma_free_task(%120)
      aiex.dma_free_task(%121)
      aiex.dma_free_task(%122)
      aiex.dma_free_task(%123)
      aiex.dma_free_task(%124)
      aiex.dma_free_task(%125)
      aiex.dma_free_task(%126)
      aiex.dma_free_task(%127)
      %136 = aiex.dma_configure_task_for @A_L3L2_0 {
        aie.dma_bd(%arg0 : memref<131072xi8>, 65536, 32768, [<size = 1, stride = 0>, <size = 2, stride = 512>, <size = 32, stride = 1024>, <size = 512, stride = 1>]) {burst_length = 0 : i32}
        aie.end
      }
      aiex.dma_start_task(%136)
      %137 = aiex.dma_configure_task_for @B_L3L2_0 {
        aie.dma_bd(%arg1 : memref<4194304xi8>, 0, 131072, [<size = 1, stride = 0>, <size = 1, stride = 0>, <size = 1, stride = 0>, <size = 131072, stride = 1>]) {burst_length = 0 : i32}
        aie.end
      }
      aiex.dma_start_task(%137)
      %138 = aiex.dma_configure_task_for @B_L3L2_1 {
        aie.dma_bd(%arg1 : memref<4194304xi8>, 131072, 131072, [<size = 1, stride = 0>, <size = 1, stride = 0>, <size = 1, stride = 0>, <size = 131072, stride = 1>]) {burst_length = 0 : i32}
        aie.end
      }
      aiex.dma_start_task(%138)
      %139 = aiex.dma_configure_task_for @B_L3L2_2 {
        aie.dma_bd(%arg1 : memref<4194304xi8>, 262144, 131072, [<size = 1, stride = 0>, <size = 1, stride = 0>, <size = 1, stride = 0>, <size = 131072, stride = 1>]) {burst_length = 0 : i32}
        aie.end
      }
      aiex.dma_start_task(%139)
      %140 = aiex.dma_configure_task_for @B_L3L2_3 {
        aie.dma_bd(%arg1 : memref<4194304xi8>, 393216, 131072, [<size = 1, stride = 0>, <size = 1, stride = 0>, <size = 1, stride = 0>, <size = 131072, stride = 1>]) {burst_length = 0 : i32}
        aie.end
      }
      aiex.dma_start_task(%140)
      %141 = aiex.dma_configure_task_for @B_L3L2_4 {
        aie.dma_bd(%arg1 : memref<4194304xi8>, 524288, 131072, [<size = 1, stride = 0>, <size = 1, stride = 0>, <size = 1, stride = 0>, <size = 131072, stride = 1>]) {burst_length = 0 : i32}
        aie.end
      }
      aiex.dma_start_task(%141)
      %142 = aiex.dma_configure_task_for @B_L3L2_5 {
        aie.dma_bd(%arg1 : memref<4194304xi8>, 655360, 131072, [<size = 1, stride = 0>, <size = 1, stride = 0>, <size = 1, stride = 0>, <size = 131072, stride = 1>]) {burst_length = 0 : i32}
        aie.end
      }
      aiex.dma_start_task(%142)
      %143 = aiex.dma_configure_task_for @B_L3L2_6 {
        aie.dma_bd(%arg1 : memref<4194304xi8>, 786432, 131072, [<size = 1, stride = 0>, <size = 1, stride = 0>, <size = 1, stride = 0>, <size = 131072, stride = 1>]) {burst_length = 0 : i32}
        aie.end
      }
      aiex.dma_start_task(%143)
      %144 = aiex.dma_configure_task_for @B_L3L2_7 {
        aie.dma_bd(%arg1 : memref<4194304xi8>, 917504, 131072, [<size = 1, stride = 0>, <size = 1, stride = 0>, <size = 1, stride = 0>, <size = 131072, stride = 1>]) {burst_length = 0 : i32}
        aie.end
      }
      aiex.dma_start_task(%144)
      %145 = aiex.dma_configure_task_for @C_L2L3_0 {
        aie.dma_bd(%arg2 : memref<524288xi16>, 262144, 4096, [<size = 1, stride = 0>, <size = 1, stride = 0>, <size = 32, stride = 4096>, <size = 128, stride = 1>]) {burst_length = 0 : i32}
        aie.end
      } {issue_token = true}
      aiex.dma_start_task(%145)
      %146 = aiex.dma_configure_task_for @C_L2L3_1 {
        aie.dma_bd(%arg2 : memref<524288xi16>, 262272, 4096, [<size = 1, stride = 0>, <size = 1, stride = 0>, <size = 32, stride = 4096>, <size = 128, stride = 1>]) {burst_length = 0 : i32}
        aie.end
      } {issue_token = true}
      aiex.dma_start_task(%146)
      %147 = aiex.dma_configure_task_for @C_L2L3_2 {
        aie.dma_bd(%arg2 : memref<524288xi16>, 262400, 4096, [<size = 1, stride = 0>, <size = 1, stride = 0>, <size = 32, stride = 4096>, <size = 128, stride = 1>]) {burst_length = 0 : i32}
        aie.end
      } {issue_token = true}
      aiex.dma_start_task(%147)
      %148 = aiex.dma_configure_task_for @C_L2L3_3 {
        aie.dma_bd(%arg2 : memref<524288xi16>, 262528, 4096, [<size = 1, stride = 0>, <size = 1, stride = 0>, <size = 32, stride = 4096>, <size = 128, stride = 1>]) {burst_length = 0 : i32}
        aie.end
      } {issue_token = true}
      aiex.dma_start_task(%148)
      %149 = aiex.dma_configure_task_for @C_L2L3_4 {
        aie.dma_bd(%arg2 : memref<524288xi16>, 262656, 4096, [<size = 1, stride = 0>, <size = 1, stride = 0>, <size = 32, stride = 4096>, <size = 128, stride = 1>]) {burst_length = 0 : i32}
        aie.end
      } {issue_token = true}
      aiex.dma_start_task(%149)
      %150 = aiex.dma_configure_task_for @C_L2L3_5 {
        aie.dma_bd(%arg2 : memref<524288xi16>, 262784, 4096, [<size = 1, stride = 0>, <size = 1, stride = 0>, <size = 32, stride = 4096>, <size = 128, stride = 1>]) {burst_length = 0 : i32}
        aie.end
      } {issue_token = true}
      aiex.dma_start_task(%150)
      %151 = aiex.dma_configure_task_for @C_L2L3_6 {
        aie.dma_bd(%arg2 : memref<524288xi16>, 262912, 4096, [<size = 1, stride = 0>, <size = 1, stride = 0>, <size = 32, stride = 4096>, <size = 128, stride = 1>]) {burst_length = 0 : i32}
        aie.end
      } {issue_token = true}
      aiex.dma_start_task(%151)
      %152 = aiex.dma_configure_task_for @C_L2L3_7 {
        aie.dma_bd(%arg2 : memref<524288xi16>, 263040, 4096, [<size = 1, stride = 0>, <size = 1, stride = 0>, <size = 32, stride = 4096>, <size = 128, stride = 1>]) {burst_length = 0 : i32}
        aie.end
      } {issue_token = true}
      aiex.dma_start_task(%152)
      aiex.dma_await_task(%145)
      aiex.dma_await_task(%146)
      aiex.dma_await_task(%147)
      aiex.dma_await_task(%148)
      aiex.dma_await_task(%149)
      aiex.dma_await_task(%150)
      aiex.dma_await_task(%151)
      aiex.dma_await_task(%152)
      aiex.dma_free_task(%136)
      aiex.dma_free_task(%137)
      aiex.dma_free_task(%138)
      aiex.dma_free_task(%139)
      aiex.dma_free_task(%140)
      aiex.dma_free_task(%141)
      aiex.dma_free_task(%142)
      aiex.dma_free_task(%143)
      aiex.dma_free_task(%144)
      %153 = aiex.dma_configure_task_for @A_L3L2_0 {
        aie.dma_bd(%arg0 : memref<131072xi8>, 65536, 32768, [<size = 1, stride = 0>, <size = 2, stride = 512>, <size = 32, stride = 1024>, <size = 512, stride = 1>]) {burst_length = 0 : i32}
        aie.end
      }
      aiex.dma_start_task(%153)
      %154 = aiex.dma_configure_task_for @B_L3L2_0 {
        aie.dma_bd(%arg1 : memref<4194304xi8>, 1048576, 131072, [<size = 1, stride = 0>, <size = 1, stride = 0>, <size = 1, stride = 0>, <size = 131072, stride = 1>]) {burst_length = 0 : i32}
        aie.end
      }
      aiex.dma_start_task(%154)
      %155 = aiex.dma_configure_task_for @B_L3L2_1 {
        aie.dma_bd(%arg1 : memref<4194304xi8>, 1179648, 131072, [<size = 1, stride = 0>, <size = 1, stride = 0>, <size = 1, stride = 0>, <size = 131072, stride = 1>]) {burst_length = 0 : i32}
        aie.end
      }
      aiex.dma_start_task(%155)
      %156 = aiex.dma_configure_task_for @B_L3L2_2 {
        aie.dma_bd(%arg1 : memref<4194304xi8>, 1310720, 131072, [<size = 1, stride = 0>, <size = 1, stride = 0>, <size = 1, stride = 0>, <size = 131072, stride = 1>]) {burst_length = 0 : i32}
        aie.end
      }
      aiex.dma_start_task(%156)
      %157 = aiex.dma_configure_task_for @B_L3L2_3 {
        aie.dma_bd(%arg1 : memref<4194304xi8>, 1441792, 131072, [<size = 1, stride = 0>, <size = 1, stride = 0>, <size = 1, stride = 0>, <size = 131072, stride = 1>]) {burst_length = 0 : i32}
        aie.end
      }
      aiex.dma_start_task(%157)
      %158 = aiex.dma_configure_task_for @B_L3L2_4 {
        aie.dma_bd(%arg1 : memref<4194304xi8>, 1572864, 131072, [<size = 1, stride = 0>, <size = 1, stride = 0>, <size = 1, stride = 0>, <size = 131072, stride = 1>]) {burst_length = 0 : i32}
        aie.end
      }
      aiex.dma_start_task(%158)
      %159 = aiex.dma_configure_task_for @B_L3L2_5 {
        aie.dma_bd(%arg1 : memref<4194304xi8>, 1703936, 131072, [<size = 1, stride = 0>, <size = 1, stride = 0>, <size = 1, stride = 0>, <size = 131072, stride = 1>]) {burst_length = 0 : i32}
        aie.end
      }
      aiex.dma_start_task(%159)
      %160 = aiex.dma_configure_task_for @B_L3L2_6 {
        aie.dma_bd(%arg1 : memref<4194304xi8>, 1835008, 131072, [<size = 1, stride = 0>, <size = 1, stride = 0>, <size = 1, stride = 0>, <size = 131072, stride = 1>]) {burst_length = 0 : i32}
        aie.end
      }
      aiex.dma_start_task(%160)
      %161 = aiex.dma_configure_task_for @B_L3L2_7 {
        aie.dma_bd(%arg1 : memref<4194304xi8>, 1966080, 131072, [<size = 1, stride = 0>, <size = 1, stride = 0>, <size = 1, stride = 0>, <size = 131072, stride = 1>]) {burst_length = 0 : i32}
        aie.end
      }
      aiex.dma_start_task(%161)
      %162 = aiex.dma_configure_task_for @C_L2L3_0 {
        aie.dma_bd(%arg2 : memref<524288xi16>, 263168, 4096, [<size = 1, stride = 0>, <size = 1, stride = 0>, <size = 32, stride = 4096>, <size = 128, stride = 1>]) {burst_length = 0 : i32}
        aie.end
      } {issue_token = true}
      aiex.dma_start_task(%162)
      %163 = aiex.dma_configure_task_for @C_L2L3_1 {
        aie.dma_bd(%arg2 : memref<524288xi16>, 263296, 4096, [<size = 1, stride = 0>, <size = 1, stride = 0>, <size = 32, stride = 4096>, <size = 128, stride = 1>]) {burst_length = 0 : i32}
        aie.end
      } {issue_token = true}
      aiex.dma_start_task(%163)
      %164 = aiex.dma_configure_task_for @C_L2L3_2 {
        aie.dma_bd(%arg2 : memref<524288xi16>, 263424, 4096, [<size = 1, stride = 0>, <size = 1, stride = 0>, <size = 32, stride = 4096>, <size = 128, stride = 1>]) {burst_length = 0 : i32}
        aie.end
      } {issue_token = true}
      aiex.dma_start_task(%164)
      %165 = aiex.dma_configure_task_for @C_L2L3_3 {
        aie.dma_bd(%arg2 : memref<524288xi16>, 263552, 4096, [<size = 1, stride = 0>, <size = 1, stride = 0>, <size = 32, stride = 4096>, <size = 128, stride = 1>]) {burst_length = 0 : i32}
        aie.end
      } {issue_token = true}
      aiex.dma_start_task(%165)
      %166 = aiex.dma_configure_task_for @C_L2L3_4 {
        aie.dma_bd(%arg2 : memref<524288xi16>, 263680, 4096, [<size = 1, stride = 0>, <size = 1, stride = 0>, <size = 32, stride = 4096>, <size = 128, stride = 1>]) {burst_length = 0 : i32}
        aie.end
      } {issue_token = true}
      aiex.dma_start_task(%166)
      %167 = aiex.dma_configure_task_for @C_L2L3_5 {
        aie.dma_bd(%arg2 : memref<524288xi16>, 263808, 4096, [<size = 1, stride = 0>, <size = 1, stride = 0>, <size = 32, stride = 4096>, <size = 128, stride = 1>]) {burst_length = 0 : i32}
        aie.end
      } {issue_token = true}
      aiex.dma_start_task(%167)
      %168 = aiex.dma_configure_task_for @C_L2L3_6 {
        aie.dma_bd(%arg2 : memref<524288xi16>, 263936, 4096, [<size = 1, stride = 0>, <size = 1, stride = 0>, <size = 32, stride = 4096>, <size = 128, stride = 1>]) {burst_length = 0 : i32}
        aie.end
      } {issue_token = true}
      aiex.dma_start_task(%168)
      %169 = aiex.dma_configure_task_for @C_L2L3_7 {
        aie.dma_bd(%arg2 : memref<524288xi16>, 264064, 4096, [<size = 1, stride = 0>, <size = 1, stride = 0>, <size = 32, stride = 4096>, <size = 128, stride = 1>]) {burst_length = 0 : i32}
        aie.end
      } {issue_token = true}
      aiex.dma_start_task(%169)
      aiex.dma_await_task(%162)
      aiex.dma_await_task(%163)
      aiex.dma_await_task(%164)
      aiex.dma_await_task(%165)
      aiex.dma_await_task(%166)
      aiex.dma_await_task(%167)
      aiex.dma_await_task(%168)
      aiex.dma_await_task(%169)
      aiex.dma_free_task(%153)
      aiex.dma_free_task(%154)
      aiex.dma_free_task(%155)
      aiex.dma_free_task(%156)
      aiex.dma_free_task(%157)
      aiex.dma_free_task(%158)
      aiex.dma_free_task(%159)
      aiex.dma_free_task(%160)
      aiex.dma_free_task(%161)
      %170 = aiex.dma_configure_task_for @A_L3L2_0 {
        aie.dma_bd(%arg0 : memref<131072xi8>, 65536, 32768, [<size = 1, stride = 0>, <size = 2, stride = 512>, <size = 32, stride = 1024>, <size = 512, stride = 1>]) {burst_length = 0 : i32}
        aie.end
      }
      aiex.dma_start_task(%170)
      %171 = aiex.dma_configure_task_for @B_L3L2_0 {
        aie.dma_bd(%arg1 : memref<4194304xi8>, 2097152, 131072, [<size = 1, stride = 0>, <size = 1, stride = 0>, <size = 1, stride = 0>, <size = 131072, stride = 1>]) {burst_length = 0 : i32}
        aie.end
      }
      aiex.dma_start_task(%171)
      %172 = aiex.dma_configure_task_for @B_L3L2_1 {
        aie.dma_bd(%arg1 : memref<4194304xi8>, 2228224, 131072, [<size = 1, stride = 0>, <size = 1, stride = 0>, <size = 1, stride = 0>, <size = 131072, stride = 1>]) {burst_length = 0 : i32}
        aie.end
      }
      aiex.dma_start_task(%172)
      %173 = aiex.dma_configure_task_for @B_L3L2_2 {
        aie.dma_bd(%arg1 : memref<4194304xi8>, 2359296, 131072, [<size = 1, stride = 0>, <size = 1, stride = 0>, <size = 1, stride = 0>, <size = 131072, stride = 1>]) {burst_length = 0 : i32}
        aie.end
      }
      aiex.dma_start_task(%173)
      %174 = aiex.dma_configure_task_for @B_L3L2_3 {
        aie.dma_bd(%arg1 : memref<4194304xi8>, 2490368, 131072, [<size = 1, stride = 0>, <size = 1, stride = 0>, <size = 1, stride = 0>, <size = 131072, stride = 1>]) {burst_length = 0 : i32}
        aie.end
      }
      aiex.dma_start_task(%174)
      %175 = aiex.dma_configure_task_for @B_L3L2_4 {
        aie.dma_bd(%arg1 : memref<4194304xi8>, 2621440, 131072, [<size = 1, stride = 0>, <size = 1, stride = 0>, <size = 1, stride = 0>, <size = 131072, stride = 1>]) {burst_length = 0 : i32}
        aie.end
      }
      aiex.dma_start_task(%175)
      %176 = aiex.dma_configure_task_for @B_L3L2_5 {
        aie.dma_bd(%arg1 : memref<4194304xi8>, 2752512, 131072, [<size = 1, stride = 0>, <size = 1, stride = 0>, <size = 1, stride = 0>, <size = 131072, stride = 1>]) {burst_length = 0 : i32}
        aie.end
      }
      aiex.dma_start_task(%176)
      %177 = aiex.dma_configure_task_for @B_L3L2_6 {
        aie.dma_bd(%arg1 : memref<4194304xi8>, 2883584, 131072, [<size = 1, stride = 0>, <size = 1, stride = 0>, <size = 1, stride = 0>, <size = 131072, stride = 1>]) {burst_length = 0 : i32}
        aie.end
      }
      aiex.dma_start_task(%177)
      %178 = aiex.dma_configure_task_for @B_L3L2_7 {
        aie.dma_bd(%arg1 : memref<4194304xi8>, 3014656, 131072, [<size = 1, stride = 0>, <size = 1, stride = 0>, <size = 1, stride = 0>, <size = 131072, stride = 1>]) {burst_length = 0 : i32}
        aie.end
      }
      aiex.dma_start_task(%178)
      %179 = aiex.dma_configure_task_for @C_L2L3_0 {
        aie.dma_bd(%arg2 : memref<524288xi16>, 264192, 4096, [<size = 1, stride = 0>, <size = 1, stride = 0>, <size = 32, stride = 4096>, <size = 128, stride = 1>]) {burst_length = 0 : i32}
        aie.end
      } {issue_token = true}
      aiex.dma_start_task(%179)
      %180 = aiex.dma_configure_task_for @C_L2L3_1 {
        aie.dma_bd(%arg2 : memref<524288xi16>, 264320, 4096, [<size = 1, stride = 0>, <size = 1, stride = 0>, <size = 32, stride = 4096>, <size = 128, stride = 1>]) {burst_length = 0 : i32}
        aie.end
      } {issue_token = true}
      aiex.dma_start_task(%180)
      %181 = aiex.dma_configure_task_for @C_L2L3_2 {
        aie.dma_bd(%arg2 : memref<524288xi16>, 264448, 4096, [<size = 1, stride = 0>, <size = 1, stride = 0>, <size = 32, stride = 4096>, <size = 128, stride = 1>]) {burst_length = 0 : i32}
        aie.end
      } {issue_token = true}
      aiex.dma_start_task(%181)
      %182 = aiex.dma_configure_task_for @C_L2L3_3 {
        aie.dma_bd(%arg2 : memref<524288xi16>, 264576, 4096, [<size = 1, stride = 0>, <size = 1, stride = 0>, <size = 32, stride = 4096>, <size = 128, stride = 1>]) {burst_length = 0 : i32}
        aie.end
      } {issue_token = true}
      aiex.dma_start_task(%182)
      %183 = aiex.dma_configure_task_for @C_L2L3_4 {
        aie.dma_bd(%arg2 : memref<524288xi16>, 264704, 4096, [<size = 1, stride = 0>, <size = 1, stride = 0>, <size = 32, stride = 4096>, <size = 128, stride = 1>]) {burst_length = 0 : i32}
        aie.end
      } {issue_token = true}
      aiex.dma_start_task(%183)
      %184 = aiex.dma_configure_task_for @C_L2L3_5 {
        aie.dma_bd(%arg2 : memref<524288xi16>, 264832, 4096, [<size = 1, stride = 0>, <size = 1, stride = 0>, <size = 32, stride = 4096>, <size = 128, stride = 1>]) {burst_length = 0 : i32}
        aie.end
      } {issue_token = true}
      aiex.dma_start_task(%184)
      %185 = aiex.dma_configure_task_for @C_L2L3_6 {
        aie.dma_bd(%arg2 : memref<524288xi16>, 264960, 4096, [<size = 1, stride = 0>, <size = 1, stride = 0>, <size = 32, stride = 4096>, <size = 128, stride = 1>]) {burst_length = 0 : i32}
        aie.end
      } {issue_token = true}
      aiex.dma_start_task(%185)
      %186 = aiex.dma_configure_task_for @C_L2L3_7 {
        aie.dma_bd(%arg2 : memref<524288xi16>, 265088, 4096, [<size = 1, stride = 0>, <size = 1, stride = 0>, <size = 32, stride = 4096>, <size = 128, stride = 1>]) {burst_length = 0 : i32}
        aie.end
      } {issue_token = true}
      aiex.dma_start_task(%186)
      aiex.dma_await_task(%179)
      aiex.dma_await_task(%180)
      aiex.dma_await_task(%181)
      aiex.dma_await_task(%182)
      aiex.dma_await_task(%183)
      aiex.dma_await_task(%184)
      aiex.dma_await_task(%185)
      aiex.dma_await_task(%186)
      aiex.dma_free_task(%170)
      aiex.dma_free_task(%171)
      aiex.dma_free_task(%172)
      aiex.dma_free_task(%173)
      aiex.dma_free_task(%174)
      aiex.dma_free_task(%175)
      aiex.dma_free_task(%176)
      aiex.dma_free_task(%177)
      aiex.dma_free_task(%178)
      %187 = aiex.dma_configure_task_for @A_L3L2_0 {
        aie.dma_bd(%arg0 : memref<131072xi8>, 65536, 32768, [<size = 1, stride = 0>, <size = 2, stride = 512>, <size = 32, stride = 1024>, <size = 512, stride = 1>]) {burst_length = 0 : i32}
        aie.end
      }
      aiex.dma_start_task(%187)
      %188 = aiex.dma_configure_task_for @B_L3L2_0 {
        aie.dma_bd(%arg1 : memref<4194304xi8>, 3145728, 131072, [<size = 1, stride = 0>, <size = 1, stride = 0>, <size = 1, stride = 0>, <size = 131072, stride = 1>]) {burst_length = 0 : i32}
        aie.end
      }
      aiex.dma_start_task(%188)
      %189 = aiex.dma_configure_task_for @B_L3L2_1 {
        aie.dma_bd(%arg1 : memref<4194304xi8>, 3276800, 131072, [<size = 1, stride = 0>, <size = 1, stride = 0>, <size = 1, stride = 0>, <size = 131072, stride = 1>]) {burst_length = 0 : i32}
        aie.end
      }
      aiex.dma_start_task(%189)
      %190 = aiex.dma_configure_task_for @B_L3L2_2 {
        aie.dma_bd(%arg1 : memref<4194304xi8>, 3407872, 131072, [<size = 1, stride = 0>, <size = 1, stride = 0>, <size = 1, stride = 0>, <size = 131072, stride = 1>]) {burst_length = 0 : i32}
        aie.end
      }
      aiex.dma_start_task(%190)
      %191 = aiex.dma_configure_task_for @B_L3L2_3 {
        aie.dma_bd(%arg1 : memref<4194304xi8>, 3538944, 131072, [<size = 1, stride = 0>, <size = 1, stride = 0>, <size = 1, stride = 0>, <size = 131072, stride = 1>]) {burst_length = 0 : i32}
        aie.end
      }
      aiex.dma_start_task(%191)
      %192 = aiex.dma_configure_task_for @B_L3L2_4 {
        aie.dma_bd(%arg1 : memref<4194304xi8>, 3670016, 131072, [<size = 1, stride = 0>, <size = 1, stride = 0>, <size = 1, stride = 0>, <size = 131072, stride = 1>]) {burst_length = 0 : i32}
        aie.end
      }
      aiex.dma_start_task(%192)
      %193 = aiex.dma_configure_task_for @B_L3L2_5 {
        aie.dma_bd(%arg1 : memref<4194304xi8>, 3801088, 131072, [<size = 1, stride = 0>, <size = 1, stride = 0>, <size = 1, stride = 0>, <size = 131072, stride = 1>]) {burst_length = 0 : i32}
        aie.end
      }
      aiex.dma_start_task(%193)
      %194 = aiex.dma_configure_task_for @B_L3L2_6 {
        aie.dma_bd(%arg1 : memref<4194304xi8>, 3932160, 131072, [<size = 1, stride = 0>, <size = 1, stride = 0>, <size = 1, stride = 0>, <size = 131072, stride = 1>]) {burst_length = 0 : i32}
        aie.end
      }
      aiex.dma_start_task(%194)
      %195 = aiex.dma_configure_task_for @B_L3L2_7 {
        aie.dma_bd(%arg1 : memref<4194304xi8>, 4063232, 131072, [<size = 1, stride = 0>, <size = 1, stride = 0>, <size = 1, stride = 0>, <size = 131072, stride = 1>]) {burst_length = 0 : i32}
        aie.end
      }
      aiex.dma_start_task(%195)
      %196 = aiex.dma_configure_task_for @C_L2L3_0 {
        aie.dma_bd(%arg2 : memref<524288xi16>, 265216, 4096, [<size = 1, stride = 0>, <size = 1, stride = 0>, <size = 32, stride = 4096>, <size = 128, stride = 1>]) {burst_length = 0 : i32}
        aie.end
      } {issue_token = true}
      aiex.dma_start_task(%196)
      %197 = aiex.dma_configure_task_for @C_L2L3_1 {
        aie.dma_bd(%arg2 : memref<524288xi16>, 265344, 4096, [<size = 1, stride = 0>, <size = 1, stride = 0>, <size = 32, stride = 4096>, <size = 128, stride = 1>]) {burst_length = 0 : i32}
        aie.end
      } {issue_token = true}
      aiex.dma_start_task(%197)
      %198 = aiex.dma_configure_task_for @C_L2L3_2 {
        aie.dma_bd(%arg2 : memref<524288xi16>, 265472, 4096, [<size = 1, stride = 0>, <size = 1, stride = 0>, <size = 32, stride = 4096>, <size = 128, stride = 1>]) {burst_length = 0 : i32}
        aie.end
      } {issue_token = true}
      aiex.dma_start_task(%198)
      %199 = aiex.dma_configure_task_for @C_L2L3_3 {
        aie.dma_bd(%arg2 : memref<524288xi16>, 265600, 4096, [<size = 1, stride = 0>, <size = 1, stride = 0>, <size = 32, stride = 4096>, <size = 128, stride = 1>]) {burst_length = 0 : i32}
        aie.end
      } {issue_token = true}
      aiex.dma_start_task(%199)
      %200 = aiex.dma_configure_task_for @C_L2L3_4 {
        aie.dma_bd(%arg2 : memref<524288xi16>, 265728, 4096, [<size = 1, stride = 0>, <size = 1, stride = 0>, <size = 32, stride = 4096>, <size = 128, stride = 1>]) {burst_length = 0 : i32}
        aie.end
      } {issue_token = true}
      aiex.dma_start_task(%200)
      %201 = aiex.dma_configure_task_for @C_L2L3_5 {
        aie.dma_bd(%arg2 : memref<524288xi16>, 265856, 4096, [<size = 1, stride = 0>, <size = 1, stride = 0>, <size = 32, stride = 4096>, <size = 128, stride = 1>]) {burst_length = 0 : i32}
        aie.end
      } {issue_token = true}
      aiex.dma_start_task(%201)
      %202 = aiex.dma_configure_task_for @C_L2L3_6 {
        aie.dma_bd(%arg2 : memref<524288xi16>, 265984, 4096, [<size = 1, stride = 0>, <size = 1, stride = 0>, <size = 32, stride = 4096>, <size = 128, stride = 1>]) {burst_length = 0 : i32}
        aie.end
      } {issue_token = true}
      aiex.dma_start_task(%202)
      %203 = aiex.dma_configure_task_for @C_L2L3_7 {
        aie.dma_bd(%arg2 : memref<524288xi16>, 266112, 4096, [<size = 1, stride = 0>, <size = 1, stride = 0>, <size = 32, stride = 4096>, <size = 128, stride = 1>]) {burst_length = 0 : i32}
        aie.end
      } {issue_token = true}
      aiex.dma_start_task(%203)
      aiex.dma_await_task(%196)
      aiex.dma_await_task(%197)
      aiex.dma_await_task(%198)
      aiex.dma_await_task(%199)
      aiex.dma_await_task(%200)
      aiex.dma_await_task(%201)
      aiex.dma_await_task(%202)
      aiex.dma_await_task(%203)
      aiex.dma_free_task(%187)
      aiex.dma_free_task(%188)
      aiex.dma_free_task(%189)
      aiex.dma_free_task(%190)
      aiex.dma_free_task(%191)
      aiex.dma_free_task(%192)
      aiex.dma_free_task(%193)
      aiex.dma_free_task(%194)
      aiex.dma_free_task(%195)
      %204 = aiex.dma_configure_task_for @A_L3L2_0 {
        aie.dma_bd(%arg0 : memref<131072xi8>, 98304, 32768, [<size = 1, stride = 0>, <size = 2, stride = 512>, <size = 32, stride = 1024>, <size = 512, stride = 1>]) {burst_length = 0 : i32}
        aie.end
      }
      aiex.dma_start_task(%204)
      %205 = aiex.dma_configure_task_for @B_L3L2_0 {
        aie.dma_bd(%arg1 : memref<4194304xi8>, 0, 131072, [<size = 1, stride = 0>, <size = 1, stride = 0>, <size = 1, stride = 0>, <size = 131072, stride = 1>]) {burst_length = 0 : i32}
        aie.end
      }
      aiex.dma_start_task(%205)
      %206 = aiex.dma_configure_task_for @B_L3L2_1 {
        aie.dma_bd(%arg1 : memref<4194304xi8>, 131072, 131072, [<size = 1, stride = 0>, <size = 1, stride = 0>, <size = 1, stride = 0>, <size = 131072, stride = 1>]) {burst_length = 0 : i32}
        aie.end
      }
      aiex.dma_start_task(%206)
      %207 = aiex.dma_configure_task_for @B_L3L2_2 {
        aie.dma_bd(%arg1 : memref<4194304xi8>, 262144, 131072, [<size = 1, stride = 0>, <size = 1, stride = 0>, <size = 1, stride = 0>, <size = 131072, stride = 1>]) {burst_length = 0 : i32}
        aie.end
      }
      aiex.dma_start_task(%207)
      %208 = aiex.dma_configure_task_for @B_L3L2_3 {
        aie.dma_bd(%arg1 : memref<4194304xi8>, 393216, 131072, [<size = 1, stride = 0>, <size = 1, stride = 0>, <size = 1, stride = 0>, <size = 131072, stride = 1>]) {burst_length = 0 : i32}
        aie.end
      }
      aiex.dma_start_task(%208)
      %209 = aiex.dma_configure_task_for @B_L3L2_4 {
        aie.dma_bd(%arg1 : memref<4194304xi8>, 524288, 131072, [<size = 1, stride = 0>, <size = 1, stride = 0>, <size = 1, stride = 0>, <size = 131072, stride = 1>]) {burst_length = 0 : i32}
        aie.end
      }
      aiex.dma_start_task(%209)
      %210 = aiex.dma_configure_task_for @B_L3L2_5 {
        aie.dma_bd(%arg1 : memref<4194304xi8>, 655360, 131072, [<size = 1, stride = 0>, <size = 1, stride = 0>, <size = 1, stride = 0>, <size = 131072, stride = 1>]) {burst_length = 0 : i32}
        aie.end
      }
      aiex.dma_start_task(%210)
      %211 = aiex.dma_configure_task_for @B_L3L2_6 {
        aie.dma_bd(%arg1 : memref<4194304xi8>, 786432, 131072, [<size = 1, stride = 0>, <size = 1, stride = 0>, <size = 1, stride = 0>, <size = 131072, stride = 1>]) {burst_length = 0 : i32}
        aie.end
      }
      aiex.dma_start_task(%211)
      %212 = aiex.dma_configure_task_for @B_L3L2_7 {
        aie.dma_bd(%arg1 : memref<4194304xi8>, 917504, 131072, [<size = 1, stride = 0>, <size = 1, stride = 0>, <size = 1, stride = 0>, <size = 131072, stride = 1>]) {burst_length = 0 : i32}
        aie.end
      }
      aiex.dma_start_task(%212)
      %213 = aiex.dma_configure_task_for @C_L2L3_0 {
        aie.dma_bd(%arg2 : memref<524288xi16>, 393216, 4096, [<size = 1, stride = 0>, <size = 1, stride = 0>, <size = 32, stride = 4096>, <size = 128, stride = 1>]) {burst_length = 0 : i32}
        aie.end
      } {issue_token = true}
      aiex.dma_start_task(%213)
      %214 = aiex.dma_configure_task_for @C_L2L3_1 {
        aie.dma_bd(%arg2 : memref<524288xi16>, 393344, 4096, [<size = 1, stride = 0>, <size = 1, stride = 0>, <size = 32, stride = 4096>, <size = 128, stride = 1>]) {burst_length = 0 : i32}
        aie.end
      } {issue_token = true}
      aiex.dma_start_task(%214)
      %215 = aiex.dma_configure_task_for @C_L2L3_2 {
        aie.dma_bd(%arg2 : memref<524288xi16>, 393472, 4096, [<size = 1, stride = 0>, <size = 1, stride = 0>, <size = 32, stride = 4096>, <size = 128, stride = 1>]) {burst_length = 0 : i32}
        aie.end
      } {issue_token = true}
      aiex.dma_start_task(%215)
      %216 = aiex.dma_configure_task_for @C_L2L3_3 {
        aie.dma_bd(%arg2 : memref<524288xi16>, 393600, 4096, [<size = 1, stride = 0>, <size = 1, stride = 0>, <size = 32, stride = 4096>, <size = 128, stride = 1>]) {burst_length = 0 : i32}
        aie.end
      } {issue_token = true}
      aiex.dma_start_task(%216)
      %217 = aiex.dma_configure_task_for @C_L2L3_4 {
        aie.dma_bd(%arg2 : memref<524288xi16>, 393728, 4096, [<size = 1, stride = 0>, <size = 1, stride = 0>, <size = 32, stride = 4096>, <size = 128, stride = 1>]) {burst_length = 0 : i32}
        aie.end
      } {issue_token = true}
      aiex.dma_start_task(%217)
      %218 = aiex.dma_configure_task_for @C_L2L3_5 {
        aie.dma_bd(%arg2 : memref<524288xi16>, 393856, 4096, [<size = 1, stride = 0>, <size = 1, stride = 0>, <size = 32, stride = 4096>, <size = 128, stride = 1>]) {burst_length = 0 : i32}
        aie.end
      } {issue_token = true}
      aiex.dma_start_task(%218)
      %219 = aiex.dma_configure_task_for @C_L2L3_6 {
        aie.dma_bd(%arg2 : memref<524288xi16>, 393984, 4096, [<size = 1, stride = 0>, <size = 1, stride = 0>, <size = 32, stride = 4096>, <size = 128, stride = 1>]) {burst_length = 0 : i32}
        aie.end
      } {issue_token = true}
      aiex.dma_start_task(%219)
      %220 = aiex.dma_configure_task_for @C_L2L3_7 {
        aie.dma_bd(%arg2 : memref<524288xi16>, 394112, 4096, [<size = 1, stride = 0>, <size = 1, stride = 0>, <size = 32, stride = 4096>, <size = 128, stride = 1>]) {burst_length = 0 : i32}
        aie.end
      } {issue_token = true}
      aiex.dma_start_task(%220)
      aiex.dma_await_task(%213)
      aiex.dma_await_task(%214)
      aiex.dma_await_task(%215)
      aiex.dma_await_task(%216)
      aiex.dma_await_task(%217)
      aiex.dma_await_task(%218)
      aiex.dma_await_task(%219)
      aiex.dma_await_task(%220)
      aiex.dma_free_task(%204)
      aiex.dma_free_task(%205)
      aiex.dma_free_task(%206)
      aiex.dma_free_task(%207)
      aiex.dma_free_task(%208)
      aiex.dma_free_task(%209)
      aiex.dma_free_task(%210)
      aiex.dma_free_task(%211)
      aiex.dma_free_task(%212)
      %221 = aiex.dma_configure_task_for @A_L3L2_0 {
        aie.dma_bd(%arg0 : memref<131072xi8>, 98304, 32768, [<size = 1, stride = 0>, <size = 2, stride = 512>, <size = 32, stride = 1024>, <size = 512, stride = 1>]) {burst_length = 0 : i32}
        aie.end
      }
      aiex.dma_start_task(%221)
      %222 = aiex.dma_configure_task_for @B_L3L2_0 {
        aie.dma_bd(%arg1 : memref<4194304xi8>, 1048576, 131072, [<size = 1, stride = 0>, <size = 1, stride = 0>, <size = 1, stride = 0>, <size = 131072, stride = 1>]) {burst_length = 0 : i32}
        aie.end
      }
      aiex.dma_start_task(%222)
      %223 = aiex.dma_configure_task_for @B_L3L2_1 {
        aie.dma_bd(%arg1 : memref<4194304xi8>, 1179648, 131072, [<size = 1, stride = 0>, <size = 1, stride = 0>, <size = 1, stride = 0>, <size = 131072, stride = 1>]) {burst_length = 0 : i32}
        aie.end
      }
      aiex.dma_start_task(%223)
      %224 = aiex.dma_configure_task_for @B_L3L2_2 {
        aie.dma_bd(%arg1 : memref<4194304xi8>, 1310720, 131072, [<size = 1, stride = 0>, <size = 1, stride = 0>, <size = 1, stride = 0>, <size = 131072, stride = 1>]) {burst_length = 0 : i32}
        aie.end
      }
      aiex.dma_start_task(%224)
      %225 = aiex.dma_configure_task_for @B_L3L2_3 {
        aie.dma_bd(%arg1 : memref<4194304xi8>, 1441792, 131072, [<size = 1, stride = 0>, <size = 1, stride = 0>, <size = 1, stride = 0>, <size = 131072, stride = 1>]) {burst_length = 0 : i32}
        aie.end
      }
      aiex.dma_start_task(%225)
      %226 = aiex.dma_configure_task_for @B_L3L2_4 {
        aie.dma_bd(%arg1 : memref<4194304xi8>, 1572864, 131072, [<size = 1, stride = 0>, <size = 1, stride = 0>, <size = 1, stride = 0>, <size = 131072, stride = 1>]) {burst_length = 0 : i32}
        aie.end
      }
      aiex.dma_start_task(%226)
      %227 = aiex.dma_configure_task_for @B_L3L2_5 {
        aie.dma_bd(%arg1 : memref<4194304xi8>, 1703936, 131072, [<size = 1, stride = 0>, <size = 1, stride = 0>, <size = 1, stride = 0>, <size = 131072, stride = 1>]) {burst_length = 0 : i32}
        aie.end
      }
      aiex.dma_start_task(%227)
      %228 = aiex.dma_configure_task_for @B_L3L2_6 {
        aie.dma_bd(%arg1 : memref<4194304xi8>, 1835008, 131072, [<size = 1, stride = 0>, <size = 1, stride = 0>, <size = 1, stride = 0>, <size = 131072, stride = 1>]) {burst_length = 0 : i32}
        aie.end
      }
      aiex.dma_start_task(%228)
      %229 = aiex.dma_configure_task_for @B_L3L2_7 {
        aie.dma_bd(%arg1 : memref<4194304xi8>, 1966080, 131072, [<size = 1, stride = 0>, <size = 1, stride = 0>, <size = 1, stride = 0>, <size = 131072, stride = 1>]) {burst_length = 0 : i32}
        aie.end
      }
      aiex.dma_start_task(%229)
      %230 = aiex.dma_configure_task_for @C_L2L3_0 {
        aie.dma_bd(%arg2 : memref<524288xi16>, 394240, 4096, [<size = 1, stride = 0>, <size = 1, stride = 0>, <size = 32, stride = 4096>, <size = 128, stride = 1>]) {burst_length = 0 : i32}
        aie.end
      } {issue_token = true}
      aiex.dma_start_task(%230)
      %231 = aiex.dma_configure_task_for @C_L2L3_1 {
        aie.dma_bd(%arg2 : memref<524288xi16>, 394368, 4096, [<size = 1, stride = 0>, <size = 1, stride = 0>, <size = 32, stride = 4096>, <size = 128, stride = 1>]) {burst_length = 0 : i32}
        aie.end
      } {issue_token = true}
      aiex.dma_start_task(%231)
      %232 = aiex.dma_configure_task_for @C_L2L3_2 {
        aie.dma_bd(%arg2 : memref<524288xi16>, 394496, 4096, [<size = 1, stride = 0>, <size = 1, stride = 0>, <size = 32, stride = 4096>, <size = 128, stride = 1>]) {burst_length = 0 : i32}
        aie.end
      } {issue_token = true}
      aiex.dma_start_task(%232)
      %233 = aiex.dma_configure_task_for @C_L2L3_3 {
        aie.dma_bd(%arg2 : memref<524288xi16>, 394624, 4096, [<size = 1, stride = 0>, <size = 1, stride = 0>, <size = 32, stride = 4096>, <size = 128, stride = 1>]) {burst_length = 0 : i32}
        aie.end
      } {issue_token = true}
      aiex.dma_start_task(%233)
      %234 = aiex.dma_configure_task_for @C_L2L3_4 {
        aie.dma_bd(%arg2 : memref<524288xi16>, 394752, 4096, [<size = 1, stride = 0>, <size = 1, stride = 0>, <size = 32, stride = 4096>, <size = 128, stride = 1>]) {burst_length = 0 : i32}
        aie.end
      } {issue_token = true}
      aiex.dma_start_task(%234)
      %235 = aiex.dma_configure_task_for @C_L2L3_5 {
        aie.dma_bd(%arg2 : memref<524288xi16>, 394880, 4096, [<size = 1, stride = 0>, <size = 1, stride = 0>, <size = 32, stride = 4096>, <size = 128, stride = 1>]) {burst_length = 0 : i32}
        aie.end
      } {issue_token = true}
      aiex.dma_start_task(%235)
      %236 = aiex.dma_configure_task_for @C_L2L3_6 {
        aie.dma_bd(%arg2 : memref<524288xi16>, 395008, 4096, [<size = 1, stride = 0>, <size = 1, stride = 0>, <size = 32, stride = 4096>, <size = 128, stride = 1>]) {burst_length = 0 : i32}
        aie.end
      } {issue_token = true}
      aiex.dma_start_task(%236)
      %237 = aiex.dma_configure_task_for @C_L2L3_7 {
        aie.dma_bd(%arg2 : memref<524288xi16>, 395136, 4096, [<size = 1, stride = 0>, <size = 1, stride = 0>, <size = 32, stride = 4096>, <size = 128, stride = 1>]) {burst_length = 0 : i32}
        aie.end
      } {issue_token = true}
      aiex.dma_start_task(%237)
      aiex.dma_await_task(%230)
      aiex.dma_await_task(%231)
      aiex.dma_await_task(%232)
      aiex.dma_await_task(%233)
      aiex.dma_await_task(%234)
      aiex.dma_await_task(%235)
      aiex.dma_await_task(%236)
      aiex.dma_await_task(%237)
      aiex.dma_free_task(%221)
      aiex.dma_free_task(%222)
      aiex.dma_free_task(%223)
      aiex.dma_free_task(%224)
      aiex.dma_free_task(%225)
      aiex.dma_free_task(%226)
      aiex.dma_free_task(%227)
      aiex.dma_free_task(%228)
      aiex.dma_free_task(%229)
      %238 = aiex.dma_configure_task_for @A_L3L2_0 {
        aie.dma_bd(%arg0 : memref<131072xi8>, 98304, 32768, [<size = 1, stride = 0>, <size = 2, stride = 512>, <size = 32, stride = 1024>, <size = 512, stride = 1>]) {burst_length = 0 : i32}
        aie.end
      }
      aiex.dma_start_task(%238)
      %239 = aiex.dma_configure_task_for @B_L3L2_0 {
        aie.dma_bd(%arg1 : memref<4194304xi8>, 2097152, 131072, [<size = 1, stride = 0>, <size = 1, stride = 0>, <size = 1, stride = 0>, <size = 131072, stride = 1>]) {burst_length = 0 : i32}
        aie.end
      }
      aiex.dma_start_task(%239)
      %240 = aiex.dma_configure_task_for @B_L3L2_1 {
        aie.dma_bd(%arg1 : memref<4194304xi8>, 2228224, 131072, [<size = 1, stride = 0>, <size = 1, stride = 0>, <size = 1, stride = 0>, <size = 131072, stride = 1>]) {burst_length = 0 : i32}
        aie.end
      }
      aiex.dma_start_task(%240)
      %241 = aiex.dma_configure_task_for @B_L3L2_2 {
        aie.dma_bd(%arg1 : memref<4194304xi8>, 2359296, 131072, [<size = 1, stride = 0>, <size = 1, stride = 0>, <size = 1, stride = 0>, <size = 131072, stride = 1>]) {burst_length = 0 : i32}
        aie.end
      }
      aiex.dma_start_task(%241)
      %242 = aiex.dma_configure_task_for @B_L3L2_3 {
        aie.dma_bd(%arg1 : memref<4194304xi8>, 2490368, 131072, [<size = 1, stride = 0>, <size = 1, stride = 0>, <size = 1, stride = 0>, <size = 131072, stride = 1>]) {burst_length = 0 : i32}
        aie.end
      }
      aiex.dma_start_task(%242)
      %243 = aiex.dma_configure_task_for @B_L3L2_4 {
        aie.dma_bd(%arg1 : memref<4194304xi8>, 2621440, 131072, [<size = 1, stride = 0>, <size = 1, stride = 0>, <size = 1, stride = 0>, <size = 131072, stride = 1>]) {burst_length = 0 : i32}
        aie.end
      }
      aiex.dma_start_task(%243)
      %244 = aiex.dma_configure_task_for @B_L3L2_5 {
        aie.dma_bd(%arg1 : memref<4194304xi8>, 2752512, 131072, [<size = 1, stride = 0>, <size = 1, stride = 0>, <size = 1, stride = 0>, <size = 131072, stride = 1>]) {burst_length = 0 : i32}
        aie.end
      }
      aiex.dma_start_task(%244)
      %245 = aiex.dma_configure_task_for @B_L3L2_6 {
        aie.dma_bd(%arg1 : memref<4194304xi8>, 2883584, 131072, [<size = 1, stride = 0>, <size = 1, stride = 0>, <size = 1, stride = 0>, <size = 131072, stride = 1>]) {burst_length = 0 : i32}
        aie.end
      }
      aiex.dma_start_task(%245)
      %246 = aiex.dma_configure_task_for @B_L3L2_7 {
        aie.dma_bd(%arg1 : memref<4194304xi8>, 3014656, 131072, [<size = 1, stride = 0>, <size = 1, stride = 0>, <size = 1, stride = 0>, <size = 131072, stride = 1>]) {burst_length = 0 : i32}
        aie.end
      }
      aiex.dma_start_task(%246)
      %247 = aiex.dma_configure_task_for @C_L2L3_0 {
        aie.dma_bd(%arg2 : memref<524288xi16>, 395264, 4096, [<size = 1, stride = 0>, <size = 1, stride = 0>, <size = 32, stride = 4096>, <size = 128, stride = 1>]) {burst_length = 0 : i32}
        aie.end
      } {issue_token = true}
      aiex.dma_start_task(%247)
      %248 = aiex.dma_configure_task_for @C_L2L3_1 {
        aie.dma_bd(%arg2 : memref<524288xi16>, 395392, 4096, [<size = 1, stride = 0>, <size = 1, stride = 0>, <size = 32, stride = 4096>, <size = 128, stride = 1>]) {burst_length = 0 : i32}
        aie.end
      } {issue_token = true}
      aiex.dma_start_task(%248)
      %249 = aiex.dma_configure_task_for @C_L2L3_2 {
        aie.dma_bd(%arg2 : memref<524288xi16>, 395520, 4096, [<size = 1, stride = 0>, <size = 1, stride = 0>, <size = 32, stride = 4096>, <size = 128, stride = 1>]) {burst_length = 0 : i32}
        aie.end
      } {issue_token = true}
      aiex.dma_start_task(%249)
      %250 = aiex.dma_configure_task_for @C_L2L3_3 {
        aie.dma_bd(%arg2 : memref<524288xi16>, 395648, 4096, [<size = 1, stride = 0>, <size = 1, stride = 0>, <size = 32, stride = 4096>, <size = 128, stride = 1>]) {burst_length = 0 : i32}
        aie.end
      } {issue_token = true}
      aiex.dma_start_task(%250)
      %251 = aiex.dma_configure_task_for @C_L2L3_4 {
        aie.dma_bd(%arg2 : memref<524288xi16>, 395776, 4096, [<size = 1, stride = 0>, <size = 1, stride = 0>, <size = 32, stride = 4096>, <size = 128, stride = 1>]) {burst_length = 0 : i32}
        aie.end
      } {issue_token = true}
      aiex.dma_start_task(%251)
      %252 = aiex.dma_configure_task_for @C_L2L3_5 {
        aie.dma_bd(%arg2 : memref<524288xi16>, 395904, 4096, [<size = 1, stride = 0>, <size = 1, stride = 0>, <size = 32, stride = 4096>, <size = 128, stride = 1>]) {burst_length = 0 : i32}
        aie.end
      } {issue_token = true}
      aiex.dma_start_task(%252)
      %253 = aiex.dma_configure_task_for @C_L2L3_6 {
        aie.dma_bd(%arg2 : memref<524288xi16>, 396032, 4096, [<size = 1, stride = 0>, <size = 1, stride = 0>, <size = 32, stride = 4096>, <size = 128, stride = 1>]) {burst_length = 0 : i32}
        aie.end
      } {issue_token = true}
      aiex.dma_start_task(%253)
      %254 = aiex.dma_configure_task_for @C_L2L3_7 {
        aie.dma_bd(%arg2 : memref<524288xi16>, 396160, 4096, [<size = 1, stride = 0>, <size = 1, stride = 0>, <size = 32, stride = 4096>, <size = 128, stride = 1>]) {burst_length = 0 : i32}
        aie.end
      } {issue_token = true}
      aiex.dma_start_task(%254)
      aiex.dma_await_task(%247)
      aiex.dma_await_task(%248)
      aiex.dma_await_task(%249)
      aiex.dma_await_task(%250)
      aiex.dma_await_task(%251)
      aiex.dma_await_task(%252)
      aiex.dma_await_task(%253)
      aiex.dma_await_task(%254)
      aiex.dma_free_task(%238)
      aiex.dma_free_task(%239)
      aiex.dma_free_task(%240)
      aiex.dma_free_task(%241)
      aiex.dma_free_task(%242)
      aiex.dma_free_task(%243)
      aiex.dma_free_task(%244)
      aiex.dma_free_task(%245)
      aiex.dma_free_task(%246)
      %255 = aiex.dma_configure_task_for @A_L3L2_0 {
        aie.dma_bd(%arg0 : memref<131072xi8>, 98304, 32768, [<size = 1, stride = 0>, <size = 2, stride = 512>, <size = 32, stride = 1024>, <size = 512, stride = 1>]) {burst_length = 0 : i32}
        aie.end
      }
      aiex.dma_start_task(%255)
      %256 = aiex.dma_configure_task_for @B_L3L2_0 {
        aie.dma_bd(%arg1 : memref<4194304xi8>, 3145728, 131072, [<size = 1, stride = 0>, <size = 1, stride = 0>, <size = 1, stride = 0>, <size = 131072, stride = 1>]) {burst_length = 0 : i32}
        aie.end
      }
      aiex.dma_start_task(%256)
      %257 = aiex.dma_configure_task_for @B_L3L2_1 {
        aie.dma_bd(%arg1 : memref<4194304xi8>, 3276800, 131072, [<size = 1, stride = 0>, <size = 1, stride = 0>, <size = 1, stride = 0>, <size = 131072, stride = 1>]) {burst_length = 0 : i32}
        aie.end
      }
      aiex.dma_start_task(%257)
      %258 = aiex.dma_configure_task_for @B_L3L2_2 {
        aie.dma_bd(%arg1 : memref<4194304xi8>, 3407872, 131072, [<size = 1, stride = 0>, <size = 1, stride = 0>, <size = 1, stride = 0>, <size = 131072, stride = 1>]) {burst_length = 0 : i32}
        aie.end
      }
      aiex.dma_start_task(%258)
      %259 = aiex.dma_configure_task_for @B_L3L2_3 {
        aie.dma_bd(%arg1 : memref<4194304xi8>, 3538944, 131072, [<size = 1, stride = 0>, <size = 1, stride = 0>, <size = 1, stride = 0>, <size = 131072, stride = 1>]) {burst_length = 0 : i32}
        aie.end
      }
      aiex.dma_start_task(%259)
      %260 = aiex.dma_configure_task_for @B_L3L2_4 {
        aie.dma_bd(%arg1 : memref<4194304xi8>, 3670016, 131072, [<size = 1, stride = 0>, <size = 1, stride = 0>, <size = 1, stride = 0>, <size = 131072, stride = 1>]) {burst_length = 0 : i32}
        aie.end
      }
      aiex.dma_start_task(%260)
      %261 = aiex.dma_configure_task_for @B_L3L2_5 {
        aie.dma_bd(%arg1 : memref<4194304xi8>, 3801088, 131072, [<size = 1, stride = 0>, <size = 1, stride = 0>, <size = 1, stride = 0>, <size = 131072, stride = 1>]) {burst_length = 0 : i32}
        aie.end
      }
      aiex.dma_start_task(%261)
      %262 = aiex.dma_configure_task_for @B_L3L2_6 {
        aie.dma_bd(%arg1 : memref<4194304xi8>, 3932160, 131072, [<size = 1, stride = 0>, <size = 1, stride = 0>, <size = 1, stride = 0>, <size = 131072, stride = 1>]) {burst_length = 0 : i32}
        aie.end
      }
      aiex.dma_start_task(%262)
      %263 = aiex.dma_configure_task_for @B_L3L2_7 {
        aie.dma_bd(%arg1 : memref<4194304xi8>, 4063232, 131072, [<size = 1, stride = 0>, <size = 1, stride = 0>, <size = 1, stride = 0>, <size = 131072, stride = 1>]) {burst_length = 0 : i32}
        aie.end
      }
      aiex.dma_start_task(%263)
      %264 = aiex.dma_configure_task_for @C_L2L3_0 {
        aie.dma_bd(%arg2 : memref<524288xi16>, 396288, 4096, [<size = 1, stride = 0>, <size = 1, stride = 0>, <size = 32, stride = 4096>, <size = 128, stride = 1>]) {burst_length = 0 : i32}
        aie.end
      } {issue_token = true}
      aiex.dma_start_task(%264)
      %265 = aiex.dma_configure_task_for @C_L2L3_1 {
        aie.dma_bd(%arg2 : memref<524288xi16>, 396416, 4096, [<size = 1, stride = 0>, <size = 1, stride = 0>, <size = 32, stride = 4096>, <size = 128, stride = 1>]) {burst_length = 0 : i32}
        aie.end
      } {issue_token = true}
      aiex.dma_start_task(%265)
      %266 = aiex.dma_configure_task_for @C_L2L3_2 {
        aie.dma_bd(%arg2 : memref<524288xi16>, 396544, 4096, [<size = 1, stride = 0>, <size = 1, stride = 0>, <size = 32, stride = 4096>, <size = 128, stride = 1>]) {burst_length = 0 : i32}
        aie.end
      } {issue_token = true}
      aiex.dma_start_task(%266)
      %267 = aiex.dma_configure_task_for @C_L2L3_3 {
        aie.dma_bd(%arg2 : memref<524288xi16>, 396672, 4096, [<size = 1, stride = 0>, <size = 1, stride = 0>, <size = 32, stride = 4096>, <size = 128, stride = 1>]) {burst_length = 0 : i32}
        aie.end
      } {issue_token = true}
      aiex.dma_start_task(%267)
      %268 = aiex.dma_configure_task_for @C_L2L3_4 {
        aie.dma_bd(%arg2 : memref<524288xi16>, 396800, 4096, [<size = 1, stride = 0>, <size = 1, stride = 0>, <size = 32, stride = 4096>, <size = 128, stride = 1>]) {burst_length = 0 : i32}
        aie.end
      } {issue_token = true}
      aiex.dma_start_task(%268)
      %269 = aiex.dma_configure_task_for @C_L2L3_5 {
        aie.dma_bd(%arg2 : memref<524288xi16>, 396928, 4096, [<size = 1, stride = 0>, <size = 1, stride = 0>, <size = 32, stride = 4096>, <size = 128, stride = 1>]) {burst_length = 0 : i32}
        aie.end
      } {issue_token = true}
      aiex.dma_start_task(%269)
      %270 = aiex.dma_configure_task_for @C_L2L3_6 {
        aie.dma_bd(%arg2 : memref<524288xi16>, 397056, 4096, [<size = 1, stride = 0>, <size = 1, stride = 0>, <size = 32, stride = 4096>, <size = 128, stride = 1>]) {burst_length = 0 : i32}
        aie.end
      } {issue_token = true}
      aiex.dma_start_task(%270)
      %271 = aiex.dma_configure_task_for @C_L2L3_7 {
        aie.dma_bd(%arg2 : memref<524288xi16>, 397184, 4096, [<size = 1, stride = 0>, <size = 1, stride = 0>, <size = 32, stride = 4096>, <size = 128, stride = 1>]) {burst_length = 0 : i32}
        aie.end
      } {issue_token = true}
      aiex.dma_start_task(%271)
      aiex.dma_await_task(%264)
      aiex.dma_await_task(%265)
      aiex.dma_await_task(%266)
      aiex.dma_await_task(%267)
      aiex.dma_await_task(%268)
      aiex.dma_await_task(%269)
      aiex.dma_await_task(%270)
      aiex.dma_await_task(%271)
      aiex.dma_free_task(%255)
      aiex.dma_free_task(%256)
      aiex.dma_free_task(%257)
      aiex.dma_free_task(%258)
      aiex.dma_free_task(%259)
      aiex.dma_free_task(%260)
      aiex.dma_free_task(%261)
      aiex.dma_free_task(%262)
      aiex.dma_free_task(%263)
    }
  }
}

