module {
  aie.device(npu2) {
    func.func private @zero_kernel_bf16(memref<128x128xbf16>) attributes {link_with = "mm_128x64x128.o"}
    func.func private @matmul_vectorized_different_datatypes(memref<32x64xbf16>, memref<64x16xbf16>, memref<128x128xbf16>) attributes {link_with = "mm_128x64x128.o"}
    %shim_noc_tile_0_0 = aie.tile(0, 0) {controller_id = #aie.packet_info<pkt_type = 0, pkt_id = 15>}
    %shim_noc_tile_1_0 = aie.tile(1, 0) {controller_id = #aie.packet_info<pkt_type = 0, pkt_id = 15>}
    %shim_noc_tile_2_0 = aie.tile(2, 0) {controller_id = #aie.packet_info<pkt_type = 0, pkt_id = 15>}
    %shim_noc_tile_3_0 = aie.tile(3, 0) {controller_id = #aie.packet_info<pkt_type = 0, pkt_id = 15>}
    %shim_noc_tile_4_0 = aie.tile(4, 0) {controller_id = #aie.packet_info<pkt_type = 0, pkt_id = 15>}
    %shim_noc_tile_5_0 = aie.tile(5, 0) {controller_id = #aie.packet_info<pkt_type = 0, pkt_id = 15>}
    %shim_noc_tile_6_0 = aie.tile(6, 0) {controller_id = #aie.packet_info<pkt_type = 0, pkt_id = 15>}
    %shim_noc_tile_7_0 = aie.tile(7, 0) {controller_id = #aie.packet_info<pkt_type = 0, pkt_id = 15>}
    %mem_tile_0_1 = aie.tile(0, 1) {controller_id = #aie.packet_info<pkt_type = 0, pkt_id = 26>}
    %mem_tile_1_1 = aie.tile(1, 1) {controller_id = #aie.packet_info<pkt_type = 0, pkt_id = 26>}
    %mem_tile_2_1 = aie.tile(2, 1) {controller_id = #aie.packet_info<pkt_type = 0, pkt_id = 26>}
    %mem_tile_3_1 = aie.tile(3, 1) {controller_id = #aie.packet_info<pkt_type = 0, pkt_id = 26>}
    %mem_tile_4_1 = aie.tile(4, 1) {controller_id = #aie.packet_info<pkt_type = 0, pkt_id = 26>}
    %mem_tile_5_1 = aie.tile(5, 1) {controller_id = #aie.packet_info<pkt_type = 0, pkt_id = 26>}
    %mem_tile_6_1 = aie.tile(6, 1) {controller_id = #aie.packet_info<pkt_type = 0, pkt_id = 26>}
    %mem_tile_7_1 = aie.tile(7, 1) {controller_id = #aie.packet_info<pkt_type = 0, pkt_id = 26>}
    %tile_0_2 = aie.tile(0, 2) {controller_id = #aie.packet_info<pkt_type = 0, pkt_id = 27>}
    %tile_1_2 = aie.tile(1, 2) {controller_id = #aie.packet_info<pkt_type = 0, pkt_id = 27>}
    %tile_2_2 = aie.tile(2, 2) {controller_id = #aie.packet_info<pkt_type = 0, pkt_id = 27>}
    %tile_3_2 = aie.tile(3, 2) {controller_id = #aie.packet_info<pkt_type = 0, pkt_id = 27>}
    %tile_4_2 = aie.tile(4, 2) {controller_id = #aie.packet_info<pkt_type = 0, pkt_id = 27>}
    %tile_5_2 = aie.tile(5, 2) {controller_id = #aie.packet_info<pkt_type = 0, pkt_id = 27>}
    %tile_6_2 = aie.tile(6, 2) {controller_id = #aie.packet_info<pkt_type = 0, pkt_id = 27>}
    %tile_7_2 = aie.tile(7, 2) {controller_id = #aie.packet_info<pkt_type = 0, pkt_id = 27>}
    %tile_0_3 = aie.tile(0, 3) {controller_id = #aie.packet_info<pkt_type = 0, pkt_id = 29>}
    %tile_1_3 = aie.tile(1, 3) {controller_id = #aie.packet_info<pkt_type = 0, pkt_id = 29>}
    %tile_2_3 = aie.tile(2, 3) {controller_id = #aie.packet_info<pkt_type = 0, pkt_id = 29>}
    %tile_3_3 = aie.tile(3, 3) {controller_id = #aie.packet_info<pkt_type = 0, pkt_id = 29>}
    %tile_4_3 = aie.tile(4, 3) {controller_id = #aie.packet_info<pkt_type = 0, pkt_id = 29>}
    %tile_5_3 = aie.tile(5, 3) {controller_id = #aie.packet_info<pkt_type = 0, pkt_id = 29>}
    %tile_6_3 = aie.tile(6, 3) {controller_id = #aie.packet_info<pkt_type = 0, pkt_id = 29>}
    %tile_7_3 = aie.tile(7, 3) {controller_id = #aie.packet_info<pkt_type = 0, pkt_id = 29>}
    %tile_0_4 = aie.tile(0, 4) {controller_id = #aie.packet_info<pkt_type = 0, pkt_id = 30>}
    %tile_1_4 = aie.tile(1, 4) {controller_id = #aie.packet_info<pkt_type = 0, pkt_id = 30>}
    %tile_2_4 = aie.tile(2, 4) {controller_id = #aie.packet_info<pkt_type = 0, pkt_id = 30>}
    %tile_3_4 = aie.tile(3, 4) {controller_id = #aie.packet_info<pkt_type = 0, pkt_id = 30>}
    %tile_4_4 = aie.tile(4, 4) {controller_id = #aie.packet_info<pkt_type = 0, pkt_id = 30>}
    %tile_5_4 = aie.tile(5, 4) {controller_id = #aie.packet_info<pkt_type = 0, pkt_id = 30>}
    %tile_6_4 = aie.tile(6, 4) {controller_id = #aie.packet_info<pkt_type = 0, pkt_id = 30>}
    %tile_7_4 = aie.tile(7, 4) {controller_id = #aie.packet_info<pkt_type = 0, pkt_id = 30>}
    %tile_0_5 = aie.tile(0, 5) {controller_id = #aie.packet_info<pkt_type = 0, pkt_id = 31>}
    %tile_1_5 = aie.tile(1, 5) {controller_id = #aie.packet_info<pkt_type = 0, pkt_id = 31>}
    %tile_2_5 = aie.tile(2, 5) {controller_id = #aie.packet_info<pkt_type = 0, pkt_id = 31>}
    %tile_3_5 = aie.tile(3, 5) {controller_id = #aie.packet_info<pkt_type = 0, pkt_id = 31>}
    %tile_4_5 = aie.tile(4, 5) {controller_id = #aie.packet_info<pkt_type = 0, pkt_id = 31>}
    %tile_5_5 = aie.tile(5, 5) {controller_id = #aie.packet_info<pkt_type = 0, pkt_id = 31>}
    %tile_6_5 = aie.tile(6, 5) {controller_id = #aie.packet_info<pkt_type = 0, pkt_id = 31>}
    %tile_7_5 = aie.tile(7, 5) {controller_id = #aie.packet_info<pkt_type = 0, pkt_id = 31>}
    %C_L2L3_7_cons_prod_lock_0 = aie.lock(%shim_noc_tile_7_0, 2) {init = 0 : i32, sym_name = "C_L2L3_7_cons_prod_lock_0"}
    %C_L2L3_7_cons_cons_lock_0 = aie.lock(%shim_noc_tile_7_0, 3) {init = 0 : i32, sym_name = "C_L2L3_7_cons_cons_lock_0"}
    %C_L2L3_7_buff_0 = aie.buffer(%mem_tile_7_1) {address = 0 : i32, sym_name = "C_L2L3_7_buff_0"} : memref<512x128xbf16> 
    %C_L2L3_7_buff_1 = aie.buffer(%mem_tile_7_1) {address = 131072 : i32, sym_name = "C_L2L3_7_buff_1"} : memref<512x128xbf16> 
    %C_L2L3_7_prod_lock_0 = aie.lock(%mem_tile_7_1, 2) {init = 2 : i32, sym_name = "C_L2L3_7_prod_lock_0"}
    %C_L2L3_7_cons_lock_0 = aie.lock(%mem_tile_7_1, 3) {init = 0 : i32, sym_name = "C_L2L3_7_cons_lock_0"}
    %C_L2L3_7_prod_lock_1 = aie.lock(%mem_tile_7_1, 4) {init = 2 : i32, sym_name = "C_L2L3_7_prod_lock_1"}
    %C_L2L3_7_cons_lock_1 = aie.lock(%mem_tile_7_1, 5) {init = 0 : i32, sym_name = "C_L2L3_7_cons_lock_1"}
    %C_L2L3_7_prod_lock_2 = aie.lock(%mem_tile_7_1, 6) {init = 2 : i32, sym_name = "C_L2L3_7_prod_lock_2"}
    %C_L2L3_7_cons_lock_2 = aie.lock(%mem_tile_7_1, 7) {init = 0 : i32, sym_name = "C_L2L3_7_cons_lock_2"}
    %C_L2L3_7_prod_lock_3 = aie.lock(%mem_tile_7_1, 8) {init = 2 : i32, sym_name = "C_L2L3_7_prod_lock_3"}
    %C_L2L3_7_cons_lock_3 = aie.lock(%mem_tile_7_1, 9) {init = 0 : i32, sym_name = "C_L2L3_7_cons_lock_3"}
    %C_L1L2_7_3_buff_0 = aie.buffer(%tile_7_5) {address = 3328 : i32, sym_name = "C_L1L2_7_3_buff_0"} : memref<128x128xbf16> 
    %C_L1L2_7_3_prod_lock_0 = aie.lock(%tile_7_5, 4) {init = 1 : i32, sym_name = "C_L1L2_7_3_prod_lock_0"}
    %C_L1L2_7_3_cons_lock_0 = aie.lock(%tile_7_5, 5) {init = 0 : i32, sym_name = "C_L1L2_7_3_cons_lock_0"}
    %C_L1L2_7_2_buff_0 = aie.buffer(%tile_7_4) {address = 3328 : i32, sym_name = "C_L1L2_7_2_buff_0"} : memref<128x128xbf16> 
    %C_L1L2_7_2_prod_lock_0 = aie.lock(%tile_7_4, 4) {init = 1 : i32, sym_name = "C_L1L2_7_2_prod_lock_0"}
    %C_L1L2_7_2_cons_lock_0 = aie.lock(%tile_7_4, 5) {init = 0 : i32, sym_name = "C_L1L2_7_2_cons_lock_0"}
    %C_L1L2_7_1_buff_0 = aie.buffer(%tile_7_3) {address = 3328 : i32, sym_name = "C_L1L2_7_1_buff_0"} : memref<128x128xbf16> 
    %C_L1L2_7_1_prod_lock_0 = aie.lock(%tile_7_3, 4) {init = 1 : i32, sym_name = "C_L1L2_7_1_prod_lock_0"}
    %C_L1L2_7_1_cons_lock_0 = aie.lock(%tile_7_3, 5) {init = 0 : i32, sym_name = "C_L1L2_7_1_cons_lock_0"}
    %C_L1L2_7_0_buff_0 = aie.buffer(%tile_7_2) {address = 3328 : i32, sym_name = "C_L1L2_7_0_buff_0"} : memref<128x128xbf16> 
    %C_L1L2_7_0_prod_lock_0 = aie.lock(%tile_7_2, 4) {init = 1 : i32, sym_name = "C_L1L2_7_0_prod_lock_0"}
    %C_L1L2_7_0_cons_lock_0 = aie.lock(%tile_7_2, 5) {init = 0 : i32, sym_name = "C_L1L2_7_0_cons_lock_0"}
    %C_L2L3_6_cons_prod_lock_0 = aie.lock(%shim_noc_tile_6_0, 4) {init = 0 : i32, sym_name = "C_L2L3_6_cons_prod_lock_0"}
    %C_L2L3_6_cons_cons_lock_0 = aie.lock(%shim_noc_tile_6_0, 5) {init = 0 : i32, sym_name = "C_L2L3_6_cons_cons_lock_0"}
    %C_L2L3_6_buff_0 = aie.buffer(%mem_tile_6_1) {address = 0 : i32, sym_name = "C_L2L3_6_buff_0"} : memref<512x128xbf16> 
    %C_L2L3_6_buff_1 = aie.buffer(%mem_tile_7_1) {address = 262144 : i32, sym_name = "C_L2L3_6_buff_1"} : memref<512x128xbf16> 
    %C_L2L3_6_prod_lock_0 = aie.lock(%mem_tile_6_1, 4) {init = 2 : i32, sym_name = "C_L2L3_6_prod_lock_0"}
    %C_L2L3_6_cons_lock_0 = aie.lock(%mem_tile_6_1, 5) {init = 0 : i32, sym_name = "C_L2L3_6_cons_lock_0"}
    %C_L2L3_6_prod_lock_1 = aie.lock(%mem_tile_6_1, 6) {init = 2 : i32, sym_name = "C_L2L3_6_prod_lock_1"}
    %C_L2L3_6_cons_lock_1 = aie.lock(%mem_tile_6_1, 7) {init = 0 : i32, sym_name = "C_L2L3_6_cons_lock_1"}
    %C_L2L3_6_prod_lock_2 = aie.lock(%mem_tile_6_1, 8) {init = 2 : i32, sym_name = "C_L2L3_6_prod_lock_2"}
    %C_L2L3_6_cons_lock_2 = aie.lock(%mem_tile_6_1, 9) {init = 0 : i32, sym_name = "C_L2L3_6_cons_lock_2"}
    %C_L2L3_6_prod_lock_3 = aie.lock(%mem_tile_6_1, 10) {init = 2 : i32, sym_name = "C_L2L3_6_prod_lock_3"}
    %C_L2L3_6_cons_lock_3 = aie.lock(%mem_tile_6_1, 11) {init = 0 : i32, sym_name = "C_L2L3_6_cons_lock_3"}
    %C_L1L2_6_3_buff_0 = aie.buffer(%tile_6_5) {address = 3328 : i32, sym_name = "C_L1L2_6_3_buff_0"} : memref<128x128xbf16> 
    %C_L1L2_6_3_prod_lock_0 = aie.lock(%tile_6_5, 4) {init = 1 : i32, sym_name = "C_L1L2_6_3_prod_lock_0"}
    %C_L1L2_6_3_cons_lock_0 = aie.lock(%tile_6_5, 5) {init = 0 : i32, sym_name = "C_L1L2_6_3_cons_lock_0"}
    %C_L1L2_6_2_buff_0 = aie.buffer(%tile_6_4) {address = 3328 : i32, sym_name = "C_L1L2_6_2_buff_0"} : memref<128x128xbf16> 
    %C_L1L2_6_2_prod_lock_0 = aie.lock(%tile_6_4, 4) {init = 1 : i32, sym_name = "C_L1L2_6_2_prod_lock_0"}
    %C_L1L2_6_2_cons_lock_0 = aie.lock(%tile_6_4, 5) {init = 0 : i32, sym_name = "C_L1L2_6_2_cons_lock_0"}
    %C_L1L2_6_1_buff_0 = aie.buffer(%tile_6_3) {address = 3328 : i32, sym_name = "C_L1L2_6_1_buff_0"} : memref<128x128xbf16> 
    %C_L1L2_6_1_prod_lock_0 = aie.lock(%tile_6_3, 4) {init = 1 : i32, sym_name = "C_L1L2_6_1_prod_lock_0"}
    %C_L1L2_6_1_cons_lock_0 = aie.lock(%tile_6_3, 5) {init = 0 : i32, sym_name = "C_L1L2_6_1_cons_lock_0"}
    %C_L1L2_6_0_buff_0 = aie.buffer(%tile_6_2) {address = 3328 : i32, sym_name = "C_L1L2_6_0_buff_0"} : memref<128x128xbf16> 
    %C_L1L2_6_0_prod_lock_0 = aie.lock(%tile_6_2, 4) {init = 1 : i32, sym_name = "C_L1L2_6_0_prod_lock_0"}
    %C_L1L2_6_0_cons_lock_0 = aie.lock(%tile_6_2, 5) {init = 0 : i32, sym_name = "C_L1L2_6_0_cons_lock_0"}
    %C_L2L3_5_cons_prod_lock_0 = aie.lock(%shim_noc_tile_5_0, 2) {init = 0 : i32, sym_name = "C_L2L3_5_cons_prod_lock_0"}
    %C_L2L3_5_cons_cons_lock_0 = aie.lock(%shim_noc_tile_5_0, 3) {init = 0 : i32, sym_name = "C_L2L3_5_cons_cons_lock_0"}
    %C_L2L3_5_buff_0 = aie.buffer(%mem_tile_5_1) {address = 0 : i32, sym_name = "C_L2L3_5_buff_0"} : memref<512x128xbf16> 
    %C_L2L3_5_buff_1 = aie.buffer(%mem_tile_5_1) {address = 131072 : i32, sym_name = "C_L2L3_5_buff_1"} : memref<512x128xbf16> 
    %C_L2L3_5_prod_lock_0 = aie.lock(%mem_tile_5_1, 2) {init = 2 : i32, sym_name = "C_L2L3_5_prod_lock_0"}
    %C_L2L3_5_cons_lock_0 = aie.lock(%mem_tile_5_1, 3) {init = 0 : i32, sym_name = "C_L2L3_5_cons_lock_0"}
    %C_L2L3_5_prod_lock_1 = aie.lock(%mem_tile_5_1, 4) {init = 2 : i32, sym_name = "C_L2L3_5_prod_lock_1"}
    %C_L2L3_5_cons_lock_1 = aie.lock(%mem_tile_5_1, 5) {init = 0 : i32, sym_name = "C_L2L3_5_cons_lock_1"}
    %C_L2L3_5_prod_lock_2 = aie.lock(%mem_tile_5_1, 6) {init = 2 : i32, sym_name = "C_L2L3_5_prod_lock_2"}
    %C_L2L3_5_cons_lock_2 = aie.lock(%mem_tile_5_1, 7) {init = 0 : i32, sym_name = "C_L2L3_5_cons_lock_2"}
    %C_L2L3_5_prod_lock_3 = aie.lock(%mem_tile_5_1, 8) {init = 2 : i32, sym_name = "C_L2L3_5_prod_lock_3"}
    %C_L2L3_5_cons_lock_3 = aie.lock(%mem_tile_5_1, 9) {init = 0 : i32, sym_name = "C_L2L3_5_cons_lock_3"}
    %C_L1L2_5_3_buff_0 = aie.buffer(%tile_5_5) {address = 3328 : i32, sym_name = "C_L1L2_5_3_buff_0"} : memref<128x128xbf16> 
    %C_L1L2_5_3_prod_lock_0 = aie.lock(%tile_5_5, 4) {init = 1 : i32, sym_name = "C_L1L2_5_3_prod_lock_0"}
    %C_L1L2_5_3_cons_lock_0 = aie.lock(%tile_5_5, 5) {init = 0 : i32, sym_name = "C_L1L2_5_3_cons_lock_0"}
    %C_L1L2_5_2_buff_0 = aie.buffer(%tile_5_4) {address = 3328 : i32, sym_name = "C_L1L2_5_2_buff_0"} : memref<128x128xbf16> 
    %C_L1L2_5_2_prod_lock_0 = aie.lock(%tile_5_4, 4) {init = 1 : i32, sym_name = "C_L1L2_5_2_prod_lock_0"}
    %C_L1L2_5_2_cons_lock_0 = aie.lock(%tile_5_4, 5) {init = 0 : i32, sym_name = "C_L1L2_5_2_cons_lock_0"}
    %C_L1L2_5_1_buff_0 = aie.buffer(%tile_5_3) {address = 3328 : i32, sym_name = "C_L1L2_5_1_buff_0"} : memref<128x128xbf16> 
    %C_L1L2_5_1_prod_lock_0 = aie.lock(%tile_5_3, 4) {init = 1 : i32, sym_name = "C_L1L2_5_1_prod_lock_0"}
    %C_L1L2_5_1_cons_lock_0 = aie.lock(%tile_5_3, 5) {init = 0 : i32, sym_name = "C_L1L2_5_1_cons_lock_0"}
    %C_L1L2_5_0_buff_0 = aie.buffer(%tile_5_2) {address = 3328 : i32, sym_name = "C_L1L2_5_0_buff_0"} : memref<128x128xbf16> 
    %C_L1L2_5_0_prod_lock_0 = aie.lock(%tile_5_2, 4) {init = 1 : i32, sym_name = "C_L1L2_5_0_prod_lock_0"}
    %C_L1L2_5_0_cons_lock_0 = aie.lock(%tile_5_2, 5) {init = 0 : i32, sym_name = "C_L1L2_5_0_cons_lock_0"}
    %C_L2L3_4_cons_prod_lock_0 = aie.lock(%shim_noc_tile_4_0, 4) {init = 0 : i32, sym_name = "C_L2L3_4_cons_prod_lock_0"}
    %C_L2L3_4_cons_cons_lock_0 = aie.lock(%shim_noc_tile_4_0, 5) {init = 0 : i32, sym_name = "C_L2L3_4_cons_cons_lock_0"}
    %C_L2L3_4_buff_0 = aie.buffer(%mem_tile_4_1) {address = 0 : i32, sym_name = "C_L2L3_4_buff_0"} : memref<512x128xbf16> 
    %C_L2L3_4_buff_1 = aie.buffer(%mem_tile_5_1) {address = 262144 : i32, sym_name = "C_L2L3_4_buff_1"} : memref<512x128xbf16> 
    %C_L2L3_4_prod_lock_0 = aie.lock(%mem_tile_4_1, 4) {init = 2 : i32, sym_name = "C_L2L3_4_prod_lock_0"}
    %C_L2L3_4_cons_lock_0 = aie.lock(%mem_tile_4_1, 5) {init = 0 : i32, sym_name = "C_L2L3_4_cons_lock_0"}
    %C_L2L3_4_prod_lock_1 = aie.lock(%mem_tile_4_1, 6) {init = 2 : i32, sym_name = "C_L2L3_4_prod_lock_1"}
    %C_L2L3_4_cons_lock_1 = aie.lock(%mem_tile_4_1, 7) {init = 0 : i32, sym_name = "C_L2L3_4_cons_lock_1"}
    %C_L2L3_4_prod_lock_2 = aie.lock(%mem_tile_4_1, 8) {init = 2 : i32, sym_name = "C_L2L3_4_prod_lock_2"}
    %C_L2L3_4_cons_lock_2 = aie.lock(%mem_tile_4_1, 9) {init = 0 : i32, sym_name = "C_L2L3_4_cons_lock_2"}
    %C_L2L3_4_prod_lock_3 = aie.lock(%mem_tile_4_1, 10) {init = 2 : i32, sym_name = "C_L2L3_4_prod_lock_3"}
    %C_L2L3_4_cons_lock_3 = aie.lock(%mem_tile_4_1, 11) {init = 0 : i32, sym_name = "C_L2L3_4_cons_lock_3"}
    %C_L1L2_4_3_buff_0 = aie.buffer(%tile_4_5) {address = 3328 : i32, sym_name = "C_L1L2_4_3_buff_0"} : memref<128x128xbf16> 
    %C_L1L2_4_3_prod_lock_0 = aie.lock(%tile_4_5, 4) {init = 1 : i32, sym_name = "C_L1L2_4_3_prod_lock_0"}
    %C_L1L2_4_3_cons_lock_0 = aie.lock(%tile_4_5, 5) {init = 0 : i32, sym_name = "C_L1L2_4_3_cons_lock_0"}
    %C_L1L2_4_2_buff_0 = aie.buffer(%tile_4_4) {address = 3328 : i32, sym_name = "C_L1L2_4_2_buff_0"} : memref<128x128xbf16> 
    %C_L1L2_4_2_prod_lock_0 = aie.lock(%tile_4_4, 4) {init = 1 : i32, sym_name = "C_L1L2_4_2_prod_lock_0"}
    %C_L1L2_4_2_cons_lock_0 = aie.lock(%tile_4_4, 5) {init = 0 : i32, sym_name = "C_L1L2_4_2_cons_lock_0"}
    %C_L1L2_4_1_buff_0 = aie.buffer(%tile_4_3) {address = 3328 : i32, sym_name = "C_L1L2_4_1_buff_0"} : memref<128x128xbf16> 
    %C_L1L2_4_1_prod_lock_0 = aie.lock(%tile_4_3, 4) {init = 1 : i32, sym_name = "C_L1L2_4_1_prod_lock_0"}
    %C_L1L2_4_1_cons_lock_0 = aie.lock(%tile_4_3, 5) {init = 0 : i32, sym_name = "C_L1L2_4_1_cons_lock_0"}
    %C_L1L2_4_0_buff_0 = aie.buffer(%tile_4_2) {address = 3328 : i32, sym_name = "C_L1L2_4_0_buff_0"} : memref<128x128xbf16> 
    %C_L1L2_4_0_prod_lock_0 = aie.lock(%tile_4_2, 4) {init = 1 : i32, sym_name = "C_L1L2_4_0_prod_lock_0"}
    %C_L1L2_4_0_cons_lock_0 = aie.lock(%tile_4_2, 5) {init = 0 : i32, sym_name = "C_L1L2_4_0_cons_lock_0"}
    %C_L2L3_3_cons_prod_lock_0 = aie.lock(%shim_noc_tile_3_0, 2) {init = 0 : i32, sym_name = "C_L2L3_3_cons_prod_lock_0"}
    %C_L2L3_3_cons_cons_lock_0 = aie.lock(%shim_noc_tile_3_0, 3) {init = 0 : i32, sym_name = "C_L2L3_3_cons_cons_lock_0"}
    %C_L2L3_3_buff_0 = aie.buffer(%mem_tile_3_1) {address = 0 : i32, sym_name = "C_L2L3_3_buff_0"} : memref<512x128xbf16> 
    %C_L2L3_3_buff_1 = aie.buffer(%mem_tile_3_1) {address = 131072 : i32, sym_name = "C_L2L3_3_buff_1"} : memref<512x128xbf16> 
    %C_L2L3_3_prod_lock_0 = aie.lock(%mem_tile_3_1, 2) {init = 2 : i32, sym_name = "C_L2L3_3_prod_lock_0"}
    %C_L2L3_3_cons_lock_0 = aie.lock(%mem_tile_3_1, 3) {init = 0 : i32, sym_name = "C_L2L3_3_cons_lock_0"}
    %C_L2L3_3_prod_lock_1 = aie.lock(%mem_tile_3_1, 4) {init = 2 : i32, sym_name = "C_L2L3_3_prod_lock_1"}
    %C_L2L3_3_cons_lock_1 = aie.lock(%mem_tile_3_1, 5) {init = 0 : i32, sym_name = "C_L2L3_3_cons_lock_1"}
    %C_L2L3_3_prod_lock_2 = aie.lock(%mem_tile_3_1, 6) {init = 2 : i32, sym_name = "C_L2L3_3_prod_lock_2"}
    %C_L2L3_3_cons_lock_2 = aie.lock(%mem_tile_3_1, 7) {init = 0 : i32, sym_name = "C_L2L3_3_cons_lock_2"}
    %C_L2L3_3_prod_lock_3 = aie.lock(%mem_tile_3_1, 8) {init = 2 : i32, sym_name = "C_L2L3_3_prod_lock_3"}
    %C_L2L3_3_cons_lock_3 = aie.lock(%mem_tile_3_1, 9) {init = 0 : i32, sym_name = "C_L2L3_3_cons_lock_3"}
    %C_L1L2_3_3_buff_0 = aie.buffer(%tile_3_5) {address = 3328 : i32, sym_name = "C_L1L2_3_3_buff_0"} : memref<128x128xbf16> 
    %C_L1L2_3_3_prod_lock_0 = aie.lock(%tile_3_5, 4) {init = 1 : i32, sym_name = "C_L1L2_3_3_prod_lock_0"}
    %C_L1L2_3_3_cons_lock_0 = aie.lock(%tile_3_5, 5) {init = 0 : i32, sym_name = "C_L1L2_3_3_cons_lock_0"}
    %C_L1L2_3_2_buff_0 = aie.buffer(%tile_3_4) {address = 3328 : i32, sym_name = "C_L1L2_3_2_buff_0"} : memref<128x128xbf16> 
    %C_L1L2_3_2_prod_lock_0 = aie.lock(%tile_3_4, 4) {init = 1 : i32, sym_name = "C_L1L2_3_2_prod_lock_0"}
    %C_L1L2_3_2_cons_lock_0 = aie.lock(%tile_3_4, 5) {init = 0 : i32, sym_name = "C_L1L2_3_2_cons_lock_0"}
    %C_L1L2_3_1_buff_0 = aie.buffer(%tile_3_3) {address = 3328 : i32, sym_name = "C_L1L2_3_1_buff_0"} : memref<128x128xbf16> 
    %C_L1L2_3_1_prod_lock_0 = aie.lock(%tile_3_3, 4) {init = 1 : i32, sym_name = "C_L1L2_3_1_prod_lock_0"}
    %C_L1L2_3_1_cons_lock_0 = aie.lock(%tile_3_3, 5) {init = 0 : i32, sym_name = "C_L1L2_3_1_cons_lock_0"}
    %C_L1L2_3_0_buff_0 = aie.buffer(%tile_3_2) {address = 3328 : i32, sym_name = "C_L1L2_3_0_buff_0"} : memref<128x128xbf16> 
    %C_L1L2_3_0_prod_lock_0 = aie.lock(%tile_3_2, 4) {init = 1 : i32, sym_name = "C_L1L2_3_0_prod_lock_0"}
    %C_L1L2_3_0_cons_lock_0 = aie.lock(%tile_3_2, 5) {init = 0 : i32, sym_name = "C_L1L2_3_0_cons_lock_0"}
    %C_L2L3_2_cons_prod_lock_0 = aie.lock(%shim_noc_tile_2_0, 4) {init = 0 : i32, sym_name = "C_L2L3_2_cons_prod_lock_0"}
    %C_L2L3_2_cons_cons_lock_0 = aie.lock(%shim_noc_tile_2_0, 5) {init = 0 : i32, sym_name = "C_L2L3_2_cons_cons_lock_0"}
    %C_L2L3_2_buff_0 = aie.buffer(%mem_tile_2_1) {address = 0 : i32, sym_name = "C_L2L3_2_buff_0"} : memref<512x128xbf16> 
    %C_L2L3_2_buff_1 = aie.buffer(%mem_tile_3_1) {address = 262144 : i32, sym_name = "C_L2L3_2_buff_1"} : memref<512x128xbf16> 
    %C_L2L3_2_prod_lock_0 = aie.lock(%mem_tile_2_1, 4) {init = 2 : i32, sym_name = "C_L2L3_2_prod_lock_0"}
    %C_L2L3_2_cons_lock_0 = aie.lock(%mem_tile_2_1, 5) {init = 0 : i32, sym_name = "C_L2L3_2_cons_lock_0"}
    %C_L2L3_2_prod_lock_1 = aie.lock(%mem_tile_2_1, 6) {init = 2 : i32, sym_name = "C_L2L3_2_prod_lock_1"}
    %C_L2L3_2_cons_lock_1 = aie.lock(%mem_tile_2_1, 7) {init = 0 : i32, sym_name = "C_L2L3_2_cons_lock_1"}
    %C_L2L3_2_prod_lock_2 = aie.lock(%mem_tile_2_1, 8) {init = 2 : i32, sym_name = "C_L2L3_2_prod_lock_2"}
    %C_L2L3_2_cons_lock_2 = aie.lock(%mem_tile_2_1, 9) {init = 0 : i32, sym_name = "C_L2L3_2_cons_lock_2"}
    %C_L2L3_2_prod_lock_3 = aie.lock(%mem_tile_2_1, 10) {init = 2 : i32, sym_name = "C_L2L3_2_prod_lock_3"}
    %C_L2L3_2_cons_lock_3 = aie.lock(%mem_tile_2_1, 11) {init = 0 : i32, sym_name = "C_L2L3_2_cons_lock_3"}
    %C_L1L2_2_3_buff_0 = aie.buffer(%tile_2_5) {address = 3328 : i32, sym_name = "C_L1L2_2_3_buff_0"} : memref<128x128xbf16> 
    %C_L1L2_2_3_prod_lock_0 = aie.lock(%tile_2_5, 4) {init = 1 : i32, sym_name = "C_L1L2_2_3_prod_lock_0"}
    %C_L1L2_2_3_cons_lock_0 = aie.lock(%tile_2_5, 5) {init = 0 : i32, sym_name = "C_L1L2_2_3_cons_lock_0"}
    %C_L1L2_2_2_buff_0 = aie.buffer(%tile_2_4) {address = 3328 : i32, sym_name = "C_L1L2_2_2_buff_0"} : memref<128x128xbf16> 
    %C_L1L2_2_2_prod_lock_0 = aie.lock(%tile_2_4, 4) {init = 1 : i32, sym_name = "C_L1L2_2_2_prod_lock_0"}
    %C_L1L2_2_2_cons_lock_0 = aie.lock(%tile_2_4, 5) {init = 0 : i32, sym_name = "C_L1L2_2_2_cons_lock_0"}
    %C_L1L2_2_1_buff_0 = aie.buffer(%tile_2_3) {address = 3328 : i32, sym_name = "C_L1L2_2_1_buff_0"} : memref<128x128xbf16> 
    %C_L1L2_2_1_prod_lock_0 = aie.lock(%tile_2_3, 4) {init = 1 : i32, sym_name = "C_L1L2_2_1_prod_lock_0"}
    %C_L1L2_2_1_cons_lock_0 = aie.lock(%tile_2_3, 5) {init = 0 : i32, sym_name = "C_L1L2_2_1_cons_lock_0"}
    %C_L1L2_2_0_buff_0 = aie.buffer(%tile_2_2) {address = 3328 : i32, sym_name = "C_L1L2_2_0_buff_0"} : memref<128x128xbf16> 
    %C_L1L2_2_0_prod_lock_0 = aie.lock(%tile_2_2, 4) {init = 1 : i32, sym_name = "C_L1L2_2_0_prod_lock_0"}
    %C_L1L2_2_0_cons_lock_0 = aie.lock(%tile_2_2, 5) {init = 0 : i32, sym_name = "C_L1L2_2_0_cons_lock_0"}
    %C_L2L3_1_cons_prod_lock_0 = aie.lock(%shim_noc_tile_1_0, 2) {init = 0 : i32, sym_name = "C_L2L3_1_cons_prod_lock_0"}
    %C_L2L3_1_cons_cons_lock_0 = aie.lock(%shim_noc_tile_1_0, 3) {init = 0 : i32, sym_name = "C_L2L3_1_cons_cons_lock_0"}
    %C_L2L3_1_buff_0 = aie.buffer(%mem_tile_1_1) {address = 0 : i32, sym_name = "C_L2L3_1_buff_0"} : memref<512x128xbf16> 
    %C_L2L3_1_buff_1 = aie.buffer(%mem_tile_1_1) {address = 131072 : i32, sym_name = "C_L2L3_1_buff_1"} : memref<512x128xbf16> 
    %C_L2L3_1_prod_lock_0 = aie.lock(%mem_tile_1_1, 2) {init = 2 : i32, sym_name = "C_L2L3_1_prod_lock_0"}
    %C_L2L3_1_cons_lock_0 = aie.lock(%mem_tile_1_1, 3) {init = 0 : i32, sym_name = "C_L2L3_1_cons_lock_0"}
    %C_L2L3_1_prod_lock_1 = aie.lock(%mem_tile_1_1, 4) {init = 2 : i32, sym_name = "C_L2L3_1_prod_lock_1"}
    %C_L2L3_1_cons_lock_1 = aie.lock(%mem_tile_1_1, 5) {init = 0 : i32, sym_name = "C_L2L3_1_cons_lock_1"}
    %C_L2L3_1_prod_lock_2 = aie.lock(%mem_tile_1_1, 6) {init = 2 : i32, sym_name = "C_L2L3_1_prod_lock_2"}
    %C_L2L3_1_cons_lock_2 = aie.lock(%mem_tile_1_1, 7) {init = 0 : i32, sym_name = "C_L2L3_1_cons_lock_2"}
    %C_L2L3_1_prod_lock_3 = aie.lock(%mem_tile_1_1, 8) {init = 2 : i32, sym_name = "C_L2L3_1_prod_lock_3"}
    %C_L2L3_1_cons_lock_3 = aie.lock(%mem_tile_1_1, 9) {init = 0 : i32, sym_name = "C_L2L3_1_cons_lock_3"}
    %C_L1L2_1_3_buff_0 = aie.buffer(%tile_1_5) {address = 3328 : i32, sym_name = "C_L1L2_1_3_buff_0"} : memref<128x128xbf16> 
    %C_L1L2_1_3_prod_lock_0 = aie.lock(%tile_1_5, 4) {init = 1 : i32, sym_name = "C_L1L2_1_3_prod_lock_0"}
    %C_L1L2_1_3_cons_lock_0 = aie.lock(%tile_1_5, 5) {init = 0 : i32, sym_name = "C_L1L2_1_3_cons_lock_0"}
    %C_L1L2_1_2_buff_0 = aie.buffer(%tile_1_4) {address = 3328 : i32, sym_name = "C_L1L2_1_2_buff_0"} : memref<128x128xbf16> 
    %C_L1L2_1_2_prod_lock_0 = aie.lock(%tile_1_4, 4) {init = 1 : i32, sym_name = "C_L1L2_1_2_prod_lock_0"}
    %C_L1L2_1_2_cons_lock_0 = aie.lock(%tile_1_4, 5) {init = 0 : i32, sym_name = "C_L1L2_1_2_cons_lock_0"}
    %C_L1L2_1_1_buff_0 = aie.buffer(%tile_1_3) {address = 3328 : i32, sym_name = "C_L1L2_1_1_buff_0"} : memref<128x128xbf16> 
    %C_L1L2_1_1_prod_lock_0 = aie.lock(%tile_1_3, 4) {init = 1 : i32, sym_name = "C_L1L2_1_1_prod_lock_0"}
    %C_L1L2_1_1_cons_lock_0 = aie.lock(%tile_1_3, 5) {init = 0 : i32, sym_name = "C_L1L2_1_1_cons_lock_0"}
    %C_L1L2_1_0_buff_0 = aie.buffer(%tile_1_2) {address = 3328 : i32, sym_name = "C_L1L2_1_0_buff_0"} : memref<128x128xbf16> 
    %C_L1L2_1_0_prod_lock_0 = aie.lock(%tile_1_2, 4) {init = 1 : i32, sym_name = "C_L1L2_1_0_prod_lock_0"}
    %C_L1L2_1_0_cons_lock_0 = aie.lock(%tile_1_2, 5) {init = 0 : i32, sym_name = "C_L1L2_1_0_cons_lock_0"}
    %C_L2L3_0_cons_prod_lock_0 = aie.lock(%shim_noc_tile_0_0, 4) {init = 0 : i32, sym_name = "C_L2L3_0_cons_prod_lock_0"}
    %C_L2L3_0_cons_cons_lock_0 = aie.lock(%shim_noc_tile_0_0, 5) {init = 0 : i32, sym_name = "C_L2L3_0_cons_cons_lock_0"}
    %C_L2L3_0_buff_0 = aie.buffer(%mem_tile_0_1) {address = 0 : i32, sym_name = "C_L2L3_0_buff_0"} : memref<512x128xbf16> 
    %C_L2L3_0_buff_1 = aie.buffer(%mem_tile_1_1) {address = 262144 : i32, sym_name = "C_L2L3_0_buff_1"} : memref<512x128xbf16> 
    %C_L2L3_0_prod_lock_0 = aie.lock(%mem_tile_0_1, 4) {init = 2 : i32, sym_name = "C_L2L3_0_prod_lock_0"}
    %C_L2L3_0_cons_lock_0 = aie.lock(%mem_tile_0_1, 5) {init = 0 : i32, sym_name = "C_L2L3_0_cons_lock_0"}
    %C_L2L3_0_prod_lock_1 = aie.lock(%mem_tile_0_1, 6) {init = 2 : i32, sym_name = "C_L2L3_0_prod_lock_1"}
    %C_L2L3_0_cons_lock_1 = aie.lock(%mem_tile_0_1, 7) {init = 0 : i32, sym_name = "C_L2L3_0_cons_lock_1"}
    %C_L2L3_0_prod_lock_2 = aie.lock(%mem_tile_0_1, 8) {init = 2 : i32, sym_name = "C_L2L3_0_prod_lock_2"}
    %C_L2L3_0_cons_lock_2 = aie.lock(%mem_tile_0_1, 9) {init = 0 : i32, sym_name = "C_L2L3_0_cons_lock_2"}
    %C_L2L3_0_prod_lock_3 = aie.lock(%mem_tile_0_1, 10) {init = 2 : i32, sym_name = "C_L2L3_0_prod_lock_3"}
    %C_L2L3_0_cons_lock_3 = aie.lock(%mem_tile_0_1, 11) {init = 0 : i32, sym_name = "C_L2L3_0_cons_lock_3"}
    %C_L1L2_0_3_buff_0 = aie.buffer(%tile_0_5) {address = 3328 : i32, sym_name = "C_L1L2_0_3_buff_0"} : memref<128x128xbf16> 
    %C_L1L2_0_3_prod_lock_0 = aie.lock(%tile_0_5, 4) {init = 1 : i32, sym_name = "C_L1L2_0_3_prod_lock_0"}
    %C_L1L2_0_3_cons_lock_0 = aie.lock(%tile_0_5, 5) {init = 0 : i32, sym_name = "C_L1L2_0_3_cons_lock_0"}
    %C_L1L2_0_2_buff_0 = aie.buffer(%tile_0_4) {address = 3328 : i32, sym_name = "C_L1L2_0_2_buff_0"} : memref<128x128xbf16> 
    %C_L1L2_0_2_prod_lock_0 = aie.lock(%tile_0_4, 4) {init = 1 : i32, sym_name = "C_L1L2_0_2_prod_lock_0"}
    %C_L1L2_0_2_cons_lock_0 = aie.lock(%tile_0_4, 5) {init = 0 : i32, sym_name = "C_L1L2_0_2_cons_lock_0"}
    %C_L1L2_0_1_buff_0 = aie.buffer(%tile_0_3) {address = 3328 : i32, sym_name = "C_L1L2_0_1_buff_0"} : memref<128x128xbf16> 
    %C_L1L2_0_1_prod_lock_0 = aie.lock(%tile_0_3, 4) {init = 1 : i32, sym_name = "C_L1L2_0_1_prod_lock_0"}
    %C_L1L2_0_1_cons_lock_0 = aie.lock(%tile_0_3, 5) {init = 0 : i32, sym_name = "C_L1L2_0_1_cons_lock_0"}
    %C_L1L2_0_0_buff_0 = aie.buffer(%tile_0_2) {address = 3328 : i32, sym_name = "C_L1L2_0_0_buff_0"} : memref<128x128xbf16> 
    %C_L1L2_0_0_prod_lock_0 = aie.lock(%tile_0_2, 4) {init = 1 : i32, sym_name = "C_L1L2_0_0_prod_lock_0"}
    %C_L1L2_0_0_cons_lock_0 = aie.lock(%tile_0_2, 5) {init = 0 : i32, sym_name = "C_L1L2_0_0_cons_lock_0"}
    %B_L2L1_7_0_cons_buff_0 = aie.buffer(%tile_7_2) {address = 44288 : i32, sym_name = "B_L2L1_7_0_cons_buff_0"} : memref<64x16xbf16> 
    %B_L2L1_7_0_cons_buff_1 = aie.buffer(%tile_7_2) {address = 46336 : i32, sym_name = "B_L2L1_7_0_cons_buff_1"} : memref<64x16xbf16> 
    %B_L2L1_7_0_cons_prod_lock_0 = aie.lock(%tile_7_2, 2) {init = 2 : i32, sym_name = "B_L2L1_7_0_cons_prod_lock_0"}
    %B_L2L1_7_0_cons_cons_lock_0 = aie.lock(%tile_7_2, 3) {init = 0 : i32, sym_name = "B_L2L1_7_0_cons_cons_lock_0"}
    %B_L2L1_7_1_cons_buff_0 = aie.buffer(%tile_7_3) {address = 44288 : i32, sym_name = "B_L2L1_7_1_cons_buff_0"} : memref<64x16xbf16> 
    %B_L2L1_7_1_cons_buff_1 = aie.buffer(%tile_7_3) {address = 46336 : i32, sym_name = "B_L2L1_7_1_cons_buff_1"} : memref<64x16xbf16> 
    %B_L2L1_7_1_cons_prod_lock_0 = aie.lock(%tile_7_3, 2) {init = 2 : i32, sym_name = "B_L2L1_7_1_cons_prod_lock_0"}
    %B_L2L1_7_1_cons_cons_lock_0 = aie.lock(%tile_7_3, 3) {init = 0 : i32, sym_name = "B_L2L1_7_1_cons_cons_lock_0"}
    %B_L2L1_7_2_cons_buff_0 = aie.buffer(%tile_7_4) {address = 44288 : i32, sym_name = "B_L2L1_7_2_cons_buff_0"} : memref<64x16xbf16> 
    %B_L2L1_7_2_cons_buff_1 = aie.buffer(%tile_7_4) {address = 46336 : i32, sym_name = "B_L2L1_7_2_cons_buff_1"} : memref<64x16xbf16> 
    %B_L2L1_7_2_cons_prod_lock_0 = aie.lock(%tile_7_4, 2) {init = 2 : i32, sym_name = "B_L2L1_7_2_cons_prod_lock_0"}
    %B_L2L1_7_2_cons_cons_lock_0 = aie.lock(%tile_7_4, 3) {init = 0 : i32, sym_name = "B_L2L1_7_2_cons_cons_lock_0"}
    %B_L2L1_7_3_cons_buff_0 = aie.buffer(%tile_7_5) {address = 44288 : i32, sym_name = "B_L2L1_7_3_cons_buff_0"} : memref<64x16xbf16> 
    %B_L2L1_7_3_cons_buff_1 = aie.buffer(%tile_7_5) {address = 46336 : i32, sym_name = "B_L2L1_7_3_cons_buff_1"} : memref<64x16xbf16> 
    %B_L2L1_7_3_cons_prod_lock_0 = aie.lock(%tile_7_5, 2) {init = 2 : i32, sym_name = "B_L2L1_7_3_cons_prod_lock_0"}
    %B_L2L1_7_3_cons_cons_lock_0 = aie.lock(%tile_7_5, 3) {init = 0 : i32, sym_name = "B_L2L1_7_3_cons_cons_lock_0"}
    %B_L3L2_7_cons_buff_0 = aie.buffer(%mem_tile_7_1) {address = 393216 : i32, sym_name = "B_L3L2_7_cons_buff_0"} : memref<64x16xbf16> 
    %B_L3L2_7_cons_buff_1 = aie.buffer(%mem_tile_7_1) {address = 395264 : i32, sym_name = "B_L3L2_7_cons_buff_1"} : memref<64x16xbf16> 
    %B_L3L2_7_cons_prod_lock_0 = aie.lock(%mem_tile_7_1, 0) {init = 2 : i32, sym_name = "B_L3L2_7_cons_prod_lock_0"}
    %B_L3L2_7_cons_cons_lock_0 = aie.lock(%mem_tile_7_1, 1) {init = 0 : i32, sym_name = "B_L3L2_7_cons_cons_lock_0"}
    %B_L3L2_7_prod_lock_0 = aie.lock(%shim_noc_tile_7_0, 0) {init = 0 : i32, sym_name = "B_L3L2_7_prod_lock_0"}
    %B_L3L2_7_cons_lock_0 = aie.lock(%shim_noc_tile_7_0, 1) {init = 0 : i32, sym_name = "B_L3L2_7_cons_lock_0"}
    %B_L2L1_6_0_cons_buff_0 = aie.buffer(%tile_6_2) {address = 44288 : i32, sym_name = "B_L2L1_6_0_cons_buff_0"} : memref<64x16xbf16> 
    %B_L2L1_6_0_cons_buff_1 = aie.buffer(%tile_6_2) {address = 46336 : i32, sym_name = "B_L2L1_6_0_cons_buff_1"} : memref<64x16xbf16> 
    %B_L2L1_6_0_cons_prod_lock_0 = aie.lock(%tile_6_2, 2) {init = 2 : i32, sym_name = "B_L2L1_6_0_cons_prod_lock_0"}
    %B_L2L1_6_0_cons_cons_lock_0 = aie.lock(%tile_6_2, 3) {init = 0 : i32, sym_name = "B_L2L1_6_0_cons_cons_lock_0"}
    %B_L2L1_6_1_cons_buff_0 = aie.buffer(%tile_6_3) {address = 44288 : i32, sym_name = "B_L2L1_6_1_cons_buff_0"} : memref<64x16xbf16> 
    %B_L2L1_6_1_cons_buff_1 = aie.buffer(%tile_6_3) {address = 46336 : i32, sym_name = "B_L2L1_6_1_cons_buff_1"} : memref<64x16xbf16> 
    %B_L2L1_6_1_cons_prod_lock_0 = aie.lock(%tile_6_3, 2) {init = 2 : i32, sym_name = "B_L2L1_6_1_cons_prod_lock_0"}
    %B_L2L1_6_1_cons_cons_lock_0 = aie.lock(%tile_6_3, 3) {init = 0 : i32, sym_name = "B_L2L1_6_1_cons_cons_lock_0"}
    %B_L2L1_6_2_cons_buff_0 = aie.buffer(%tile_6_4) {address = 44288 : i32, sym_name = "B_L2L1_6_2_cons_buff_0"} : memref<64x16xbf16> 
    %B_L2L1_6_2_cons_buff_1 = aie.buffer(%tile_6_4) {address = 46336 : i32, sym_name = "B_L2L1_6_2_cons_buff_1"} : memref<64x16xbf16> 
    %B_L2L1_6_2_cons_prod_lock_0 = aie.lock(%tile_6_4, 2) {init = 2 : i32, sym_name = "B_L2L1_6_2_cons_prod_lock_0"}
    %B_L2L1_6_2_cons_cons_lock_0 = aie.lock(%tile_6_4, 3) {init = 0 : i32, sym_name = "B_L2L1_6_2_cons_cons_lock_0"}
    %B_L2L1_6_3_cons_buff_0 = aie.buffer(%tile_6_5) {address = 44288 : i32, sym_name = "B_L2L1_6_3_cons_buff_0"} : memref<64x16xbf16> 
    %B_L2L1_6_3_cons_buff_1 = aie.buffer(%tile_6_5) {address = 46336 : i32, sym_name = "B_L2L1_6_3_cons_buff_1"} : memref<64x16xbf16> 
    %B_L2L1_6_3_cons_prod_lock_0 = aie.lock(%tile_6_5, 2) {init = 2 : i32, sym_name = "B_L2L1_6_3_cons_prod_lock_0"}
    %B_L2L1_6_3_cons_cons_lock_0 = aie.lock(%tile_6_5, 3) {init = 0 : i32, sym_name = "B_L2L1_6_3_cons_cons_lock_0"}
    %B_L3L2_6_cons_buff_0 = aie.buffer(%mem_tile_6_1) {address = 393216 : i32, sym_name = "B_L3L2_6_cons_buff_0"} : memref<64x16xbf16> 
    %B_L3L2_6_cons_buff_1 = aie.buffer(%mem_tile_6_1) {address = 395264 : i32, sym_name = "B_L3L2_6_cons_buff_1"} : memref<64x16xbf16> 
    %B_L3L2_6_cons_prod_lock_0 = aie.lock(%mem_tile_6_1, 2) {init = 2 : i32, sym_name = "B_L3L2_6_cons_prod_lock_0"}
    %B_L3L2_6_cons_cons_lock_0 = aie.lock(%mem_tile_6_1, 3) {init = 0 : i32, sym_name = "B_L3L2_6_cons_cons_lock_0"}
    %B_L3L2_6_prod_lock_0 = aie.lock(%shim_noc_tile_6_0, 2) {init = 0 : i32, sym_name = "B_L3L2_6_prod_lock_0"}
    %B_L3L2_6_cons_lock_0 = aie.lock(%shim_noc_tile_6_0, 3) {init = 0 : i32, sym_name = "B_L3L2_6_cons_lock_0"}
    %B_L2L1_5_0_cons_buff_0 = aie.buffer(%tile_5_2) {address = 44288 : i32, sym_name = "B_L2L1_5_0_cons_buff_0"} : memref<64x16xbf16> 
    %B_L2L1_5_0_cons_buff_1 = aie.buffer(%tile_5_2) {address = 46336 : i32, sym_name = "B_L2L1_5_0_cons_buff_1"} : memref<64x16xbf16> 
    %B_L2L1_5_0_cons_prod_lock_0 = aie.lock(%tile_5_2, 2) {init = 2 : i32, sym_name = "B_L2L1_5_0_cons_prod_lock_0"}
    %B_L2L1_5_0_cons_cons_lock_0 = aie.lock(%tile_5_2, 3) {init = 0 : i32, sym_name = "B_L2L1_5_0_cons_cons_lock_0"}
    %B_L2L1_5_1_cons_buff_0 = aie.buffer(%tile_5_3) {address = 44288 : i32, sym_name = "B_L2L1_5_1_cons_buff_0"} : memref<64x16xbf16> 
    %B_L2L1_5_1_cons_buff_1 = aie.buffer(%tile_5_3) {address = 46336 : i32, sym_name = "B_L2L1_5_1_cons_buff_1"} : memref<64x16xbf16> 
    %B_L2L1_5_1_cons_prod_lock_0 = aie.lock(%tile_5_3, 2) {init = 2 : i32, sym_name = "B_L2L1_5_1_cons_prod_lock_0"}
    %B_L2L1_5_1_cons_cons_lock_0 = aie.lock(%tile_5_3, 3) {init = 0 : i32, sym_name = "B_L2L1_5_1_cons_cons_lock_0"}
    %B_L2L1_5_2_cons_buff_0 = aie.buffer(%tile_5_4) {address = 44288 : i32, sym_name = "B_L2L1_5_2_cons_buff_0"} : memref<64x16xbf16> 
    %B_L2L1_5_2_cons_buff_1 = aie.buffer(%tile_5_4) {address = 46336 : i32, sym_name = "B_L2L1_5_2_cons_buff_1"} : memref<64x16xbf16> 
    %B_L2L1_5_2_cons_prod_lock_0 = aie.lock(%tile_5_4, 2) {init = 2 : i32, sym_name = "B_L2L1_5_2_cons_prod_lock_0"}
    %B_L2L1_5_2_cons_cons_lock_0 = aie.lock(%tile_5_4, 3) {init = 0 : i32, sym_name = "B_L2L1_5_2_cons_cons_lock_0"}
    %B_L2L1_5_3_cons_buff_0 = aie.buffer(%tile_5_5) {address = 44288 : i32, sym_name = "B_L2L1_5_3_cons_buff_0"} : memref<64x16xbf16> 
    %B_L2L1_5_3_cons_buff_1 = aie.buffer(%tile_5_5) {address = 46336 : i32, sym_name = "B_L2L1_5_3_cons_buff_1"} : memref<64x16xbf16> 
    %B_L2L1_5_3_cons_prod_lock_0 = aie.lock(%tile_5_5, 2) {init = 2 : i32, sym_name = "B_L2L1_5_3_cons_prod_lock_0"}
    %B_L2L1_5_3_cons_cons_lock_0 = aie.lock(%tile_5_5, 3) {init = 0 : i32, sym_name = "B_L2L1_5_3_cons_cons_lock_0"}
    %B_L3L2_5_cons_buff_0 = aie.buffer(%mem_tile_5_1) {address = 393216 : i32, sym_name = "B_L3L2_5_cons_buff_0"} : memref<64x16xbf16> 
    %B_L3L2_5_cons_buff_1 = aie.buffer(%mem_tile_5_1) {address = 395264 : i32, sym_name = "B_L3L2_5_cons_buff_1"} : memref<64x16xbf16> 
    %B_L3L2_5_cons_prod_lock_0 = aie.lock(%mem_tile_5_1, 0) {init = 2 : i32, sym_name = "B_L3L2_5_cons_prod_lock_0"}
    %B_L3L2_5_cons_cons_lock_0 = aie.lock(%mem_tile_5_1, 1) {init = 0 : i32, sym_name = "B_L3L2_5_cons_cons_lock_0"}
    %B_L3L2_5_prod_lock_0 = aie.lock(%shim_noc_tile_5_0, 0) {init = 0 : i32, sym_name = "B_L3L2_5_prod_lock_0"}
    %B_L3L2_5_cons_lock_0 = aie.lock(%shim_noc_tile_5_0, 1) {init = 0 : i32, sym_name = "B_L3L2_5_cons_lock_0"}
    %B_L2L1_4_0_cons_buff_0 = aie.buffer(%tile_4_2) {address = 44288 : i32, sym_name = "B_L2L1_4_0_cons_buff_0"} : memref<64x16xbf16> 
    %B_L2L1_4_0_cons_buff_1 = aie.buffer(%tile_4_2) {address = 46336 : i32, sym_name = "B_L2L1_4_0_cons_buff_1"} : memref<64x16xbf16> 
    %B_L2L1_4_0_cons_prod_lock_0 = aie.lock(%tile_4_2, 2) {init = 2 : i32, sym_name = "B_L2L1_4_0_cons_prod_lock_0"}
    %B_L2L1_4_0_cons_cons_lock_0 = aie.lock(%tile_4_2, 3) {init = 0 : i32, sym_name = "B_L2L1_4_0_cons_cons_lock_0"}
    %B_L2L1_4_1_cons_buff_0 = aie.buffer(%tile_4_3) {address = 44288 : i32, sym_name = "B_L2L1_4_1_cons_buff_0"} : memref<64x16xbf16> 
    %B_L2L1_4_1_cons_buff_1 = aie.buffer(%tile_4_3) {address = 46336 : i32, sym_name = "B_L2L1_4_1_cons_buff_1"} : memref<64x16xbf16> 
    %B_L2L1_4_1_cons_prod_lock_0 = aie.lock(%tile_4_3, 2) {init = 2 : i32, sym_name = "B_L2L1_4_1_cons_prod_lock_0"}
    %B_L2L1_4_1_cons_cons_lock_0 = aie.lock(%tile_4_3, 3) {init = 0 : i32, sym_name = "B_L2L1_4_1_cons_cons_lock_0"}
    %B_L2L1_4_2_cons_buff_0 = aie.buffer(%tile_4_4) {address = 44288 : i32, sym_name = "B_L2L1_4_2_cons_buff_0"} : memref<64x16xbf16> 
    %B_L2L1_4_2_cons_buff_1 = aie.buffer(%tile_4_4) {address = 46336 : i32, sym_name = "B_L2L1_4_2_cons_buff_1"} : memref<64x16xbf16> 
    %B_L2L1_4_2_cons_prod_lock_0 = aie.lock(%tile_4_4, 2) {init = 2 : i32, sym_name = "B_L2L1_4_2_cons_prod_lock_0"}
    %B_L2L1_4_2_cons_cons_lock_0 = aie.lock(%tile_4_4, 3) {init = 0 : i32, sym_name = "B_L2L1_4_2_cons_cons_lock_0"}
    %B_L2L1_4_3_cons_buff_0 = aie.buffer(%tile_4_5) {address = 44288 : i32, sym_name = "B_L2L1_4_3_cons_buff_0"} : memref<64x16xbf16> 
    %B_L2L1_4_3_cons_buff_1 = aie.buffer(%tile_4_5) {address = 46336 : i32, sym_name = "B_L2L1_4_3_cons_buff_1"} : memref<64x16xbf16> 
    %B_L2L1_4_3_cons_prod_lock_0 = aie.lock(%tile_4_5, 2) {init = 2 : i32, sym_name = "B_L2L1_4_3_cons_prod_lock_0"}
    %B_L2L1_4_3_cons_cons_lock_0 = aie.lock(%tile_4_5, 3) {init = 0 : i32, sym_name = "B_L2L1_4_3_cons_cons_lock_0"}
    %B_L3L2_4_cons_buff_0 = aie.buffer(%mem_tile_4_1) {address = 393216 : i32, sym_name = "B_L3L2_4_cons_buff_0"} : memref<64x16xbf16> 
    %B_L3L2_4_cons_buff_1 = aie.buffer(%mem_tile_4_1) {address = 395264 : i32, sym_name = "B_L3L2_4_cons_buff_1"} : memref<64x16xbf16> 
    %B_L3L2_4_cons_prod_lock_0 = aie.lock(%mem_tile_4_1, 2) {init = 2 : i32, sym_name = "B_L3L2_4_cons_prod_lock_0"}
    %B_L3L2_4_cons_cons_lock_0 = aie.lock(%mem_tile_4_1, 3) {init = 0 : i32, sym_name = "B_L3L2_4_cons_cons_lock_0"}
    %B_L3L2_4_prod_lock_0 = aie.lock(%shim_noc_tile_4_0, 2) {init = 0 : i32, sym_name = "B_L3L2_4_prod_lock_0"}
    %B_L3L2_4_cons_lock_0 = aie.lock(%shim_noc_tile_4_0, 3) {init = 0 : i32, sym_name = "B_L3L2_4_cons_lock_0"}
    %B_L2L1_3_0_cons_buff_0 = aie.buffer(%tile_3_2) {address = 44288 : i32, sym_name = "B_L2L1_3_0_cons_buff_0"} : memref<64x16xbf16> 
    %B_L2L1_3_0_cons_buff_1 = aie.buffer(%tile_3_2) {address = 46336 : i32, sym_name = "B_L2L1_3_0_cons_buff_1"} : memref<64x16xbf16> 
    %B_L2L1_3_0_cons_prod_lock_0 = aie.lock(%tile_3_2, 2) {init = 2 : i32, sym_name = "B_L2L1_3_0_cons_prod_lock_0"}
    %B_L2L1_3_0_cons_cons_lock_0 = aie.lock(%tile_3_2, 3) {init = 0 : i32, sym_name = "B_L2L1_3_0_cons_cons_lock_0"}
    %B_L2L1_3_1_cons_buff_0 = aie.buffer(%tile_3_3) {address = 44288 : i32, sym_name = "B_L2L1_3_1_cons_buff_0"} : memref<64x16xbf16> 
    %B_L2L1_3_1_cons_buff_1 = aie.buffer(%tile_3_3) {address = 46336 : i32, sym_name = "B_L2L1_3_1_cons_buff_1"} : memref<64x16xbf16> 
    %B_L2L1_3_1_cons_prod_lock_0 = aie.lock(%tile_3_3, 2) {init = 2 : i32, sym_name = "B_L2L1_3_1_cons_prod_lock_0"}
    %B_L2L1_3_1_cons_cons_lock_0 = aie.lock(%tile_3_3, 3) {init = 0 : i32, sym_name = "B_L2L1_3_1_cons_cons_lock_0"}
    %B_L2L1_3_2_cons_buff_0 = aie.buffer(%tile_3_4) {address = 44288 : i32, sym_name = "B_L2L1_3_2_cons_buff_0"} : memref<64x16xbf16> 
    %B_L2L1_3_2_cons_buff_1 = aie.buffer(%tile_3_4) {address = 46336 : i32, sym_name = "B_L2L1_3_2_cons_buff_1"} : memref<64x16xbf16> 
    %B_L2L1_3_2_cons_prod_lock_0 = aie.lock(%tile_3_4, 2) {init = 2 : i32, sym_name = "B_L2L1_3_2_cons_prod_lock_0"}
    %B_L2L1_3_2_cons_cons_lock_0 = aie.lock(%tile_3_4, 3) {init = 0 : i32, sym_name = "B_L2L1_3_2_cons_cons_lock_0"}
    %B_L2L1_3_3_cons_buff_0 = aie.buffer(%tile_3_5) {address = 44288 : i32, sym_name = "B_L2L1_3_3_cons_buff_0"} : memref<64x16xbf16> 
    %B_L2L1_3_3_cons_buff_1 = aie.buffer(%tile_3_5) {address = 46336 : i32, sym_name = "B_L2L1_3_3_cons_buff_1"} : memref<64x16xbf16> 
    %B_L2L1_3_3_cons_prod_lock_0 = aie.lock(%tile_3_5, 2) {init = 2 : i32, sym_name = "B_L2L1_3_3_cons_prod_lock_0"}
    %B_L2L1_3_3_cons_cons_lock_0 = aie.lock(%tile_3_5, 3) {init = 0 : i32, sym_name = "B_L2L1_3_3_cons_cons_lock_0"}
    %B_L3L2_3_cons_buff_0 = aie.buffer(%mem_tile_3_1) {address = 393216 : i32, sym_name = "B_L3L2_3_cons_buff_0"} : memref<64x16xbf16> 
    %B_L3L2_3_cons_buff_1 = aie.buffer(%mem_tile_3_1) {address = 395264 : i32, sym_name = "B_L3L2_3_cons_buff_1"} : memref<64x16xbf16> 
    %B_L3L2_3_cons_prod_lock_0 = aie.lock(%mem_tile_3_1, 0) {init = 2 : i32, sym_name = "B_L3L2_3_cons_prod_lock_0"}
    %B_L3L2_3_cons_cons_lock_0 = aie.lock(%mem_tile_3_1, 1) {init = 0 : i32, sym_name = "B_L3L2_3_cons_cons_lock_0"}
    %B_L3L2_3_prod_lock_0 = aie.lock(%shim_noc_tile_3_0, 0) {init = 0 : i32, sym_name = "B_L3L2_3_prod_lock_0"}
    %B_L3L2_3_cons_lock_0 = aie.lock(%shim_noc_tile_3_0, 1) {init = 0 : i32, sym_name = "B_L3L2_3_cons_lock_0"}
    %B_L2L1_2_0_cons_buff_0 = aie.buffer(%tile_2_2) {address = 44288 : i32, sym_name = "B_L2L1_2_0_cons_buff_0"} : memref<64x16xbf16> 
    %B_L2L1_2_0_cons_buff_1 = aie.buffer(%tile_2_2) {address = 46336 : i32, sym_name = "B_L2L1_2_0_cons_buff_1"} : memref<64x16xbf16> 
    %B_L2L1_2_0_cons_prod_lock_0 = aie.lock(%tile_2_2, 2) {init = 2 : i32, sym_name = "B_L2L1_2_0_cons_prod_lock_0"}
    %B_L2L1_2_0_cons_cons_lock_0 = aie.lock(%tile_2_2, 3) {init = 0 : i32, sym_name = "B_L2L1_2_0_cons_cons_lock_0"}
    %B_L2L1_2_1_cons_buff_0 = aie.buffer(%tile_2_3) {address = 44288 : i32, sym_name = "B_L2L1_2_1_cons_buff_0"} : memref<64x16xbf16> 
    %B_L2L1_2_1_cons_buff_1 = aie.buffer(%tile_2_3) {address = 46336 : i32, sym_name = "B_L2L1_2_1_cons_buff_1"} : memref<64x16xbf16> 
    %B_L2L1_2_1_cons_prod_lock_0 = aie.lock(%tile_2_3, 2) {init = 2 : i32, sym_name = "B_L2L1_2_1_cons_prod_lock_0"}
    %B_L2L1_2_1_cons_cons_lock_0 = aie.lock(%tile_2_3, 3) {init = 0 : i32, sym_name = "B_L2L1_2_1_cons_cons_lock_0"}
    %B_L2L1_2_2_cons_buff_0 = aie.buffer(%tile_2_4) {address = 44288 : i32, sym_name = "B_L2L1_2_2_cons_buff_0"} : memref<64x16xbf16> 
    %B_L2L1_2_2_cons_buff_1 = aie.buffer(%tile_2_4) {address = 46336 : i32, sym_name = "B_L2L1_2_2_cons_buff_1"} : memref<64x16xbf16> 
    %B_L2L1_2_2_cons_prod_lock_0 = aie.lock(%tile_2_4, 2) {init = 2 : i32, sym_name = "B_L2L1_2_2_cons_prod_lock_0"}
    %B_L2L1_2_2_cons_cons_lock_0 = aie.lock(%tile_2_4, 3) {init = 0 : i32, sym_name = "B_L2L1_2_2_cons_cons_lock_0"}
    %B_L2L1_2_3_cons_buff_0 = aie.buffer(%tile_2_5) {address = 44288 : i32, sym_name = "B_L2L1_2_3_cons_buff_0"} : memref<64x16xbf16> 
    %B_L2L1_2_3_cons_buff_1 = aie.buffer(%tile_2_5) {address = 46336 : i32, sym_name = "B_L2L1_2_3_cons_buff_1"} : memref<64x16xbf16> 
    %B_L2L1_2_3_cons_prod_lock_0 = aie.lock(%tile_2_5, 2) {init = 2 : i32, sym_name = "B_L2L1_2_3_cons_prod_lock_0"}
    %B_L2L1_2_3_cons_cons_lock_0 = aie.lock(%tile_2_5, 3) {init = 0 : i32, sym_name = "B_L2L1_2_3_cons_cons_lock_0"}
    %B_L3L2_2_cons_buff_0 = aie.buffer(%mem_tile_2_1) {address = 393216 : i32, sym_name = "B_L3L2_2_cons_buff_0"} : memref<64x16xbf16> 
    %B_L3L2_2_cons_buff_1 = aie.buffer(%mem_tile_2_1) {address = 395264 : i32, sym_name = "B_L3L2_2_cons_buff_1"} : memref<64x16xbf16> 
    %B_L3L2_2_cons_prod_lock_0 = aie.lock(%mem_tile_2_1, 2) {init = 2 : i32, sym_name = "B_L3L2_2_cons_prod_lock_0"}
    %B_L3L2_2_cons_cons_lock_0 = aie.lock(%mem_tile_2_1, 3) {init = 0 : i32, sym_name = "B_L3L2_2_cons_cons_lock_0"}
    %B_L3L2_2_prod_lock_0 = aie.lock(%shim_noc_tile_2_0, 2) {init = 0 : i32, sym_name = "B_L3L2_2_prod_lock_0"}
    %B_L3L2_2_cons_lock_0 = aie.lock(%shim_noc_tile_2_0, 3) {init = 0 : i32, sym_name = "B_L3L2_2_cons_lock_0"}
    %B_L2L1_1_0_cons_buff_0 = aie.buffer(%tile_1_2) {address = 44288 : i32, sym_name = "B_L2L1_1_0_cons_buff_0"} : memref<64x16xbf16> 
    %B_L2L1_1_0_cons_buff_1 = aie.buffer(%tile_1_2) {address = 46336 : i32, sym_name = "B_L2L1_1_0_cons_buff_1"} : memref<64x16xbf16> 
    %B_L2L1_1_0_cons_prod_lock_0 = aie.lock(%tile_1_2, 2) {init = 2 : i32, sym_name = "B_L2L1_1_0_cons_prod_lock_0"}
    %B_L2L1_1_0_cons_cons_lock_0 = aie.lock(%tile_1_2, 3) {init = 0 : i32, sym_name = "B_L2L1_1_0_cons_cons_lock_0"}
    %B_L2L1_1_1_cons_buff_0 = aie.buffer(%tile_1_3) {address = 44288 : i32, sym_name = "B_L2L1_1_1_cons_buff_0"} : memref<64x16xbf16> 
    %B_L2L1_1_1_cons_buff_1 = aie.buffer(%tile_1_3) {address = 46336 : i32, sym_name = "B_L2L1_1_1_cons_buff_1"} : memref<64x16xbf16> 
    %B_L2L1_1_1_cons_prod_lock_0 = aie.lock(%tile_1_3, 2) {init = 2 : i32, sym_name = "B_L2L1_1_1_cons_prod_lock_0"}
    %B_L2L1_1_1_cons_cons_lock_0 = aie.lock(%tile_1_3, 3) {init = 0 : i32, sym_name = "B_L2L1_1_1_cons_cons_lock_0"}
    %B_L2L1_1_2_cons_buff_0 = aie.buffer(%tile_1_4) {address = 44288 : i32, sym_name = "B_L2L1_1_2_cons_buff_0"} : memref<64x16xbf16> 
    %B_L2L1_1_2_cons_buff_1 = aie.buffer(%tile_1_4) {address = 46336 : i32, sym_name = "B_L2L1_1_2_cons_buff_1"} : memref<64x16xbf16> 
    %B_L2L1_1_2_cons_prod_lock_0 = aie.lock(%tile_1_4, 2) {init = 2 : i32, sym_name = "B_L2L1_1_2_cons_prod_lock_0"}
    %B_L2L1_1_2_cons_cons_lock_0 = aie.lock(%tile_1_4, 3) {init = 0 : i32, sym_name = "B_L2L1_1_2_cons_cons_lock_0"}
    %B_L2L1_1_3_cons_buff_0 = aie.buffer(%tile_1_5) {address = 44288 : i32, sym_name = "B_L2L1_1_3_cons_buff_0"} : memref<64x16xbf16> 
    %B_L2L1_1_3_cons_buff_1 = aie.buffer(%tile_1_5) {address = 46336 : i32, sym_name = "B_L2L1_1_3_cons_buff_1"} : memref<64x16xbf16> 
    %B_L2L1_1_3_cons_prod_lock_0 = aie.lock(%tile_1_5, 2) {init = 2 : i32, sym_name = "B_L2L1_1_3_cons_prod_lock_0"}
    %B_L2L1_1_3_cons_cons_lock_0 = aie.lock(%tile_1_5, 3) {init = 0 : i32, sym_name = "B_L2L1_1_3_cons_cons_lock_0"}
    %B_L3L2_1_cons_buff_0 = aie.buffer(%mem_tile_1_1) {address = 393216 : i32, sym_name = "B_L3L2_1_cons_buff_0"} : memref<64x16xbf16> 
    %B_L3L2_1_cons_buff_1 = aie.buffer(%mem_tile_1_1) {address = 395264 : i32, sym_name = "B_L3L2_1_cons_buff_1"} : memref<64x16xbf16> 
    %B_L3L2_1_cons_prod_lock_0 = aie.lock(%mem_tile_1_1, 0) {init = 2 : i32, sym_name = "B_L3L2_1_cons_prod_lock_0"}
    %B_L3L2_1_cons_cons_lock_0 = aie.lock(%mem_tile_1_1, 1) {init = 0 : i32, sym_name = "B_L3L2_1_cons_cons_lock_0"}
    %B_L3L2_1_prod_lock_0 = aie.lock(%shim_noc_tile_1_0, 0) {init = 0 : i32, sym_name = "B_L3L2_1_prod_lock_0"}
    %B_L3L2_1_cons_lock_0 = aie.lock(%shim_noc_tile_1_0, 1) {init = 0 : i32, sym_name = "B_L3L2_1_cons_lock_0"}
    %B_L2L1_0_0_cons_buff_0 = aie.buffer(%tile_0_2) {address = 44288 : i32, sym_name = "B_L2L1_0_0_cons_buff_0"} : memref<64x16xbf16> 
    %B_L2L1_0_0_cons_buff_1 = aie.buffer(%tile_0_2) {address = 46336 : i32, sym_name = "B_L2L1_0_0_cons_buff_1"} : memref<64x16xbf16> 
    %B_L2L1_0_0_cons_prod_lock_0 = aie.lock(%tile_0_2, 2) {init = 2 : i32, sym_name = "B_L2L1_0_0_cons_prod_lock_0"}
    %B_L2L1_0_0_cons_cons_lock_0 = aie.lock(%tile_0_2, 3) {init = 0 : i32, sym_name = "B_L2L1_0_0_cons_cons_lock_0"}
    %B_L2L1_0_1_cons_buff_0 = aie.buffer(%tile_0_3) {address = 44288 : i32, sym_name = "B_L2L1_0_1_cons_buff_0"} : memref<64x16xbf16> 
    %B_L2L1_0_1_cons_buff_1 = aie.buffer(%tile_0_3) {address = 46336 : i32, sym_name = "B_L2L1_0_1_cons_buff_1"} : memref<64x16xbf16> 
    %B_L2L1_0_1_cons_prod_lock_0 = aie.lock(%tile_0_3, 2) {init = 2 : i32, sym_name = "B_L2L1_0_1_cons_prod_lock_0"}
    %B_L2L1_0_1_cons_cons_lock_0 = aie.lock(%tile_0_3, 3) {init = 0 : i32, sym_name = "B_L2L1_0_1_cons_cons_lock_0"}
    %B_L2L1_0_2_cons_buff_0 = aie.buffer(%tile_0_4) {address = 44288 : i32, sym_name = "B_L2L1_0_2_cons_buff_0"} : memref<64x16xbf16> 
    %B_L2L1_0_2_cons_buff_1 = aie.buffer(%tile_0_4) {address = 46336 : i32, sym_name = "B_L2L1_0_2_cons_buff_1"} : memref<64x16xbf16> 
    %B_L2L1_0_2_cons_prod_lock_0 = aie.lock(%tile_0_4, 2) {init = 2 : i32, sym_name = "B_L2L1_0_2_cons_prod_lock_0"}
    %B_L2L1_0_2_cons_cons_lock_0 = aie.lock(%tile_0_4, 3) {init = 0 : i32, sym_name = "B_L2L1_0_2_cons_cons_lock_0"}
    %B_L2L1_0_3_cons_buff_0 = aie.buffer(%tile_0_5) {address = 44288 : i32, sym_name = "B_L2L1_0_3_cons_buff_0"} : memref<64x16xbf16> 
    %B_L2L1_0_3_cons_buff_1 = aie.buffer(%tile_0_5) {address = 46336 : i32, sym_name = "B_L2L1_0_3_cons_buff_1"} : memref<64x16xbf16> 
    %B_L2L1_0_3_cons_prod_lock_0 = aie.lock(%tile_0_5, 2) {init = 2 : i32, sym_name = "B_L2L1_0_3_cons_prod_lock_0"}
    %B_L2L1_0_3_cons_cons_lock_0 = aie.lock(%tile_0_5, 3) {init = 0 : i32, sym_name = "B_L2L1_0_3_cons_cons_lock_0"}
    %B_L3L2_0_cons_buff_0 = aie.buffer(%mem_tile_0_1) {address = 393216 : i32, sym_name = "B_L3L2_0_cons_buff_0"} : memref<64x16xbf16> 
    %B_L3L2_0_cons_buff_1 = aie.buffer(%mem_tile_0_1) {address = 395264 : i32, sym_name = "B_L3L2_0_cons_buff_1"} : memref<64x16xbf16> 
    %B_L3L2_0_cons_prod_lock_0 = aie.lock(%mem_tile_0_1, 2) {init = 2 : i32, sym_name = "B_L3L2_0_cons_prod_lock_0"}
    %B_L3L2_0_cons_cons_lock_0 = aie.lock(%mem_tile_0_1, 3) {init = 0 : i32, sym_name = "B_L3L2_0_cons_cons_lock_0"}
    %B_L3L2_0_prod_lock_0 = aie.lock(%shim_noc_tile_0_0, 2) {init = 0 : i32, sym_name = "B_L3L2_0_prod_lock_0"}
    %B_L3L2_0_cons_lock_0 = aie.lock(%shim_noc_tile_0_0, 3) {init = 0 : i32, sym_name = "B_L3L2_0_cons_lock_0"}
    %A_L2L1_3_0_cons_buff_0 = aie.buffer(%tile_0_5) {address = 36096 : i32, sym_name = "A_L2L1_3_0_cons_buff_0"} : memref<32x64xbf16> 
    %A_L2L1_3_0_cons_buff_1 = aie.buffer(%tile_0_5) {address = 40192 : i32, sym_name = "A_L2L1_3_0_cons_buff_1"} : memref<32x64xbf16> 
    %A_L2L1_3_0_cons_prod_lock_0 = aie.lock(%tile_0_5, 0) {init = 2 : i32, sym_name = "A_L2L1_3_0_cons_prod_lock_0"}
    %A_L2L1_3_0_cons_cons_lock_0 = aie.lock(%tile_0_5, 1) {init = 0 : i32, sym_name = "A_L2L1_3_0_cons_cons_lock_0"}
    %A_L2L1_3_1_cons_buff_0 = aie.buffer(%tile_1_5) {address = 36096 : i32, sym_name = "A_L2L1_3_1_cons_buff_0"} : memref<32x64xbf16> 
    %A_L2L1_3_1_cons_buff_1 = aie.buffer(%tile_1_5) {address = 40192 : i32, sym_name = "A_L2L1_3_1_cons_buff_1"} : memref<32x64xbf16> 
    %A_L2L1_3_1_cons_prod_lock_0 = aie.lock(%tile_1_5, 0) {init = 2 : i32, sym_name = "A_L2L1_3_1_cons_prod_lock_0"}
    %A_L2L1_3_1_cons_cons_lock_0 = aie.lock(%tile_1_5, 1) {init = 0 : i32, sym_name = "A_L2L1_3_1_cons_cons_lock_0"}
    %A_L2L1_3_2_cons_buff_0 = aie.buffer(%tile_2_5) {address = 36096 : i32, sym_name = "A_L2L1_3_2_cons_buff_0"} : memref<32x64xbf16> 
    %A_L2L1_3_2_cons_buff_1 = aie.buffer(%tile_2_5) {address = 40192 : i32, sym_name = "A_L2L1_3_2_cons_buff_1"} : memref<32x64xbf16> 
    %A_L2L1_3_2_cons_prod_lock_0 = aie.lock(%tile_2_5, 0) {init = 2 : i32, sym_name = "A_L2L1_3_2_cons_prod_lock_0"}
    %A_L2L1_3_2_cons_cons_lock_0 = aie.lock(%tile_2_5, 1) {init = 0 : i32, sym_name = "A_L2L1_3_2_cons_cons_lock_0"}
    %A_L2L1_3_3_cons_buff_0 = aie.buffer(%tile_3_5) {address = 36096 : i32, sym_name = "A_L2L1_3_3_cons_buff_0"} : memref<32x64xbf16> 
    %A_L2L1_3_3_cons_buff_1 = aie.buffer(%tile_3_5) {address = 40192 : i32, sym_name = "A_L2L1_3_3_cons_buff_1"} : memref<32x64xbf16> 
    %A_L2L1_3_3_cons_prod_lock_0 = aie.lock(%tile_3_5, 0) {init = 2 : i32, sym_name = "A_L2L1_3_3_cons_prod_lock_0"}
    %A_L2L1_3_3_cons_cons_lock_0 = aie.lock(%tile_3_5, 1) {init = 0 : i32, sym_name = "A_L2L1_3_3_cons_cons_lock_0"}
    %A_L2L1_3_4_cons_buff_0 = aie.buffer(%tile_4_5) {address = 36096 : i32, sym_name = "A_L2L1_3_4_cons_buff_0"} : memref<32x64xbf16> 
    %A_L2L1_3_4_cons_buff_1 = aie.buffer(%tile_4_5) {address = 40192 : i32, sym_name = "A_L2L1_3_4_cons_buff_1"} : memref<32x64xbf16> 
    %A_L2L1_3_4_cons_prod_lock_0 = aie.lock(%tile_4_5, 0) {init = 2 : i32, sym_name = "A_L2L1_3_4_cons_prod_lock_0"}
    %A_L2L1_3_4_cons_cons_lock_0 = aie.lock(%tile_4_5, 1) {init = 0 : i32, sym_name = "A_L2L1_3_4_cons_cons_lock_0"}
    %A_L2L1_3_5_cons_buff_0 = aie.buffer(%tile_5_5) {address = 36096 : i32, sym_name = "A_L2L1_3_5_cons_buff_0"} : memref<32x64xbf16> 
    %A_L2L1_3_5_cons_buff_1 = aie.buffer(%tile_5_5) {address = 40192 : i32, sym_name = "A_L2L1_3_5_cons_buff_1"} : memref<32x64xbf16> 
    %A_L2L1_3_5_cons_prod_lock_0 = aie.lock(%tile_5_5, 0) {init = 2 : i32, sym_name = "A_L2L1_3_5_cons_prod_lock_0"}
    %A_L2L1_3_5_cons_cons_lock_0 = aie.lock(%tile_5_5, 1) {init = 0 : i32, sym_name = "A_L2L1_3_5_cons_cons_lock_0"}
    %A_L2L1_3_6_cons_buff_0 = aie.buffer(%tile_6_5) {address = 36096 : i32, sym_name = "A_L2L1_3_6_cons_buff_0"} : memref<32x64xbf16> 
    %A_L2L1_3_6_cons_buff_1 = aie.buffer(%tile_6_5) {address = 40192 : i32, sym_name = "A_L2L1_3_6_cons_buff_1"} : memref<32x64xbf16> 
    %A_L2L1_3_6_cons_prod_lock_0 = aie.lock(%tile_6_5, 0) {init = 2 : i32, sym_name = "A_L2L1_3_6_cons_prod_lock_0"}
    %A_L2L1_3_6_cons_cons_lock_0 = aie.lock(%tile_6_5, 1) {init = 0 : i32, sym_name = "A_L2L1_3_6_cons_cons_lock_0"}
    %A_L2L1_3_7_cons_buff_0 = aie.buffer(%tile_7_5) {address = 36096 : i32, sym_name = "A_L2L1_3_7_cons_buff_0"} : memref<32x64xbf16> 
    %A_L2L1_3_7_cons_buff_1 = aie.buffer(%tile_7_5) {address = 40192 : i32, sym_name = "A_L2L1_3_7_cons_buff_1"} : memref<32x64xbf16> 
    %A_L2L1_3_7_cons_prod_lock_0 = aie.lock(%tile_7_5, 0) {init = 2 : i32, sym_name = "A_L2L1_3_7_cons_prod_lock_0"}
    %A_L2L1_3_7_cons_cons_lock_0 = aie.lock(%tile_7_5, 1) {init = 0 : i32, sym_name = "A_L2L1_3_7_cons_cons_lock_0"}
    %A_L3L2_3_cons_buff_0 = aie.buffer(%mem_tile_6_1) {address = 131072 : i32, sym_name = "A_L3L2_3_cons_buff_0"} : memref<128x512xbf16> 
    %A_L3L2_3_cons_buff_1 = aie.buffer(%mem_tile_6_1) {address = 262144 : i32, sym_name = "A_L3L2_3_cons_buff_1"} : memref<128x512xbf16> 
    %A_L3L2_3_cons_prod_lock_0 = aie.lock(%mem_tile_6_1, 0) {init = 2 : i32, sym_name = "A_L3L2_3_cons_prod_lock_0"}
    %A_L3L2_3_cons_cons_lock_0 = aie.lock(%mem_tile_6_1, 1) {init = 0 : i32, sym_name = "A_L3L2_3_cons_cons_lock_0"}
    %A_L3L2_3_prod_lock_0 = aie.lock(%shim_noc_tile_6_0, 0) {init = 0 : i32, sym_name = "A_L3L2_3_prod_lock_0"}
    %A_L3L2_3_cons_lock_0 = aie.lock(%shim_noc_tile_6_0, 1) {init = 0 : i32, sym_name = "A_L3L2_3_cons_lock_0"}
    %A_L2L1_2_0_cons_buff_0 = aie.buffer(%tile_0_4) {address = 36096 : i32, sym_name = "A_L2L1_2_0_cons_buff_0"} : memref<32x64xbf16> 
    %A_L2L1_2_0_cons_buff_1 = aie.buffer(%tile_0_4) {address = 40192 : i32, sym_name = "A_L2L1_2_0_cons_buff_1"} : memref<32x64xbf16> 
    %A_L2L1_2_0_cons_prod_lock_0 = aie.lock(%tile_0_4, 0) {init = 2 : i32, sym_name = "A_L2L1_2_0_cons_prod_lock_0"}
    %A_L2L1_2_0_cons_cons_lock_0 = aie.lock(%tile_0_4, 1) {init = 0 : i32, sym_name = "A_L2L1_2_0_cons_cons_lock_0"}
    %A_L2L1_2_1_cons_buff_0 = aie.buffer(%tile_1_4) {address = 36096 : i32, sym_name = "A_L2L1_2_1_cons_buff_0"} : memref<32x64xbf16> 
    %A_L2L1_2_1_cons_buff_1 = aie.buffer(%tile_1_4) {address = 40192 : i32, sym_name = "A_L2L1_2_1_cons_buff_1"} : memref<32x64xbf16> 
    %A_L2L1_2_1_cons_prod_lock_0 = aie.lock(%tile_1_4, 0) {init = 2 : i32, sym_name = "A_L2L1_2_1_cons_prod_lock_0"}
    %A_L2L1_2_1_cons_cons_lock_0 = aie.lock(%tile_1_4, 1) {init = 0 : i32, sym_name = "A_L2L1_2_1_cons_cons_lock_0"}
    %A_L2L1_2_2_cons_buff_0 = aie.buffer(%tile_2_4) {address = 36096 : i32, sym_name = "A_L2L1_2_2_cons_buff_0"} : memref<32x64xbf16> 
    %A_L2L1_2_2_cons_buff_1 = aie.buffer(%tile_2_4) {address = 40192 : i32, sym_name = "A_L2L1_2_2_cons_buff_1"} : memref<32x64xbf16> 
    %A_L2L1_2_2_cons_prod_lock_0 = aie.lock(%tile_2_4, 0) {init = 2 : i32, sym_name = "A_L2L1_2_2_cons_prod_lock_0"}
    %A_L2L1_2_2_cons_cons_lock_0 = aie.lock(%tile_2_4, 1) {init = 0 : i32, sym_name = "A_L2L1_2_2_cons_cons_lock_0"}
    %A_L2L1_2_3_cons_buff_0 = aie.buffer(%tile_3_4) {address = 36096 : i32, sym_name = "A_L2L1_2_3_cons_buff_0"} : memref<32x64xbf16> 
    %A_L2L1_2_3_cons_buff_1 = aie.buffer(%tile_3_4) {address = 40192 : i32, sym_name = "A_L2L1_2_3_cons_buff_1"} : memref<32x64xbf16> 
    %A_L2L1_2_3_cons_prod_lock_0 = aie.lock(%tile_3_4, 0) {init = 2 : i32, sym_name = "A_L2L1_2_3_cons_prod_lock_0"}
    %A_L2L1_2_3_cons_cons_lock_0 = aie.lock(%tile_3_4, 1) {init = 0 : i32, sym_name = "A_L2L1_2_3_cons_cons_lock_0"}
    %A_L2L1_2_4_cons_buff_0 = aie.buffer(%tile_4_4) {address = 36096 : i32, sym_name = "A_L2L1_2_4_cons_buff_0"} : memref<32x64xbf16> 
    %A_L2L1_2_4_cons_buff_1 = aie.buffer(%tile_4_4) {address = 40192 : i32, sym_name = "A_L2L1_2_4_cons_buff_1"} : memref<32x64xbf16> 
    %A_L2L1_2_4_cons_prod_lock_0 = aie.lock(%tile_4_4, 0) {init = 2 : i32, sym_name = "A_L2L1_2_4_cons_prod_lock_0"}
    %A_L2L1_2_4_cons_cons_lock_0 = aie.lock(%tile_4_4, 1) {init = 0 : i32, sym_name = "A_L2L1_2_4_cons_cons_lock_0"}
    %A_L2L1_2_5_cons_buff_0 = aie.buffer(%tile_5_4) {address = 36096 : i32, sym_name = "A_L2L1_2_5_cons_buff_0"} : memref<32x64xbf16> 
    %A_L2L1_2_5_cons_buff_1 = aie.buffer(%tile_5_4) {address = 40192 : i32, sym_name = "A_L2L1_2_5_cons_buff_1"} : memref<32x64xbf16> 
    %A_L2L1_2_5_cons_prod_lock_0 = aie.lock(%tile_5_4, 0) {init = 2 : i32, sym_name = "A_L2L1_2_5_cons_prod_lock_0"}
    %A_L2L1_2_5_cons_cons_lock_0 = aie.lock(%tile_5_4, 1) {init = 0 : i32, sym_name = "A_L2L1_2_5_cons_cons_lock_0"}
    %A_L2L1_2_6_cons_buff_0 = aie.buffer(%tile_6_4) {address = 36096 : i32, sym_name = "A_L2L1_2_6_cons_buff_0"} : memref<32x64xbf16> 
    %A_L2L1_2_6_cons_buff_1 = aie.buffer(%tile_6_4) {address = 40192 : i32, sym_name = "A_L2L1_2_6_cons_buff_1"} : memref<32x64xbf16> 
    %A_L2L1_2_6_cons_prod_lock_0 = aie.lock(%tile_6_4, 0) {init = 2 : i32, sym_name = "A_L2L1_2_6_cons_prod_lock_0"}
    %A_L2L1_2_6_cons_cons_lock_0 = aie.lock(%tile_6_4, 1) {init = 0 : i32, sym_name = "A_L2L1_2_6_cons_cons_lock_0"}
    %A_L2L1_2_7_cons_buff_0 = aie.buffer(%tile_7_4) {address = 36096 : i32, sym_name = "A_L2L1_2_7_cons_buff_0"} : memref<32x64xbf16> 
    %A_L2L1_2_7_cons_buff_1 = aie.buffer(%tile_7_4) {address = 40192 : i32, sym_name = "A_L2L1_2_7_cons_buff_1"} : memref<32x64xbf16> 
    %A_L2L1_2_7_cons_prod_lock_0 = aie.lock(%tile_7_4, 0) {init = 2 : i32, sym_name = "A_L2L1_2_7_cons_prod_lock_0"}
    %A_L2L1_2_7_cons_cons_lock_0 = aie.lock(%tile_7_4, 1) {init = 0 : i32, sym_name = "A_L2L1_2_7_cons_cons_lock_0"}
    %A_L3L2_2_cons_buff_0 = aie.buffer(%mem_tile_4_1) {address = 131072 : i32, sym_name = "A_L3L2_2_cons_buff_0"} : memref<128x512xbf16> 
    %A_L3L2_2_cons_buff_1 = aie.buffer(%mem_tile_4_1) {address = 262144 : i32, sym_name = "A_L3L2_2_cons_buff_1"} : memref<128x512xbf16> 
    %A_L3L2_2_cons_prod_lock_0 = aie.lock(%mem_tile_4_1, 0) {init = 2 : i32, sym_name = "A_L3L2_2_cons_prod_lock_0"}
    %A_L3L2_2_cons_cons_lock_0 = aie.lock(%mem_tile_4_1, 1) {init = 0 : i32, sym_name = "A_L3L2_2_cons_cons_lock_0"}
    %A_L3L2_2_prod_lock_0 = aie.lock(%shim_noc_tile_4_0, 0) {init = 0 : i32, sym_name = "A_L3L2_2_prod_lock_0"}
    %A_L3L2_2_cons_lock_0 = aie.lock(%shim_noc_tile_4_0, 1) {init = 0 : i32, sym_name = "A_L3L2_2_cons_lock_0"}
    %A_L2L1_1_0_cons_buff_0 = aie.buffer(%tile_0_3) {address = 36096 : i32, sym_name = "A_L2L1_1_0_cons_buff_0"} : memref<32x64xbf16> 
    %A_L2L1_1_0_cons_buff_1 = aie.buffer(%tile_0_3) {address = 40192 : i32, sym_name = "A_L2L1_1_0_cons_buff_1"} : memref<32x64xbf16> 
    %A_L2L1_1_0_cons_prod_lock_0 = aie.lock(%tile_0_3, 0) {init = 2 : i32, sym_name = "A_L2L1_1_0_cons_prod_lock_0"}
    %A_L2L1_1_0_cons_cons_lock_0 = aie.lock(%tile_0_3, 1) {init = 0 : i32, sym_name = "A_L2L1_1_0_cons_cons_lock_0"}
    %A_L2L1_1_1_cons_buff_0 = aie.buffer(%tile_1_3) {address = 36096 : i32, sym_name = "A_L2L1_1_1_cons_buff_0"} : memref<32x64xbf16> 
    %A_L2L1_1_1_cons_buff_1 = aie.buffer(%tile_1_3) {address = 40192 : i32, sym_name = "A_L2L1_1_1_cons_buff_1"} : memref<32x64xbf16> 
    %A_L2L1_1_1_cons_prod_lock_0 = aie.lock(%tile_1_3, 0) {init = 2 : i32, sym_name = "A_L2L1_1_1_cons_prod_lock_0"}
    %A_L2L1_1_1_cons_cons_lock_0 = aie.lock(%tile_1_3, 1) {init = 0 : i32, sym_name = "A_L2L1_1_1_cons_cons_lock_0"}
    %A_L2L1_1_2_cons_buff_0 = aie.buffer(%tile_2_3) {address = 36096 : i32, sym_name = "A_L2L1_1_2_cons_buff_0"} : memref<32x64xbf16> 
    %A_L2L1_1_2_cons_buff_1 = aie.buffer(%tile_2_3) {address = 40192 : i32, sym_name = "A_L2L1_1_2_cons_buff_1"} : memref<32x64xbf16> 
    %A_L2L1_1_2_cons_prod_lock_0 = aie.lock(%tile_2_3, 0) {init = 2 : i32, sym_name = "A_L2L1_1_2_cons_prod_lock_0"}
    %A_L2L1_1_2_cons_cons_lock_0 = aie.lock(%tile_2_3, 1) {init = 0 : i32, sym_name = "A_L2L1_1_2_cons_cons_lock_0"}
    %A_L2L1_1_3_cons_buff_0 = aie.buffer(%tile_3_3) {address = 36096 : i32, sym_name = "A_L2L1_1_3_cons_buff_0"} : memref<32x64xbf16> 
    %A_L2L1_1_3_cons_buff_1 = aie.buffer(%tile_3_3) {address = 40192 : i32, sym_name = "A_L2L1_1_3_cons_buff_1"} : memref<32x64xbf16> 
    %A_L2L1_1_3_cons_prod_lock_0 = aie.lock(%tile_3_3, 0) {init = 2 : i32, sym_name = "A_L2L1_1_3_cons_prod_lock_0"}
    %A_L2L1_1_3_cons_cons_lock_0 = aie.lock(%tile_3_3, 1) {init = 0 : i32, sym_name = "A_L2L1_1_3_cons_cons_lock_0"}
    %A_L2L1_1_4_cons_buff_0 = aie.buffer(%tile_4_3) {address = 36096 : i32, sym_name = "A_L2L1_1_4_cons_buff_0"} : memref<32x64xbf16> 
    %A_L2L1_1_4_cons_buff_1 = aie.buffer(%tile_4_3) {address = 40192 : i32, sym_name = "A_L2L1_1_4_cons_buff_1"} : memref<32x64xbf16> 
    %A_L2L1_1_4_cons_prod_lock_0 = aie.lock(%tile_4_3, 0) {init = 2 : i32, sym_name = "A_L2L1_1_4_cons_prod_lock_0"}
    %A_L2L1_1_4_cons_cons_lock_0 = aie.lock(%tile_4_3, 1) {init = 0 : i32, sym_name = "A_L2L1_1_4_cons_cons_lock_0"}
    %A_L2L1_1_5_cons_buff_0 = aie.buffer(%tile_5_3) {address = 36096 : i32, sym_name = "A_L2L1_1_5_cons_buff_0"} : memref<32x64xbf16> 
    %A_L2L1_1_5_cons_buff_1 = aie.buffer(%tile_5_3) {address = 40192 : i32, sym_name = "A_L2L1_1_5_cons_buff_1"} : memref<32x64xbf16> 
    %A_L2L1_1_5_cons_prod_lock_0 = aie.lock(%tile_5_3, 0) {init = 2 : i32, sym_name = "A_L2L1_1_5_cons_prod_lock_0"}
    %A_L2L1_1_5_cons_cons_lock_0 = aie.lock(%tile_5_3, 1) {init = 0 : i32, sym_name = "A_L2L1_1_5_cons_cons_lock_0"}
    %A_L2L1_1_6_cons_buff_0 = aie.buffer(%tile_6_3) {address = 36096 : i32, sym_name = "A_L2L1_1_6_cons_buff_0"} : memref<32x64xbf16> 
    %A_L2L1_1_6_cons_buff_1 = aie.buffer(%tile_6_3) {address = 40192 : i32, sym_name = "A_L2L1_1_6_cons_buff_1"} : memref<32x64xbf16> 
    %A_L2L1_1_6_cons_prod_lock_0 = aie.lock(%tile_6_3, 0) {init = 2 : i32, sym_name = "A_L2L1_1_6_cons_prod_lock_0"}
    %A_L2L1_1_6_cons_cons_lock_0 = aie.lock(%tile_6_3, 1) {init = 0 : i32, sym_name = "A_L2L1_1_6_cons_cons_lock_0"}
    %A_L2L1_1_7_cons_buff_0 = aie.buffer(%tile_7_3) {address = 36096 : i32, sym_name = "A_L2L1_1_7_cons_buff_0"} : memref<32x64xbf16> 
    %A_L2L1_1_7_cons_buff_1 = aie.buffer(%tile_7_3) {address = 40192 : i32, sym_name = "A_L2L1_1_7_cons_buff_1"} : memref<32x64xbf16> 
    %A_L2L1_1_7_cons_prod_lock_0 = aie.lock(%tile_7_3, 0) {init = 2 : i32, sym_name = "A_L2L1_1_7_cons_prod_lock_0"}
    %A_L2L1_1_7_cons_cons_lock_0 = aie.lock(%tile_7_3, 1) {init = 0 : i32, sym_name = "A_L2L1_1_7_cons_cons_lock_0"}
    %A_L3L2_1_cons_buff_0 = aie.buffer(%mem_tile_2_1) {address = 131072 : i32, sym_name = "A_L3L2_1_cons_buff_0"} : memref<128x512xbf16> 
    %A_L3L2_1_cons_buff_1 = aie.buffer(%mem_tile_2_1) {address = 262144 : i32, sym_name = "A_L3L2_1_cons_buff_1"} : memref<128x512xbf16> 
    %A_L3L2_1_cons_prod_lock_0 = aie.lock(%mem_tile_2_1, 0) {init = 2 : i32, sym_name = "A_L3L2_1_cons_prod_lock_0"}
    %A_L3L2_1_cons_cons_lock_0 = aie.lock(%mem_tile_2_1, 1) {init = 0 : i32, sym_name = "A_L3L2_1_cons_cons_lock_0"}
    %A_L3L2_1_prod_lock_0 = aie.lock(%shim_noc_tile_2_0, 0) {init = 0 : i32, sym_name = "A_L3L2_1_prod_lock_0"}
    %A_L3L2_1_cons_lock_0 = aie.lock(%shim_noc_tile_2_0, 1) {init = 0 : i32, sym_name = "A_L3L2_1_cons_lock_0"}
    %A_L2L1_0_0_cons_buff_0 = aie.buffer(%tile_0_2) {address = 36096 : i32, sym_name = "A_L2L1_0_0_cons_buff_0"} : memref<32x64xbf16> 
    %A_L2L1_0_0_cons_buff_1 = aie.buffer(%tile_0_2) {address = 40192 : i32, sym_name = "A_L2L1_0_0_cons_buff_1"} : memref<32x64xbf16> 
    %A_L2L1_0_0_cons_prod_lock_0 = aie.lock(%tile_0_2, 0) {init = 2 : i32, sym_name = "A_L2L1_0_0_cons_prod_lock_0"}
    %A_L2L1_0_0_cons_cons_lock_0 = aie.lock(%tile_0_2, 1) {init = 0 : i32, sym_name = "A_L2L1_0_0_cons_cons_lock_0"}
    %A_L2L1_0_1_cons_buff_0 = aie.buffer(%tile_1_2) {address = 36096 : i32, sym_name = "A_L2L1_0_1_cons_buff_0"} : memref<32x64xbf16> 
    %A_L2L1_0_1_cons_buff_1 = aie.buffer(%tile_1_2) {address = 40192 : i32, sym_name = "A_L2L1_0_1_cons_buff_1"} : memref<32x64xbf16> 
    %A_L2L1_0_1_cons_prod_lock_0 = aie.lock(%tile_1_2, 0) {init = 2 : i32, sym_name = "A_L2L1_0_1_cons_prod_lock_0"}
    %A_L2L1_0_1_cons_cons_lock_0 = aie.lock(%tile_1_2, 1) {init = 0 : i32, sym_name = "A_L2L1_0_1_cons_cons_lock_0"}
    %A_L2L1_0_2_cons_buff_0 = aie.buffer(%tile_2_2) {address = 36096 : i32, sym_name = "A_L2L1_0_2_cons_buff_0"} : memref<32x64xbf16> 
    %A_L2L1_0_2_cons_buff_1 = aie.buffer(%tile_2_2) {address = 40192 : i32, sym_name = "A_L2L1_0_2_cons_buff_1"} : memref<32x64xbf16> 
    %A_L2L1_0_2_cons_prod_lock_0 = aie.lock(%tile_2_2, 0) {init = 2 : i32, sym_name = "A_L2L1_0_2_cons_prod_lock_0"}
    %A_L2L1_0_2_cons_cons_lock_0 = aie.lock(%tile_2_2, 1) {init = 0 : i32, sym_name = "A_L2L1_0_2_cons_cons_lock_0"}
    %A_L2L1_0_3_cons_buff_0 = aie.buffer(%tile_3_2) {address = 36096 : i32, sym_name = "A_L2L1_0_3_cons_buff_0"} : memref<32x64xbf16> 
    %A_L2L1_0_3_cons_buff_1 = aie.buffer(%tile_3_2) {address = 40192 : i32, sym_name = "A_L2L1_0_3_cons_buff_1"} : memref<32x64xbf16> 
    %A_L2L1_0_3_cons_prod_lock_0 = aie.lock(%tile_3_2, 0) {init = 2 : i32, sym_name = "A_L2L1_0_3_cons_prod_lock_0"}
    %A_L2L1_0_3_cons_cons_lock_0 = aie.lock(%tile_3_2, 1) {init = 0 : i32, sym_name = "A_L2L1_0_3_cons_cons_lock_0"}
    %A_L2L1_0_4_cons_buff_0 = aie.buffer(%tile_4_2) {address = 36096 : i32, sym_name = "A_L2L1_0_4_cons_buff_0"} : memref<32x64xbf16> 
    %A_L2L1_0_4_cons_buff_1 = aie.buffer(%tile_4_2) {address = 40192 : i32, sym_name = "A_L2L1_0_4_cons_buff_1"} : memref<32x64xbf16> 
    %A_L2L1_0_4_cons_prod_lock_0 = aie.lock(%tile_4_2, 0) {init = 2 : i32, sym_name = "A_L2L1_0_4_cons_prod_lock_0"}
    %A_L2L1_0_4_cons_cons_lock_0 = aie.lock(%tile_4_2, 1) {init = 0 : i32, sym_name = "A_L2L1_0_4_cons_cons_lock_0"}
    %A_L2L1_0_5_cons_buff_0 = aie.buffer(%tile_5_2) {address = 36096 : i32, sym_name = "A_L2L1_0_5_cons_buff_0"} : memref<32x64xbf16> 
    %A_L2L1_0_5_cons_buff_1 = aie.buffer(%tile_5_2) {address = 40192 : i32, sym_name = "A_L2L1_0_5_cons_buff_1"} : memref<32x64xbf16> 
    %A_L2L1_0_5_cons_prod_lock_0 = aie.lock(%tile_5_2, 0) {init = 2 : i32, sym_name = "A_L2L1_0_5_cons_prod_lock_0"}
    %A_L2L1_0_5_cons_cons_lock_0 = aie.lock(%tile_5_2, 1) {init = 0 : i32, sym_name = "A_L2L1_0_5_cons_cons_lock_0"}
    %A_L2L1_0_6_cons_buff_0 = aie.buffer(%tile_6_2) {address = 36096 : i32, sym_name = "A_L2L1_0_6_cons_buff_0"} : memref<32x64xbf16> 
    %A_L2L1_0_6_cons_buff_1 = aie.buffer(%tile_6_2) {address = 40192 : i32, sym_name = "A_L2L1_0_6_cons_buff_1"} : memref<32x64xbf16> 
    %A_L2L1_0_6_cons_prod_lock_0 = aie.lock(%tile_6_2, 0) {init = 2 : i32, sym_name = "A_L2L1_0_6_cons_prod_lock_0"}
    %A_L2L1_0_6_cons_cons_lock_0 = aie.lock(%tile_6_2, 1) {init = 0 : i32, sym_name = "A_L2L1_0_6_cons_cons_lock_0"}
    %A_L2L1_0_7_cons_buff_0 = aie.buffer(%tile_7_2) {address = 36096 : i32, sym_name = "A_L2L1_0_7_cons_buff_0"} : memref<32x64xbf16> 
    %A_L2L1_0_7_cons_buff_1 = aie.buffer(%tile_7_2) {address = 40192 : i32, sym_name = "A_L2L1_0_7_cons_buff_1"} : memref<32x64xbf16> 
    %A_L2L1_0_7_cons_prod_lock_0 = aie.lock(%tile_7_2, 0) {init = 2 : i32, sym_name = "A_L2L1_0_7_cons_prod_lock_0"}
    %A_L2L1_0_7_cons_cons_lock_0 = aie.lock(%tile_7_2, 1) {init = 0 : i32, sym_name = "A_L2L1_0_7_cons_cons_lock_0"}
    %A_L3L2_0_cons_buff_0 = aie.buffer(%mem_tile_0_1) {address = 131072 : i32, sym_name = "A_L3L2_0_cons_buff_0"} : memref<128x512xbf16> 
    %A_L3L2_0_cons_buff_1 = aie.buffer(%mem_tile_0_1) {address = 262144 : i32, sym_name = "A_L3L2_0_cons_buff_1"} : memref<128x512xbf16> 
    %A_L3L2_0_cons_prod_lock_0 = aie.lock(%mem_tile_0_1, 0) {init = 2 : i32, sym_name = "A_L3L2_0_cons_prod_lock_0"}
    %A_L3L2_0_cons_cons_lock_0 = aie.lock(%mem_tile_0_1, 1) {init = 0 : i32, sym_name = "A_L3L2_0_cons_cons_lock_0"}
    %A_L3L2_0_prod_lock_0 = aie.lock(%shim_noc_tile_0_0, 0) {init = 0 : i32, sym_name = "A_L3L2_0_prod_lock_0"}
    %A_L3L2_0_cons_lock_0 = aie.lock(%shim_noc_tile_0_0, 1) {init = 0 : i32, sym_name = "A_L3L2_0_cons_lock_0"}
    aie.flow(%shim_noc_tile_0_0, DMA : 0, %mem_tile_0_1, DMA : 4)
    aie.flow(%mem_tile_0_1, DMA : 1, %tile_7_2, DMA : 0)
    aie.flow(%mem_tile_0_1, DMA : 1, %tile_6_2, DMA : 0)
    aie.flow(%mem_tile_0_1, DMA : 1, %tile_5_2, DMA : 0)
    aie.flow(%mem_tile_0_1, DMA : 1, %tile_4_2, DMA : 0)
    aie.flow(%mem_tile_0_1, DMA : 1, %tile_3_2, DMA : 0)
    aie.flow(%mem_tile_0_1, DMA : 1, %tile_2_2, DMA : 0)
    aie.flow(%mem_tile_0_1, DMA : 1, %tile_1_2, DMA : 0)
    aie.flow(%mem_tile_0_1, DMA : 1, %tile_0_2, DMA : 0)
    aie.flow(%shim_noc_tile_2_0, DMA : 0, %mem_tile_2_1, DMA : 4)
    aie.flow(%mem_tile_2_1, DMA : 1, %tile_7_3, DMA : 0)
    aie.flow(%mem_tile_2_1, DMA : 1, %tile_6_3, DMA : 0)
    aie.flow(%mem_tile_2_1, DMA : 1, %tile_5_3, DMA : 0)
    aie.flow(%mem_tile_2_1, DMA : 1, %tile_4_3, DMA : 0)
    aie.flow(%mem_tile_2_1, DMA : 1, %tile_3_3, DMA : 0)
    aie.flow(%mem_tile_2_1, DMA : 1, %tile_2_3, DMA : 0)
    aie.flow(%mem_tile_2_1, DMA : 1, %tile_1_3, DMA : 0)
    aie.flow(%mem_tile_2_1, DMA : 1, %tile_0_3, DMA : 0)
    aie.flow(%shim_noc_tile_4_0, DMA : 0, %mem_tile_4_1, DMA : 4)
    aie.flow(%mem_tile_4_1, DMA : 1, %tile_7_4, DMA : 0)
    aie.flow(%mem_tile_4_1, DMA : 1, %tile_6_4, DMA : 0)
    aie.flow(%mem_tile_4_1, DMA : 1, %tile_5_4, DMA : 0)
    aie.flow(%mem_tile_4_1, DMA : 1, %tile_4_4, DMA : 0)
    aie.flow(%mem_tile_4_1, DMA : 1, %tile_3_4, DMA : 0)
    aie.flow(%mem_tile_4_1, DMA : 1, %tile_2_4, DMA : 0)
    aie.flow(%mem_tile_4_1, DMA : 1, %tile_1_4, DMA : 0)
    aie.flow(%mem_tile_4_1, DMA : 1, %tile_0_4, DMA : 0)
    aie.flow(%shim_noc_tile_6_0, DMA : 0, %mem_tile_6_1, DMA : 4)
    aie.flow(%mem_tile_6_1, DMA : 1, %tile_7_5, DMA : 0)
    aie.flow(%mem_tile_6_1, DMA : 1, %tile_6_5, DMA : 0)
    aie.flow(%mem_tile_6_1, DMA : 1, %tile_5_5, DMA : 0)
    aie.flow(%mem_tile_6_1, DMA : 1, %tile_4_5, DMA : 0)
    aie.flow(%mem_tile_6_1, DMA : 1, %tile_3_5, DMA : 0)
    aie.flow(%mem_tile_6_1, DMA : 1, %tile_2_5, DMA : 0)
    aie.flow(%mem_tile_6_1, DMA : 1, %tile_1_5, DMA : 0)
    aie.flow(%mem_tile_6_1, DMA : 1, %tile_0_5, DMA : 0)
    aie.flow(%shim_noc_tile_0_0, DMA : 1, %mem_tile_0_1, DMA : 5)
    aie.flow(%mem_tile_0_1, DMA : 2, %tile_0_5, DMA : 1)
    aie.flow(%mem_tile_0_1, DMA : 2, %tile_0_4, DMA : 1)
    aie.flow(%mem_tile_0_1, DMA : 2, %tile_0_3, DMA : 1)
    aie.flow(%mem_tile_0_1, DMA : 2, %tile_0_2, DMA : 1)
    aie.flow(%shim_noc_tile_1_0, DMA : 0, %mem_tile_1_1, DMA : 0)
    aie.flow(%mem_tile_1_1, DMA : 0, %tile_1_5, DMA : 1)
    aie.flow(%mem_tile_1_1, DMA : 0, %tile_1_4, DMA : 1)
    aie.flow(%mem_tile_1_1, DMA : 0, %tile_1_3, DMA : 1)
    aie.flow(%mem_tile_1_1, DMA : 0, %tile_1_2, DMA : 1)
    aie.flow(%shim_noc_tile_2_0, DMA : 1, %mem_tile_2_1, DMA : 5)
    aie.flow(%mem_tile_2_1, DMA : 2, %tile_2_5, DMA : 1)
    aie.flow(%mem_tile_2_1, DMA : 2, %tile_2_4, DMA : 1)
    aie.flow(%mem_tile_2_1, DMA : 2, %tile_2_3, DMA : 1)
    aie.flow(%mem_tile_2_1, DMA : 2, %tile_2_2, DMA : 1)
    aie.flow(%shim_noc_tile_3_0, DMA : 0, %mem_tile_3_1, DMA : 0)
    aie.flow(%mem_tile_3_1, DMA : 0, %tile_3_5, DMA : 1)
    aie.flow(%mem_tile_3_1, DMA : 0, %tile_3_4, DMA : 1)
    aie.flow(%mem_tile_3_1, DMA : 0, %tile_3_3, DMA : 1)
    aie.flow(%mem_tile_3_1, DMA : 0, %tile_3_2, DMA : 1)
    aie.flow(%shim_noc_tile_4_0, DMA : 1, %mem_tile_4_1, DMA : 5)
    aie.flow(%mem_tile_4_1, DMA : 2, %tile_4_5, DMA : 1)
    aie.flow(%mem_tile_4_1, DMA : 2, %tile_4_4, DMA : 1)
    aie.flow(%mem_tile_4_1, DMA : 2, %tile_4_3, DMA : 1)
    aie.flow(%mem_tile_4_1, DMA : 2, %tile_4_2, DMA : 1)
    aie.flow(%shim_noc_tile_5_0, DMA : 0, %mem_tile_5_1, DMA : 0)
    aie.flow(%mem_tile_5_1, DMA : 0, %tile_5_5, DMA : 1)
    aie.flow(%mem_tile_5_1, DMA : 0, %tile_5_4, DMA : 1)
    aie.flow(%mem_tile_5_1, DMA : 0, %tile_5_3, DMA : 1)
    aie.flow(%mem_tile_5_1, DMA : 0, %tile_5_2, DMA : 1)
    aie.flow(%shim_noc_tile_6_0, DMA : 1, %mem_tile_6_1, DMA : 5)
    aie.flow(%mem_tile_6_1, DMA : 2, %tile_6_5, DMA : 1)
    aie.flow(%mem_tile_6_1, DMA : 2, %tile_6_4, DMA : 1)
    aie.flow(%mem_tile_6_1, DMA : 2, %tile_6_3, DMA : 1)
    aie.flow(%mem_tile_6_1, DMA : 2, %tile_6_2, DMA : 1)
    aie.flow(%shim_noc_tile_7_0, DMA : 0, %mem_tile_7_1, DMA : 0)
    aie.flow(%mem_tile_7_1, DMA : 0, %tile_7_5, DMA : 1)
    aie.flow(%mem_tile_7_1, DMA : 0, %tile_7_4, DMA : 1)
    aie.flow(%mem_tile_7_1, DMA : 0, %tile_7_3, DMA : 1)
    aie.flow(%mem_tile_7_1, DMA : 0, %tile_7_2, DMA : 1)
    aie.flow(%tile_0_2, DMA : 0, %mem_tile_0_1, DMA : 0)
    aie.flow(%tile_0_3, DMA : 0, %mem_tile_0_1, DMA : 1)
    aie.flow(%tile_0_4, DMA : 0, %mem_tile_0_1, DMA : 2)
    aie.flow(%tile_0_5, DMA : 0, %mem_tile_0_1, DMA : 3)
    aie.flow(%mem_tile_0_1, DMA : 0, %shim_noc_tile_0_0, DMA : 0)
    aie.flow(%tile_1_2, DMA : 0, %mem_tile_1_1, DMA : 1)
    aie.flow(%tile_1_3, DMA : 0, %mem_tile_1_1, DMA : 2)
    aie.flow(%tile_1_4, DMA : 0, %mem_tile_1_1, DMA : 3)
    aie.flow(%tile_1_5, DMA : 0, %mem_tile_1_1, DMA : 4)
    aie.flow(%mem_tile_1_1, DMA : 1, %shim_noc_tile_1_0, DMA : 0)
    aie.flow(%tile_2_2, DMA : 0, %mem_tile_2_1, DMA : 0)
    aie.flow(%tile_2_3, DMA : 0, %mem_tile_2_1, DMA : 1)
    aie.flow(%tile_2_4, DMA : 0, %mem_tile_2_1, DMA : 2)
    aie.flow(%tile_2_5, DMA : 0, %mem_tile_2_1, DMA : 3)
    aie.flow(%mem_tile_2_1, DMA : 0, %shim_noc_tile_2_0, DMA : 0)
    aie.flow(%tile_3_2, DMA : 0, %mem_tile_3_1, DMA : 1)
    aie.flow(%tile_3_3, DMA : 0, %mem_tile_3_1, DMA : 2)
    aie.flow(%tile_3_4, DMA : 0, %mem_tile_3_1, DMA : 3)
    aie.flow(%tile_3_5, DMA : 0, %mem_tile_3_1, DMA : 4)
    aie.flow(%mem_tile_3_1, DMA : 1, %shim_noc_tile_3_0, DMA : 0)
    aie.flow(%tile_4_2, DMA : 0, %mem_tile_4_1, DMA : 0)
    aie.flow(%tile_4_3, DMA : 0, %mem_tile_4_1, DMA : 1)
    aie.flow(%tile_4_4, DMA : 0, %mem_tile_4_1, DMA : 2)
    aie.flow(%tile_4_5, DMA : 0, %mem_tile_4_1, DMA : 3)
    aie.flow(%mem_tile_4_1, DMA : 0, %shim_noc_tile_4_0, DMA : 0)
    aie.flow(%tile_5_2, DMA : 0, %mem_tile_5_1, DMA : 1)
    aie.flow(%tile_5_3, DMA : 0, %mem_tile_5_1, DMA : 2)
    aie.flow(%tile_5_4, DMA : 0, %mem_tile_5_1, DMA : 3)
    aie.flow(%tile_5_5, DMA : 0, %mem_tile_5_1, DMA : 4)
    aie.flow(%mem_tile_5_1, DMA : 1, %shim_noc_tile_5_0, DMA : 0)
    aie.flow(%tile_6_2, DMA : 0, %mem_tile_6_1, DMA : 0)
    aie.flow(%tile_6_3, DMA : 0, %mem_tile_6_1, DMA : 1)
    aie.flow(%tile_6_4, DMA : 0, %mem_tile_6_1, DMA : 2)
    aie.flow(%tile_6_5, DMA : 0, %mem_tile_6_1, DMA : 3)
    aie.flow(%mem_tile_6_1, DMA : 0, %shim_noc_tile_6_0, DMA : 0)
    aie.flow(%tile_7_2, DMA : 0, %mem_tile_7_1, DMA : 1)
    aie.flow(%tile_7_3, DMA : 0, %mem_tile_7_1, DMA : 2)
    aie.flow(%tile_7_4, DMA : 0, %mem_tile_7_1, DMA : 3)
    aie.flow(%tile_7_5, DMA : 0, %mem_tile_7_1, DMA : 4)
    aie.flow(%mem_tile_7_1, DMA : 1, %shim_noc_tile_7_0, DMA : 0)
    %core_0_2 = aie.core(%tile_0_2) {
      %c2 = arith.constant 2 : index
      %c32 = arith.constant 32 : index
      %c0 = arith.constant 0 : index
      %c4294967295 = arith.constant 4294967295 : index
      %c1 = arith.constant 1 : index
      cf.br ^bb1(%c0 : index)
    ^bb1(%0: index):  // 2 preds: ^bb0, ^bb26
      %1 = arith.cmpi slt, %0, %c4294967295 : index
      cf.cond_br %1, ^bb2, ^bb27
    ^bb2:  // pred: ^bb1
      aie.use_lock(%C_L1L2_0_0_prod_lock_0, AcquireGreaterEqual, 1)
      func.call @zero_kernel_bf16(%C_L1L2_0_0_buff_0) : (memref<128x128xbf16>) -> ()
      cf.br ^bb3(%c0 : index)
    ^bb3(%2: index):  // 2 preds: ^bb2, ^bb4
      %3 = arith.cmpi slt, %2, %c32 : index
      cf.cond_br %3, ^bb4, ^bb5
    ^bb4:  // pred: ^bb3
      aie.use_lock(%B_L2L1_0_0_cons_cons_lock_0, AcquireGreaterEqual, 1)
      aie.use_lock(%A_L2L1_0_0_cons_cons_lock_0, AcquireGreaterEqual, 1)
      func.call @matmul_vectorized_different_datatypes(%A_L2L1_0_0_cons_buff_0, %B_L2L1_0_0_cons_buff_0, %C_L1L2_0_0_buff_0) : (memref<32x64xbf16>, memref<64x16xbf16>, memref<128x128xbf16>) -> ()
      aie.use_lock(%A_L2L1_0_0_cons_prod_lock_0, Release, 1)
      aie.use_lock(%A_L2L1_0_0_cons_cons_lock_0, AcquireGreaterEqual, 1)
      func.call @matmul_vectorized_different_datatypes(%A_L2L1_0_0_cons_buff_1, %B_L2L1_0_0_cons_buff_0, %C_L1L2_0_0_buff_0) : (memref<32x64xbf16>, memref<64x16xbf16>, memref<128x128xbf16>) -> ()
      aie.use_lock(%A_L2L1_0_0_cons_prod_lock_0, Release, 1)
      aie.use_lock(%A_L2L1_0_0_cons_cons_lock_0, AcquireGreaterEqual, 1)
      func.call @matmul_vectorized_different_datatypes(%A_L2L1_0_0_cons_buff_0, %B_L2L1_0_0_cons_buff_0, %C_L1L2_0_0_buff_0) : (memref<32x64xbf16>, memref<64x16xbf16>, memref<128x128xbf16>) -> ()
      aie.use_lock(%A_L2L1_0_0_cons_prod_lock_0, Release, 1)
      aie.use_lock(%A_L2L1_0_0_cons_cons_lock_0, AcquireGreaterEqual, 1)
      func.call @matmul_vectorized_different_datatypes(%A_L2L1_0_0_cons_buff_1, %B_L2L1_0_0_cons_buff_0, %C_L1L2_0_0_buff_0) : (memref<32x64xbf16>, memref<64x16xbf16>, memref<128x128xbf16>) -> ()
      aie.use_lock(%A_L2L1_0_0_cons_prod_lock_0, Release, 1)
      aie.use_lock(%B_L2L1_0_0_cons_prod_lock_0, Release, 1)
      aie.use_lock(%B_L2L1_0_0_cons_cons_lock_0, AcquireGreaterEqual, 1)
      aie.use_lock(%A_L2L1_0_0_cons_cons_lock_0, AcquireGreaterEqual, 1)
      func.call @matmul_vectorized_different_datatypes(%A_L2L1_0_0_cons_buff_0, %B_L2L1_0_0_cons_buff_1, %C_L1L2_0_0_buff_0) : (memref<32x64xbf16>, memref<64x16xbf16>, memref<128x128xbf16>) -> ()
      aie.use_lock(%A_L2L1_0_0_cons_prod_lock_0, Release, 1)
      aie.use_lock(%A_L2L1_0_0_cons_cons_lock_0, AcquireGreaterEqual, 1)
      func.call @matmul_vectorized_different_datatypes(%A_L2L1_0_0_cons_buff_1, %B_L2L1_0_0_cons_buff_1, %C_L1L2_0_0_buff_0) : (memref<32x64xbf16>, memref<64x16xbf16>, memref<128x128xbf16>) -> ()
      aie.use_lock(%A_L2L1_0_0_cons_prod_lock_0, Release, 1)
      aie.use_lock(%A_L2L1_0_0_cons_cons_lock_0, AcquireGreaterEqual, 1)
      func.call @matmul_vectorized_different_datatypes(%A_L2L1_0_0_cons_buff_0, %B_L2L1_0_0_cons_buff_1, %C_L1L2_0_0_buff_0) : (memref<32x64xbf16>, memref<64x16xbf16>, memref<128x128xbf16>) -> ()
      aie.use_lock(%A_L2L1_0_0_cons_prod_lock_0, Release, 1)
      aie.use_lock(%A_L2L1_0_0_cons_cons_lock_0, AcquireGreaterEqual, 1)
      func.call @matmul_vectorized_different_datatypes(%A_L2L1_0_0_cons_buff_1, %B_L2L1_0_0_cons_buff_1, %C_L1L2_0_0_buff_0) : (memref<32x64xbf16>, memref<64x16xbf16>, memref<128x128xbf16>) -> ()
      aie.use_lock(%A_L2L1_0_0_cons_prod_lock_0, Release, 1)
      aie.use_lock(%B_L2L1_0_0_cons_prod_lock_0, Release, 1)
      %4 = arith.addi %2, %c2 : index
      cf.br ^bb3(%4 : index)
    ^bb5:  // pred: ^bb3
      aie.use_lock(%C_L1L2_0_0_cons_lock_0, Release, 1)
      aie.use_lock(%C_L1L2_0_0_prod_lock_0, AcquireGreaterEqual, 1)
      func.call @zero_kernel_bf16(%C_L1L2_0_0_buff_0) : (memref<128x128xbf16>) -> ()
      cf.br ^bb6(%c0 : index)
    ^bb6(%5: index):  // 2 preds: ^bb5, ^bb7
      %6 = arith.cmpi slt, %5, %c32 : index
      cf.cond_br %6, ^bb7, ^bb8
    ^bb7:  // pred: ^bb6
      aie.use_lock(%B_L2L1_0_0_cons_cons_lock_0, AcquireGreaterEqual, 1)
      aie.use_lock(%A_L2L1_0_0_cons_cons_lock_0, AcquireGreaterEqual, 1)
      func.call @matmul_vectorized_different_datatypes(%A_L2L1_0_0_cons_buff_0, %B_L2L1_0_0_cons_buff_0, %C_L1L2_0_0_buff_0) : (memref<32x64xbf16>, memref<64x16xbf16>, memref<128x128xbf16>) -> ()
      aie.use_lock(%A_L2L1_0_0_cons_prod_lock_0, Release, 1)
      aie.use_lock(%A_L2L1_0_0_cons_cons_lock_0, AcquireGreaterEqual, 1)
      func.call @matmul_vectorized_different_datatypes(%A_L2L1_0_0_cons_buff_1, %B_L2L1_0_0_cons_buff_0, %C_L1L2_0_0_buff_0) : (memref<32x64xbf16>, memref<64x16xbf16>, memref<128x128xbf16>) -> ()
      aie.use_lock(%A_L2L1_0_0_cons_prod_lock_0, Release, 1)
      aie.use_lock(%A_L2L1_0_0_cons_cons_lock_0, AcquireGreaterEqual, 1)
      func.call @matmul_vectorized_different_datatypes(%A_L2L1_0_0_cons_buff_0, %B_L2L1_0_0_cons_buff_0, %C_L1L2_0_0_buff_0) : (memref<32x64xbf16>, memref<64x16xbf16>, memref<128x128xbf16>) -> ()
      aie.use_lock(%A_L2L1_0_0_cons_prod_lock_0, Release, 1)
      aie.use_lock(%A_L2L1_0_0_cons_cons_lock_0, AcquireGreaterEqual, 1)
      func.call @matmul_vectorized_different_datatypes(%A_L2L1_0_0_cons_buff_1, %B_L2L1_0_0_cons_buff_0, %C_L1L2_0_0_buff_0) : (memref<32x64xbf16>, memref<64x16xbf16>, memref<128x128xbf16>) -> ()
      aie.use_lock(%A_L2L1_0_0_cons_prod_lock_0, Release, 1)
      aie.use_lock(%B_L2L1_0_0_cons_prod_lock_0, Release, 1)
      aie.use_lock(%B_L2L1_0_0_cons_cons_lock_0, AcquireGreaterEqual, 1)
      aie.use_lock(%A_L2L1_0_0_cons_cons_lock_0, AcquireGreaterEqual, 1)
      func.call @matmul_vectorized_different_datatypes(%A_L2L1_0_0_cons_buff_0, %B_L2L1_0_0_cons_buff_1, %C_L1L2_0_0_buff_0) : (memref<32x64xbf16>, memref<64x16xbf16>, memref<128x128xbf16>) -> ()
      aie.use_lock(%A_L2L1_0_0_cons_prod_lock_0, Release, 1)
      aie.use_lock(%A_L2L1_0_0_cons_cons_lock_0, AcquireGreaterEqual, 1)
      func.call @matmul_vectorized_different_datatypes(%A_L2L1_0_0_cons_buff_1, %B_L2L1_0_0_cons_buff_1, %C_L1L2_0_0_buff_0) : (memref<32x64xbf16>, memref<64x16xbf16>, memref<128x128xbf16>) -> ()
      aie.use_lock(%A_L2L1_0_0_cons_prod_lock_0, Release, 1)
      aie.use_lock(%A_L2L1_0_0_cons_cons_lock_0, AcquireGreaterEqual, 1)
      func.call @matmul_vectorized_different_datatypes(%A_L2L1_0_0_cons_buff_0, %B_L2L1_0_0_cons_buff_1, %C_L1L2_0_0_buff_0) : (memref<32x64xbf16>, memref<64x16xbf16>, memref<128x128xbf16>) -> ()
      aie.use_lock(%A_L2L1_0_0_cons_prod_lock_0, Release, 1)
      aie.use_lock(%A_L2L1_0_0_cons_cons_lock_0, AcquireGreaterEqual, 1)
      func.call @matmul_vectorized_different_datatypes(%A_L2L1_0_0_cons_buff_1, %B_L2L1_0_0_cons_buff_1, %C_L1L2_0_0_buff_0) : (memref<32x64xbf16>, memref<64x16xbf16>, memref<128x128xbf16>) -> ()
      aie.use_lock(%A_L2L1_0_0_cons_prod_lock_0, Release, 1)
      aie.use_lock(%B_L2L1_0_0_cons_prod_lock_0, Release, 1)
      %7 = arith.addi %5, %c2 : index
      cf.br ^bb6(%7 : index)
    ^bb8:  // pred: ^bb6
      aie.use_lock(%C_L1L2_0_0_cons_lock_0, Release, 1)
      aie.use_lock(%C_L1L2_0_0_prod_lock_0, AcquireGreaterEqual, 1)
      func.call @zero_kernel_bf16(%C_L1L2_0_0_buff_0) : (memref<128x128xbf16>) -> ()
      cf.br ^bb9(%c0 : index)
    ^bb9(%8: index):  // 2 preds: ^bb8, ^bb10
      %9 = arith.cmpi slt, %8, %c32 : index
      cf.cond_br %9, ^bb10, ^bb11
    ^bb10:  // pred: ^bb9
      aie.use_lock(%B_L2L1_0_0_cons_cons_lock_0, AcquireGreaterEqual, 1)
      aie.use_lock(%A_L2L1_0_0_cons_cons_lock_0, AcquireGreaterEqual, 1)
      func.call @matmul_vectorized_different_datatypes(%A_L2L1_0_0_cons_buff_0, %B_L2L1_0_0_cons_buff_0, %C_L1L2_0_0_buff_0) : (memref<32x64xbf16>, memref<64x16xbf16>, memref<128x128xbf16>) -> ()
      aie.use_lock(%A_L2L1_0_0_cons_prod_lock_0, Release, 1)
      aie.use_lock(%A_L2L1_0_0_cons_cons_lock_0, AcquireGreaterEqual, 1)
      func.call @matmul_vectorized_different_datatypes(%A_L2L1_0_0_cons_buff_1, %B_L2L1_0_0_cons_buff_0, %C_L1L2_0_0_buff_0) : (memref<32x64xbf16>, memref<64x16xbf16>, memref<128x128xbf16>) -> ()
      aie.use_lock(%A_L2L1_0_0_cons_prod_lock_0, Release, 1)
      aie.use_lock(%A_L2L1_0_0_cons_cons_lock_0, AcquireGreaterEqual, 1)
      func.call @matmul_vectorized_different_datatypes(%A_L2L1_0_0_cons_buff_0, %B_L2L1_0_0_cons_buff_0, %C_L1L2_0_0_buff_0) : (memref<32x64xbf16>, memref<64x16xbf16>, memref<128x128xbf16>) -> ()
      aie.use_lock(%A_L2L1_0_0_cons_prod_lock_0, Release, 1)
      aie.use_lock(%A_L2L1_0_0_cons_cons_lock_0, AcquireGreaterEqual, 1)
      func.call @matmul_vectorized_different_datatypes(%A_L2L1_0_0_cons_buff_1, %B_L2L1_0_0_cons_buff_0, %C_L1L2_0_0_buff_0) : (memref<32x64xbf16>, memref<64x16xbf16>, memref<128x128xbf16>) -> ()
      aie.use_lock(%A_L2L1_0_0_cons_prod_lock_0, Release, 1)
      aie.use_lock(%B_L2L1_0_0_cons_prod_lock_0, Release, 1)
      aie.use_lock(%B_L2L1_0_0_cons_cons_lock_0, AcquireGreaterEqual, 1)
      aie.use_lock(%A_L2L1_0_0_cons_cons_lock_0, AcquireGreaterEqual, 1)
      func.call @matmul_vectorized_different_datatypes(%A_L2L1_0_0_cons_buff_0, %B_L2L1_0_0_cons_buff_1, %C_L1L2_0_0_buff_0) : (memref<32x64xbf16>, memref<64x16xbf16>, memref<128x128xbf16>) -> ()
      aie.use_lock(%A_L2L1_0_0_cons_prod_lock_0, Release, 1)
      aie.use_lock(%A_L2L1_0_0_cons_cons_lock_0, AcquireGreaterEqual, 1)
      func.call @matmul_vectorized_different_datatypes(%A_L2L1_0_0_cons_buff_1, %B_L2L1_0_0_cons_buff_1, %C_L1L2_0_0_buff_0) : (memref<32x64xbf16>, memref<64x16xbf16>, memref<128x128xbf16>) -> ()
      aie.use_lock(%A_L2L1_0_0_cons_prod_lock_0, Release, 1)
      aie.use_lock(%A_L2L1_0_0_cons_cons_lock_0, AcquireGreaterEqual, 1)
      func.call @matmul_vectorized_different_datatypes(%A_L2L1_0_0_cons_buff_0, %B_L2L1_0_0_cons_buff_1, %C_L1L2_0_0_buff_0) : (memref<32x64xbf16>, memref<64x16xbf16>, memref<128x128xbf16>) -> ()
      aie.use_lock(%A_L2L1_0_0_cons_prod_lock_0, Release, 1)
      aie.use_lock(%A_L2L1_0_0_cons_cons_lock_0, AcquireGreaterEqual, 1)
      func.call @matmul_vectorized_different_datatypes(%A_L2L1_0_0_cons_buff_1, %B_L2L1_0_0_cons_buff_1, %C_L1L2_0_0_buff_0) : (memref<32x64xbf16>, memref<64x16xbf16>, memref<128x128xbf16>) -> ()
      aie.use_lock(%A_L2L1_0_0_cons_prod_lock_0, Release, 1)
      aie.use_lock(%B_L2L1_0_0_cons_prod_lock_0, Release, 1)
      %10 = arith.addi %8, %c2 : index
      cf.br ^bb9(%10 : index)
    ^bb11:  // pred: ^bb9
      aie.use_lock(%C_L1L2_0_0_cons_lock_0, Release, 1)
      aie.use_lock(%C_L1L2_0_0_prod_lock_0, AcquireGreaterEqual, 1)
      func.call @zero_kernel_bf16(%C_L1L2_0_0_buff_0) : (memref<128x128xbf16>) -> ()
      cf.br ^bb12(%c0 : index)
    ^bb12(%11: index):  // 2 preds: ^bb11, ^bb13
      %12 = arith.cmpi slt, %11, %c32 : index
      cf.cond_br %12, ^bb13, ^bb14
    ^bb13:  // pred: ^bb12
      aie.use_lock(%B_L2L1_0_0_cons_cons_lock_0, AcquireGreaterEqual, 1)
      aie.use_lock(%A_L2L1_0_0_cons_cons_lock_0, AcquireGreaterEqual, 1)
      func.call @matmul_vectorized_different_datatypes(%A_L2L1_0_0_cons_buff_0, %B_L2L1_0_0_cons_buff_0, %C_L1L2_0_0_buff_0) : (memref<32x64xbf16>, memref<64x16xbf16>, memref<128x128xbf16>) -> ()
      aie.use_lock(%A_L2L1_0_0_cons_prod_lock_0, Release, 1)
      aie.use_lock(%A_L2L1_0_0_cons_cons_lock_0, AcquireGreaterEqual, 1)
      func.call @matmul_vectorized_different_datatypes(%A_L2L1_0_0_cons_buff_1, %B_L2L1_0_0_cons_buff_0, %C_L1L2_0_0_buff_0) : (memref<32x64xbf16>, memref<64x16xbf16>, memref<128x128xbf16>) -> ()
      aie.use_lock(%A_L2L1_0_0_cons_prod_lock_0, Release, 1)
      aie.use_lock(%A_L2L1_0_0_cons_cons_lock_0, AcquireGreaterEqual, 1)
      func.call @matmul_vectorized_different_datatypes(%A_L2L1_0_0_cons_buff_0, %B_L2L1_0_0_cons_buff_0, %C_L1L2_0_0_buff_0) : (memref<32x64xbf16>, memref<64x16xbf16>, memref<128x128xbf16>) -> ()
      aie.use_lock(%A_L2L1_0_0_cons_prod_lock_0, Release, 1)
      aie.use_lock(%A_L2L1_0_0_cons_cons_lock_0, AcquireGreaterEqual, 1)
      func.call @matmul_vectorized_different_datatypes(%A_L2L1_0_0_cons_buff_1, %B_L2L1_0_0_cons_buff_0, %C_L1L2_0_0_buff_0) : (memref<32x64xbf16>, memref<64x16xbf16>, memref<128x128xbf16>) -> ()
      aie.use_lock(%A_L2L1_0_0_cons_prod_lock_0, Release, 1)
      aie.use_lock(%B_L2L1_0_0_cons_prod_lock_0, Release, 1)
      aie.use_lock(%B_L2L1_0_0_cons_cons_lock_0, AcquireGreaterEqual, 1)
      aie.use_lock(%A_L2L1_0_0_cons_cons_lock_0, AcquireGreaterEqual, 1)
      func.call @matmul_vectorized_different_datatypes(%A_L2L1_0_0_cons_buff_0, %B_L2L1_0_0_cons_buff_1, %C_L1L2_0_0_buff_0) : (memref<32x64xbf16>, memref<64x16xbf16>, memref<128x128xbf16>) -> ()
      aie.use_lock(%A_L2L1_0_0_cons_prod_lock_0, Release, 1)
      aie.use_lock(%A_L2L1_0_0_cons_cons_lock_0, AcquireGreaterEqual, 1)
      func.call @matmul_vectorized_different_datatypes(%A_L2L1_0_0_cons_buff_1, %B_L2L1_0_0_cons_buff_1, %C_L1L2_0_0_buff_0) : (memref<32x64xbf16>, memref<64x16xbf16>, memref<128x128xbf16>) -> ()
      aie.use_lock(%A_L2L1_0_0_cons_prod_lock_0, Release, 1)
      aie.use_lock(%A_L2L1_0_0_cons_cons_lock_0, AcquireGreaterEqual, 1)
      func.call @matmul_vectorized_different_datatypes(%A_L2L1_0_0_cons_buff_0, %B_L2L1_0_0_cons_buff_1, %C_L1L2_0_0_buff_0) : (memref<32x64xbf16>, memref<64x16xbf16>, memref<128x128xbf16>) -> ()
      aie.use_lock(%A_L2L1_0_0_cons_prod_lock_0, Release, 1)
      aie.use_lock(%A_L2L1_0_0_cons_cons_lock_0, AcquireGreaterEqual, 1)
      func.call @matmul_vectorized_different_datatypes(%A_L2L1_0_0_cons_buff_1, %B_L2L1_0_0_cons_buff_1, %C_L1L2_0_0_buff_0) : (memref<32x64xbf16>, memref<64x16xbf16>, memref<128x128xbf16>) -> ()
      aie.use_lock(%A_L2L1_0_0_cons_prod_lock_0, Release, 1)
      aie.use_lock(%B_L2L1_0_0_cons_prod_lock_0, Release, 1)
      %13 = arith.addi %11, %c2 : index
      cf.br ^bb12(%13 : index)
    ^bb14:  // pred: ^bb12
      aie.use_lock(%C_L1L2_0_0_cons_lock_0, Release, 1)
      aie.use_lock(%C_L1L2_0_0_prod_lock_0, AcquireGreaterEqual, 1)
      func.call @zero_kernel_bf16(%C_L1L2_0_0_buff_0) : (memref<128x128xbf16>) -> ()
      cf.br ^bb15(%c0 : index)
    ^bb15(%14: index):  // 2 preds: ^bb14, ^bb16
      %15 = arith.cmpi slt, %14, %c32 : index
      cf.cond_br %15, ^bb16, ^bb17
    ^bb16:  // pred: ^bb15
      aie.use_lock(%B_L2L1_0_0_cons_cons_lock_0, AcquireGreaterEqual, 1)
      aie.use_lock(%A_L2L1_0_0_cons_cons_lock_0, AcquireGreaterEqual, 1)
      func.call @matmul_vectorized_different_datatypes(%A_L2L1_0_0_cons_buff_0, %B_L2L1_0_0_cons_buff_0, %C_L1L2_0_0_buff_0) : (memref<32x64xbf16>, memref<64x16xbf16>, memref<128x128xbf16>) -> ()
      aie.use_lock(%A_L2L1_0_0_cons_prod_lock_0, Release, 1)
      aie.use_lock(%A_L2L1_0_0_cons_cons_lock_0, AcquireGreaterEqual, 1)
      func.call @matmul_vectorized_different_datatypes(%A_L2L1_0_0_cons_buff_1, %B_L2L1_0_0_cons_buff_0, %C_L1L2_0_0_buff_0) : (memref<32x64xbf16>, memref<64x16xbf16>, memref<128x128xbf16>) -> ()
      aie.use_lock(%A_L2L1_0_0_cons_prod_lock_0, Release, 1)
      aie.use_lock(%A_L2L1_0_0_cons_cons_lock_0, AcquireGreaterEqual, 1)
      func.call @matmul_vectorized_different_datatypes(%A_L2L1_0_0_cons_buff_0, %B_L2L1_0_0_cons_buff_0, %C_L1L2_0_0_buff_0) : (memref<32x64xbf16>, memref<64x16xbf16>, memref<128x128xbf16>) -> ()
      aie.use_lock(%A_L2L1_0_0_cons_prod_lock_0, Release, 1)
      aie.use_lock(%A_L2L1_0_0_cons_cons_lock_0, AcquireGreaterEqual, 1)
      func.call @matmul_vectorized_different_datatypes(%A_L2L1_0_0_cons_buff_1, %B_L2L1_0_0_cons_buff_0, %C_L1L2_0_0_buff_0) : (memref<32x64xbf16>, memref<64x16xbf16>, memref<128x128xbf16>) -> ()
      aie.use_lock(%A_L2L1_0_0_cons_prod_lock_0, Release, 1)
      aie.use_lock(%B_L2L1_0_0_cons_prod_lock_0, Release, 1)
      aie.use_lock(%B_L2L1_0_0_cons_cons_lock_0, AcquireGreaterEqual, 1)
      aie.use_lock(%A_L2L1_0_0_cons_cons_lock_0, AcquireGreaterEqual, 1)
      func.call @matmul_vectorized_different_datatypes(%A_L2L1_0_0_cons_buff_0, %B_L2L1_0_0_cons_buff_1, %C_L1L2_0_0_buff_0) : (memref<32x64xbf16>, memref<64x16xbf16>, memref<128x128xbf16>) -> ()
      aie.use_lock(%A_L2L1_0_0_cons_prod_lock_0, Release, 1)
      aie.use_lock(%A_L2L1_0_0_cons_cons_lock_0, AcquireGreaterEqual, 1)
      func.call @matmul_vectorized_different_datatypes(%A_L2L1_0_0_cons_buff_1, %B_L2L1_0_0_cons_buff_1, %C_L1L2_0_0_buff_0) : (memref<32x64xbf16>, memref<64x16xbf16>, memref<128x128xbf16>) -> ()
      aie.use_lock(%A_L2L1_0_0_cons_prod_lock_0, Release, 1)
      aie.use_lock(%A_L2L1_0_0_cons_cons_lock_0, AcquireGreaterEqual, 1)
      func.call @matmul_vectorized_different_datatypes(%A_L2L1_0_0_cons_buff_0, %B_L2L1_0_0_cons_buff_1, %C_L1L2_0_0_buff_0) : (memref<32x64xbf16>, memref<64x16xbf16>, memref<128x128xbf16>) -> ()
      aie.use_lock(%A_L2L1_0_0_cons_prod_lock_0, Release, 1)
      aie.use_lock(%A_L2L1_0_0_cons_cons_lock_0, AcquireGreaterEqual, 1)
      func.call @matmul_vectorized_different_datatypes(%A_L2L1_0_0_cons_buff_1, %B_L2L1_0_0_cons_buff_1, %C_L1L2_0_0_buff_0) : (memref<32x64xbf16>, memref<64x16xbf16>, memref<128x128xbf16>) -> ()
      aie.use_lock(%A_L2L1_0_0_cons_prod_lock_0, Release, 1)
      aie.use_lock(%B_L2L1_0_0_cons_prod_lock_0, Release, 1)
      %16 = arith.addi %14, %c2 : index
      cf.br ^bb15(%16 : index)
    ^bb17:  // pred: ^bb15
      aie.use_lock(%C_L1L2_0_0_cons_lock_0, Release, 1)
      aie.use_lock(%C_L1L2_0_0_prod_lock_0, AcquireGreaterEqual, 1)
      func.call @zero_kernel_bf16(%C_L1L2_0_0_buff_0) : (memref<128x128xbf16>) -> ()
      cf.br ^bb18(%c0 : index)
    ^bb18(%17: index):  // 2 preds: ^bb17, ^bb19
      %18 = arith.cmpi slt, %17, %c32 : index
      cf.cond_br %18, ^bb19, ^bb20
    ^bb19:  // pred: ^bb18
      aie.use_lock(%B_L2L1_0_0_cons_cons_lock_0, AcquireGreaterEqual, 1)
      aie.use_lock(%A_L2L1_0_0_cons_cons_lock_0, AcquireGreaterEqual, 1)
      func.call @matmul_vectorized_different_datatypes(%A_L2L1_0_0_cons_buff_0, %B_L2L1_0_0_cons_buff_0, %C_L1L2_0_0_buff_0) : (memref<32x64xbf16>, memref<64x16xbf16>, memref<128x128xbf16>) -> ()
      aie.use_lock(%A_L2L1_0_0_cons_prod_lock_0, Release, 1)
      aie.use_lock(%A_L2L1_0_0_cons_cons_lock_0, AcquireGreaterEqual, 1)
      func.call @matmul_vectorized_different_datatypes(%A_L2L1_0_0_cons_buff_1, %B_L2L1_0_0_cons_buff_0, %C_L1L2_0_0_buff_0) : (memref<32x64xbf16>, memref<64x16xbf16>, memref<128x128xbf16>) -> ()
      aie.use_lock(%A_L2L1_0_0_cons_prod_lock_0, Release, 1)
      aie.use_lock(%A_L2L1_0_0_cons_cons_lock_0, AcquireGreaterEqual, 1)
      func.call @matmul_vectorized_different_datatypes(%A_L2L1_0_0_cons_buff_0, %B_L2L1_0_0_cons_buff_0, %C_L1L2_0_0_buff_0) : (memref<32x64xbf16>, memref<64x16xbf16>, memref<128x128xbf16>) -> ()
      aie.use_lock(%A_L2L1_0_0_cons_prod_lock_0, Release, 1)
      aie.use_lock(%A_L2L1_0_0_cons_cons_lock_0, AcquireGreaterEqual, 1)
      func.call @matmul_vectorized_different_datatypes(%A_L2L1_0_0_cons_buff_1, %B_L2L1_0_0_cons_buff_0, %C_L1L2_0_0_buff_0) : (memref<32x64xbf16>, memref<64x16xbf16>, memref<128x128xbf16>) -> ()
      aie.use_lock(%A_L2L1_0_0_cons_prod_lock_0, Release, 1)
      aie.use_lock(%B_L2L1_0_0_cons_prod_lock_0, Release, 1)
      aie.use_lock(%B_L2L1_0_0_cons_cons_lock_0, AcquireGreaterEqual, 1)
      aie.use_lock(%A_L2L1_0_0_cons_cons_lock_0, AcquireGreaterEqual, 1)
      func.call @matmul_vectorized_different_datatypes(%A_L2L1_0_0_cons_buff_0, %B_L2L1_0_0_cons_buff_1, %C_L1L2_0_0_buff_0) : (memref<32x64xbf16>, memref<64x16xbf16>, memref<128x128xbf16>) -> ()
      aie.use_lock(%A_L2L1_0_0_cons_prod_lock_0, Release, 1)
      aie.use_lock(%A_L2L1_0_0_cons_cons_lock_0, AcquireGreaterEqual, 1)
      func.call @matmul_vectorized_different_datatypes(%A_L2L1_0_0_cons_buff_1, %B_L2L1_0_0_cons_buff_1, %C_L1L2_0_0_buff_0) : (memref<32x64xbf16>, memref<64x16xbf16>, memref<128x128xbf16>) -> ()
      aie.use_lock(%A_L2L1_0_0_cons_prod_lock_0, Release, 1)
      aie.use_lock(%A_L2L1_0_0_cons_cons_lock_0, AcquireGreaterEqual, 1)
      func.call @matmul_vectorized_different_datatypes(%A_L2L1_0_0_cons_buff_0, %B_L2L1_0_0_cons_buff_1, %C_L1L2_0_0_buff_0) : (memref<32x64xbf16>, memref<64x16xbf16>, memref<128x128xbf16>) -> ()
      aie.use_lock(%A_L2L1_0_0_cons_prod_lock_0, Release, 1)
      aie.use_lock(%A_L2L1_0_0_cons_cons_lock_0, AcquireGreaterEqual, 1)
      func.call @matmul_vectorized_different_datatypes(%A_L2L1_0_0_cons_buff_1, %B_L2L1_0_0_cons_buff_1, %C_L1L2_0_0_buff_0) : (memref<32x64xbf16>, memref<64x16xbf16>, memref<128x128xbf16>) -> ()
      aie.use_lock(%A_L2L1_0_0_cons_prod_lock_0, Release, 1)
      aie.use_lock(%B_L2L1_0_0_cons_prod_lock_0, Release, 1)
      %19 = arith.addi %17, %c2 : index
      cf.br ^bb18(%19 : index)
    ^bb20:  // pred: ^bb18
      aie.use_lock(%C_L1L2_0_0_cons_lock_0, Release, 1)
      aie.use_lock(%C_L1L2_0_0_prod_lock_0, AcquireGreaterEqual, 1)
      func.call @zero_kernel_bf16(%C_L1L2_0_0_buff_0) : (memref<128x128xbf16>) -> ()
      cf.br ^bb21(%c0 : index)
    ^bb21(%20: index):  // 2 preds: ^bb20, ^bb22
      %21 = arith.cmpi slt, %20, %c32 : index
      cf.cond_br %21, ^bb22, ^bb23
    ^bb22:  // pred: ^bb21
      aie.use_lock(%B_L2L1_0_0_cons_cons_lock_0, AcquireGreaterEqual, 1)
      aie.use_lock(%A_L2L1_0_0_cons_cons_lock_0, AcquireGreaterEqual, 1)
      func.call @matmul_vectorized_different_datatypes(%A_L2L1_0_0_cons_buff_0, %B_L2L1_0_0_cons_buff_0, %C_L1L2_0_0_buff_0) : (memref<32x64xbf16>, memref<64x16xbf16>, memref<128x128xbf16>) -> ()
      aie.use_lock(%A_L2L1_0_0_cons_prod_lock_0, Release, 1)
      aie.use_lock(%A_L2L1_0_0_cons_cons_lock_0, AcquireGreaterEqual, 1)
      func.call @matmul_vectorized_different_datatypes(%A_L2L1_0_0_cons_buff_1, %B_L2L1_0_0_cons_buff_0, %C_L1L2_0_0_buff_0) : (memref<32x64xbf16>, memref<64x16xbf16>, memref<128x128xbf16>) -> ()
      aie.use_lock(%A_L2L1_0_0_cons_prod_lock_0, Release, 1)
      aie.use_lock(%A_L2L1_0_0_cons_cons_lock_0, AcquireGreaterEqual, 1)
      func.call @matmul_vectorized_different_datatypes(%A_L2L1_0_0_cons_buff_0, %B_L2L1_0_0_cons_buff_0, %C_L1L2_0_0_buff_0) : (memref<32x64xbf16>, memref<64x16xbf16>, memref<128x128xbf16>) -> ()
      aie.use_lock(%A_L2L1_0_0_cons_prod_lock_0, Release, 1)
      aie.use_lock(%A_L2L1_0_0_cons_cons_lock_0, AcquireGreaterEqual, 1)
      func.call @matmul_vectorized_different_datatypes(%A_L2L1_0_0_cons_buff_1, %B_L2L1_0_0_cons_buff_0, %C_L1L2_0_0_buff_0) : (memref<32x64xbf16>, memref<64x16xbf16>, memref<128x128xbf16>) -> ()
      aie.use_lock(%A_L2L1_0_0_cons_prod_lock_0, Release, 1)
      aie.use_lock(%B_L2L1_0_0_cons_prod_lock_0, Release, 1)
      aie.use_lock(%B_L2L1_0_0_cons_cons_lock_0, AcquireGreaterEqual, 1)
      aie.use_lock(%A_L2L1_0_0_cons_cons_lock_0, AcquireGreaterEqual, 1)
      func.call @matmul_vectorized_different_datatypes(%A_L2L1_0_0_cons_buff_0, %B_L2L1_0_0_cons_buff_1, %C_L1L2_0_0_buff_0) : (memref<32x64xbf16>, memref<64x16xbf16>, memref<128x128xbf16>) -> ()
      aie.use_lock(%A_L2L1_0_0_cons_prod_lock_0, Release, 1)
      aie.use_lock(%A_L2L1_0_0_cons_cons_lock_0, AcquireGreaterEqual, 1)
      func.call @matmul_vectorized_different_datatypes(%A_L2L1_0_0_cons_buff_1, %B_L2L1_0_0_cons_buff_1, %C_L1L2_0_0_buff_0) : (memref<32x64xbf16>, memref<64x16xbf16>, memref<128x128xbf16>) -> ()
      aie.use_lock(%A_L2L1_0_0_cons_prod_lock_0, Release, 1)
      aie.use_lock(%A_L2L1_0_0_cons_cons_lock_0, AcquireGreaterEqual, 1)
      func.call @matmul_vectorized_different_datatypes(%A_L2L1_0_0_cons_buff_0, %B_L2L1_0_0_cons_buff_1, %C_L1L2_0_0_buff_0) : (memref<32x64xbf16>, memref<64x16xbf16>, memref<128x128xbf16>) -> ()
      aie.use_lock(%A_L2L1_0_0_cons_prod_lock_0, Release, 1)
      aie.use_lock(%A_L2L1_0_0_cons_cons_lock_0, AcquireGreaterEqual, 1)
      func.call @matmul_vectorized_different_datatypes(%A_L2L1_0_0_cons_buff_1, %B_L2L1_0_0_cons_buff_1, %C_L1L2_0_0_buff_0) : (memref<32x64xbf16>, memref<64x16xbf16>, memref<128x128xbf16>) -> ()
      aie.use_lock(%A_L2L1_0_0_cons_prod_lock_0, Release, 1)
      aie.use_lock(%B_L2L1_0_0_cons_prod_lock_0, Release, 1)
      %22 = arith.addi %20, %c2 : index
      cf.br ^bb21(%22 : index)
    ^bb23:  // pred: ^bb21
      aie.use_lock(%C_L1L2_0_0_cons_lock_0, Release, 1)
      aie.use_lock(%C_L1L2_0_0_prod_lock_0, AcquireGreaterEqual, 1)
      func.call @zero_kernel_bf16(%C_L1L2_0_0_buff_0) : (memref<128x128xbf16>) -> ()
      cf.br ^bb24(%c0 : index)
    ^bb24(%23: index):  // 2 preds: ^bb23, ^bb25
      %24 = arith.cmpi slt, %23, %c32 : index
      cf.cond_br %24, ^bb25, ^bb26
    ^bb25:  // pred: ^bb24
      aie.use_lock(%B_L2L1_0_0_cons_cons_lock_0, AcquireGreaterEqual, 1)
      aie.use_lock(%A_L2L1_0_0_cons_cons_lock_0, AcquireGreaterEqual, 1)
      func.call @matmul_vectorized_different_datatypes(%A_L2L1_0_0_cons_buff_0, %B_L2L1_0_0_cons_buff_0, %C_L1L2_0_0_buff_0) : (memref<32x64xbf16>, memref<64x16xbf16>, memref<128x128xbf16>) -> ()
      aie.use_lock(%A_L2L1_0_0_cons_prod_lock_0, Release, 1)
      aie.use_lock(%A_L2L1_0_0_cons_cons_lock_0, AcquireGreaterEqual, 1)
      func.call @matmul_vectorized_different_datatypes(%A_L2L1_0_0_cons_buff_1, %B_L2L1_0_0_cons_buff_0, %C_L1L2_0_0_buff_0) : (memref<32x64xbf16>, memref<64x16xbf16>, memref<128x128xbf16>) -> ()
      aie.use_lock(%A_L2L1_0_0_cons_prod_lock_0, Release, 1)
      aie.use_lock(%A_L2L1_0_0_cons_cons_lock_0, AcquireGreaterEqual, 1)
      func.call @matmul_vectorized_different_datatypes(%A_L2L1_0_0_cons_buff_0, %B_L2L1_0_0_cons_buff_0, %C_L1L2_0_0_buff_0) : (memref<32x64xbf16>, memref<64x16xbf16>, memref<128x128xbf16>) -> ()
      aie.use_lock(%A_L2L1_0_0_cons_prod_lock_0, Release, 1)
      aie.use_lock(%A_L2L1_0_0_cons_cons_lock_0, AcquireGreaterEqual, 1)
      func.call @matmul_vectorized_different_datatypes(%A_L2L1_0_0_cons_buff_1, %B_L2L1_0_0_cons_buff_0, %C_L1L2_0_0_buff_0) : (memref<32x64xbf16>, memref<64x16xbf16>, memref<128x128xbf16>) -> ()
      aie.use_lock(%A_L2L1_0_0_cons_prod_lock_0, Release, 1)
      aie.use_lock(%B_L2L1_0_0_cons_prod_lock_0, Release, 1)
      aie.use_lock(%B_L2L1_0_0_cons_cons_lock_0, AcquireGreaterEqual, 1)
      aie.use_lock(%A_L2L1_0_0_cons_cons_lock_0, AcquireGreaterEqual, 1)
      func.call @matmul_vectorized_different_datatypes(%A_L2L1_0_0_cons_buff_0, %B_L2L1_0_0_cons_buff_1, %C_L1L2_0_0_buff_0) : (memref<32x64xbf16>, memref<64x16xbf16>, memref<128x128xbf16>) -> ()
      aie.use_lock(%A_L2L1_0_0_cons_prod_lock_0, Release, 1)
      aie.use_lock(%A_L2L1_0_0_cons_cons_lock_0, AcquireGreaterEqual, 1)
      func.call @matmul_vectorized_different_datatypes(%A_L2L1_0_0_cons_buff_1, %B_L2L1_0_0_cons_buff_1, %C_L1L2_0_0_buff_0) : (memref<32x64xbf16>, memref<64x16xbf16>, memref<128x128xbf16>) -> ()
      aie.use_lock(%A_L2L1_0_0_cons_prod_lock_0, Release, 1)
      aie.use_lock(%A_L2L1_0_0_cons_cons_lock_0, AcquireGreaterEqual, 1)
      func.call @matmul_vectorized_different_datatypes(%A_L2L1_0_0_cons_buff_0, %B_L2L1_0_0_cons_buff_1, %C_L1L2_0_0_buff_0) : (memref<32x64xbf16>, memref<64x16xbf16>, memref<128x128xbf16>) -> ()
      aie.use_lock(%A_L2L1_0_0_cons_prod_lock_0, Release, 1)
      aie.use_lock(%A_L2L1_0_0_cons_cons_lock_0, AcquireGreaterEqual, 1)
      func.call @matmul_vectorized_different_datatypes(%A_L2L1_0_0_cons_buff_1, %B_L2L1_0_0_cons_buff_1, %C_L1L2_0_0_buff_0) : (memref<32x64xbf16>, memref<64x16xbf16>, memref<128x128xbf16>) -> ()
      aie.use_lock(%A_L2L1_0_0_cons_prod_lock_0, Release, 1)
      aie.use_lock(%B_L2L1_0_0_cons_prod_lock_0, Release, 1)
      %25 = arith.addi %23, %c2 : index
      cf.br ^bb24(%25 : index)
    ^bb26:  // pred: ^bb24
      aie.use_lock(%C_L1L2_0_0_cons_lock_0, Release, 1)
      %26 = arith.addi %0, %c1 : index
      cf.br ^bb1(%26 : index)
    ^bb27:  // pred: ^bb1
      aie.end
    } {link_files = ["mm_128x64x128.o"], stack_size = 3328 : i32}
    %core_1_2 = aie.core(%tile_1_2) {
      %c2 = arith.constant 2 : index
      %c32 = arith.constant 32 : index
      %c0 = arith.constant 0 : index
      %c4294967295 = arith.constant 4294967295 : index
      %c1 = arith.constant 1 : index
      cf.br ^bb1(%c0 : index)
    ^bb1(%0: index):  // 2 preds: ^bb0, ^bb26
      %1 = arith.cmpi slt, %0, %c4294967295 : index
      cf.cond_br %1, ^bb2, ^bb27
    ^bb2:  // pred: ^bb1
      aie.use_lock(%C_L1L2_1_0_prod_lock_0, AcquireGreaterEqual, 1)
      func.call @zero_kernel_bf16(%C_L1L2_1_0_buff_0) : (memref<128x128xbf16>) -> ()
      cf.br ^bb3(%c0 : index)
    ^bb3(%2: index):  // 2 preds: ^bb2, ^bb4
      %3 = arith.cmpi slt, %2, %c32 : index
      cf.cond_br %3, ^bb4, ^bb5
    ^bb4:  // pred: ^bb3
      aie.use_lock(%B_L2L1_1_0_cons_cons_lock_0, AcquireGreaterEqual, 1)
      aie.use_lock(%A_L2L1_0_1_cons_cons_lock_0, AcquireGreaterEqual, 1)
      func.call @matmul_vectorized_different_datatypes(%A_L2L1_0_1_cons_buff_0, %B_L2L1_1_0_cons_buff_0, %C_L1L2_1_0_buff_0) : (memref<32x64xbf16>, memref<64x16xbf16>, memref<128x128xbf16>) -> ()
      aie.use_lock(%A_L2L1_0_1_cons_prod_lock_0, Release, 1)
      aie.use_lock(%A_L2L1_0_1_cons_cons_lock_0, AcquireGreaterEqual, 1)
      func.call @matmul_vectorized_different_datatypes(%A_L2L1_0_1_cons_buff_1, %B_L2L1_1_0_cons_buff_0, %C_L1L2_1_0_buff_0) : (memref<32x64xbf16>, memref<64x16xbf16>, memref<128x128xbf16>) -> ()
      aie.use_lock(%A_L2L1_0_1_cons_prod_lock_0, Release, 1)
      aie.use_lock(%A_L2L1_0_1_cons_cons_lock_0, AcquireGreaterEqual, 1)
      func.call @matmul_vectorized_different_datatypes(%A_L2L1_0_1_cons_buff_0, %B_L2L1_1_0_cons_buff_0, %C_L1L2_1_0_buff_0) : (memref<32x64xbf16>, memref<64x16xbf16>, memref<128x128xbf16>) -> ()
      aie.use_lock(%A_L2L1_0_1_cons_prod_lock_0, Release, 1)
      aie.use_lock(%A_L2L1_0_1_cons_cons_lock_0, AcquireGreaterEqual, 1)
      func.call @matmul_vectorized_different_datatypes(%A_L2L1_0_1_cons_buff_1, %B_L2L1_1_0_cons_buff_0, %C_L1L2_1_0_buff_0) : (memref<32x64xbf16>, memref<64x16xbf16>, memref<128x128xbf16>) -> ()
      aie.use_lock(%A_L2L1_0_1_cons_prod_lock_0, Release, 1)
      aie.use_lock(%B_L2L1_1_0_cons_prod_lock_0, Release, 1)
      aie.use_lock(%B_L2L1_1_0_cons_cons_lock_0, AcquireGreaterEqual, 1)
      aie.use_lock(%A_L2L1_0_1_cons_cons_lock_0, AcquireGreaterEqual, 1)
      func.call @matmul_vectorized_different_datatypes(%A_L2L1_0_1_cons_buff_0, %B_L2L1_1_0_cons_buff_1, %C_L1L2_1_0_buff_0) : (memref<32x64xbf16>, memref<64x16xbf16>, memref<128x128xbf16>) -> ()
      aie.use_lock(%A_L2L1_0_1_cons_prod_lock_0, Release, 1)
      aie.use_lock(%A_L2L1_0_1_cons_cons_lock_0, AcquireGreaterEqual, 1)
      func.call @matmul_vectorized_different_datatypes(%A_L2L1_0_1_cons_buff_1, %B_L2L1_1_0_cons_buff_1, %C_L1L2_1_0_buff_0) : (memref<32x64xbf16>, memref<64x16xbf16>, memref<128x128xbf16>) -> ()
      aie.use_lock(%A_L2L1_0_1_cons_prod_lock_0, Release, 1)
      aie.use_lock(%A_L2L1_0_1_cons_cons_lock_0, AcquireGreaterEqual, 1)
      func.call @matmul_vectorized_different_datatypes(%A_L2L1_0_1_cons_buff_0, %B_L2L1_1_0_cons_buff_1, %C_L1L2_1_0_buff_0) : (memref<32x64xbf16>, memref<64x16xbf16>, memref<128x128xbf16>) -> ()
      aie.use_lock(%A_L2L1_0_1_cons_prod_lock_0, Release, 1)
      aie.use_lock(%A_L2L1_0_1_cons_cons_lock_0, AcquireGreaterEqual, 1)
      func.call @matmul_vectorized_different_datatypes(%A_L2L1_0_1_cons_buff_1, %B_L2L1_1_0_cons_buff_1, %C_L1L2_1_0_buff_0) : (memref<32x64xbf16>, memref<64x16xbf16>, memref<128x128xbf16>) -> ()
      aie.use_lock(%A_L2L1_0_1_cons_prod_lock_0, Release, 1)
      aie.use_lock(%B_L2L1_1_0_cons_prod_lock_0, Release, 1)
      %4 = arith.addi %2, %c2 : index
      cf.br ^bb3(%4 : index)
    ^bb5:  // pred: ^bb3
      aie.use_lock(%C_L1L2_1_0_cons_lock_0, Release, 1)
      aie.use_lock(%C_L1L2_1_0_prod_lock_0, AcquireGreaterEqual, 1)
      func.call @zero_kernel_bf16(%C_L1L2_1_0_buff_0) : (memref<128x128xbf16>) -> ()
      cf.br ^bb6(%c0 : index)
    ^bb6(%5: index):  // 2 preds: ^bb5, ^bb7
      %6 = arith.cmpi slt, %5, %c32 : index
      cf.cond_br %6, ^bb7, ^bb8
    ^bb7:  // pred: ^bb6
      aie.use_lock(%B_L2L1_1_0_cons_cons_lock_0, AcquireGreaterEqual, 1)
      aie.use_lock(%A_L2L1_0_1_cons_cons_lock_0, AcquireGreaterEqual, 1)
      func.call @matmul_vectorized_different_datatypes(%A_L2L1_0_1_cons_buff_0, %B_L2L1_1_0_cons_buff_0, %C_L1L2_1_0_buff_0) : (memref<32x64xbf16>, memref<64x16xbf16>, memref<128x128xbf16>) -> ()
      aie.use_lock(%A_L2L1_0_1_cons_prod_lock_0, Release, 1)
      aie.use_lock(%A_L2L1_0_1_cons_cons_lock_0, AcquireGreaterEqual, 1)
      func.call @matmul_vectorized_different_datatypes(%A_L2L1_0_1_cons_buff_1, %B_L2L1_1_0_cons_buff_0, %C_L1L2_1_0_buff_0) : (memref<32x64xbf16>, memref<64x16xbf16>, memref<128x128xbf16>) -> ()
      aie.use_lock(%A_L2L1_0_1_cons_prod_lock_0, Release, 1)
      aie.use_lock(%A_L2L1_0_1_cons_cons_lock_0, AcquireGreaterEqual, 1)
      func.call @matmul_vectorized_different_datatypes(%A_L2L1_0_1_cons_buff_0, %B_L2L1_1_0_cons_buff_0, %C_L1L2_1_0_buff_0) : (memref<32x64xbf16>, memref<64x16xbf16>, memref<128x128xbf16>) -> ()
      aie.use_lock(%A_L2L1_0_1_cons_prod_lock_0, Release, 1)
      aie.use_lock(%A_L2L1_0_1_cons_cons_lock_0, AcquireGreaterEqual, 1)
      func.call @matmul_vectorized_different_datatypes(%A_L2L1_0_1_cons_buff_1, %B_L2L1_1_0_cons_buff_0, %C_L1L2_1_0_buff_0) : (memref<32x64xbf16>, memref<64x16xbf16>, memref<128x128xbf16>) -> ()
      aie.use_lock(%A_L2L1_0_1_cons_prod_lock_0, Release, 1)
      aie.use_lock(%B_L2L1_1_0_cons_prod_lock_0, Release, 1)
      aie.use_lock(%B_L2L1_1_0_cons_cons_lock_0, AcquireGreaterEqual, 1)
      aie.use_lock(%A_L2L1_0_1_cons_cons_lock_0, AcquireGreaterEqual, 1)
      func.call @matmul_vectorized_different_datatypes(%A_L2L1_0_1_cons_buff_0, %B_L2L1_1_0_cons_buff_1, %C_L1L2_1_0_buff_0) : (memref<32x64xbf16>, memref<64x16xbf16>, memref<128x128xbf16>) -> ()
      aie.use_lock(%A_L2L1_0_1_cons_prod_lock_0, Release, 1)
      aie.use_lock(%A_L2L1_0_1_cons_cons_lock_0, AcquireGreaterEqual, 1)
      func.call @matmul_vectorized_different_datatypes(%A_L2L1_0_1_cons_buff_1, %B_L2L1_1_0_cons_buff_1, %C_L1L2_1_0_buff_0) : (memref<32x64xbf16>, memref<64x16xbf16>, memref<128x128xbf16>) -> ()
      aie.use_lock(%A_L2L1_0_1_cons_prod_lock_0, Release, 1)
      aie.use_lock(%A_L2L1_0_1_cons_cons_lock_0, AcquireGreaterEqual, 1)
      func.call @matmul_vectorized_different_datatypes(%A_L2L1_0_1_cons_buff_0, %B_L2L1_1_0_cons_buff_1, %C_L1L2_1_0_buff_0) : (memref<32x64xbf16>, memref<64x16xbf16>, memref<128x128xbf16>) -> ()
      aie.use_lock(%A_L2L1_0_1_cons_prod_lock_0, Release, 1)
      aie.use_lock(%A_L2L1_0_1_cons_cons_lock_0, AcquireGreaterEqual, 1)
      func.call @matmul_vectorized_different_datatypes(%A_L2L1_0_1_cons_buff_1, %B_L2L1_1_0_cons_buff_1, %C_L1L2_1_0_buff_0) : (memref<32x64xbf16>, memref<64x16xbf16>, memref<128x128xbf16>) -> ()
      aie.use_lock(%A_L2L1_0_1_cons_prod_lock_0, Release, 1)
      aie.use_lock(%B_L2L1_1_0_cons_prod_lock_0, Release, 1)
      %7 = arith.addi %5, %c2 : index
      cf.br ^bb6(%7 : index)
    ^bb8:  // pred: ^bb6
      aie.use_lock(%C_L1L2_1_0_cons_lock_0, Release, 1)
      aie.use_lock(%C_L1L2_1_0_prod_lock_0, AcquireGreaterEqual, 1)
      func.call @zero_kernel_bf16(%C_L1L2_1_0_buff_0) : (memref<128x128xbf16>) -> ()
      cf.br ^bb9(%c0 : index)
    ^bb9(%8: index):  // 2 preds: ^bb8, ^bb10
      %9 = arith.cmpi slt, %8, %c32 : index
      cf.cond_br %9, ^bb10, ^bb11
    ^bb10:  // pred: ^bb9
      aie.use_lock(%B_L2L1_1_0_cons_cons_lock_0, AcquireGreaterEqual, 1)
      aie.use_lock(%A_L2L1_0_1_cons_cons_lock_0, AcquireGreaterEqual, 1)
      func.call @matmul_vectorized_different_datatypes(%A_L2L1_0_1_cons_buff_0, %B_L2L1_1_0_cons_buff_0, %C_L1L2_1_0_buff_0) : (memref<32x64xbf16>, memref<64x16xbf16>, memref<128x128xbf16>) -> ()
      aie.use_lock(%A_L2L1_0_1_cons_prod_lock_0, Release, 1)
      aie.use_lock(%A_L2L1_0_1_cons_cons_lock_0, AcquireGreaterEqual, 1)
      func.call @matmul_vectorized_different_datatypes(%A_L2L1_0_1_cons_buff_1, %B_L2L1_1_0_cons_buff_0, %C_L1L2_1_0_buff_0) : (memref<32x64xbf16>, memref<64x16xbf16>, memref<128x128xbf16>) -> ()
      aie.use_lock(%A_L2L1_0_1_cons_prod_lock_0, Release, 1)
      aie.use_lock(%A_L2L1_0_1_cons_cons_lock_0, AcquireGreaterEqual, 1)
      func.call @matmul_vectorized_different_datatypes(%A_L2L1_0_1_cons_buff_0, %B_L2L1_1_0_cons_buff_0, %C_L1L2_1_0_buff_0) : (memref<32x64xbf16>, memref<64x16xbf16>, memref<128x128xbf16>) -> ()
      aie.use_lock(%A_L2L1_0_1_cons_prod_lock_0, Release, 1)
      aie.use_lock(%A_L2L1_0_1_cons_cons_lock_0, AcquireGreaterEqual, 1)
      func.call @matmul_vectorized_different_datatypes(%A_L2L1_0_1_cons_buff_1, %B_L2L1_1_0_cons_buff_0, %C_L1L2_1_0_buff_0) : (memref<32x64xbf16>, memref<64x16xbf16>, memref<128x128xbf16>) -> ()
      aie.use_lock(%A_L2L1_0_1_cons_prod_lock_0, Release, 1)
      aie.use_lock(%B_L2L1_1_0_cons_prod_lock_0, Release, 1)
      aie.use_lock(%B_L2L1_1_0_cons_cons_lock_0, AcquireGreaterEqual, 1)
      aie.use_lock(%A_L2L1_0_1_cons_cons_lock_0, AcquireGreaterEqual, 1)
      func.call @matmul_vectorized_different_datatypes(%A_L2L1_0_1_cons_buff_0, %B_L2L1_1_0_cons_buff_1, %C_L1L2_1_0_buff_0) : (memref<32x64xbf16>, memref<64x16xbf16>, memref<128x128xbf16>) -> ()
      aie.use_lock(%A_L2L1_0_1_cons_prod_lock_0, Release, 1)
      aie.use_lock(%A_L2L1_0_1_cons_cons_lock_0, AcquireGreaterEqual, 1)
      func.call @matmul_vectorized_different_datatypes(%A_L2L1_0_1_cons_buff_1, %B_L2L1_1_0_cons_buff_1, %C_L1L2_1_0_buff_0) : (memref<32x64xbf16>, memref<64x16xbf16>, memref<128x128xbf16>) -> ()
      aie.use_lock(%A_L2L1_0_1_cons_prod_lock_0, Release, 1)
      aie.use_lock(%A_L2L1_0_1_cons_cons_lock_0, AcquireGreaterEqual, 1)
      func.call @matmul_vectorized_different_datatypes(%A_L2L1_0_1_cons_buff_0, %B_L2L1_1_0_cons_buff_1, %C_L1L2_1_0_buff_0) : (memref<32x64xbf16>, memref<64x16xbf16>, memref<128x128xbf16>) -> ()
      aie.use_lock(%A_L2L1_0_1_cons_prod_lock_0, Release, 1)
      aie.use_lock(%A_L2L1_0_1_cons_cons_lock_0, AcquireGreaterEqual, 1)
      func.call @matmul_vectorized_different_datatypes(%A_L2L1_0_1_cons_buff_1, %B_L2L1_1_0_cons_buff_1, %C_L1L2_1_0_buff_0) : (memref<32x64xbf16>, memref<64x16xbf16>, memref<128x128xbf16>) -> ()
      aie.use_lock(%A_L2L1_0_1_cons_prod_lock_0, Release, 1)
      aie.use_lock(%B_L2L1_1_0_cons_prod_lock_0, Release, 1)
      %10 = arith.addi %8, %c2 : index
      cf.br ^bb9(%10 : index)
    ^bb11:  // pred: ^bb9
      aie.use_lock(%C_L1L2_1_0_cons_lock_0, Release, 1)
      aie.use_lock(%C_L1L2_1_0_prod_lock_0, AcquireGreaterEqual, 1)
      func.call @zero_kernel_bf16(%C_L1L2_1_0_buff_0) : (memref<128x128xbf16>) -> ()
      cf.br ^bb12(%c0 : index)
    ^bb12(%11: index):  // 2 preds: ^bb11, ^bb13
      %12 = arith.cmpi slt, %11, %c32 : index
      cf.cond_br %12, ^bb13, ^bb14
    ^bb13:  // pred: ^bb12
      aie.use_lock(%B_L2L1_1_0_cons_cons_lock_0, AcquireGreaterEqual, 1)
      aie.use_lock(%A_L2L1_0_1_cons_cons_lock_0, AcquireGreaterEqual, 1)
      func.call @matmul_vectorized_different_datatypes(%A_L2L1_0_1_cons_buff_0, %B_L2L1_1_0_cons_buff_0, %C_L1L2_1_0_buff_0) : (memref<32x64xbf16>, memref<64x16xbf16>, memref<128x128xbf16>) -> ()
      aie.use_lock(%A_L2L1_0_1_cons_prod_lock_0, Release, 1)
      aie.use_lock(%A_L2L1_0_1_cons_cons_lock_0, AcquireGreaterEqual, 1)
      func.call @matmul_vectorized_different_datatypes(%A_L2L1_0_1_cons_buff_1, %B_L2L1_1_0_cons_buff_0, %C_L1L2_1_0_buff_0) : (memref<32x64xbf16>, memref<64x16xbf16>, memref<128x128xbf16>) -> ()
      aie.use_lock(%A_L2L1_0_1_cons_prod_lock_0, Release, 1)
      aie.use_lock(%A_L2L1_0_1_cons_cons_lock_0, AcquireGreaterEqual, 1)
      func.call @matmul_vectorized_different_datatypes(%A_L2L1_0_1_cons_buff_0, %B_L2L1_1_0_cons_buff_0, %C_L1L2_1_0_buff_0) : (memref<32x64xbf16>, memref<64x16xbf16>, memref<128x128xbf16>) -> ()
      aie.use_lock(%A_L2L1_0_1_cons_prod_lock_0, Release, 1)
      aie.use_lock(%A_L2L1_0_1_cons_cons_lock_0, AcquireGreaterEqual, 1)
      func.call @matmul_vectorized_different_datatypes(%A_L2L1_0_1_cons_buff_1, %B_L2L1_1_0_cons_buff_0, %C_L1L2_1_0_buff_0) : (memref<32x64xbf16>, memref<64x16xbf16>, memref<128x128xbf16>) -> ()
      aie.use_lock(%A_L2L1_0_1_cons_prod_lock_0, Release, 1)
      aie.use_lock(%B_L2L1_1_0_cons_prod_lock_0, Release, 1)
      aie.use_lock(%B_L2L1_1_0_cons_cons_lock_0, AcquireGreaterEqual, 1)
      aie.use_lock(%A_L2L1_0_1_cons_cons_lock_0, AcquireGreaterEqual, 1)
      func.call @matmul_vectorized_different_datatypes(%A_L2L1_0_1_cons_buff_0, %B_L2L1_1_0_cons_buff_1, %C_L1L2_1_0_buff_0) : (memref<32x64xbf16>, memref<64x16xbf16>, memref<128x128xbf16>) -> ()
      aie.use_lock(%A_L2L1_0_1_cons_prod_lock_0, Release, 1)
      aie.use_lock(%A_L2L1_0_1_cons_cons_lock_0, AcquireGreaterEqual, 1)
      func.call @matmul_vectorized_different_datatypes(%A_L2L1_0_1_cons_buff_1, %B_L2L1_1_0_cons_buff_1, %C_L1L2_1_0_buff_0) : (memref<32x64xbf16>, memref<64x16xbf16>, memref<128x128xbf16>) -> ()
      aie.use_lock(%A_L2L1_0_1_cons_prod_lock_0, Release, 1)
      aie.use_lock(%A_L2L1_0_1_cons_cons_lock_0, AcquireGreaterEqual, 1)
      func.call @matmul_vectorized_different_datatypes(%A_L2L1_0_1_cons_buff_0, %B_L2L1_1_0_cons_buff_1, %C_L1L2_1_0_buff_0) : (memref<32x64xbf16>, memref<64x16xbf16>, memref<128x128xbf16>) -> ()
      aie.use_lock(%A_L2L1_0_1_cons_prod_lock_0, Release, 1)
      aie.use_lock(%A_L2L1_0_1_cons_cons_lock_0, AcquireGreaterEqual, 1)
      func.call @matmul_vectorized_different_datatypes(%A_L2L1_0_1_cons_buff_1, %B_L2L1_1_0_cons_buff_1, %C_L1L2_1_0_buff_0) : (memref<32x64xbf16>, memref<64x16xbf16>, memref<128x128xbf16>) -> ()
      aie.use_lock(%A_L2L1_0_1_cons_prod_lock_0, Release, 1)
      aie.use_lock(%B_L2L1_1_0_cons_prod_lock_0, Release, 1)
      %13 = arith.addi %11, %c2 : index
      cf.br ^bb12(%13 : index)
    ^bb14:  // pred: ^bb12
      aie.use_lock(%C_L1L2_1_0_cons_lock_0, Release, 1)
      aie.use_lock(%C_L1L2_1_0_prod_lock_0, AcquireGreaterEqual, 1)
      func.call @zero_kernel_bf16(%C_L1L2_1_0_buff_0) : (memref<128x128xbf16>) -> ()
      cf.br ^bb15(%c0 : index)
    ^bb15(%14: index):  // 2 preds: ^bb14, ^bb16
      %15 = arith.cmpi slt, %14, %c32 : index
      cf.cond_br %15, ^bb16, ^bb17
    ^bb16:  // pred: ^bb15
      aie.use_lock(%B_L2L1_1_0_cons_cons_lock_0, AcquireGreaterEqual, 1)
      aie.use_lock(%A_L2L1_0_1_cons_cons_lock_0, AcquireGreaterEqual, 1)
      func.call @matmul_vectorized_different_datatypes(%A_L2L1_0_1_cons_buff_0, %B_L2L1_1_0_cons_buff_0, %C_L1L2_1_0_buff_0) : (memref<32x64xbf16>, memref<64x16xbf16>, memref<128x128xbf16>) -> ()
      aie.use_lock(%A_L2L1_0_1_cons_prod_lock_0, Release, 1)
      aie.use_lock(%A_L2L1_0_1_cons_cons_lock_0, AcquireGreaterEqual, 1)
      func.call @matmul_vectorized_different_datatypes(%A_L2L1_0_1_cons_buff_1, %B_L2L1_1_0_cons_buff_0, %C_L1L2_1_0_buff_0) : (memref<32x64xbf16>, memref<64x16xbf16>, memref<128x128xbf16>) -> ()
      aie.use_lock(%A_L2L1_0_1_cons_prod_lock_0, Release, 1)
      aie.use_lock(%A_L2L1_0_1_cons_cons_lock_0, AcquireGreaterEqual, 1)
      func.call @matmul_vectorized_different_datatypes(%A_L2L1_0_1_cons_buff_0, %B_L2L1_1_0_cons_buff_0, %C_L1L2_1_0_buff_0) : (memref<32x64xbf16>, memref<64x16xbf16>, memref<128x128xbf16>) -> ()
      aie.use_lock(%A_L2L1_0_1_cons_prod_lock_0, Release, 1)
      aie.use_lock(%A_L2L1_0_1_cons_cons_lock_0, AcquireGreaterEqual, 1)
      func.call @matmul_vectorized_different_datatypes(%A_L2L1_0_1_cons_buff_1, %B_L2L1_1_0_cons_buff_0, %C_L1L2_1_0_buff_0) : (memref<32x64xbf16>, memref<64x16xbf16>, memref<128x128xbf16>) -> ()
      aie.use_lock(%A_L2L1_0_1_cons_prod_lock_0, Release, 1)
      aie.use_lock(%B_L2L1_1_0_cons_prod_lock_0, Release, 1)
      aie.use_lock(%B_L2L1_1_0_cons_cons_lock_0, AcquireGreaterEqual, 1)
      aie.use_lock(%A_L2L1_0_1_cons_cons_lock_0, AcquireGreaterEqual, 1)
      func.call @matmul_vectorized_different_datatypes(%A_L2L1_0_1_cons_buff_0, %B_L2L1_1_0_cons_buff_1, %C_L1L2_1_0_buff_0) : (memref<32x64xbf16>, memref<64x16xbf16>, memref<128x128xbf16>) -> ()
      aie.use_lock(%A_L2L1_0_1_cons_prod_lock_0, Release, 1)
      aie.use_lock(%A_L2L1_0_1_cons_cons_lock_0, AcquireGreaterEqual, 1)
      func.call @matmul_vectorized_different_datatypes(%A_L2L1_0_1_cons_buff_1, %B_L2L1_1_0_cons_buff_1, %C_L1L2_1_0_buff_0) : (memref<32x64xbf16>, memref<64x16xbf16>, memref<128x128xbf16>) -> ()
      aie.use_lock(%A_L2L1_0_1_cons_prod_lock_0, Release, 1)
      aie.use_lock(%A_L2L1_0_1_cons_cons_lock_0, AcquireGreaterEqual, 1)
      func.call @matmul_vectorized_different_datatypes(%A_L2L1_0_1_cons_buff_0, %B_L2L1_1_0_cons_buff_1, %C_L1L2_1_0_buff_0) : (memref<32x64xbf16>, memref<64x16xbf16>, memref<128x128xbf16>) -> ()
      aie.use_lock(%A_L2L1_0_1_cons_prod_lock_0, Release, 1)
      aie.use_lock(%A_L2L1_0_1_cons_cons_lock_0, AcquireGreaterEqual, 1)
      func.call @matmul_vectorized_different_datatypes(%A_L2L1_0_1_cons_buff_1, %B_L2L1_1_0_cons_buff_1, %C_L1L2_1_0_buff_0) : (memref<32x64xbf16>, memref<64x16xbf16>, memref<128x128xbf16>) -> ()
      aie.use_lock(%A_L2L1_0_1_cons_prod_lock_0, Release, 1)
      aie.use_lock(%B_L2L1_1_0_cons_prod_lock_0, Release, 1)
      %16 = arith.addi %14, %c2 : index
      cf.br ^bb15(%16 : index)
    ^bb17:  // pred: ^bb15
      aie.use_lock(%C_L1L2_1_0_cons_lock_0, Release, 1)
      aie.use_lock(%C_L1L2_1_0_prod_lock_0, AcquireGreaterEqual, 1)
      func.call @zero_kernel_bf16(%C_L1L2_1_0_buff_0) : (memref<128x128xbf16>) -> ()
      cf.br ^bb18(%c0 : index)
    ^bb18(%17: index):  // 2 preds: ^bb17, ^bb19
      %18 = arith.cmpi slt, %17, %c32 : index
      cf.cond_br %18, ^bb19, ^bb20
    ^bb19:  // pred: ^bb18
      aie.use_lock(%B_L2L1_1_0_cons_cons_lock_0, AcquireGreaterEqual, 1)
      aie.use_lock(%A_L2L1_0_1_cons_cons_lock_0, AcquireGreaterEqual, 1)
      func.call @matmul_vectorized_different_datatypes(%A_L2L1_0_1_cons_buff_0, %B_L2L1_1_0_cons_buff_0, %C_L1L2_1_0_buff_0) : (memref<32x64xbf16>, memref<64x16xbf16>, memref<128x128xbf16>) -> ()
      aie.use_lock(%A_L2L1_0_1_cons_prod_lock_0, Release, 1)
      aie.use_lock(%A_L2L1_0_1_cons_cons_lock_0, AcquireGreaterEqual, 1)
      func.call @matmul_vectorized_different_datatypes(%A_L2L1_0_1_cons_buff_1, %B_L2L1_1_0_cons_buff_0, %C_L1L2_1_0_buff_0) : (memref<32x64xbf16>, memref<64x16xbf16>, memref<128x128xbf16>) -> ()
      aie.use_lock(%A_L2L1_0_1_cons_prod_lock_0, Release, 1)
      aie.use_lock(%A_L2L1_0_1_cons_cons_lock_0, AcquireGreaterEqual, 1)
      func.call @matmul_vectorized_different_datatypes(%A_L2L1_0_1_cons_buff_0, %B_L2L1_1_0_cons_buff_0, %C_L1L2_1_0_buff_0) : (memref<32x64xbf16>, memref<64x16xbf16>, memref<128x128xbf16>) -> ()
      aie.use_lock(%A_L2L1_0_1_cons_prod_lock_0, Release, 1)
      aie.use_lock(%A_L2L1_0_1_cons_cons_lock_0, AcquireGreaterEqual, 1)
      func.call @matmul_vectorized_different_datatypes(%A_L2L1_0_1_cons_buff_1, %B_L2L1_1_0_cons_buff_0, %C_L1L2_1_0_buff_0) : (memref<32x64xbf16>, memref<64x16xbf16>, memref<128x128xbf16>) -> ()
      aie.use_lock(%A_L2L1_0_1_cons_prod_lock_0, Release, 1)
      aie.use_lock(%B_L2L1_1_0_cons_prod_lock_0, Release, 1)
      aie.use_lock(%B_L2L1_1_0_cons_cons_lock_0, AcquireGreaterEqual, 1)
      aie.use_lock(%A_L2L1_0_1_cons_cons_lock_0, AcquireGreaterEqual, 1)
      func.call @matmul_vectorized_different_datatypes(%A_L2L1_0_1_cons_buff_0, %B_L2L1_1_0_cons_buff_1, %C_L1L2_1_0_buff_0) : (memref<32x64xbf16>, memref<64x16xbf16>, memref<128x128xbf16>) -> ()
      aie.use_lock(%A_L2L1_0_1_cons_prod_lock_0, Release, 1)
      aie.use_lock(%A_L2L1_0_1_cons_cons_lock_0, AcquireGreaterEqual, 1)
      func.call @matmul_vectorized_different_datatypes(%A_L2L1_0_1_cons_buff_1, %B_L2L1_1_0_cons_buff_1, %C_L1L2_1_0_buff_0) : (memref<32x64xbf16>, memref<64x16xbf16>, memref<128x128xbf16>) -> ()
      aie.use_lock(%A_L2L1_0_1_cons_prod_lock_0, Release, 1)
      aie.use_lock(%A_L2L1_0_1_cons_cons_lock_0, AcquireGreaterEqual, 1)
      func.call @matmul_vectorized_different_datatypes(%A_L2L1_0_1_cons_buff_0, %B_L2L1_1_0_cons_buff_1, %C_L1L2_1_0_buff_0) : (memref<32x64xbf16>, memref<64x16xbf16>, memref<128x128xbf16>) -> ()
      aie.use_lock(%A_L2L1_0_1_cons_prod_lock_0, Release, 1)
      aie.use_lock(%A_L2L1_0_1_cons_cons_lock_0, AcquireGreaterEqual, 1)
      func.call @matmul_vectorized_different_datatypes(%A_L2L1_0_1_cons_buff_1, %B_L2L1_1_0_cons_buff_1, %C_L1L2_1_0_buff_0) : (memref<32x64xbf16>, memref<64x16xbf16>, memref<128x128xbf16>) -> ()
      aie.use_lock(%A_L2L1_0_1_cons_prod_lock_0, Release, 1)
      aie.use_lock(%B_L2L1_1_0_cons_prod_lock_0, Release, 1)
      %19 = arith.addi %17, %c2 : index
      cf.br ^bb18(%19 : index)
    ^bb20:  // pred: ^bb18
      aie.use_lock(%C_L1L2_1_0_cons_lock_0, Release, 1)
      aie.use_lock(%C_L1L2_1_0_prod_lock_0, AcquireGreaterEqual, 1)
      func.call @zero_kernel_bf16(%C_L1L2_1_0_buff_0) : (memref<128x128xbf16>) -> ()
      cf.br ^bb21(%c0 : index)
    ^bb21(%20: index):  // 2 preds: ^bb20, ^bb22
      %21 = arith.cmpi slt, %20, %c32 : index
      cf.cond_br %21, ^bb22, ^bb23
    ^bb22:  // pred: ^bb21
      aie.use_lock(%B_L2L1_1_0_cons_cons_lock_0, AcquireGreaterEqual, 1)
      aie.use_lock(%A_L2L1_0_1_cons_cons_lock_0, AcquireGreaterEqual, 1)
      func.call @matmul_vectorized_different_datatypes(%A_L2L1_0_1_cons_buff_0, %B_L2L1_1_0_cons_buff_0, %C_L1L2_1_0_buff_0) : (memref<32x64xbf16>, memref<64x16xbf16>, memref<128x128xbf16>) -> ()
      aie.use_lock(%A_L2L1_0_1_cons_prod_lock_0, Release, 1)
      aie.use_lock(%A_L2L1_0_1_cons_cons_lock_0, AcquireGreaterEqual, 1)
      func.call @matmul_vectorized_different_datatypes(%A_L2L1_0_1_cons_buff_1, %B_L2L1_1_0_cons_buff_0, %C_L1L2_1_0_buff_0) : (memref<32x64xbf16>, memref<64x16xbf16>, memref<128x128xbf16>) -> ()
      aie.use_lock(%A_L2L1_0_1_cons_prod_lock_0, Release, 1)
      aie.use_lock(%A_L2L1_0_1_cons_cons_lock_0, AcquireGreaterEqual, 1)
      func.call @matmul_vectorized_different_datatypes(%A_L2L1_0_1_cons_buff_0, %B_L2L1_1_0_cons_buff_0, %C_L1L2_1_0_buff_0) : (memref<32x64xbf16>, memref<64x16xbf16>, memref<128x128xbf16>) -> ()
      aie.use_lock(%A_L2L1_0_1_cons_prod_lock_0, Release, 1)
      aie.use_lock(%A_L2L1_0_1_cons_cons_lock_0, AcquireGreaterEqual, 1)
      func.call @matmul_vectorized_different_datatypes(%A_L2L1_0_1_cons_buff_1, %B_L2L1_1_0_cons_buff_0, %C_L1L2_1_0_buff_0) : (memref<32x64xbf16>, memref<64x16xbf16>, memref<128x128xbf16>) -> ()
      aie.use_lock(%A_L2L1_0_1_cons_prod_lock_0, Release, 1)
      aie.use_lock(%B_L2L1_1_0_cons_prod_lock_0, Release, 1)
      aie.use_lock(%B_L2L1_1_0_cons_cons_lock_0, AcquireGreaterEqual, 1)
      aie.use_lock(%A_L2L1_0_1_cons_cons_lock_0, AcquireGreaterEqual, 1)
      func.call @matmul_vectorized_different_datatypes(%A_L2L1_0_1_cons_buff_0, %B_L2L1_1_0_cons_buff_1, %C_L1L2_1_0_buff_0) : (memref<32x64xbf16>, memref<64x16xbf16>, memref<128x128xbf16>) -> ()
      aie.use_lock(%A_L2L1_0_1_cons_prod_lock_0, Release, 1)
      aie.use_lock(%A_L2L1_0_1_cons_cons_lock_0, AcquireGreaterEqual, 1)
      func.call @matmul_vectorized_different_datatypes(%A_L2L1_0_1_cons_buff_1, %B_L2L1_1_0_cons_buff_1, %C_L1L2_1_0_buff_0) : (memref<32x64xbf16>, memref<64x16xbf16>, memref<128x128xbf16>) -> ()
      aie.use_lock(%A_L2L1_0_1_cons_prod_lock_0, Release, 1)
      aie.use_lock(%A_L2L1_0_1_cons_cons_lock_0, AcquireGreaterEqual, 1)
      func.call @matmul_vectorized_different_datatypes(%A_L2L1_0_1_cons_buff_0, %B_L2L1_1_0_cons_buff_1, %C_L1L2_1_0_buff_0) : (memref<32x64xbf16>, memref<64x16xbf16>, memref<128x128xbf16>) -> ()
      aie.use_lock(%A_L2L1_0_1_cons_prod_lock_0, Release, 1)
      aie.use_lock(%A_L2L1_0_1_cons_cons_lock_0, AcquireGreaterEqual, 1)
      func.call @matmul_vectorized_different_datatypes(%A_L2L1_0_1_cons_buff_1, %B_L2L1_1_0_cons_buff_1, %C_L1L2_1_0_buff_0) : (memref<32x64xbf16>, memref<64x16xbf16>, memref<128x128xbf16>) -> ()
      aie.use_lock(%A_L2L1_0_1_cons_prod_lock_0, Release, 1)
      aie.use_lock(%B_L2L1_1_0_cons_prod_lock_0, Release, 1)
      %22 = arith.addi %20, %c2 : index
      cf.br ^bb21(%22 : index)
    ^bb23:  // pred: ^bb21
      aie.use_lock(%C_L1L2_1_0_cons_lock_0, Release, 1)
      aie.use_lock(%C_L1L2_1_0_prod_lock_0, AcquireGreaterEqual, 1)
      func.call @zero_kernel_bf16(%C_L1L2_1_0_buff_0) : (memref<128x128xbf16>) -> ()
      cf.br ^bb24(%c0 : index)
    ^bb24(%23: index):  // 2 preds: ^bb23, ^bb25
      %24 = arith.cmpi slt, %23, %c32 : index
      cf.cond_br %24, ^bb25, ^bb26
    ^bb25:  // pred: ^bb24
      aie.use_lock(%B_L2L1_1_0_cons_cons_lock_0, AcquireGreaterEqual, 1)
      aie.use_lock(%A_L2L1_0_1_cons_cons_lock_0, AcquireGreaterEqual, 1)
      func.call @matmul_vectorized_different_datatypes(%A_L2L1_0_1_cons_buff_0, %B_L2L1_1_0_cons_buff_0, %C_L1L2_1_0_buff_0) : (memref<32x64xbf16>, memref<64x16xbf16>, memref<128x128xbf16>) -> ()
      aie.use_lock(%A_L2L1_0_1_cons_prod_lock_0, Release, 1)
      aie.use_lock(%A_L2L1_0_1_cons_cons_lock_0, AcquireGreaterEqual, 1)
      func.call @matmul_vectorized_different_datatypes(%A_L2L1_0_1_cons_buff_1, %B_L2L1_1_0_cons_buff_0, %C_L1L2_1_0_buff_0) : (memref<32x64xbf16>, memref<64x16xbf16>, memref<128x128xbf16>) -> ()
      aie.use_lock(%A_L2L1_0_1_cons_prod_lock_0, Release, 1)
      aie.use_lock(%A_L2L1_0_1_cons_cons_lock_0, AcquireGreaterEqual, 1)
      func.call @matmul_vectorized_different_datatypes(%A_L2L1_0_1_cons_buff_0, %B_L2L1_1_0_cons_buff_0, %C_L1L2_1_0_buff_0) : (memref<32x64xbf16>, memref<64x16xbf16>, memref<128x128xbf16>) -> ()
      aie.use_lock(%A_L2L1_0_1_cons_prod_lock_0, Release, 1)
      aie.use_lock(%A_L2L1_0_1_cons_cons_lock_0, AcquireGreaterEqual, 1)
      func.call @matmul_vectorized_different_datatypes(%A_L2L1_0_1_cons_buff_1, %B_L2L1_1_0_cons_buff_0, %C_L1L2_1_0_buff_0) : (memref<32x64xbf16>, memref<64x16xbf16>, memref<128x128xbf16>) -> ()
      aie.use_lock(%A_L2L1_0_1_cons_prod_lock_0, Release, 1)
      aie.use_lock(%B_L2L1_1_0_cons_prod_lock_0, Release, 1)
      aie.use_lock(%B_L2L1_1_0_cons_cons_lock_0, AcquireGreaterEqual, 1)
      aie.use_lock(%A_L2L1_0_1_cons_cons_lock_0, AcquireGreaterEqual, 1)
      func.call @matmul_vectorized_different_datatypes(%A_L2L1_0_1_cons_buff_0, %B_L2L1_1_0_cons_buff_1, %C_L1L2_1_0_buff_0) : (memref<32x64xbf16>, memref<64x16xbf16>, memref<128x128xbf16>) -> ()
      aie.use_lock(%A_L2L1_0_1_cons_prod_lock_0, Release, 1)
      aie.use_lock(%A_L2L1_0_1_cons_cons_lock_0, AcquireGreaterEqual, 1)
      func.call @matmul_vectorized_different_datatypes(%A_L2L1_0_1_cons_buff_1, %B_L2L1_1_0_cons_buff_1, %C_L1L2_1_0_buff_0) : (memref<32x64xbf16>, memref<64x16xbf16>, memref<128x128xbf16>) -> ()
      aie.use_lock(%A_L2L1_0_1_cons_prod_lock_0, Release, 1)
      aie.use_lock(%A_L2L1_0_1_cons_cons_lock_0, AcquireGreaterEqual, 1)
      func.call @matmul_vectorized_different_datatypes(%A_L2L1_0_1_cons_buff_0, %B_L2L1_1_0_cons_buff_1, %C_L1L2_1_0_buff_0) : (memref<32x64xbf16>, memref<64x16xbf16>, memref<128x128xbf16>) -> ()
      aie.use_lock(%A_L2L1_0_1_cons_prod_lock_0, Release, 1)
      aie.use_lock(%A_L2L1_0_1_cons_cons_lock_0, AcquireGreaterEqual, 1)
      func.call @matmul_vectorized_different_datatypes(%A_L2L1_0_1_cons_buff_1, %B_L2L1_1_0_cons_buff_1, %C_L1L2_1_0_buff_0) : (memref<32x64xbf16>, memref<64x16xbf16>, memref<128x128xbf16>) -> ()
      aie.use_lock(%A_L2L1_0_1_cons_prod_lock_0, Release, 1)
      aie.use_lock(%B_L2L1_1_0_cons_prod_lock_0, Release, 1)
      %25 = arith.addi %23, %c2 : index
      cf.br ^bb24(%25 : index)
    ^bb26:  // pred: ^bb24
      aie.use_lock(%C_L1L2_1_0_cons_lock_0, Release, 1)
      %26 = arith.addi %0, %c1 : index
      cf.br ^bb1(%26 : index)
    ^bb27:  // pred: ^bb1
      aie.end
    } {link_files = ["mm_128x64x128.o"], stack_size = 3328 : i32}
    %core_2_2 = aie.core(%tile_2_2) {
      %c2 = arith.constant 2 : index
      %c32 = arith.constant 32 : index
      %c0 = arith.constant 0 : index
      %c4294967295 = arith.constant 4294967295 : index
      %c1 = arith.constant 1 : index
      cf.br ^bb1(%c0 : index)
    ^bb1(%0: index):  // 2 preds: ^bb0, ^bb26
      %1 = arith.cmpi slt, %0, %c4294967295 : index
      cf.cond_br %1, ^bb2, ^bb27
    ^bb2:  // pred: ^bb1
      aie.use_lock(%C_L1L2_2_0_prod_lock_0, AcquireGreaterEqual, 1)
      func.call @zero_kernel_bf16(%C_L1L2_2_0_buff_0) : (memref<128x128xbf16>) -> ()
      cf.br ^bb3(%c0 : index)
    ^bb3(%2: index):  // 2 preds: ^bb2, ^bb4
      %3 = arith.cmpi slt, %2, %c32 : index
      cf.cond_br %3, ^bb4, ^bb5
    ^bb4:  // pred: ^bb3
      aie.use_lock(%B_L2L1_2_0_cons_cons_lock_0, AcquireGreaterEqual, 1)
      aie.use_lock(%A_L2L1_0_2_cons_cons_lock_0, AcquireGreaterEqual, 1)
      func.call @matmul_vectorized_different_datatypes(%A_L2L1_0_2_cons_buff_0, %B_L2L1_2_0_cons_buff_0, %C_L1L2_2_0_buff_0) : (memref<32x64xbf16>, memref<64x16xbf16>, memref<128x128xbf16>) -> ()
      aie.use_lock(%A_L2L1_0_2_cons_prod_lock_0, Release, 1)
      aie.use_lock(%A_L2L1_0_2_cons_cons_lock_0, AcquireGreaterEqual, 1)
      func.call @matmul_vectorized_different_datatypes(%A_L2L1_0_2_cons_buff_1, %B_L2L1_2_0_cons_buff_0, %C_L1L2_2_0_buff_0) : (memref<32x64xbf16>, memref<64x16xbf16>, memref<128x128xbf16>) -> ()
      aie.use_lock(%A_L2L1_0_2_cons_prod_lock_0, Release, 1)
      aie.use_lock(%A_L2L1_0_2_cons_cons_lock_0, AcquireGreaterEqual, 1)
      func.call @matmul_vectorized_different_datatypes(%A_L2L1_0_2_cons_buff_0, %B_L2L1_2_0_cons_buff_0, %C_L1L2_2_0_buff_0) : (memref<32x64xbf16>, memref<64x16xbf16>, memref<128x128xbf16>) -> ()
      aie.use_lock(%A_L2L1_0_2_cons_prod_lock_0, Release, 1)
      aie.use_lock(%A_L2L1_0_2_cons_cons_lock_0, AcquireGreaterEqual, 1)
      func.call @matmul_vectorized_different_datatypes(%A_L2L1_0_2_cons_buff_1, %B_L2L1_2_0_cons_buff_0, %C_L1L2_2_0_buff_0) : (memref<32x64xbf16>, memref<64x16xbf16>, memref<128x128xbf16>) -> ()
      aie.use_lock(%A_L2L1_0_2_cons_prod_lock_0, Release, 1)
      aie.use_lock(%B_L2L1_2_0_cons_prod_lock_0, Release, 1)
      aie.use_lock(%B_L2L1_2_0_cons_cons_lock_0, AcquireGreaterEqual, 1)
      aie.use_lock(%A_L2L1_0_2_cons_cons_lock_0, AcquireGreaterEqual, 1)
      func.call @matmul_vectorized_different_datatypes(%A_L2L1_0_2_cons_buff_0, %B_L2L1_2_0_cons_buff_1, %C_L1L2_2_0_buff_0) : (memref<32x64xbf16>, memref<64x16xbf16>, memref<128x128xbf16>) -> ()
      aie.use_lock(%A_L2L1_0_2_cons_prod_lock_0, Release, 1)
      aie.use_lock(%A_L2L1_0_2_cons_cons_lock_0, AcquireGreaterEqual, 1)
      func.call @matmul_vectorized_different_datatypes(%A_L2L1_0_2_cons_buff_1, %B_L2L1_2_0_cons_buff_1, %C_L1L2_2_0_buff_0) : (memref<32x64xbf16>, memref<64x16xbf16>, memref<128x128xbf16>) -> ()
      aie.use_lock(%A_L2L1_0_2_cons_prod_lock_0, Release, 1)
      aie.use_lock(%A_L2L1_0_2_cons_cons_lock_0, AcquireGreaterEqual, 1)
      func.call @matmul_vectorized_different_datatypes(%A_L2L1_0_2_cons_buff_0, %B_L2L1_2_0_cons_buff_1, %C_L1L2_2_0_buff_0) : (memref<32x64xbf16>, memref<64x16xbf16>, memref<128x128xbf16>) -> ()
      aie.use_lock(%A_L2L1_0_2_cons_prod_lock_0, Release, 1)
      aie.use_lock(%A_L2L1_0_2_cons_cons_lock_0, AcquireGreaterEqual, 1)
      func.call @matmul_vectorized_different_datatypes(%A_L2L1_0_2_cons_buff_1, %B_L2L1_2_0_cons_buff_1, %C_L1L2_2_0_buff_0) : (memref<32x64xbf16>, memref<64x16xbf16>, memref<128x128xbf16>) -> ()
      aie.use_lock(%A_L2L1_0_2_cons_prod_lock_0, Release, 1)
      aie.use_lock(%B_L2L1_2_0_cons_prod_lock_0, Release, 1)
      %4 = arith.addi %2, %c2 : index
      cf.br ^bb3(%4 : index)
    ^bb5:  // pred: ^bb3
      aie.use_lock(%C_L1L2_2_0_cons_lock_0, Release, 1)
      aie.use_lock(%C_L1L2_2_0_prod_lock_0, AcquireGreaterEqual, 1)
      func.call @zero_kernel_bf16(%C_L1L2_2_0_buff_0) : (memref<128x128xbf16>) -> ()
      cf.br ^bb6(%c0 : index)
    ^bb6(%5: index):  // 2 preds: ^bb5, ^bb7
      %6 = arith.cmpi slt, %5, %c32 : index
      cf.cond_br %6, ^bb7, ^bb8
    ^bb7:  // pred: ^bb6
      aie.use_lock(%B_L2L1_2_0_cons_cons_lock_0, AcquireGreaterEqual, 1)
      aie.use_lock(%A_L2L1_0_2_cons_cons_lock_0, AcquireGreaterEqual, 1)
      func.call @matmul_vectorized_different_datatypes(%A_L2L1_0_2_cons_buff_0, %B_L2L1_2_0_cons_buff_0, %C_L1L2_2_0_buff_0) : (memref<32x64xbf16>, memref<64x16xbf16>, memref<128x128xbf16>) -> ()
      aie.use_lock(%A_L2L1_0_2_cons_prod_lock_0, Release, 1)
      aie.use_lock(%A_L2L1_0_2_cons_cons_lock_0, AcquireGreaterEqual, 1)
      func.call @matmul_vectorized_different_datatypes(%A_L2L1_0_2_cons_buff_1, %B_L2L1_2_0_cons_buff_0, %C_L1L2_2_0_buff_0) : (memref<32x64xbf16>, memref<64x16xbf16>, memref<128x128xbf16>) -> ()
      aie.use_lock(%A_L2L1_0_2_cons_prod_lock_0, Release, 1)
      aie.use_lock(%A_L2L1_0_2_cons_cons_lock_0, AcquireGreaterEqual, 1)
      func.call @matmul_vectorized_different_datatypes(%A_L2L1_0_2_cons_buff_0, %B_L2L1_2_0_cons_buff_0, %C_L1L2_2_0_buff_0) : (memref<32x64xbf16>, memref<64x16xbf16>, memref<128x128xbf16>) -> ()
      aie.use_lock(%A_L2L1_0_2_cons_prod_lock_0, Release, 1)
      aie.use_lock(%A_L2L1_0_2_cons_cons_lock_0, AcquireGreaterEqual, 1)
      func.call @matmul_vectorized_different_datatypes(%A_L2L1_0_2_cons_buff_1, %B_L2L1_2_0_cons_buff_0, %C_L1L2_2_0_buff_0) : (memref<32x64xbf16>, memref<64x16xbf16>, memref<128x128xbf16>) -> ()
      aie.use_lock(%A_L2L1_0_2_cons_prod_lock_0, Release, 1)
      aie.use_lock(%B_L2L1_2_0_cons_prod_lock_0, Release, 1)
      aie.use_lock(%B_L2L1_2_0_cons_cons_lock_0, AcquireGreaterEqual, 1)
      aie.use_lock(%A_L2L1_0_2_cons_cons_lock_0, AcquireGreaterEqual, 1)
      func.call @matmul_vectorized_different_datatypes(%A_L2L1_0_2_cons_buff_0, %B_L2L1_2_0_cons_buff_1, %C_L1L2_2_0_buff_0) : (memref<32x64xbf16>, memref<64x16xbf16>, memref<128x128xbf16>) -> ()
      aie.use_lock(%A_L2L1_0_2_cons_prod_lock_0, Release, 1)
      aie.use_lock(%A_L2L1_0_2_cons_cons_lock_0, AcquireGreaterEqual, 1)
      func.call @matmul_vectorized_different_datatypes(%A_L2L1_0_2_cons_buff_1, %B_L2L1_2_0_cons_buff_1, %C_L1L2_2_0_buff_0) : (memref<32x64xbf16>, memref<64x16xbf16>, memref<128x128xbf16>) -> ()
      aie.use_lock(%A_L2L1_0_2_cons_prod_lock_0, Release, 1)
      aie.use_lock(%A_L2L1_0_2_cons_cons_lock_0, AcquireGreaterEqual, 1)
      func.call @matmul_vectorized_different_datatypes(%A_L2L1_0_2_cons_buff_0, %B_L2L1_2_0_cons_buff_1, %C_L1L2_2_0_buff_0) : (memref<32x64xbf16>, memref<64x16xbf16>, memref<128x128xbf16>) -> ()
      aie.use_lock(%A_L2L1_0_2_cons_prod_lock_0, Release, 1)
      aie.use_lock(%A_L2L1_0_2_cons_cons_lock_0, AcquireGreaterEqual, 1)
      func.call @matmul_vectorized_different_datatypes(%A_L2L1_0_2_cons_buff_1, %B_L2L1_2_0_cons_buff_1, %C_L1L2_2_0_buff_0) : (memref<32x64xbf16>, memref<64x16xbf16>, memref<128x128xbf16>) -> ()
      aie.use_lock(%A_L2L1_0_2_cons_prod_lock_0, Release, 1)
      aie.use_lock(%B_L2L1_2_0_cons_prod_lock_0, Release, 1)
      %7 = arith.addi %5, %c2 : index
      cf.br ^bb6(%7 : index)
    ^bb8:  // pred: ^bb6
      aie.use_lock(%C_L1L2_2_0_cons_lock_0, Release, 1)
      aie.use_lock(%C_L1L2_2_0_prod_lock_0, AcquireGreaterEqual, 1)
      func.call @zero_kernel_bf16(%C_L1L2_2_0_buff_0) : (memref<128x128xbf16>) -> ()
      cf.br ^bb9(%c0 : index)
    ^bb9(%8: index):  // 2 preds: ^bb8, ^bb10
      %9 = arith.cmpi slt, %8, %c32 : index
      cf.cond_br %9, ^bb10, ^bb11
    ^bb10:  // pred: ^bb9
      aie.use_lock(%B_L2L1_2_0_cons_cons_lock_0, AcquireGreaterEqual, 1)
      aie.use_lock(%A_L2L1_0_2_cons_cons_lock_0, AcquireGreaterEqual, 1)
      func.call @matmul_vectorized_different_datatypes(%A_L2L1_0_2_cons_buff_0, %B_L2L1_2_0_cons_buff_0, %C_L1L2_2_0_buff_0) : (memref<32x64xbf16>, memref<64x16xbf16>, memref<128x128xbf16>) -> ()
      aie.use_lock(%A_L2L1_0_2_cons_prod_lock_0, Release, 1)
      aie.use_lock(%A_L2L1_0_2_cons_cons_lock_0, AcquireGreaterEqual, 1)
      func.call @matmul_vectorized_different_datatypes(%A_L2L1_0_2_cons_buff_1, %B_L2L1_2_0_cons_buff_0, %C_L1L2_2_0_buff_0) : (memref<32x64xbf16>, memref<64x16xbf16>, memref<128x128xbf16>) -> ()
      aie.use_lock(%A_L2L1_0_2_cons_prod_lock_0, Release, 1)
      aie.use_lock(%A_L2L1_0_2_cons_cons_lock_0, AcquireGreaterEqual, 1)
      func.call @matmul_vectorized_different_datatypes(%A_L2L1_0_2_cons_buff_0, %B_L2L1_2_0_cons_buff_0, %C_L1L2_2_0_buff_0) : (memref<32x64xbf16>, memref<64x16xbf16>, memref<128x128xbf16>) -> ()
      aie.use_lock(%A_L2L1_0_2_cons_prod_lock_0, Release, 1)
      aie.use_lock(%A_L2L1_0_2_cons_cons_lock_0, AcquireGreaterEqual, 1)
      func.call @matmul_vectorized_different_datatypes(%A_L2L1_0_2_cons_buff_1, %B_L2L1_2_0_cons_buff_0, %C_L1L2_2_0_buff_0) : (memref<32x64xbf16>, memref<64x16xbf16>, memref<128x128xbf16>) -> ()
      aie.use_lock(%A_L2L1_0_2_cons_prod_lock_0, Release, 1)
      aie.use_lock(%B_L2L1_2_0_cons_prod_lock_0, Release, 1)
      aie.use_lock(%B_L2L1_2_0_cons_cons_lock_0, AcquireGreaterEqual, 1)
      aie.use_lock(%A_L2L1_0_2_cons_cons_lock_0, AcquireGreaterEqual, 1)
      func.call @matmul_vectorized_different_datatypes(%A_L2L1_0_2_cons_buff_0, %B_L2L1_2_0_cons_buff_1, %C_L1L2_2_0_buff_0) : (memref<32x64xbf16>, memref<64x16xbf16>, memref<128x128xbf16>) -> ()
      aie.use_lock(%A_L2L1_0_2_cons_prod_lock_0, Release, 1)
      aie.use_lock(%A_L2L1_0_2_cons_cons_lock_0, AcquireGreaterEqual, 1)
      func.call @matmul_vectorized_different_datatypes(%A_L2L1_0_2_cons_buff_1, %B_L2L1_2_0_cons_buff_1, %C_L1L2_2_0_buff_0) : (memref<32x64xbf16>, memref<64x16xbf16>, memref<128x128xbf16>) -> ()
      aie.use_lock(%A_L2L1_0_2_cons_prod_lock_0, Release, 1)
      aie.use_lock(%A_L2L1_0_2_cons_cons_lock_0, AcquireGreaterEqual, 1)
      func.call @matmul_vectorized_different_datatypes(%A_L2L1_0_2_cons_buff_0, %B_L2L1_2_0_cons_buff_1, %C_L1L2_2_0_buff_0) : (memref<32x64xbf16>, memref<64x16xbf16>, memref<128x128xbf16>) -> ()
      aie.use_lock(%A_L2L1_0_2_cons_prod_lock_0, Release, 1)
      aie.use_lock(%A_L2L1_0_2_cons_cons_lock_0, AcquireGreaterEqual, 1)
      func.call @matmul_vectorized_different_datatypes(%A_L2L1_0_2_cons_buff_1, %B_L2L1_2_0_cons_buff_1, %C_L1L2_2_0_buff_0) : (memref<32x64xbf16>, memref<64x16xbf16>, memref<128x128xbf16>) -> ()
      aie.use_lock(%A_L2L1_0_2_cons_prod_lock_0, Release, 1)
      aie.use_lock(%B_L2L1_2_0_cons_prod_lock_0, Release, 1)
      %10 = arith.addi %8, %c2 : index
      cf.br ^bb9(%10 : index)
    ^bb11:  // pred: ^bb9
      aie.use_lock(%C_L1L2_2_0_cons_lock_0, Release, 1)
      aie.use_lock(%C_L1L2_2_0_prod_lock_0, AcquireGreaterEqual, 1)
      func.call @zero_kernel_bf16(%C_L1L2_2_0_buff_0) : (memref<128x128xbf16>) -> ()
      cf.br ^bb12(%c0 : index)
    ^bb12(%11: index):  // 2 preds: ^bb11, ^bb13
      %12 = arith.cmpi slt, %11, %c32 : index
      cf.cond_br %12, ^bb13, ^bb14
    ^bb13:  // pred: ^bb12
      aie.use_lock(%B_L2L1_2_0_cons_cons_lock_0, AcquireGreaterEqual, 1)
      aie.use_lock(%A_L2L1_0_2_cons_cons_lock_0, AcquireGreaterEqual, 1)
      func.call @matmul_vectorized_different_datatypes(%A_L2L1_0_2_cons_buff_0, %B_L2L1_2_0_cons_buff_0, %C_L1L2_2_0_buff_0) : (memref<32x64xbf16>, memref<64x16xbf16>, memref<128x128xbf16>) -> ()
      aie.use_lock(%A_L2L1_0_2_cons_prod_lock_0, Release, 1)
      aie.use_lock(%A_L2L1_0_2_cons_cons_lock_0, AcquireGreaterEqual, 1)
      func.call @matmul_vectorized_different_datatypes(%A_L2L1_0_2_cons_buff_1, %B_L2L1_2_0_cons_buff_0, %C_L1L2_2_0_buff_0) : (memref<32x64xbf16>, memref<64x16xbf16>, memref<128x128xbf16>) -> ()
      aie.use_lock(%A_L2L1_0_2_cons_prod_lock_0, Release, 1)
      aie.use_lock(%A_L2L1_0_2_cons_cons_lock_0, AcquireGreaterEqual, 1)
      func.call @matmul_vectorized_different_datatypes(%A_L2L1_0_2_cons_buff_0, %B_L2L1_2_0_cons_buff_0, %C_L1L2_2_0_buff_0) : (memref<32x64xbf16>, memref<64x16xbf16>, memref<128x128xbf16>) -> ()
      aie.use_lock(%A_L2L1_0_2_cons_prod_lock_0, Release, 1)
      aie.use_lock(%A_L2L1_0_2_cons_cons_lock_0, AcquireGreaterEqual, 1)
      func.call @matmul_vectorized_different_datatypes(%A_L2L1_0_2_cons_buff_1, %B_L2L1_2_0_cons_buff_0, %C_L1L2_2_0_buff_0) : (memref<32x64xbf16>, memref<64x16xbf16>, memref<128x128xbf16>) -> ()
      aie.use_lock(%A_L2L1_0_2_cons_prod_lock_0, Release, 1)
      aie.use_lock(%B_L2L1_2_0_cons_prod_lock_0, Release, 1)
      aie.use_lock(%B_L2L1_2_0_cons_cons_lock_0, AcquireGreaterEqual, 1)
      aie.use_lock(%A_L2L1_0_2_cons_cons_lock_0, AcquireGreaterEqual, 1)
      func.call @matmul_vectorized_different_datatypes(%A_L2L1_0_2_cons_buff_0, %B_L2L1_2_0_cons_buff_1, %C_L1L2_2_0_buff_0) : (memref<32x64xbf16>, memref<64x16xbf16>, memref<128x128xbf16>) -> ()
      aie.use_lock(%A_L2L1_0_2_cons_prod_lock_0, Release, 1)
      aie.use_lock(%A_L2L1_0_2_cons_cons_lock_0, AcquireGreaterEqual, 1)
      func.call @matmul_vectorized_different_datatypes(%A_L2L1_0_2_cons_buff_1, %B_L2L1_2_0_cons_buff_1, %C_L1L2_2_0_buff_0) : (memref<32x64xbf16>, memref<64x16xbf16>, memref<128x128xbf16>) -> ()
      aie.use_lock(%A_L2L1_0_2_cons_prod_lock_0, Release, 1)
      aie.use_lock(%A_L2L1_0_2_cons_cons_lock_0, AcquireGreaterEqual, 1)
      func.call @matmul_vectorized_different_datatypes(%A_L2L1_0_2_cons_buff_0, %B_L2L1_2_0_cons_buff_1, %C_L1L2_2_0_buff_0) : (memref<32x64xbf16>, memref<64x16xbf16>, memref<128x128xbf16>) -> ()
      aie.use_lock(%A_L2L1_0_2_cons_prod_lock_0, Release, 1)
      aie.use_lock(%A_L2L1_0_2_cons_cons_lock_0, AcquireGreaterEqual, 1)
      func.call @matmul_vectorized_different_datatypes(%A_L2L1_0_2_cons_buff_1, %B_L2L1_2_0_cons_buff_1, %C_L1L2_2_0_buff_0) : (memref<32x64xbf16>, memref<64x16xbf16>, memref<128x128xbf16>) -> ()
      aie.use_lock(%A_L2L1_0_2_cons_prod_lock_0, Release, 1)
      aie.use_lock(%B_L2L1_2_0_cons_prod_lock_0, Release, 1)
      %13 = arith.addi %11, %c2 : index
      cf.br ^bb12(%13 : index)
    ^bb14:  // pred: ^bb12
      aie.use_lock(%C_L1L2_2_0_cons_lock_0, Release, 1)
      aie.use_lock(%C_L1L2_2_0_prod_lock_0, AcquireGreaterEqual, 1)
      func.call @zero_kernel_bf16(%C_L1L2_2_0_buff_0) : (memref<128x128xbf16>) -> ()
      cf.br ^bb15(%c0 : index)
    ^bb15(%14: index):  // 2 preds: ^bb14, ^bb16
      %15 = arith.cmpi slt, %14, %c32 : index
      cf.cond_br %15, ^bb16, ^bb17
    ^bb16:  // pred: ^bb15
      aie.use_lock(%B_L2L1_2_0_cons_cons_lock_0, AcquireGreaterEqual, 1)
      aie.use_lock(%A_L2L1_0_2_cons_cons_lock_0, AcquireGreaterEqual, 1)
      func.call @matmul_vectorized_different_datatypes(%A_L2L1_0_2_cons_buff_0, %B_L2L1_2_0_cons_buff_0, %C_L1L2_2_0_buff_0) : (memref<32x64xbf16>, memref<64x16xbf16>, memref<128x128xbf16>) -> ()
      aie.use_lock(%A_L2L1_0_2_cons_prod_lock_0, Release, 1)
      aie.use_lock(%A_L2L1_0_2_cons_cons_lock_0, AcquireGreaterEqual, 1)
      func.call @matmul_vectorized_different_datatypes(%A_L2L1_0_2_cons_buff_1, %B_L2L1_2_0_cons_buff_0, %C_L1L2_2_0_buff_0) : (memref<32x64xbf16>, memref<64x16xbf16>, memref<128x128xbf16>) -> ()
      aie.use_lock(%A_L2L1_0_2_cons_prod_lock_0, Release, 1)
      aie.use_lock(%A_L2L1_0_2_cons_cons_lock_0, AcquireGreaterEqual, 1)
      func.call @matmul_vectorized_different_datatypes(%A_L2L1_0_2_cons_buff_0, %B_L2L1_2_0_cons_buff_0, %C_L1L2_2_0_buff_0) : (memref<32x64xbf16>, memref<64x16xbf16>, memref<128x128xbf16>) -> ()
      aie.use_lock(%A_L2L1_0_2_cons_prod_lock_0, Release, 1)
      aie.use_lock(%A_L2L1_0_2_cons_cons_lock_0, AcquireGreaterEqual, 1)
      func.call @matmul_vectorized_different_datatypes(%A_L2L1_0_2_cons_buff_1, %B_L2L1_2_0_cons_buff_0, %C_L1L2_2_0_buff_0) : (memref<32x64xbf16>, memref<64x16xbf16>, memref<128x128xbf16>) -> ()
      aie.use_lock(%A_L2L1_0_2_cons_prod_lock_0, Release, 1)
      aie.use_lock(%B_L2L1_2_0_cons_prod_lock_0, Release, 1)
      aie.use_lock(%B_L2L1_2_0_cons_cons_lock_0, AcquireGreaterEqual, 1)
      aie.use_lock(%A_L2L1_0_2_cons_cons_lock_0, AcquireGreaterEqual, 1)
      func.call @matmul_vectorized_different_datatypes(%A_L2L1_0_2_cons_buff_0, %B_L2L1_2_0_cons_buff_1, %C_L1L2_2_0_buff_0) : (memref<32x64xbf16>, memref<64x16xbf16>, memref<128x128xbf16>) -> ()
      aie.use_lock(%A_L2L1_0_2_cons_prod_lock_0, Release, 1)
      aie.use_lock(%A_L2L1_0_2_cons_cons_lock_0, AcquireGreaterEqual, 1)
      func.call @matmul_vectorized_different_datatypes(%A_L2L1_0_2_cons_buff_1, %B_L2L1_2_0_cons_buff_1, %C_L1L2_2_0_buff_0) : (memref<32x64xbf16>, memref<64x16xbf16>, memref<128x128xbf16>) -> ()
      aie.use_lock(%A_L2L1_0_2_cons_prod_lock_0, Release, 1)
      aie.use_lock(%A_L2L1_0_2_cons_cons_lock_0, AcquireGreaterEqual, 1)
      func.call @matmul_vectorized_different_datatypes(%A_L2L1_0_2_cons_buff_0, %B_L2L1_2_0_cons_buff_1, %C_L1L2_2_0_buff_0) : (memref<32x64xbf16>, memref<64x16xbf16>, memref<128x128xbf16>) -> ()
      aie.use_lock(%A_L2L1_0_2_cons_prod_lock_0, Release, 1)
      aie.use_lock(%A_L2L1_0_2_cons_cons_lock_0, AcquireGreaterEqual, 1)
      func.call @matmul_vectorized_different_datatypes(%A_L2L1_0_2_cons_buff_1, %B_L2L1_2_0_cons_buff_1, %C_L1L2_2_0_buff_0) : (memref<32x64xbf16>, memref<64x16xbf16>, memref<128x128xbf16>) -> ()
      aie.use_lock(%A_L2L1_0_2_cons_prod_lock_0, Release, 1)
      aie.use_lock(%B_L2L1_2_0_cons_prod_lock_0, Release, 1)
      %16 = arith.addi %14, %c2 : index
      cf.br ^bb15(%16 : index)
    ^bb17:  // pred: ^bb15
      aie.use_lock(%C_L1L2_2_0_cons_lock_0, Release, 1)
      aie.use_lock(%C_L1L2_2_0_prod_lock_0, AcquireGreaterEqual, 1)
      func.call @zero_kernel_bf16(%C_L1L2_2_0_buff_0) : (memref<128x128xbf16>) -> ()
      cf.br ^bb18(%c0 : index)
    ^bb18(%17: index):  // 2 preds: ^bb17, ^bb19
      %18 = arith.cmpi slt, %17, %c32 : index
      cf.cond_br %18, ^bb19, ^bb20
    ^bb19:  // pred: ^bb18
      aie.use_lock(%B_L2L1_2_0_cons_cons_lock_0, AcquireGreaterEqual, 1)
      aie.use_lock(%A_L2L1_0_2_cons_cons_lock_0, AcquireGreaterEqual, 1)
      func.call @matmul_vectorized_different_datatypes(%A_L2L1_0_2_cons_buff_0, %B_L2L1_2_0_cons_buff_0, %C_L1L2_2_0_buff_0) : (memref<32x64xbf16>, memref<64x16xbf16>, memref<128x128xbf16>) -> ()
      aie.use_lock(%A_L2L1_0_2_cons_prod_lock_0, Release, 1)
      aie.use_lock(%A_L2L1_0_2_cons_cons_lock_0, AcquireGreaterEqual, 1)
      func.call @matmul_vectorized_different_datatypes(%A_L2L1_0_2_cons_buff_1, %B_L2L1_2_0_cons_buff_0, %C_L1L2_2_0_buff_0) : (memref<32x64xbf16>, memref<64x16xbf16>, memref<128x128xbf16>) -> ()
      aie.use_lock(%A_L2L1_0_2_cons_prod_lock_0, Release, 1)
      aie.use_lock(%A_L2L1_0_2_cons_cons_lock_0, AcquireGreaterEqual, 1)
      func.call @matmul_vectorized_different_datatypes(%A_L2L1_0_2_cons_buff_0, %B_L2L1_2_0_cons_buff_0, %C_L1L2_2_0_buff_0) : (memref<32x64xbf16>, memref<64x16xbf16>, memref<128x128xbf16>) -> ()
      aie.use_lock(%A_L2L1_0_2_cons_prod_lock_0, Release, 1)
      aie.use_lock(%A_L2L1_0_2_cons_cons_lock_0, AcquireGreaterEqual, 1)
      func.call @matmul_vectorized_different_datatypes(%A_L2L1_0_2_cons_buff_1, %B_L2L1_2_0_cons_buff_0, %C_L1L2_2_0_buff_0) : (memref<32x64xbf16>, memref<64x16xbf16>, memref<128x128xbf16>) -> ()
      aie.use_lock(%A_L2L1_0_2_cons_prod_lock_0, Release, 1)
      aie.use_lock(%B_L2L1_2_0_cons_prod_lock_0, Release, 1)
      aie.use_lock(%B_L2L1_2_0_cons_cons_lock_0, AcquireGreaterEqual, 1)
      aie.use_lock(%A_L2L1_0_2_cons_cons_lock_0, AcquireGreaterEqual, 1)
      func.call @matmul_vectorized_different_datatypes(%A_L2L1_0_2_cons_buff_0, %B_L2L1_2_0_cons_buff_1, %C_L1L2_2_0_buff_0) : (memref<32x64xbf16>, memref<64x16xbf16>, memref<128x128xbf16>) -> ()
      aie.use_lock(%A_L2L1_0_2_cons_prod_lock_0, Release, 1)
      aie.use_lock(%A_L2L1_0_2_cons_cons_lock_0, AcquireGreaterEqual, 1)
      func.call @matmul_vectorized_different_datatypes(%A_L2L1_0_2_cons_buff_1, %B_L2L1_2_0_cons_buff_1, %C_L1L2_2_0_buff_0) : (memref<32x64xbf16>, memref<64x16xbf16>, memref<128x128xbf16>) -> ()
      aie.use_lock(%A_L2L1_0_2_cons_prod_lock_0, Release, 1)
      aie.use_lock(%A_L2L1_0_2_cons_cons_lock_0, AcquireGreaterEqual, 1)
…
      aie.next_bd ^bb22
    ^bb24:  // pred: ^bb21
      %8 = aie.dma_start(MM2S, 0, ^bb25, ^bb33)
    ^bb25:  // 2 preds: ^bb24, ^bb32
      aie.use_lock(%C_L2L3_6_cons_lock_0, AcquireGreaterEqual, 1)
      aie.dma_bd(%C_L2L3_6_buff_0 : memref<512x128xbf16>, 0, 16384, [<size = 16, stride = 1024>, <size = 8, stride = 8>, <size = 16, stride = 64>, <size = 8, stride = 1>]) {bd_id = 8 : i32, next_bd_id = 9 : i32}
      aie.use_lock(%C_L2L3_6_prod_lock_0, Release, 1)
      aie.next_bd ^bb26
    ^bb26:  // pred: ^bb25
      aie.use_lock(%C_L2L3_6_cons_lock_1, AcquireGreaterEqual, 1)
      aie.dma_bd(%C_L2L3_6_buff_0 : memref<512x128xbf16>, 16384, 16384, [<size = 16, stride = 1024>, <size = 8, stride = 8>, <size = 16, stride = 64>, <size = 8, stride = 1>]) {bd_id = 9 : i32, next_bd_id = 10 : i32}
      aie.use_lock(%C_L2L3_6_prod_lock_1, Release, 1)
      aie.next_bd ^bb27
    ^bb27:  // pred: ^bb26
      aie.use_lock(%C_L2L3_6_cons_lock_2, AcquireGreaterEqual, 1)
      aie.dma_bd(%C_L2L3_6_buff_0 : memref<512x128xbf16>, 32768, 16384, [<size = 16, stride = 1024>, <size = 8, stride = 8>, <size = 16, stride = 64>, <size = 8, stride = 1>]) {bd_id = 10 : i32, next_bd_id = 11 : i32}
      aie.use_lock(%C_L2L3_6_prod_lock_2, Release, 1)
      aie.next_bd ^bb28
    ^bb28:  // pred: ^bb27
      aie.use_lock(%C_L2L3_6_cons_lock_3, AcquireGreaterEqual, 1)
      aie.dma_bd(%C_L2L3_6_buff_0 : memref<512x128xbf16>, 49152, 16384, [<size = 16, stride = 1024>, <size = 8, stride = 8>, <size = 16, stride = 64>, <size = 8, stride = 1>]) {bd_id = 11 : i32, next_bd_id = 12 : i32}
      aie.use_lock(%C_L2L3_6_prod_lock_3, Release, 1)
      aie.next_bd ^bb29
    ^bb29:  // pred: ^bb28
      aie.use_lock(%C_L2L3_6_cons_lock_0, AcquireGreaterEqual, 1)
      aie.dma_bd(%C_L2L3_6_buff_1 : memref<512x128xbf16>, 0, 16384, [<size = 16, stride = 1024>, <size = 8, stride = 8>, <size = 16, stride = 64>, <size = 8, stride = 1>]) {bd_id = 12 : i32, next_bd_id = 13 : i32}
      aie.use_lock(%C_L2L3_6_prod_lock_0, Release, 1)
      aie.next_bd ^bb30
    ^bb30:  // pred: ^bb29
      aie.use_lock(%C_L2L3_6_cons_lock_1, AcquireGreaterEqual, 1)
      aie.dma_bd(%C_L2L3_6_buff_1 : memref<512x128xbf16>, 16384, 16384, [<size = 16, stride = 1024>, <size = 8, stride = 8>, <size = 16, stride = 64>, <size = 8, stride = 1>]) {bd_id = 13 : i32, next_bd_id = 14 : i32}
      aie.use_lock(%C_L2L3_6_prod_lock_1, Release, 1)
      aie.next_bd ^bb31
    ^bb31:  // pred: ^bb30
      aie.use_lock(%C_L2L3_6_cons_lock_2, AcquireGreaterEqual, 1)
      aie.dma_bd(%C_L2L3_6_buff_1 : memref<512x128xbf16>, 32768, 16384, [<size = 16, stride = 1024>, <size = 8, stride = 8>, <size = 16, stride = 64>, <size = 8, stride = 1>]) {bd_id = 14 : i32, next_bd_id = 15 : i32}
      aie.use_lock(%C_L2L3_6_prod_lock_2, Release, 1)
      aie.next_bd ^bb32
    ^bb32:  // pred: ^bb31
      aie.use_lock(%C_L2L3_6_cons_lock_3, AcquireGreaterEqual, 1)
      aie.dma_bd(%C_L2L3_6_buff_1 : memref<512x128xbf16>, 49152, 16384, [<size = 16, stride = 1024>, <size = 8, stride = 8>, <size = 16, stride = 64>, <size = 8, stride = 1>]) {bd_id = 15 : i32, next_bd_id = 8 : i32}
      aie.use_lock(%C_L2L3_6_prod_lock_3, Release, 1)
      aie.next_bd ^bb25
    ^bb33:  // pred: ^bb24
      aie.end
    }
    %mem_0_5 = aie.mem(%tile_0_5) {
      %0 = aie.dma_start(S2MM, 0, ^bb1, ^bb3)
    ^bb1:  // 2 preds: ^bb0, ^bb2
      aie.use_lock(%A_L2L1_3_0_cons_prod_lock_0, AcquireGreaterEqual, 1)
      aie.dma_bd(%A_L2L1_3_0_cons_buff_0 : memref<32x64xbf16>, 0, 2048, [<size = 8, stride = 64>, <size = 4, stride = 512>, <size = 64, stride = 1>]) {bd_id = 0 : i32, next_bd_id = 1 : i32}
      aie.use_lock(%A_L2L1_3_0_cons_cons_lock_0, Release, 1)
      aie.next_bd ^bb2
    ^bb2:  // pred: ^bb1
      aie.use_lock(%A_L2L1_3_0_cons_prod_lock_0, AcquireGreaterEqual, 1)
      aie.dma_bd(%A_L2L1_3_0_cons_buff_1 : memref<32x64xbf16>, 0, 2048, [<size = 8, stride = 64>, <size = 4, stride = 512>, <size = 64, stride = 1>]) {bd_id = 1 : i32, next_bd_id = 0 : i32}
      aie.use_lock(%A_L2L1_3_0_cons_cons_lock_0, Release, 1)
      aie.next_bd ^bb1
    ^bb3:  // pred: ^bb0
      %1 = aie.dma_start(S2MM, 1, ^bb4, ^bb6)
    ^bb4:  // 2 preds: ^bb3, ^bb5
      aie.use_lock(%B_L2L1_0_3_cons_prod_lock_0, AcquireGreaterEqual, 1)
      aie.dma_bd(%B_L2L1_0_3_cons_buff_0 : memref<64x16xbf16>, 0, 1024) {bd_id = 2 : i32, next_bd_id = 3 : i32}
      aie.use_lock(%B_L2L1_0_3_cons_cons_lock_0, Release, 1)
      aie.next_bd ^bb5
    ^bb5:  // pred: ^bb4
      aie.use_lock(%B_L2L1_0_3_cons_prod_lock_0, AcquireGreaterEqual, 1)
      aie.dma_bd(%B_L2L1_0_3_cons_buff_1 : memref<64x16xbf16>, 0, 1024) {bd_id = 3 : i32, next_bd_id = 2 : i32}
      aie.use_lock(%B_L2L1_0_3_cons_cons_lock_0, Release, 1)
      aie.next_bd ^bb4
    ^bb6:  // pred: ^bb3
      %2 = aie.dma_start(MM2S, 0, ^bb7, ^bb8)
    ^bb7:  // 2 preds: ^bb6, ^bb7
      aie.use_lock(%C_L1L2_0_3_cons_lock_0, AcquireGreaterEqual, 1)
      aie.dma_bd(%C_L1L2_0_3_buff_0 : memref<128x128xbf16>, 0, 16384) {bd_id = 4 : i32, next_bd_id = 4 : i32}
      aie.use_lock(%C_L1L2_0_3_prod_lock_0, Release, 1)
      aie.next_bd ^bb7
    ^bb8:  // pred: ^bb6
      aie.end
    }
    %mem_1_5 = aie.mem(%tile_1_5) {
      %0 = aie.dma_start(S2MM, 0, ^bb1, ^bb3)
    ^bb1:  // 2 preds: ^bb0, ^bb2
      aie.use_lock(%A_L2L1_3_1_cons_prod_lock_0, AcquireGreaterEqual, 1)
      aie.dma_bd(%A_L2L1_3_1_cons_buff_0 : memref<32x64xbf16>, 0, 2048, [<size = 8, stride = 64>, <size = 4, stride = 512>, <size = 64, stride = 1>]) {bd_id = 0 : i32, next_bd_id = 1 : i32}
      aie.use_lock(%A_L2L1_3_1_cons_cons_lock_0, Release, 1)
      aie.next_bd ^bb2
    ^bb2:  // pred: ^bb1
      aie.use_lock(%A_L2L1_3_1_cons_prod_lock_0, AcquireGreaterEqual, 1)
      aie.dma_bd(%A_L2L1_3_1_cons_buff_1 : memref<32x64xbf16>, 0, 2048, [<size = 8, stride = 64>, <size = 4, stride = 512>, <size = 64, stride = 1>]) {bd_id = 1 : i32, next_bd_id = 0 : i32}
      aie.use_lock(%A_L2L1_3_1_cons_cons_lock_0, Release, 1)
      aie.next_bd ^bb1
    ^bb3:  // pred: ^bb0
      %1 = aie.dma_start(S2MM, 1, ^bb4, ^bb6)
    ^bb4:  // 2 preds: ^bb3, ^bb5
      aie.use_lock(%B_L2L1_1_3_cons_prod_lock_0, AcquireGreaterEqual, 1)
      aie.dma_bd(%B_L2L1_1_3_cons_buff_0 : memref<64x16xbf16>, 0, 1024) {bd_id = 2 : i32, next_bd_id = 3 : i32}
      aie.use_lock(%B_L2L1_1_3_cons_cons_lock_0, Release, 1)
      aie.next_bd ^bb5
    ^bb5:  // pred: ^bb4
      aie.use_lock(%B_L2L1_1_3_cons_prod_lock_0, AcquireGreaterEqual, 1)
      aie.dma_bd(%B_L2L1_1_3_cons_buff_1 : memref<64x16xbf16>, 0, 1024) {bd_id = 3 : i32, next_bd_id = 2 : i32}
      aie.use_lock(%B_L2L1_1_3_cons_cons_lock_0, Release, 1)
      aie.next_bd ^bb4
    ^bb6:  // pred: ^bb3
      %2 = aie.dma_start(MM2S, 0, ^bb7, ^bb8)
    ^bb7:  // 2 preds: ^bb6, ^bb7
      aie.use_lock(%C_L1L2_1_3_cons_lock_0, AcquireGreaterEqual, 1)
      aie.dma_bd(%C_L1L2_1_3_buff_0 : memref<128x128xbf16>, 0, 16384) {bd_id = 4 : i32, next_bd_id = 4 : i32}
      aie.use_lock(%C_L1L2_1_3_prod_lock_0, Release, 1)
      aie.next_bd ^bb7
    ^bb8:  // pred: ^bb6
      aie.end
    }
    %mem_2_5 = aie.mem(%tile_2_5) {
      %0 = aie.dma_start(S2MM, 0, ^bb1, ^bb3)
    ^bb1:  // 2 preds: ^bb0, ^bb2
      aie.use_lock(%A_L2L1_3_2_cons_prod_lock_0, AcquireGreaterEqual, 1)
      aie.dma_bd(%A_L2L1_3_2_cons_buff_0 : memref<32x64xbf16>, 0, 2048, [<size = 8, stride = 64>, <size = 4, stride = 512>, <size = 64, stride = 1>]) {bd_id = 0 : i32, next_bd_id = 1 : i32}
      aie.use_lock(%A_L2L1_3_2_cons_cons_lock_0, Release, 1)
      aie.next_bd ^bb2
    ^bb2:  // pred: ^bb1
      aie.use_lock(%A_L2L1_3_2_cons_prod_lock_0, AcquireGreaterEqual, 1)
      aie.dma_bd(%A_L2L1_3_2_cons_buff_1 : memref<32x64xbf16>, 0, 2048, [<size = 8, stride = 64>, <size = 4, stride = 512>, <size = 64, stride = 1>]) {bd_id = 1 : i32, next_bd_id = 0 : i32}
      aie.use_lock(%A_L2L1_3_2_cons_cons_lock_0, Release, 1)
      aie.next_bd ^bb1
    ^bb3:  // pred: ^bb0
      %1 = aie.dma_start(S2MM, 1, ^bb4, ^bb6)
    ^bb4:  // 2 preds: ^bb3, ^bb5
      aie.use_lock(%B_L2L1_2_3_cons_prod_lock_0, AcquireGreaterEqual, 1)
      aie.dma_bd(%B_L2L1_2_3_cons_buff_0 : memref<64x16xbf16>, 0, 1024) {bd_id = 2 : i32, next_bd_id = 3 : i32}
      aie.use_lock(%B_L2L1_2_3_cons_cons_lock_0, Release, 1)
      aie.next_bd ^bb5
    ^bb5:  // pred: ^bb4
      aie.use_lock(%B_L2L1_2_3_cons_prod_lock_0, AcquireGreaterEqual, 1)
      aie.dma_bd(%B_L2L1_2_3_cons_buff_1 : memref<64x16xbf16>, 0, 1024) {bd_id = 3 : i32, next_bd_id = 2 : i32}
      aie.use_lock(%B_L2L1_2_3_cons_cons_lock_0, Release, 1)
      aie.next_bd ^bb4
    ^bb6:  // pred: ^bb3
      %2 = aie.dma_start(MM2S, 0, ^bb7, ^bb8)
    ^bb7:  // 2 preds: ^bb6, ^bb7
      aie.use_lock(%C_L1L2_2_3_cons_lock_0, AcquireGreaterEqual, 1)
      aie.dma_bd(%C_L1L2_2_3_buff_0 : memref<128x128xbf16>, 0, 16384) {bd_id = 4 : i32, next_bd_id = 4 : i32}
      aie.use_lock(%C_L1L2_2_3_prod_lock_0, Release, 1)
      aie.next_bd ^bb7
    ^bb8:  // pred: ^bb6
      aie.end
    }
    %mem_3_5 = aie.mem(%tile_3_5) {
      %0 = aie.dma_start(S2MM, 0, ^bb1, ^bb3)
    ^bb1:  // 2 preds: ^bb0, ^bb2
      aie.use_lock(%A_L2L1_3_3_cons_prod_lock_0, AcquireGreaterEqual, 1)
      aie.dma_bd(%A_L2L1_3_3_cons_buff_0 : memref<32x64xbf16>, 0, 2048, [<size = 8, stride = 64>, <size = 4, stride = 512>, <size = 64, stride = 1>]) {bd_id = 0 : i32, next_bd_id = 1 : i32}
      aie.use_lock(%A_L2L1_3_3_cons_cons_lock_0, Release, 1)
      aie.next_bd ^bb2
    ^bb2:  // pred: ^bb1
      aie.use_lock(%A_L2L1_3_3_cons_prod_lock_0, AcquireGreaterEqual, 1)
      aie.dma_bd(%A_L2L1_3_3_cons_buff_1 : memref<32x64xbf16>, 0, 2048, [<size = 8, stride = 64>, <size = 4, stride = 512>, <size = 64, stride = 1>]) {bd_id = 1 : i32, next_bd_id = 0 : i32}
      aie.use_lock(%A_L2L1_3_3_cons_cons_lock_0, Release, 1)
      aie.next_bd ^bb1
    ^bb3:  // pred: ^bb0
      %1 = aie.dma_start(S2MM, 1, ^bb4, ^bb6)
    ^bb4:  // 2 preds: ^bb3, ^bb5
      aie.use_lock(%B_L2L1_3_3_cons_prod_lock_0, AcquireGreaterEqual, 1)
      aie.dma_bd(%B_L2L1_3_3_cons_buff_0 : memref<64x16xbf16>, 0, 1024) {bd_id = 2 : i32, next_bd_id = 3 : i32}
      aie.use_lock(%B_L2L1_3_3_cons_cons_lock_0, Release, 1)
      aie.next_bd ^bb5
    ^bb5:  // pred: ^bb4
      aie.use_lock(%B_L2L1_3_3_cons_prod_lock_0, AcquireGreaterEqual, 1)
      aie.dma_bd(%B_L2L1_3_3_cons_buff_1 : memref<64x16xbf16>, 0, 1024) {bd_id = 3 : i32, next_bd_id = 2 : i32}
      aie.use_lock(%B_L2L1_3_3_cons_cons_lock_0, Release, 1)
      aie.next_bd ^bb4
    ^bb6:  // pred: ^bb3
      %2 = aie.dma_start(MM2S, 0, ^bb7, ^bb8)
    ^bb7:  // 2 preds: ^bb6, ^bb7
      aie.use_lock(%C_L1L2_3_3_cons_lock_0, AcquireGreaterEqual, 1)
      aie.dma_bd(%C_L1L2_3_3_buff_0 : memref<128x128xbf16>, 0, 16384) {bd_id = 4 : i32, next_bd_id = 4 : i32}
      aie.use_lock(%C_L1L2_3_3_prod_lock_0, Release, 1)
      aie.next_bd ^bb7
    ^bb8:  // pred: ^bb6
      aie.end
    }
    %mem_4_5 = aie.mem(%tile_4_5) {
      %0 = aie.dma_start(S2MM, 0, ^bb1, ^bb3)
    ^bb1:  // 2 preds: ^bb0, ^bb2
      aie.use_lock(%A_L2L1_3_4_cons_prod_lock_0, AcquireGreaterEqual, 1)
      aie.dma_bd(%A_L2L1_3_4_cons_buff_0 : memref<32x64xbf16>, 0, 2048, [<size = 8, stride = 64>, <size = 4, stride = 512>, <size = 64, stride = 1>]) {bd_id = 0 : i32, next_bd_id = 1 : i32}
      aie.use_lock(%A_L2L1_3_4_cons_cons_lock_0, Release, 1)
      aie.next_bd ^bb2
    ^bb2:  // pred: ^bb1
      aie.use_lock(%A_L2L1_3_4_cons_prod_lock_0, AcquireGreaterEqual, 1)
      aie.dma_bd(%A_L2L1_3_4_cons_buff_1 : memref<32x64xbf16>, 0, 2048, [<size = 8, stride = 64>, <size = 4, stride = 512>, <size = 64, stride = 1>]) {bd_id = 1 : i32, next_bd_id = 0 : i32}
      aie.use_lock(%A_L2L1_3_4_cons_cons_lock_0, Release, 1)
      aie.next_bd ^bb1
    ^bb3:  // pred: ^bb0
      %1 = aie.dma_start(S2MM, 1, ^bb4, ^bb6)
    ^bb4:  // 2 preds: ^bb3, ^bb5
      aie.use_lock(%B_L2L1_4_3_cons_prod_lock_0, AcquireGreaterEqual, 1)
      aie.dma_bd(%B_L2L1_4_3_cons_buff_0 : memref<64x16xbf16>, 0, 1024) {bd_id = 2 : i32, next_bd_id = 3 : i32}
      aie.use_lock(%B_L2L1_4_3_cons_cons_lock_0, Release, 1)
      aie.next_bd ^bb5
    ^bb5:  // pred: ^bb4
      aie.use_lock(%B_L2L1_4_3_cons_prod_lock_0, AcquireGreaterEqual, 1)
      aie.dma_bd(%B_L2L1_4_3_cons_buff_1 : memref<64x16xbf16>, 0, 1024) {bd_id = 3 : i32, next_bd_id = 2 : i32}
      aie.use_lock(%B_L2L1_4_3_cons_cons_lock_0, Release, 1)
      aie.next_bd ^bb4
    ^bb6:  // pred: ^bb3
      %2 = aie.dma_start(MM2S, 0, ^bb7, ^bb8)
    ^bb7:  // 2 preds: ^bb6, ^bb7
      aie.use_lock(%C_L1L2_4_3_cons_lock_0, AcquireGreaterEqual, 1)
      aie.dma_bd(%C_L1L2_4_3_buff_0 : memref<128x128xbf16>, 0, 16384) {bd_id = 4 : i32, next_bd_id = 4 : i32}
      aie.use_lock(%C_L1L2_4_3_prod_lock_0, Release, 1)
      aie.next_bd ^bb7
    ^bb8:  // pred: ^bb6
      aie.end
    }
    %mem_5_5 = aie.mem(%tile_5_5) {
      %0 = aie.dma_start(S2MM, 0, ^bb1, ^bb3)
    ^bb1:  // 2 preds: ^bb0, ^bb2
      aie.use_lock(%A_L2L1_3_5_cons_prod_lock_0, AcquireGreaterEqual, 1)
      aie.dma_bd(%A_L2L1_3_5_cons_buff_0 : memref<32x64xbf16>, 0, 2048, [<size = 8, stride = 64>, <size = 4, stride = 512>, <size = 64, stride = 1>]) {bd_id = 0 : i32, next_bd_id = 1 : i32}
      aie.use_lock(%A_L2L1_3_5_cons_cons_lock_0, Release, 1)
      aie.next_bd ^bb2
    ^bb2:  // pred: ^bb1
      aie.use_lock(%A_L2L1_3_5_cons_prod_lock_0, AcquireGreaterEqual, 1)
      aie.dma_bd(%A_L2L1_3_5_cons_buff_1 : memref<32x64xbf16>, 0, 2048, [<size = 8, stride = 64>, <size = 4, stride = 512>, <size = 64, stride = 1>]) {bd_id = 1 : i32, next_bd_id = 0 : i32}
      aie.use_lock(%A_L2L1_3_5_cons_cons_lock_0, Release, 1)
      aie.next_bd ^bb1
    ^bb3:  // pred: ^bb0
      %1 = aie.dma_start(S2MM, 1, ^bb4, ^bb6)
    ^bb4:  // 2 preds: ^bb3, ^bb5
      aie.use_lock(%B_L2L1_5_3_cons_prod_lock_0, AcquireGreaterEqual, 1)
      aie.dma_bd(%B_L2L1_5_3_cons_buff_0 : memref<64x16xbf16>, 0, 1024) {bd_id = 2 : i32, next_bd_id = 3 : i32}
      aie.use_lock(%B_L2L1_5_3_cons_cons_lock_0, Release, 1)
      aie.next_bd ^bb5
    ^bb5:  // pred: ^bb4
      aie.use_lock(%B_L2L1_5_3_cons_prod_lock_0, AcquireGreaterEqual, 1)
      aie.dma_bd(%B_L2L1_5_3_cons_buff_1 : memref<64x16xbf16>, 0, 1024) {bd_id = 3 : i32, next_bd_id = 2 : i32}
      aie.use_lock(%B_L2L1_5_3_cons_cons_lock_0, Release, 1)
      aie.next_bd ^bb4
    ^bb6:  // pred: ^bb3
      %2 = aie.dma_start(MM2S, 0, ^bb7, ^bb8)
    ^bb7:  // 2 preds: ^bb6, ^bb7
      aie.use_lock(%C_L1L2_5_3_cons_lock_0, AcquireGreaterEqual, 1)
      aie.dma_bd(%C_L1L2_5_3_buff_0 : memref<128x128xbf16>, 0, 16384) {bd_id = 4 : i32, next_bd_id = 4 : i32}
      aie.use_lock(%C_L1L2_5_3_prod_lock_0, Release, 1)
      aie.next_bd ^bb7
    ^bb8:  // pred: ^bb6
      aie.end
    }
    %mem_6_5 = aie.mem(%tile_6_5) {
      %0 = aie.dma_start(S2MM, 0, ^bb1, ^bb3)
    ^bb1:  // 2 preds: ^bb0, ^bb2
      aie.use_lock(%A_L2L1_3_6_cons_prod_lock_0, AcquireGreaterEqual, 1)
      aie.dma_bd(%A_L2L1_3_6_cons_buff_0 : memref<32x64xbf16>, 0, 2048, [<size = 8, stride = 64>, <size = 4, stride = 512>, <size = 64, stride = 1>]) {bd_id = 0 : i32, next_bd_id = 1 : i32}
      aie.use_lock(%A_L2L1_3_6_cons_cons_lock_0, Release, 1)
      aie.next_bd ^bb2
    ^bb2:  // pred: ^bb1
      aie.use_lock(%A_L2L1_3_6_cons_prod_lock_0, AcquireGreaterEqual, 1)
      aie.dma_bd(%A_L2L1_3_6_cons_buff_1 : memref<32x64xbf16>, 0, 2048, [<size = 8, stride = 64>, <size = 4, stride = 512>, <size = 64, stride = 1>]) {bd_id = 1 : i32, next_bd_id = 0 : i32}
      aie.use_lock(%A_L2L1_3_6_cons_cons_lock_0, Release, 1)
      aie.next_bd ^bb1
    ^bb3:  // pred: ^bb0
      %1 = aie.dma_start(S2MM, 1, ^bb4, ^bb6)
    ^bb4:  // 2 preds: ^bb3, ^bb5
      aie.use_lock(%B_L2L1_6_3_cons_prod_lock_0, AcquireGreaterEqual, 1)
      aie.dma_bd(%B_L2L1_6_3_cons_buff_0 : memref<64x16xbf16>, 0, 1024) {bd_id = 2 : i32, next_bd_id = 3 : i32}
      aie.use_lock(%B_L2L1_6_3_cons_cons_lock_0, Release, 1)
      aie.next_bd ^bb5
    ^bb5:  // pred: ^bb4
      aie.use_lock(%B_L2L1_6_3_cons_prod_lock_0, AcquireGreaterEqual, 1)
      aie.dma_bd(%B_L2L1_6_3_cons_buff_1 : memref<64x16xbf16>, 0, 1024) {bd_id = 3 : i32, next_bd_id = 2 : i32}
      aie.use_lock(%B_L2L1_6_3_cons_cons_lock_0, Release, 1)
      aie.next_bd ^bb4
    ^bb6:  // pred: ^bb3
      %2 = aie.dma_start(MM2S, 0, ^bb7, ^bb8)
    ^bb7:  // 2 preds: ^bb6, ^bb7
      aie.use_lock(%C_L1L2_6_3_cons_lock_0, AcquireGreaterEqual, 1)
      aie.dma_bd(%C_L1L2_6_3_buff_0 : memref<128x128xbf16>, 0, 16384) {bd_id = 4 : i32, next_bd_id = 4 : i32}
      aie.use_lock(%C_L1L2_6_3_prod_lock_0, Release, 1)
      aie.next_bd ^bb7
    ^bb8:  // pred: ^bb6
      aie.end
    }
    %mem_7_5 = aie.mem(%tile_7_5) {
      %0 = aie.dma_start(S2MM, 0, ^bb1, ^bb3)
    ^bb1:  // 2 preds: ^bb0, ^bb2
      aie.use_lock(%A_L2L1_3_7_cons_prod_lock_0, AcquireGreaterEqual, 1)
      aie.dma_bd(%A_L2L1_3_7_cons_buff_0 : memref<32x64xbf16>, 0, 2048, [<size = 8, stride = 64>, <size = 4, stride = 512>, <size = 64, stride = 1>]) {bd_id = 0 : i32, next_bd_id = 1 : i32}
      aie.use_lock(%A_L2L1_3_7_cons_cons_lock_0, Release, 1)
      aie.next_bd ^bb2
    ^bb2:  // pred: ^bb1
      aie.use_lock(%A_L2L1_3_7_cons_prod_lock_0, AcquireGreaterEqual, 1)
      aie.dma_bd(%A_L2L1_3_7_cons_buff_1 : memref<32x64xbf16>, 0, 2048, [<size = 8, stride = 64>, <size = 4, stride = 512>, <size = 64, stride = 1>]) {bd_id = 1 : i32, next_bd_id = 0 : i32}
      aie.use_lock(%A_L2L1_3_7_cons_cons_lock_0, Release, 1)
      aie.next_bd ^bb1
    ^bb3:  // pred: ^bb0
      %1 = aie.dma_start(S2MM, 1, ^bb4, ^bb6)
    ^bb4:  // 2 preds: ^bb3, ^bb5
      aie.use_lock(%B_L2L1_7_3_cons_prod_lock_0, AcquireGreaterEqual, 1)
      aie.dma_bd(%B_L2L1_7_3_cons_buff_0 : memref<64x16xbf16>, 0, 1024) {bd_id = 2 : i32, next_bd_id = 3 : i32}
      aie.use_lock(%B_L2L1_7_3_cons_cons_lock_0, Release, 1)
      aie.next_bd ^bb5
    ^bb5:  // pred: ^bb4
      aie.use_lock(%B_L2L1_7_3_cons_prod_lock_0, AcquireGreaterEqual, 1)
      aie.dma_bd(%B_L2L1_7_3_cons_buff_1 : memref<64x16xbf16>, 0, 1024) {bd_id = 3 : i32, next_bd_id = 2 : i32}
      aie.use_lock(%B_L2L1_7_3_cons_cons_lock_0, Release, 1)
      aie.next_bd ^bb4
    ^bb6:  // pred: ^bb3
      %2 = aie.dma_start(MM2S, 0, ^bb7, ^bb8)
    ^bb7:  // 2 preds: ^bb6, ^bb7
      aie.use_lock(%C_L1L2_7_3_cons_lock_0, AcquireGreaterEqual, 1)
      aie.dma_bd(%C_L1L2_7_3_buff_0 : memref<128x128xbf16>, 0, 16384) {bd_id = 4 : i32, next_bd_id = 4 : i32}
      aie.use_lock(%C_L1L2_7_3_prod_lock_0, Release, 1)
      aie.next_bd ^bb7
    ^bb8:  // pred: ^bb6
      aie.end
    }
    aie.shim_dma_allocation @B_L3L2_0_shim_alloc(%shim_noc_tile_0_0, MM2S, 1)
    aie.shim_dma_allocation @B_L3L2_1_shim_alloc(%shim_noc_tile_1_0, MM2S, 0)
    %memtile_dma_1_1 = aie.memtile_dma(%mem_tile_1_1) {
      %0 = aie.dma_start(S2MM, 0, ^bb1, ^bb3)
    ^bb1:  // 2 preds: ^bb0, ^bb2
      aie.use_lock(%B_L3L2_1_cons_prod_lock_0, AcquireGreaterEqual, 1)
      aie.dma_bd(%B_L3L2_1_cons_buff_0 : memref<64x16xbf16>, 0, 1024) {bd_id = 0 : i32, next_bd_id = 1 : i32}
      aie.use_lock(%B_L3L2_1_cons_cons_lock_0, Release, 1)
      aie.next_bd ^bb2
    ^bb2:  // pred: ^bb1
      aie.use_lock(%B_L3L2_1_cons_prod_lock_0, AcquireGreaterEqual, 1)
      aie.dma_bd(%B_L3L2_1_cons_buff_1 : memref<64x16xbf16>, 0, 1024) {bd_id = 1 : i32, next_bd_id = 0 : i32}
      aie.use_lock(%B_L3L2_1_cons_cons_lock_0, Release, 1)
      aie.next_bd ^bb1
    ^bb3:  // pred: ^bb0
      %1 = aie.dma_start(MM2S, 0, ^bb4, ^bb6)
    ^bb4:  // 2 preds: ^bb3, ^bb5
      aie.use_lock(%B_L3L2_1_cons_cons_lock_0, AcquireGreaterEqual, 1)
      aie.dma_bd(%B_L3L2_1_cons_buff_0 : memref<64x16xbf16>, 0, 1024) {bd_id = 2 : i32, next_bd_id = 3 : i32}
      aie.use_lock(%B_L3L2_1_cons_prod_lock_0, Release, 1)
      aie.next_bd ^bb5
    ^bb5:  // pred: ^bb4
      aie.use_lock(%B_L3L2_1_cons_cons_lock_0, AcquireGreaterEqual, 1)
      aie.dma_bd(%B_L3L2_1_cons_buff_1 : memref<64x16xbf16>, 0, 1024) {bd_id = 3 : i32, next_bd_id = 2 : i32}
      aie.use_lock(%B_L3L2_1_cons_prod_lock_0, Release, 1)
      aie.next_bd ^bb4
    ^bb6:  // pred: ^bb3
      %2 = aie.dma_start(S2MM, 1, ^bb7, ^bb9)
    ^bb7:  // 2 preds: ^bb6, ^bb8
      aie.use_lock(%C_L2L3_1_prod_lock_0, AcquireGreaterEqual, 1)
      aie.dma_bd(%C_L2L3_1_buff_0 : memref<512x128xbf16>, 0, 16384) {bd_id = 24 : i32, next_bd_id = 25 : i32}
      aie.use_lock(%C_L2L3_1_cons_lock_0, Release, 1)
      aie.next_bd ^bb8
    ^bb8:  // pred: ^bb7
      aie.use_lock(%C_L2L3_1_prod_lock_0, AcquireGreaterEqual, 1)
      aie.dma_bd(%C_L2L3_1_buff_1 : memref<512x128xbf16>, 0, 16384) {bd_id = 25 : i32, next_bd_id = 24 : i32}
      aie.use_lock(%C_L2L3_1_cons_lock_0, Release, 1)
      aie.next_bd ^bb7
    ^bb9:  // pred: ^bb6
      %3 = aie.dma_start(S2MM, 2, ^bb10, ^bb12)
    ^bb10:  // 2 preds: ^bb9, ^bb11
      aie.use_lock(%C_L2L3_1_prod_lock_1, AcquireGreaterEqual, 1)
      aie.dma_bd(%C_L2L3_1_buff_0 : memref<512x128xbf16>, 16384, 16384) {bd_id = 4 : i32, next_bd_id = 5 : i32}
      aie.use_lock(%C_L2L3_1_cons_lock_1, Release, 1)
      aie.next_bd ^bb11
    ^bb11:  // pred: ^bb10
      aie.use_lock(%C_L2L3_1_prod_lock_1, AcquireGreaterEqual, 1)
      aie.dma_bd(%C_L2L3_1_buff_1 : memref<512x128xbf16>, 16384, 16384) {bd_id = 5 : i32, next_bd_id = 4 : i32}
      aie.use_lock(%C_L2L3_1_cons_lock_1, Release, 1)
      aie.next_bd ^bb10
    ^bb12:  // pred: ^bb9
      %4 = aie.dma_start(S2MM, 3, ^bb13, ^bb15)
    ^bb13:  // 2 preds: ^bb12, ^bb14
      aie.use_lock(%C_L2L3_1_prod_lock_2, AcquireGreaterEqual, 1)
      aie.dma_bd(%C_L2L3_1_buff_0 : memref<512x128xbf16>, 32768, 16384) {bd_id = 26 : i32, next_bd_id = 27 : i32}
      aie.use_lock(%C_L2L3_1_cons_lock_2, Release, 1)
      aie.next_bd ^bb14
    ^bb14:  // pred: ^bb13
      aie.use_lock(%C_L2L3_1_prod_lock_2, AcquireGreaterEqual, 1)
      aie.dma_bd(%C_L2L3_1_buff_1 : memref<512x128xbf16>, 32768, 16384) {bd_id = 27 : i32, next_bd_id = 26 : i32}
      aie.use_lock(%C_L2L3_1_cons_lock_2, Release, 1)
      aie.next_bd ^bb13
    ^bb15:  // pred: ^bb12
      %5 = aie.dma_start(S2MM, 4, ^bb16, ^bb18)
    ^bb16:  // 2 preds: ^bb15, ^bb17
      aie.use_lock(%C_L2L3_1_prod_lock_3, AcquireGreaterEqual, 1)
      aie.dma_bd(%C_L2L3_1_buff_0 : memref<512x128xbf16>, 49152, 16384) {bd_id = 6 : i32, next_bd_id = 7 : i32}
      aie.use_lock(%C_L2L3_1_cons_lock_3, Release, 1)
      aie.next_bd ^bb17
    ^bb17:  // pred: ^bb16
      aie.use_lock(%C_L2L3_1_prod_lock_3, AcquireGreaterEqual, 1)
      aie.dma_bd(%C_L2L3_1_buff_1 : memref<512x128xbf16>, 49152, 16384) {bd_id = 7 : i32, next_bd_id = 6 : i32}
      aie.use_lock(%C_L2L3_1_cons_lock_3, Release, 1)
      aie.next_bd ^bb16
    ^bb18:  // pred: ^bb15
      %6 = aie.dma_start(MM2S, 1, ^bb19, ^bb27)
    ^bb19:  // 2 preds: ^bb18, ^bb26
      aie.use_lock(%C_L2L3_1_cons_lock_0, AcquireGreaterEqual, 1)
      aie.dma_bd(%C_L2L3_1_buff_0 : memref<512x128xbf16>, 0, 16384, [<size = 16, stride = 1024>, <size = 8, stride = 8>, <size = 16, stride = 64>, <size = 8, stride = 1>]) {bd_id = 28 : i32, next_bd_id = 29 : i32}
      aie.use_lock(%C_L2L3_1_prod_lock_0, Release, 1)
      aie.next_bd ^bb20
    ^bb20:  // pred: ^bb19
      aie.use_lock(%C_L2L3_1_cons_lock_1, AcquireGreaterEqual, 1)
      aie.dma_bd(%C_L2L3_1_buff_0 : memref<512x128xbf16>, 16384, 16384, [<size = 16, stride = 1024>, <size = 8, stride = 8>, <size = 16, stride = 64>, <size = 8, stride = 1>]) {bd_id = 29 : i32, next_bd_id = 30 : i32}
      aie.use_lock(%C_L2L3_1_prod_lock_1, Release, 1)
      aie.next_bd ^bb21
    ^bb21:  // pred: ^bb20
      aie.use_lock(%C_L2L3_1_cons_lock_2, AcquireGreaterEqual, 1)
      aie.dma_bd(%C_L2L3_1_buff_0 : memref<512x128xbf16>, 32768, 16384, [<size = 16, stride = 1024>, <size = 8, stride = 8>, <size = 16, stride = 64>, <size = 8, stride = 1>]) {bd_id = 30 : i32, next_bd_id = 31 : i32}
      aie.use_lock(%C_L2L3_1_prod_lock_2, Release, 1)
      aie.next_bd ^bb22
    ^bb22:  // pred: ^bb21
      aie.use_lock(%C_L2L3_1_cons_lock_3, AcquireGreaterEqual, 1)
      aie.dma_bd(%C_L2L3_1_buff_0 : memref<512x128xbf16>, 49152, 16384, [<size = 16, stride = 1024>, <size = 8, stride = 8>, <size = 16, stride = 64>, <size = 8, stride = 1>]) {bd_id = 31 : i32, next_bd_id = 32 : i32}
      aie.use_lock(%C_L2L3_1_prod_lock_3, Release, 1)
      aie.next_bd ^bb23
    ^bb23:  // pred: ^bb22
      aie.use_lock(%C_L2L3_1_cons_lock_0, AcquireGreaterEqual, 1)
      aie.dma_bd(%C_L2L3_1_buff_1 : memref<512x128xbf16>, 0, 16384, [<size = 16, stride = 1024>, <size = 8, stride = 8>, <size = 16, stride = 64>, <size = 8, stride = 1>]) {bd_id = 32 : i32, next_bd_id = 33 : i32}
      aie.use_lock(%C_L2L3_1_prod_lock_0, Release, 1)
      aie.next_bd ^bb24
    ^bb24:  // pred: ^bb23
      aie.use_lock(%C_L2L3_1_cons_lock_1, AcquireGreaterEqual, 1)
      aie.dma_bd(%C_L2L3_1_buff_1 : memref<512x128xbf16>, 16384, 16384, [<size = 16, stride = 1024>, <size = 8, stride = 8>, <size = 16, stride = 64>, <size = 8, stride = 1>]) {bd_id = 33 : i32, next_bd_id = 34 : i32}
      aie.use_lock(%C_L2L3_1_prod_lock_1, Release, 1)
      aie.next_bd ^bb25
    ^bb25:  // pred: ^bb24
      aie.use_lock(%C_L2L3_1_cons_lock_2, AcquireGreaterEqual, 1)
      aie.dma_bd(%C_L2L3_1_buff_1 : memref<512x128xbf16>, 32768, 16384, [<size = 16, stride = 1024>, <size = 8, stride = 8>, <size = 16, stride = 64>, <size = 8, stride = 1>]) {bd_id = 34 : i32, next_bd_id = 35 : i32}
      aie.use_lock(%C_L2L3_1_prod_lock_2, Release, 1)
      aie.next_bd ^bb26
    ^bb26:  // pred: ^bb25
      aie.use_lock(%C_L2L3_1_cons_lock_3, AcquireGreaterEqual, 1)
      aie.dma_bd(%C_L2L3_1_buff_1 : memref<512x128xbf16>, 49152, 16384, [<size = 16, stride = 1024>, <size = 8, stride = 8>, <size = 16, stride = 64>, <size = 8, stride = 1>]) {bd_id = 35 : i32, next_bd_id = 28 : i32}
      aie.use_lock(%C_L2L3_1_prod_lock_3, Release, 1)
      aie.next_bd ^bb19
    ^bb27:  // pred: ^bb18
      aie.end
    }
    aie.shim_dma_allocation @B_L3L2_2_shim_alloc(%shim_noc_tile_2_0, MM2S, 1)
    aie.shim_dma_allocation @B_L3L2_3_shim_alloc(%shim_noc_tile_3_0, MM2S, 0)
    %memtile_dma_3_1 = aie.memtile_dma(%mem_tile_3_1) {
      %0 = aie.dma_start(S2MM, 0, ^bb1, ^bb3)
    ^bb1:  // 2 preds: ^bb0, ^bb2
      aie.use_lock(%B_L3L2_3_cons_prod_lock_0, AcquireGreaterEqual, 1)
      aie.dma_bd(%B_L3L2_3_cons_buff_0 : memref<64x16xbf16>, 0, 1024) {bd_id = 0 : i32, next_bd_id = 1 : i32}
      aie.use_lock(%B_L3L2_3_cons_cons_lock_0, Release, 1)
      aie.next_bd ^bb2
    ^bb2:  // pred: ^bb1
      aie.use_lock(%B_L3L2_3_cons_prod_lock_0, AcquireGreaterEqual, 1)
      aie.dma_bd(%B_L3L2_3_cons_buff_1 : memref<64x16xbf16>, 0, 1024) {bd_id = 1 : i32, next_bd_id = 0 : i32}
      aie.use_lock(%B_L3L2_3_cons_cons_lock_0, Release, 1)
      aie.next_bd ^bb1
    ^bb3:  // pred: ^bb0
      %1 = aie.dma_start(MM2S, 0, ^bb4, ^bb6)
    ^bb4:  // 2 preds: ^bb3, ^bb5
      aie.use_lock(%B_L3L2_3_cons_cons_lock_0, AcquireGreaterEqual, 1)
      aie.dma_bd(%B_L3L2_3_cons_buff_0 : memref<64x16xbf16>, 0, 1024) {bd_id = 2 : i32, next_bd_id = 3 : i32}
      aie.use_lock(%B_L3L2_3_cons_prod_lock_0, Release, 1)
      aie.next_bd ^bb5
    ^bb5:  // pred: ^bb4
      aie.use_lock(%B_L3L2_3_cons_cons_lock_0, AcquireGreaterEqual, 1)
      aie.dma_bd(%B_L3L2_3_cons_buff_1 : memref<64x16xbf16>, 0, 1024) {bd_id = 3 : i32, next_bd_id = 2 : i32}
      aie.use_lock(%B_L3L2_3_cons_prod_lock_0, Release, 1)
      aie.next_bd ^bb4
    ^bb6:  // pred: ^bb3
      %2 = aie.dma_start(S2MM, 1, ^bb7, ^bb9)
    ^bb7:  // 2 preds: ^bb6, ^bb8
      aie.use_lock(%C_L2L3_3_prod_lock_0, AcquireGreaterEqual, 1)
      aie.dma_bd(%C_L2L3_3_buff_0 : memref<512x128xbf16>, 0, 16384) {bd_id = 24 : i32, next_bd_id = 25 : i32}
      aie.use_lock(%C_L2L3_3_cons_lock_0, Release, 1)
      aie.next_bd ^bb8
    ^bb8:  // pred: ^bb7
      aie.use_lock(%C_L2L3_3_prod_lock_0, AcquireGreaterEqual, 1)
      aie.dma_bd(%C_L2L3_3_buff_1 : memref<512x128xbf16>, 0, 16384) {bd_id = 25 : i32, next_bd_id = 24 : i32}
      aie.use_lock(%C_L2L3_3_cons_lock_0, Release, 1)
      aie.next_bd ^bb7
    ^bb9:  // pred: ^bb6
      %3 = aie.dma_start(S2MM, 2, ^bb10, ^bb12)
    ^bb10:  // 2 preds: ^bb9, ^bb11
      aie.use_lock(%C_L2L3_3_prod_lock_1, AcquireGreaterEqual, 1)
      aie.dma_bd(%C_L2L3_3_buff_0 : memref<512x128xbf16>, 16384, 16384) {bd_id = 4 : i32, next_bd_id = 5 : i32}
      aie.use_lock(%C_L2L3_3_cons_lock_1, Release, 1)
      aie.next_bd ^bb11
    ^bb11:  // pred: ^bb10
      aie.use_lock(%C_L2L3_3_prod_lock_1, AcquireGreaterEqual, 1)
      aie.dma_bd(%C_L2L3_3_buff_1 : memref<512x128xbf16>, 16384, 16384) {bd_id = 5 : i32, next_bd_id = 4 : i32}
      aie.use_lock(%C_L2L3_3_cons_lock_1, Release, 1)
      aie.next_bd ^bb10
    ^bb12:  // pred: ^bb9
      %4 = aie.dma_start(S2MM, 3, ^bb13, ^bb15)
    ^bb13:  // 2 preds: ^bb12, ^bb14
      aie.use_lock(%C_L2L3_3_prod_lock_2, AcquireGreaterEqual, 1)
      aie.dma_bd(%C_L2L3_3_buff_0 : memref<512x128xbf16>, 32768, 16384) {bd_id = 26 : i32, next_bd_id = 27 : i32}
      aie.use_lock(%C_L2L3_3_cons_lock_2, Release, 1)
      aie.next_bd ^bb14
    ^bb14:  // pred: ^bb13
      aie.use_lock(%C_L2L3_3_prod_lock_2, AcquireGreaterEqual, 1)
      aie.dma_bd(%C_L2L3_3_buff_1 : memref<512x128xbf16>, 32768, 16384) {bd_id = 27 : i32, next_bd_id = 26 : i32}
      aie.use_lock(%C_L2L3_3_cons_lock_2, Release, 1)
      aie.next_bd ^bb13
    ^bb15:  // pred: ^bb12
      %5 = aie.dma_start(S2MM, 4, ^bb16, ^bb18)
    ^bb16:  // 2 preds: ^bb15, ^bb17
      aie.use_lock(%C_L2L3_3_prod_lock_3, AcquireGreaterEqual, 1)
      aie.dma_bd(%C_L2L3_3_buff_0 : memref<512x128xbf16>, 49152, 16384) {bd_id = 6 : i32, next_bd_id = 7 : i32}
      aie.use_lock(%C_L2L3_3_cons_lock_3, Release, 1)
      aie.next_bd ^bb17
    ^bb17:  // pred: ^bb16
      aie.use_lock(%C_L2L3_3_prod_lock_3, AcquireGreaterEqual, 1)
      aie.dma_bd(%C_L2L3_3_buff_1 : memref<512x128xbf16>, 49152, 16384) {bd_id = 7 : i32, next_bd_id = 6 : i32}
      aie.use_lock(%C_L2L3_3_cons_lock_3, Release, 1)
      aie.next_bd ^bb16
    ^bb18:  // pred: ^bb15
      %6 = aie.dma_start(MM2S, 1, ^bb19, ^bb27)
    ^bb19:  // 2 preds: ^bb18, ^bb26
      aie.use_lock(%C_L2L3_3_cons_lock_0, AcquireGreaterEqual, 1)
      aie.dma_bd(%C_L2L3_3_buff_0 : memref<512x128xbf16>, 0, 16384, [<size = 16, stride = 1024>, <size = 8, stride = 8>, <size = 16, stride = 64>, <size = 8, stride = 1>]) {bd_id = 28 : i32, next_bd_id = 29 : i32}
      aie.use_lock(%C_L2L3_3_prod_lock_0, Release, 1)
      aie.next_bd ^bb20
    ^bb20:  // pred: ^bb19
      aie.use_lock(%C_L2L3_3_cons_lock_1, AcquireGreaterEqual, 1)
      aie.dma_bd(%C_L2L3_3_buff_0 : memref<512x128xbf16>, 16384, 16384, [<size = 16, stride = 1024>, <size = 8, stride = 8>, <size = 16, stride = 64>, <size = 8, stride = 1>]) {bd_id = 29 : i32, next_bd_id = 30 : i32}
      aie.use_lock(%C_L2L3_3_prod_lock_1, Release, 1)
      aie.next_bd ^bb21
    ^bb21:  // pred: ^bb20
      aie.use_lock(%C_L2L3_3_cons_lock_2, AcquireGreaterEqual, 1)
      aie.dma_bd(%C_L2L3_3_buff_0 : memref<512x128xbf16>, 32768, 16384, [<size = 16, stride = 1024>, <size = 8, stride = 8>, <size = 16, stride = 64>, <size = 8, stride = 1>]) {bd_id = 30 : i32, next_bd_id = 31 : i32}
      aie.use_lock(%C_L2L3_3_prod_lock_2, Release, 1)
      aie.next_bd ^bb22
    ^bb22:  // pred: ^bb21
      aie.use_lock(%C_L2L3_3_cons_lock_3, AcquireGreaterEqual, 1)
      aie.dma_bd(%C_L2L3_3_buff_0 : memref<512x128xbf16>, 49152, 16384, [<size = 16, stride = 1024>, <size = 8, stride = 8>, <size = 16, stride = 64>, <size = 8, stride = 1>]) {bd_id = 31 : i32, next_bd_id = 32 : i32}
      aie.use_lock(%C_L2L3_3_prod_lock_3, Release, 1)
      aie.next_bd ^bb23
    ^bb23:  // pred: ^bb22
      aie.use_lock(%C_L2L3_3_cons_lock_0, AcquireGreaterEqual, 1)
      aie.dma_bd(%C_L2L3_3_buff_1 : memref<512x128xbf16>, 0, 16384, [<size = 16, stride = 1024>, <size = 8, stride = 8>, <size = 16, stride = 64>, <size = 8, stride = 1>]) {bd_id = 32 : i32, next_bd_id = 33 : i32}
      aie.use_lock(%C_L2L3_3_prod_lock_0, Release, 1)
      aie.next_bd ^bb24
    ^bb24:  // pred: ^bb23
      aie.use_lock(%C_L2L3_3_cons_lock_1, AcquireGreaterEqual, 1)
      aie.dma_bd(%C_L2L3_3_buff_1 : memref<512x128xbf16>, 16384, 16384, [<size = 16, stride = 1024>, <size = 8, stride = 8>, <size = 16, stride = 64>, <size = 8, stride = 1>]) {bd_id = 33 : i32, next_bd_id = 34 : i32}
      aie.use_lock(%C_L2L3_3_prod_lock_1, Release, 1)
      aie.next_bd ^bb25
    ^bb25:  // pred: ^bb24
      aie.use_lock(%C_L2L3_3_cons_lock_2, AcquireGreaterEqual, 1)
      aie.dma_bd(%C_L2L3_3_buff_1 : memref<512x128xbf16>, 32768, 16384, [<size = 16, stride = 1024>, <size = 8, stride = 8>, <size = 16, stride = 64>, <size = 8, stride = 1>]) {bd_id = 34 : i32, next_bd_id = 35 : i32}
      aie.use_lock(%C_L2L3_3_prod_lock_2, Release, 1)
      aie.next_bd ^bb26
    ^bb26:  // pred: ^bb25
      aie.use_lock(%C_L2L3_3_cons_lock_3, AcquireGreaterEqual, 1)
      aie.dma_bd(%C_L2L3_3_buff_1 : memref<512x128xbf16>, 49152, 16384, [<size = 16, stride = 1024>, <size = 8, stride = 8>, <size = 16, stride = 64>, <size = 8, stride = 1>]) {bd_id = 35 : i32, next_bd_id = 28 : i32}
      aie.use_lock(%C_L2L3_3_prod_lock_3, Release, 1)
      aie.next_bd ^bb19
    ^bb27:  // pred: ^bb18
      aie.end
    }
    aie.shim_dma_allocation @B_L3L2_4_shim_alloc(%shim_noc_tile_4_0, MM2S, 1)
    aie.shim_dma_allocation @B_L3L2_5_shim_alloc(%shim_noc_tile_5_0, MM2S, 0)
    %memtile_dma_5_1 = aie.memtile_dma(%mem_tile_5_1) {
      %0 = aie.dma_start(S2MM, 0, ^bb1, ^bb3)
    ^bb1:  // 2 preds: ^bb0, ^bb2
      aie.use_lock(%B_L3L2_5_cons_prod_lock_0, AcquireGreaterEqual, 1)
      aie.dma_bd(%B_L3L2_5_cons_buff_0 : memref<64x16xbf16>, 0, 1024) {bd_id = 0 : i32, next_bd_id = 1 : i32}
      aie.use_lock(%B_L3L2_5_cons_cons_lock_0, Release, 1)
      aie.next_bd ^bb2
    ^bb2:  // pred: ^bb1
      aie.use_lock(%B_L3L2_5_cons_prod_lock_0, AcquireGreaterEqual, 1)
      aie.dma_bd(%B_L3L2_5_cons_buff_1 : memref<64x16xbf16>, 0, 1024) {bd_id = 1 : i32, next_bd_id = 0 : i32}
      aie.use_lock(%B_L3L2_5_cons_cons_lock_0, Release, 1)
      aie.next_bd ^bb1
    ^bb3:  // pred: ^bb0
      %1 = aie.dma_start(MM2S, 0, ^bb4, ^bb6)
    ^bb4:  // 2 preds: ^bb3, ^bb5
      aie.use_lock(%B_L3L2_5_cons_cons_lock_0, AcquireGreaterEqual, 1)
      aie.dma_bd(%B_L3L2_5_cons_buff_0 : memref<64x16xbf16>, 0, 1024) {bd_id = 2 : i32, next_bd_id = 3 : i32}
      aie.use_lock(%B_L3L2_5_cons_prod_lock_0, Release, 1)
      aie.next_bd ^bb5
    ^bb5:  // pred: ^bb4
      aie.use_lock(%B_L3L2_5_cons_cons_lock_0, AcquireGreaterEqual, 1)
      aie.dma_bd(%B_L3L2_5_cons_buff_1 : memref<64x16xbf16>, 0, 1024) {bd_id = 3 : i32, next_bd_id = 2 : i32}
      aie.use_lock(%B_L3L2_5_cons_prod_lock_0, Release, 1)
      aie.next_bd ^bb4
    ^bb6:  // pred: ^bb3
      %2 = aie.dma_start(S2MM, 1, ^bb7, ^bb9)
    ^bb7:  // 2 preds: ^bb6, ^bb8
      aie.use_lock(%C_L2L3_5_prod_lock_0, AcquireGreaterEqual, 1)
      aie.dma_bd(%C_L2L3_5_buff_0 : memref<512x128xbf16>, 0, 16384) {bd_id = 24 : i32, next_bd_id = 25 : i32}
      aie.use_lock(%C_L2L3_5_cons_lock_0, Release, 1)
      aie.next_bd ^bb8
    ^bb8:  // pred: ^bb7
      aie.use_lock(%C_L2L3_5_prod_lock_0, AcquireGreaterEqual, 1)
      aie.dma_bd(%C_L2L3_5_buff_1 : memref<512x128xbf16>, 0, 16384) {bd_id = 25 : i32, next_bd_id = 24 : i32}
      aie.use_lock(%C_L2L3_5_cons_lock_0, Release, 1)
      aie.next_bd ^bb7
    ^bb9:  // pred: ^bb6
      %3 = aie.dma_start(S2MM, 2, ^bb10, ^bb12)
    ^bb10:  // 2 preds: ^bb9, ^bb11
      aie.use_lock(%C_L2L3_5_prod_lock_1, AcquireGreaterEqual, 1)
      aie.dma_bd(%C_L2L3_5_buff_0 : memref<512x128xbf16>, 16384, 16384) {bd_id = 4 : i32, next_bd_id = 5 : i32}
      aie.use_lock(%C_L2L3_5_cons_lock_1, Release, 1)
      aie.next_bd ^bb11
    ^bb11:  // pred: ^bb10
      aie.use_lock(%C_L2L3_5_prod_lock_1, AcquireGreaterEqual, 1)
      aie.dma_bd(%C_L2L3_5_buff_1 : memref<512x128xbf16>, 16384, 16384) {bd_id = 5 : i32, next_bd_id = 4 : i32}
      aie.use_lock(%C_L2L3_5_cons_lock_1, Release, 1)
      aie.next_bd ^bb10
    ^bb12:  // pred: ^bb9
      %4 = aie.dma_start(S2MM, 3, ^bb13, ^bb15)
    ^bb13:  // 2 preds: ^bb12, ^bb14
      aie.use_lock(%C_L2L3_5_prod_lock_2, AcquireGreaterEqual, 1)
      aie.dma_bd(%C_L2L3_5_buff_0 : memref<512x128xbf16>, 32768, 16384) {bd_id = 26 : i32, next_bd_id = 27 : i32}
      aie.use_lock(%C_L2L3_5_cons_lock_2, Release, 1)
      aie.next_bd ^bb14
    ^bb14:  // pred: ^bb13
      aie.use_lock(%C_L2L3_5_prod_lock_2, AcquireGreaterEqual, 1)
      aie.dma_bd(%C_L2L3_5_buff_1 : memref<512x128xbf16>, 32768, 16384) {bd_id = 27 : i32, next_bd_id = 26 : i32}
      aie.use_lock(%C_L2L3_5_cons_lock_2, Release, 1)
      aie.next_bd ^bb13
    ^bb15:  // pred: ^bb12
      %5 = aie.dma_start(S2MM, 4, ^bb16, ^bb18)
    ^bb16:  // 2 preds: ^bb15, ^bb17
      aie.use_lock(%C_L2L3_5_prod_lock_3, AcquireGreaterEqual, 1)
      aie.dma_bd(%C_L2L3_5_buff_0 : memref<512x128xbf16>, 49152, 16384) {bd_id = 6 : i32, next_bd_id = 7 : i32}
      aie.use_lock(%C_L2L3_5_cons_lock_3, Release, 1)
      aie.next_bd ^bb17
    ^bb17:  // pred: ^bb16
      aie.use_lock(%C_L2L3_5_prod_lock_3, AcquireGreaterEqual, 1)
      aie.dma_bd(%C_L2L3_5_buff_1 : memref<512x128xbf16>, 49152, 16384) {bd_id = 7 : i32, next_bd_id = 6 : i32}
      aie.use_lock(%C_L2L3_5_cons_lock_3, Release, 1)
      aie.next_bd ^bb16
    ^bb18:  // pred: ^bb15
      %6 = aie.dma_start(MM2S, 1, ^bb19, ^bb27)
    ^bb19:  // 2 preds: ^bb18, ^bb26
      aie.use_lock(%C_L2L3_5_cons_lock_0, AcquireGreaterEqual, 1)
      aie.dma_bd(%C_L2L3_5_buff_0 : memref<512x128xbf16>, 0, 16384, [<size = 16, stride = 1024>, <size = 8, stride = 8>, <size = 16, stride = 64>, <size = 8, stride = 1>]) {bd_id = 28 : i32, next_bd_id = 29 : i32}
      aie.use_lock(%C_L2L3_5_prod_lock_0, Release, 1)
      aie.next_bd ^bb20
    ^bb20:  // pred: ^bb19
      aie.use_lock(%C_L2L3_5_cons_lock_1, AcquireGreaterEqual, 1)
      aie.dma_bd(%C_L2L3_5_buff_0 : memref<512x128xbf16>, 16384, 16384, [<size = 16, stride = 1024>, <size = 8, stride = 8>, <size = 16, stride = 64>, <size = 8, stride = 1>]) {bd_id = 29 : i32, next_bd_id = 30 : i32}
      aie.use_lock(%C_L2L3_5_prod_lock_1, Release, 1)
      aie.next_bd ^bb21
    ^bb21:  // pred: ^bb20
      aie.use_lock(%C_L2L3_5_cons_lock_2, AcquireGreaterEqual, 1)
      aie.dma_bd(%C_L2L3_5_buff_0 : memref<512x128xbf16>, 32768, 16384, [<size = 16, stride = 1024>, <size = 8, stride = 8>, <size = 16, stride = 64>, <size = 8, stride = 1>]) {bd_id = 30 : i32, next_bd_id = 31 : i32}
      aie.use_lock(%C_L2L3_5_prod_lock_2, Release, 1)
      aie.next_bd ^bb22
    ^bb22:  // pred: ^bb21
      aie.use_lock(%C_L2L3_5_cons_lock_3, AcquireGreaterEqual, 1)
      aie.dma_bd(%C_L2L3_5_buff_0 : memref<512x128xbf16>, 49152, 16384, [<size = 16, stride = 1024>, <size = 8, stride = 8>, <size = 16, stride = 64>, <size = 8, stride = 1>]) {bd_id = 31 : i32, next_bd_id = 32 : i32}
      aie.use_lock(%C_L2L3_5_prod_lock_3, Release, 1)
      aie.next_bd ^bb23
    ^bb23:  // pred: ^bb22
      aie.use_lock(%C_L2L3_5_cons_lock_0, AcquireGreaterEqual, 1)
      aie.dma_bd(%C_L2L3_5_buff_1 : memref<512x128xbf16>, 0, 16384, [<size = 16, stride = 1024>, <size = 8, stride = 8>, <size = 16, stride = 64>, <size = 8, stride = 1>]) {bd_id = 32 : i32, next_bd_id = 33 : i32}
      aie.use_lock(%C_L2L3_5_prod_lock_0, Release, 1)
      aie.next_bd ^bb24
    ^bb24:  // pred: ^bb23
      aie.use_lock(%C_L2L3_5_cons_lock_1, AcquireGreaterEqual, 1)
      aie.dma_bd(%C_L2L3_5_buff_1 : memref<512x128xbf16>, 16384, 16384, [<size = 16, stride = 1024>, <size = 8, stride = 8>, <size = 16, stride = 64>, <size = 8, stride = 1>]) {bd_id = 33 : i32, next_bd_id = 34 : i32}
      aie.use_lock(%C_L2L3_5_prod_lock_1, Release, 1)
      aie.next_bd ^bb25
    ^bb25:  // pred: ^bb24
      aie.use_lock(%C_L2L3_5_cons_lock_2, AcquireGreaterEqual, 1)
      aie.dma_bd(%C_L2L3_5_buff_1 : memref<512x128xbf16>, 32768, 16384, [<size = 16, stride = 1024>, <size = 8, stride = 8>, <size = 16, stride = 64>, <size = 8, stride = 1>]) {bd_id = 34 : i32, next_bd_id = 35 : i32}
      aie.use_lock(%C_L2L3_5_prod_lock_2, Release, 1)
      aie.next_bd ^bb26
    ^bb26:  // pred: ^bb25
      aie.use_lock(%C_L2L3_5_cons_lock_3, AcquireGreaterEqual, 1)
      aie.dma_bd(%C_L2L3_5_buff_1 : memref<512x128xbf16>, 49152, 16384, [<size = 16, stride = 1024>, <size = 8, stride = 8>, <size = 16, stride = 64>, <size = 8, stride = 1>]) {bd_id = 35 : i32, next_bd_id = 28 : i32}
      aie.use_lock(%C_L2L3_5_prod_lock_3, Release, 1)
      aie.next_bd ^bb19
    ^bb27:  // pred: ^bb18
      aie.end
    }
    aie.shim_dma_allocation @B_L3L2_6_shim_alloc(%shim_noc_tile_6_0, MM2S, 1)
    aie.shim_dma_allocation @B_L3L2_7_shim_alloc(%shim_noc_tile_7_0, MM2S, 0)
    %memtile_dma_7_1 = aie.memtile_dma(%mem_tile_7_1) {
      %0 = aie.dma_start(S2MM, 0, ^bb1, ^bb3)
    ^bb1:  // 2 preds: ^bb0, ^bb2
      aie.use_lock(%B_L3L2_7_cons_prod_lock_0, AcquireGreaterEqual, 1)
      aie.dma_bd(%B_L3L2_7_cons_buff_0 : memref<64x16xbf16>, 0, 1024) {bd_id = 0 : i32, next_bd_id = 1 : i32}
      aie.use_lock(%B_L3L2_7_cons_cons_lock_0, Release, 1)
      aie.next_bd ^bb2
    ^bb2:  // pred: ^bb1
      aie.use_lock(%B_L3L2_7_cons_prod_lock_0, AcquireGreaterEqual, 1)
      aie.dma_bd(%B_L3L2_7_cons_buff_1 : memref<64x16xbf16>, 0, 1024) {bd_id = 1 : i32, next_bd_id = 0 : i32}
      aie.use_lock(%B_L3L2_7_cons_cons_lock_0, Release, 1)
      aie.next_bd ^bb1
    ^bb3:  // pred: ^bb0
      %1 = aie.dma_start(MM2S, 0, ^bb4, ^bb6)
    ^bb4:  // 2 preds: ^bb3, ^bb5
      aie.use_lock(%B_L3L2_7_cons_cons_lock_0, AcquireGreaterEqual, 1)
      aie.dma_bd(%B_L3L2_7_cons_buff_0 : memref<64x16xbf16>, 0, 1024) {bd_id = 2 : i32, next_bd_id = 3 : i32}
      aie.use_lock(%B_L3L2_7_cons_prod_lock_0, Release, 1)
      aie.next_bd ^bb5
    ^bb5:  // pred: ^bb4
      aie.use_lock(%B_L3L2_7_cons_cons_lock_0, AcquireGreaterEqual, 1)
      aie.dma_bd(%B_L3L2_7_cons_buff_1 : memref<64x16xbf16>, 0, 1024) {bd_id = 3 : i32, next_bd_id = 2 : i32}
      aie.use_lock(%B_L3L2_7_cons_prod_lock_0, Release, 1)
      aie.next_bd ^bb4
    ^bb6:  // pred: ^bb3
      %2 = aie.dma_start(S2MM, 1, ^bb7, ^bb9)
    ^bb7:  // 2 preds: ^bb6, ^bb8
      aie.use_lock(%C_L2L3_7_prod_lock_0, AcquireGreaterEqual, 1)
      aie.dma_bd(%C_L2L3_7_buff_0 : memref<512x128xbf16>, 0, 16384) {bd_id = 24 : i32, next_bd_id = 25 : i32}
      aie.use_lock(%C_L2L3_7_cons_lock_0, Release, 1)
      aie.next_bd ^bb8
    ^bb8:  // pred: ^bb7
      aie.use_lock(%C_L2L3_7_prod_lock_0, AcquireGreaterEqual, 1)
      aie.dma_bd(%C_L2L3_7_buff_1 : memref<512x128xbf16>, 0, 16384) {bd_id = 25 : i32, next_bd_id = 24 : i32}
      aie.use_lock(%C_L2L3_7_cons_lock_0, Release, 1)
      aie.next_bd ^bb7
    ^bb9:  // pred: ^bb6
      %3 = aie.dma_start(S2MM, 2, ^bb10, ^bb12)
    ^bb10:  // 2 preds: ^bb9, ^bb11
      aie.use_lock(%C_L2L3_7_prod_lock_1, AcquireGreaterEqual, 1)
      aie.dma_bd(%C_L2L3_7_buff_0 : memref<512x128xbf16>, 16384, 16384) {bd_id = 4 : i32, next_bd_id = 5 : i32}
      aie.use_lock(%C_L2L3_7_cons_lock_1, Release, 1)
      aie.next_bd ^bb11
    ^bb11:  // pred: ^bb10
      aie.use_lock(%C_L2L3_7_prod_lock_1, AcquireGreaterEqual, 1)
      aie.dma_bd(%C_L2L3_7_buff_1 : memref<512x128xbf16>, 16384, 16384) {bd_id = 5 : i32, next_bd_id = 4 : i32}
      aie.use_lock(%C_L2L3_7_cons_lock_1, Release, 1)
      aie.next_bd ^bb10
    ^bb12:  // pred: ^bb9
      %4 = aie.dma_start(S2MM, 3, ^bb13, ^bb15)
    ^bb13:  // 2 preds: ^bb12, ^bb14
      aie.use_lock(%C_L2L3_7_prod_lock_2, AcquireGreaterEqual, 1)
      aie.dma_bd(%C_L2L3_7_buff_0 : memref<512x128xbf16>, 32768, 16384) {bd_id = 26 : i32, next_bd_id = 27 : i32}
      aie.use_lock(%C_L2L3_7_cons_lock_2, Release, 1)
      aie.next_bd ^bb14
    ^bb14:  // pred: ^bb13
      aie.use_lock(%C_L2L3_7_prod_lock_2, AcquireGreaterEqual, 1)
      aie.dma_bd(%C_L2L3_7_buff_1 : memref<512x128xbf16>, 32768, 16384) {bd_id = 27 : i32, next_bd_id = 26 : i32}
      aie.use_lock(%C_L2L3_7_cons_lock_2, Release, 1)
      aie.next_bd ^bb13
    ^bb15:  // pred: ^bb12
      %5 = aie.dma_start(S2MM, 4, ^bb16, ^bb18)
    ^bb16:  // 2 preds: ^bb15, ^bb17
      aie.use_lock(%C_L2L3_7_prod_lock_3, AcquireGreaterEqual, 1)
      aie.dma_bd(%C_L2L3_7_buff_0 : memref<512x128xbf16>, 49152, 16384) {bd_id = 6 : i32, next_bd_id = 7 : i32}
      aie.use_lock(%C_L2L3_7_cons_lock_3, Release, 1)
      aie.next_bd ^bb17
    ^bb17:  // pred: ^bb16
      aie.use_lock(%C_L2L3_7_prod_lock_3, AcquireGreaterEqual, 1)
      aie.dma_bd(%C_L2L3_7_buff_1 : memref<512x128xbf16>, 49152, 16384) {bd_id = 7 : i32, next_bd_id = 6 : i32}
      aie.use_lock(%C_L2L3_7_cons_lock_3, Release, 1)
      aie.next_bd ^bb16
    ^bb18:  // pred: ^bb15
      %6 = aie.dma_start(MM2S, 1, ^bb19, ^bb27)
    ^bb19:  // 2 preds: ^bb18, ^bb26
      aie.use_lock(%C_L2L3_7_cons_lock_0, AcquireGreaterEqual, 1)
      aie.dma_bd(%C_L2L3_7_buff_0 : memref<512x128xbf16>, 0, 16384, [<size = 16, stride = 1024>, <size = 8, stride = 8>, <size = 16, stride = 64>, <size = 8, stride = 1>]) {bd_id = 28 : i32, next_bd_id = 29 : i32}
      aie.use_lock(%C_L2L3_7_prod_lock_0, Release, 1)
      aie.next_bd ^bb20
    ^bb20:  // pred: ^bb19
      aie.use_lock(%C_L2L3_7_cons_lock_1, AcquireGreaterEqual, 1)
      aie.dma_bd(%C_L2L3_7_buff_0 : memref<512x128xbf16>, 16384, 16384, [<size = 16, stride = 1024>, <size = 8, stride = 8>, <size = 16, stride = 64>, <size = 8, stride = 1>]) {bd_id = 29 : i32, next_bd_id = 30 : i32}
      aie.use_lock(%C_L2L3_7_prod_lock_1, Release, 1)
      aie.next_bd ^bb21
    ^bb21:  // pred: ^bb20
      aie.use_lock(%C_L2L3_7_cons_lock_2, AcquireGreaterEqual, 1)
      aie.dma_bd(%C_L2L3_7_buff_0 : memref<512x128xbf16>, 32768, 16384, [<size = 16, stride = 1024>, <size = 8, stride = 8>, <size = 16, stride = 64>, <size = 8, stride = 1>]) {bd_id = 30 : i32, next_bd_id = 31 : i32}
      aie.use_lock(%C_L2L3_7_prod_lock_2, Release, 1)
      aie.next_bd ^bb22
    ^bb22:  // pred: ^bb21
      aie.use_lock(%C_L2L3_7_cons_lock_3, AcquireGreaterEqual, 1)
      aie.dma_bd(%C_L2L3_7_buff_0 : memref<512x128xbf16>, 49152, 16384, [<size = 16, stride = 1024>, <size = 8, stride = 8>, <size = 16, stride = 64>, <size = 8, stride = 1>]) {bd_id = 31 : i32, next_bd_id = 32 : i32}
      aie.use_lock(%C_L2L3_7_prod_lock_3, Release, 1)
      aie.next_bd ^bb23
    ^bb23:  // pred: ^bb22
      aie.use_lock(%C_L2L3_7_cons_lock_0, AcquireGreaterEqual, 1)
      aie.dma_bd(%C_L2L3_7_buff_1 : memref<512x128xbf16>, 0, 16384, [<size = 16, stride = 1024>, <size = 8, stride = 8>, <size = 16, stride = 64>, <size = 8, stride = 1>]) {bd_id = 32 : i32, next_bd_id = 33 : i32}
      aie.use_lock(%C_L2L3_7_prod_lock_0, Release, 1)
      aie.next_bd ^bb24
    ^bb24:  // pred: ^bb23
      aie.use_lock(%C_L2L3_7_cons_lock_1, AcquireGreaterEqual, 1)
      aie.dma_bd(%C_L2L3_7_buff_1 : memref<512x128xbf16>, 16384, 16384, [<size = 16, stride = 1024>, <size = 8, stride = 8>, <size = 16, stride = 64>, <size = 8, stride = 1>]) {bd_id = 33 : i32, next_bd_id = 34 : i32}
      aie.use_lock(%C_L2L3_7_prod_lock_1, Release, 1)
      aie.next_bd ^bb25
    ^bb25:  // pred: ^bb24
      aie.use_lock(%C_L2L3_7_cons_lock_2, AcquireGreaterEqual, 1)
      aie.dma_bd(%C_L2L3_7_buff_1 : memref<512x128xbf16>, 32768, 16384, [<size = 16, stride = 1024>, <size = 8, stride = 8>, <size = 16, stride = 64>, <size = 8, stride = 1>]) {bd_id = 34 : i32, next_bd_id = 35 : i32}
      aie.use_lock(%C_L2L3_7_prod_lock_2, Release, 1)
      aie.next_bd ^bb26
    ^bb26:  // pred: ^bb25
      aie.use_lock(%C_L2L3_7_cons_lock_3, AcquireGreaterEqual, 1)
      aie.dma_bd(%C_L2L3_7_buff_1 : memref<512x128xbf16>, 49152, 16384, [<size = 16, stride = 1024>, <size = 8, stride = 8>, <size = 16, stride = 64>, <size = 8, stride = 1>]) {bd_id = 35 : i32, next_bd_id = 28 : i32}
      aie.use_lock(%C_L2L3_7_prod_lock_3, Release, 1)
      aie.next_bd ^bb19
    ^bb27:  // pred: ^bb18
      aie.end
    }
    aie.shim_dma_allocation @C_L2L3_0_shim_alloc(%shim_noc_tile_0_0, S2MM, 0)
    aie.shim_dma_allocation @C_L2L3_1_shim_alloc(%shim_noc_tile_1_0, S2MM, 0)
    aie.shim_dma_allocation @C_L2L3_2_shim_alloc(%shim_noc_tile_2_0, S2MM, 0)
    aie.shim_dma_allocation @C_L2L3_3_shim_alloc(%shim_noc_tile_3_0, S2MM, 0)
    aie.shim_dma_allocation @C_L2L3_4_shim_alloc(%shim_noc_tile_4_0, S2MM, 0)
    aie.shim_dma_allocation @C_L2L3_5_shim_alloc(%shim_noc_tile_5_0, S2MM, 0)
    aie.shim_dma_allocation @C_L2L3_6_shim_alloc(%shim_noc_tile_6_0, S2MM, 0)
    aie.shim_dma_allocation @C_L2L3_7_shim_alloc(%shim_noc_tile_7_0, S2MM, 0)
    aie.packet_flow(15) {
      aie.packet_source<%shim_noc_tile_0_0, TileControl : 0>
      aie.packet_dest<%shim_noc_tile_0_0, South : 0>
    } {keep_pkt_header = true, priority_route = true}
    aie.packet_flow(15) {
      aie.packet_source<%shim_noc_tile_1_0, TileControl : 0>
      aie.packet_dest<%shim_noc_tile_1_0, South : 0>
    } {keep_pkt_header = true, priority_route = true}
    aie.packet_flow(15) {
      aie.packet_source<%shim_noc_tile_2_0, TileControl : 0>
      aie.packet_dest<%shim_noc_tile_2_0, South : 0>
    } {keep_pkt_header = true, priority_route = true}
    aie.packet_flow(15) {
      aie.packet_source<%shim_noc_tile_3_0, TileControl : 0>
      aie.packet_dest<%shim_noc_tile_3_0, South : 0>
    } {keep_pkt_header = true, priority_route = true}
    aie.packet_flow(15) {
      aie.packet_source<%shim_noc_tile_4_0, TileControl : 0>
      aie.packet_dest<%shim_noc_tile_4_0, South : 0>
    } {keep_pkt_header = true, priority_route = true}
    aie.packet_flow(15) {
      aie.packet_source<%shim_noc_tile_5_0, TileControl : 0>
      aie.packet_dest<%shim_noc_tile_5_0, South : 0>
    } {keep_pkt_header = true, priority_route = true}
    aie.packet_flow(15) {
      aie.packet_source<%shim_noc_tile_6_0, TileControl : 0>
      aie.packet_dest<%shim_noc_tile_6_0, South : 0>
    } {keep_pkt_header = true, priority_route = true}
    aie.packet_flow(15) {
      aie.packet_source<%shim_noc_tile_7_0, TileControl : 0>
      aie.packet_dest<%shim_noc_tile_7_0, South : 0>
    } {keep_pkt_header = true, priority_route = true}
  }
}
